models/presentation_models/task1.tflite (tflite, 561288 bytes, 10 tensors)

sequential_1/conv1d_3/BiasAdd/ReadVariableOp f4 [32]
-0.12617092 -0.3271448 -0.099316336 -0.38532275 -0.34909728 -0.14246249 -0.15744795 0.014303373
0.15218969 -0.117257185 -0.41049293 -0.039697703 -0.094153464 0.063379765 -0.2461058 -0.3541559
-0.3290799 0.2098955 -0.3516831 -0.25651982 0.0023735454 0.026123637 -0.124872185 -0.35714558
-0.31530362 -0.4664377 -0.44385308 -0.22052638 -0.06085005 0.0633925 -0.37565055 -0.37320417
00000000: f332 01be 867f a7be 5d66 cbbd 0649 c5be
00000010: e1bc b2be b0e1 11be 093a 21be b258 6a3c
00000020: 9dd7 1b3e 8924 f0bd 212c d2be 0f9a 22bd
00000030: 88d3 c0bd 40cd 813d 2903 7cbe ec53 b5be
00000040: 297d a8be d9ee 563e cf0f b4be 9156 83be
00000050: 7c8d 1b3b 3d01 d63c fdbc ffbd c9db b6be
00000060: 7a6f a1be ecd0 eebe b640 e3be abd1 61be
00000070: e73d 79bd edd3 813d 4555 c0be 9e14 bfbe

sequential_1/conv1d_4/BiasAdd/ReadVariableOp f4 [64]
-0.15639782 -0.081152745 -0.28977883 -0.11913965 -0.021275396 -0.39905062 -0.06599573 0.10270634
-0.34543788 -0.07728431 0.16566198 0.025875453 -0.07959159 -0.18857458 -0.11265203 -0.020461436
-0.19907117 -0.11042653 -0.08101245 -0.32472506 -0.1827611 0.26484314 -0.19240807 -0.3512566
-0.0700648 -0.17126873 0.31310192 -0.13898063 -0.05691424 -0.20061667 -0.11553213 -0.2959034
-0.3045358 -0.3163813 0.15313445 -0.21985619 -0.09802534 -0.07962712 -0.15626939 -0.108502544
-0.009947818 0.028717132 -0.21805523 0.068227135 -0.12536106 -0.052917354 -0.009274625 0.031499688
-0.1687329 -0.07924011 -0.080015786 -0.038047638 -0.06918814 -0.0877569 -0.38440034 -0.13874193
-0.12505722 -0.118264 -0.28994578 -0.061056476 -0.060527015 -0.17619188 -0.34804264 -0.21397968
00000000: c026 20be 6933 a6bd e45d 94be 7dff f3bd
00000010: bd49 aebc 5d50 ccbe c528 87bd b457 d23d
00000020: 3cdd b0be 3c47 9ebd 4ba3 293e c2f8 d33c
00000030: ea00 a3bd b219 41be 1cb6 e6bd be9e a7bc
00000040: 50d9 4bbe 4e27 e2bd dbe9 a5bd 5d42 a6be
00000050: ba25 3bbe 8599 873e 9f06 45be e8d7 b3be
00000060: 227e 8fbd 1261 2fbe e54e a03e f050 0ebe
00000070: e81e 69bd 756e 4dbe 1c9c ecbd a780 97be
00000080: 1eec 9bbe bbfc a1be 47cf 1c3e fb21 61be
00000090: 82c1 c8bd 8b13 a3bd 1505 20be 9536 debd
000000a0: 2cfc 22bc 3140 eb3c df49 5fbe abba 8b3d
000000b0: a65e 00be debf 58bd 99f4 17bc d105 013d
000000c0: 51c8 2cbe a448 a2bd 51df a3bd d7d7 1bbd
000000d0: 83b2 8dbd e4b9 b3bd 1fd0 c4be 5d12 0ebe
000000e0: 000f 00be 6534 f2bd c673 94be 5b16 7abd
000000f0: 2deb 77bd a56b 34be a532 b2be 7d1d 5bbe

sequential_1/conv1d_5/BiasAdd/ReadVariableOp f4 [128]
-0.17587505 0.025494628 0.009077628 0.01347191 -0.0568148 -0.22120592 -0.42269093 -0.2668543
-0.3809186 -0.038285807 -0.19081743 -0.18942827 -0.21194988 0.0012470118 -0.43619707 0.198356
-0.0701996 -0.26554072 -0.26859474 -0.052355636 0.06595107 -0.331841 -0.06797885 -0.07240906
-0.06980979 0.0034008056 -0.25407094 0.04931594 -0.079013735 -0.5224321 0.12739529 -0.10702014
-0.027250085 -0.023114188 0.1852388 -0.16402835 -0.18742514 0.15356144 -0.0068582227 -0.1411859
0.17959414 -0.27256244 0.23960017 -0.00053519855 -0.18939713 0.070578076 -0.044209376 -0.07061698
-0.34977388 -0.34157524 0.13380452 -0.060843904 -0.20332988 -0.5497679 -0.37387025 0.075066246
0.18137334 -0.1993487 -0.06236417 -0.062209833 -0.24901478 -0.24013239 0.07217432 -0.32869524
-0.24328582 0.008256913 -0.054018416 0.15585145 -0.17110765 -0.034127295 -0.04026761 -0.12418072
0.15075612 -0.14132746 -0.08609256 0.12697753 -0.12428719 0.050547194 -0.31965068 0.031417966
-0.14950119 0.01550715 -0.28619182 -0.12313296 0.1146938 -0.36191568 -0.19416882 -0.2657961
-0.17598373 0.09406103 -0.3543665 0.040736273 -0.11516768 -0.07244452 -0.39623037 -0.23823334
-0.057998322 -0.0549515 0.009572087 -0.051703066 -0.101660736 0.20643765 -0.086828604 0.1938011
0.20641129 -0.3248413 -0.2386188 -0.2529028 -0.08257158 0.16024004 -0.03236064 0.07529895
0.0099002 -0.07349285 -0.35464036 -0.06149018 -0.26252124 -0.027897192 0.0411215 0.38114297
-0.09695828 0.04391517 0.16471034 -0.3092435 -0.39340732 -0.051146153 -0.41774258 -0.37590566
00000000: 9718 34be 1cda d03c 55ba 143c 49b9 5c3c
00000010: a3b6 68bd ce83 62be f26a d8be 20a1 88be
00000020: c307 c3be 94d1 1cbd a565 43be 7cf9 41be
00000030: 6409 59be c672 a33a 3955 dfbe d61d 4b3e
00000040: cfc4 8fbd f4f4 87be 4085 89be dd72 56bd
00000050: 5b11 873d 10e7 a9be 7f38 8bbd 344b 94bd
00000060: 6ff8 8ebd 0de0 5e3b 9615 82be 83ff 493d
00000070: f4d1 a1bd 1cbe 05bf e973 023e 602d dbbd
00000080: 923b dfbc f759 bdbc 3daf 3d3e 0cf7 27be
00000090: 60ec 3fbe 363f 1d3e f1ba e0bb 0993 10be
000000a0: 87e7 373e 4e8d 8bbe bf59 753e 914c 0cba
000000b0: 52f1 41be 3d8b 903d e414 35bd a39f 90bd
000000c0: 9015 b3be f3e2 aebe 0d04 093e 7537 79bd
000000d0: b535 50be 97bd 0cbf ec6b bfbe 55bc 993d
000000e0: efb9 393e 1122 4cbe 9271 7fbd bdcf 7ebd
000000f0: bbfd 7ebe 44e5 75be 21d0 933d be4a a8be
00000100: eb1f 79be 0148 073c 6a42 5dbd 8697 1f3e
00000110: d836 2fbe 10c9 0bbd a6ef 24bd 7652 febd
00000120: d05f 1a3e 25b8 10be 4c51 b0bd 6606 023e
00000130: 488a febd 930a 4f3d 41a9 a3be 20b0 003d
00000140: d716 19be b411 7e3c bc87 92be 222d fcbd
00000150: 95e4 ea3d 034d b9be 31d4 46be 6d16 88be
00000160: 1435 34be 12a3 c03d 876f b5be 14db 263d
00000170: 08dd ebbd cb5d 94bd b5de cabe 71f3 73be
00000180: a68f 6dbd d314 61bd 3ed4 1c3c 98c6 53bd
00000190: 8133 d0bd 6464 533e 32d3 b1bd cc73 463e
000001a0: 7b5d 533e 9951 a6be 7d58 74be 7a7c 81be
000001b0: 4a1b a9bd f715 243e 978c 04bd 5636 9a3d
000001c0: 7334 223c 6b83 96bd 6c93 b5be 21dd 7bbd
000001d0: 2f69 86be a788 e4bc 056f 283d 2c25 c33e
000001e0: 1092 c6bd 65e0 333d d4a9 283e 2a55 9ebe
000001f0: af6c c9be a17e 51bd 5be2 d5be b576 c0be

sequential_1/conv1d_3/Conv1D f4 [32, 1, 3, 3]
0.2802915 -0.2602881 -0.34509686 0.37843153 -0.12179605 -0.005053875 -0.53671885 0.34427238
0.17100137 0.33315742 0.003022378 0.4177587 0.32060403 0.19397686 -0.3193081 -0.45883965
0.22702783 -0.3659541 0.043940965 -0.011417812 0.2559238 0.12780866 0.25434926 0.14123376
-0.28785324 0.3019056 0.15633015 0.123686455 -0.13424407 -0.24639322 0.11236703 0.11869723
-0.21635416 -0.27027598 0.50079757 0.01856112 -0.18463391 0.43438697 -0.18253195 -0.0197841
0.1393008 -0.07959356 0.16066219 -0.2249923 0.15472637 0.16313514 0.059437875 -0.053795096
0.3481853 0.26342428 -0.12827803 0.36774924 0.033505328 -0.27209714 -0.23136708 -0.29065144
-0.25489986 -0.35025167 -0.23719113 -0.39332056 0.03390489 0.37707967 -0.18086255 -0.66226643
-0.30811325 0.43865773 0.033434976 -0.19737792 -0.17392644 0.79663503 0.527771 -0.2511351
-0.23187052 0.18131405 -0.1643571 -0.07767134 0.32441798 -0.13343634 0.031308614 0.045104936
-0.4520841 0.25796315 0.3840459 0.1106631 -0.17666492 0.45588562 0.19664368 0.14374249
-0.28799474 -0.29402658 -0.24983111 0.15911421 0.060350616 -0.21322022 -0.25861767 0.06460592
0.043779932 -0.2988831 -0.07862101 0.34576303 0.37477788 0.26860058 -0.06644822 0.15210627
0.056477442 -0.17753178 -0.5543545 -0.26355156 0.29717764 -0.08286751 -0.22283849 0.5502046
0.31915417 0.17804153 -0.86452067 -0.13168807 0.07926009 0.51119226 -0.35213506 0.28318575
0.048768185 0.09341148 -0.053530734 -0.05908784 0.30843815 -0.18201128 0.37070364 0.30641735
-0.3459963 0.12121082 0.5640416 -0.13862833 0.3868372 0.60768574 0.0039436473 -0.3329063
0.21549778 0.2565254 -0.18246391 0.08984883 -0.24398917 0.45697743 -0.14265111 0.14040965
-0.1440163 0.575639 -0.5282349 0.09273097 0.09399349 -0.1812125 -0.043655045 -0.21954407
0.31204337 0.59667355 -0.15090452 -0.20206863 -0.24323471 0.35279033 -0.3415287 -0.30801156
-0.045389626 0.39059266 -0.13909964 -0.18822934 -0.045264523 0.0361422 -0.16698667 0.0661046
0.14774577 -0.08318348 0.057069927 0.29655957 -0.027658753 -0.051016513 0.40568146 0.059434447
-0.1931889 0.24288431 -0.24445927 -0.07325147 0.04995893 0.7043907 -0.108631924 -0.0990104
0.8799437 0.07903151 0.031717267 0.7319044 -0.01646175 -0.5997476 0.19040425 -0.6256902
0.22181462 0.07288565 -0.07307078 0.300983 -0.15608503 0.62126803 -0.036571447 0.25237194
-0.34855992 -0.010643207 -0.32364 -0.3621024 -0.15918782 -0.2908165 -0.17126457 0.13741428
-0.1958347 -0.31102735 -0.01748021 -0.054857932 0.22405972 -0.124413766 -0.083593965 0.2252473
0.33427757 0.13148253 0.33361927 -0.08223016 -0.028138444 -0.3192647 -0.19706538 -0.15853141
0.1023436 0.28381208 -0.018013122 0.051207505 0.03966767 0.21339467 -0.30337948 0.1973686
-0.30262616 -0.19377474 0.0030754106 -0.21767615 0.4270543 -0.13440108 -0.15047523 0.25490206
0.026052963 -0.255875 0.16098306 0.26266894 0.13772 0.23153096 0.27982306 0.06711335
-0.10996493 0.047296043 0.30987957 0.19332619 -0.52737975 0.25981343 0.06306297 -0.006842521
00000000: 5e82 8f3e 7b44 85be 89b0 b0be c7c1 c13e
00000010: 3570 f9bd fa9a a5bb 6866 09bf 7844 b03e
00000020: fc1a 2f3e 9c93 aa3e 1713 463b 78e4 d53e
00000030: 3626 a43e dfa1 463e 5a7c a3be 08ed eabe
00000040: fc79 683e 565e bbbe 71fb 333d c611 3bbc
00000050: 7208 833e 46e0 023e 113a 823e 959f 103e
00000060: 8061 93be 5f93 9a3e 0315 203e 534f fd3d
00000070: 4777 09be 814e 7cbe af20 e63d 8917 f33d
00000080: f28b 5dbe 9d61 8abe 4534 003f 7d0d 983c
00000090: ac10 3dbe f867 de3e a8e9 3abe 4412 a2bc
000000a0: dea4 0e3e f301 a3bd a184 243e 6264 66be
000000b0: 9770 1e3e e60c 273e 2175 733d 3f58 5cbd
000000c0: 5845 b23e 8cdf 863e 515b 03be a149 bc3e
000000d0: e23c 093d 5150 8bbe 7eeb 6cbe 44d0 94be
000000e0: 3c82 82be 3054 b3be 3be2 72be 5061 c9be
000000f0: dbdf 0a3d 9610 c13e 0834 39be 4b8a 29bf
00000100: 05c1 9dbe bf97 e03e 1df3 083d 701d 4abe
00000110: c619 32be 46f0 4b3f 001c 073f c894 80be
00000120: 776f 6dbe 64aa 393e 3a4d 28be 2712 9fbd
00000130: 1d1a a63e 89a3 08be 763d 003d f4bf 383d
00000140: 9177 e7be bf13 843e aaa1 c43e 56a3 e23d
00000150: a6e7 34be d769 e93e f65c 493e 3b31 133e
00000160: 0c74 93be a78a 96be bad3 7fbe d6ee 223e
00000170: 3532 773d 6756 5abe 8969 84be 1c50 843d
00000180: 9652 333d 3507 99be 0d04 a1bd da07 b13e
00000190: e3e2 bf3e 0486 893e 0116 88bd bfc1 1b3e
000001a0: e454 673d e4ca 35be 2dea 0dbf 3bf0 86be
000001b0: ab27 983e 71b6 a9bd c62f 64be 35da 0c3f
000001c0: 2d68 a33e 8550 363e 3a51 5dbf 3dd9 06be
000001d0: 1d53 a23d 7fdd 023f 0c4b b4be b9fd 903e
000001e0: 26c1 473d 854e bf3d 0b43 5bbd 1706 72bd
000001f0: 9beb 9d3e 2a61 3abe decc bd3e bce2 9c3e
00000200: 6d26 b1be 613d f83d 0865 103f 96f4 0dbe
00000210: 870f c63e 4b91 1b3f b639 813b b272 aabe
00000220: 73ab 5c3e 4c57 833e d2d7 3abe aa02 b83d
00000230: 4cd8 79be f2f8 e93e 2213 12be 8cc7 0f3e
00000240: 0279 13be 145d 133f 673a 07bf bce9 bd3d
00000250: a97f c03d c58f 39be a2cf 32bd 29d0 60be
00000260: 26c4 9f3e 99bf 183f b786 1abe 14eb 4ebe
00000270: 8512 79be efa0 b43e dadc aebe b1b3 9dbe
00000280: 79ea 39bd c3fb c73e 2370 0ebe 31bf 40be
00000290: 4b67 39bd d809 143d 8efe 2abe d961 873d
000002a0: ab4a 173e 1a5c aabd 28c2 693d a8d6 973e
000002b0: 9c94 e2bc b1f6 50bd 7bb5 cf3e 8971 733d
000002c0: 50d3 45be aab6 783e 8853 7abe de04 96bd
000002d0: bca1 4c3d f352 343f 6a7a debd f7c5 cabd
000002e0: fe43 613f 46db a13d f7e9 013d 165e 3b3f
000002f0: cbda 86bc 0f89 19bf 55f9 423e 3c2d 20bf
00000300: 5f23 633e 1245 953d 22a6 95bd 721a 9a3e
00000310: c1d4 1fbe 6c0b 1f3f f1cb 15bd e536 813e
00000320: 7276 b2be d860 2ebc 24b4 a5be 7c65 b9be
00000330: 2202 23be e6e5 94be fb5f 2fbe 54b6 0c3e
00000340: e488 48be fa3e 9fbe a832 8fbc b6b2 60bd
00000350: e96f 653e a5cc febd 5033 abbd 3aa7 663e
00000360: 6e26 ab3e 5ba3 063e 25d0 aa3e 4968 a8bd
00000370: 9882 e6bc aa76 a3be 82cb 49be 0f56 22be
00000380: 8599 d13d d14f 913e 4190 93bc f6be 513d
00000390: 917a 223d 2284 5a3e 8e54 9bbe ff1a 4a3e
000003a0: d1f1 9abe e36c 46be d48c 493b 7fe6 5ebe
000003b0: dca6 da3e 70a0 09be 2e16 1abe 8682 823e
000003c0: 066d d53c 0c02 83be bed8 243e 8b7c 863e
000003d0: 7906 0d3e 7416 6d3e f844 8f3e b972 893d
000003e0: 4b35 e1bd 7fb9 413d 89a8 9e3e 4df7 453e
000003f0: 5c02 07bf 4406 853e 2927 813d 3a37 e0bb

sequential_1/conv1d_4/Conv1D f4 [64, 1, 3, 32]
-0.20153911 0.1403887 0.40596357 -0.07963063 -0.29871935 0.121314205 0.36243364 0.7891576
-0.00095022406 -0.22390245 0.26279473 -0.2658565 -0.24803682 0.073333226 -0.35635057 -0.35769457
-0.01877975 -0.2587863 -0.14360128 -0.21991529 -0.42674997 -0.213676 -0.08273309 -0.15504216
-0.14472769 -0.31969354 0.13598384 0.3369671 0.2627876 -0.36262247 -0.18648012 -0.009160297
0.14498103 -0.8326842 0.45479655 -0.3533252 0.051765 0.067455724 0.04725482 0.117024
-0.276047 0.28766435 -0.67995447 -0.057837233 0.18842159 0.0052860565 -0.13859464 -0.1317377
-0.004184987 0.36489245 0.0041442104 0.18242832 -0.5073433 -0.16206159 -0.15518966 -0.056563962
-0.37442714 0.29094648 -0.59175676 0.1580532 -0.4579167 -0.5552162 -0.6813309 -0.061976627
0.16448939 -0.5124628 0.4020646 -0.25651577 -0.30682737 -0.15272376 -0.13159546 -0.23268007
0.229781 -0.049040567 -0.11179547 0.45314807 -0.15312079 0.049611185 -0.3320467 -0.20828028
-0.62946725 0.0007204322 -0.24689981 -0.10342272 -0.47976068 0.05019627 0.15257496 -0.20522466
0.29465076 -0.18518466 -0.2837758 0.1794069 0.09268298 -0.33633524 -0.07840568 -0.008900963
-0.34601772 -0.13246451 -0.52809864 -0.13567549 0.08646666 -0.27139547 -0.758004 -0.24213158
-0.92759055 -0.25876737 -0.22492878 -0.07066843 -0.038086325 0.058343325 -0.3041991 -0.0027413098
-0.42668894 0.14654405 -0.119060695 -0.061518546 -0.4139084 0.24349032 -0.15972073 -0.22682117
-0.09953882 -0.24964476 0.098789655 -0.46274933 0.021563381 -0.7260975 0.14365846 -0.046183944
-0.31669647 -0.25074592 -0.6195783 0.031201454 -0.06205594 -0.47522593 -0.88996875 -0.2065185
-1.1125221 -0.67056715 -0.12805842 0.069568425 -0.8817216 0.06539378 -0.3416495 0.13771386
-0.0825015 -0.5728912 0.15361758 0.1151147 -0.37695974 -0.32690087 -0.6140171 -0.13546552
0.2114318 0.34063157 0.12722237 -0.4272842 -0.114259556 -0.43063718 0.13786936 0.22696924
0.40719476 0.115879305 -0.3465178 -0.13271745 0.13716419 -0.23701859 0.08518604 -0.269677
-0.5115913 -0.65583134 0.007524903 0.59791493 -0.072732255 0.024243848 -0.08741398 -0.17313609
-0.6832859 -0.17858858 0.09901855 0.12658474 -0.06550089 -0.105761684 -0.016971828 0.08876307
0.24592176 -0.047461957 0.25468796 -0.2283591 0.2794859 -0.3403776 0.03762845 0.22495227
-0.048385765 -0.3672034 -0.8086654 -0.15916409 -0.38639942 -0.05965969 -0.05393331 0.33731666
0.048234563 -0.17481007 -0.4200649 -0.0772817 -0.2237757 0.19334592 -0.0653595 -0.8302241
-0.9556021 -0.41399372 0.14878501 0.14532055 -0.60821277 0.256254 -0.24770646 -0.030644922
-0.24405281 -0.12283743 -0.49880418 -0.5201512 0.19457145 -0.93595773 -0.04516595 0.21711949
0.11242442 -0.11542907 -0.27063754 -0.15454435 -0.28215617 0.009967805 -0.082484975 -0.078622386
0.1545995 0.0019195615 -0.6847455 0.28415847 -0.08605578 0.14790376 -0.05958538 -0.3672443
-0.44479722 -0.024574058 0.23654445 0.13154718 -0.6832327 -0.40052637 -0.28805614 -0.03451725
-0.5479199 0.016568666 -0.4071586 -0.48265654 -0.22785932 -0.35730606 -0.06961774 0.17090511
00000000: 4560 4ebe 0ec2 0f3e 75da cf3e 6215 a3bd
00000010: bef1 98be 9573 f83d e790 b93e 3c06 4a3f
00000020: 7518 79ba af46 65be 088d 863e 581e 88be
00000030: 5dfd 7dbe bb2f 963d 9573 b6be be23 b7be
00000040: fed7 99bc a37f 84be 370c 13be 7931 61be
00000050: f97e dabe e2cd 5abe f76f a9bd 5fc3 1ebe
00000060: 7f33 14be dfae a3be 593f 0b3e f486 ac3e
00000070: 198c 863e a7a9 b9be a5f4 3ebe 1215 16bc
00000080: e875 143e cb2a 55bf 18db e83e 0ae7 b4be
00000090: 8907 543d 3a26 8a3d 458e 413d 47aa ef3d
000000a0: 0856 8dbe be48 933e 7f11 2ebf bce6 6cbd
000000b0: 97f1 403e a836 ad3b c1eb 0dbe 3fe6 06be
000000c0: 3722 89bb 2fd3 ba3e 28cc 873b 7dce 3a3e
000000d0: 40e1 01bf 79f3 25be 0aea 1ebe 9daf 67bd
000000e0: eab4 bfbe f0f6 943e 5f7d 17bf b3d8 213e
000000f0: 0f74 eabe a622 0ebf b46b 2ebf 34db 7dbd
00000100: e86f 283e c330 03bf 69db cd3e 0956 83be
00000110: 7a18 9dbe 9e63 1cbe f6c0 06be af43 6ebe
00000120: b64b 6b3e c3de 48bd 06f5 e4bd 0603 e83e
00000130: b2cb 1cbe 1935 4b3d 0602 aabe 6d47 55be
00000140: c424 21bf 63db 3c3a 4ed3 7cbe 4bcf d3bd
00000150: 31a3 f5be 9b9a 4d3d 9c3c 1c3e 6a26 52be
00000160: 77dc 963e 0ca1 3dbe 104b 91be 71b6 373e
00000170: 93d0 bd3d 2234 acbe 2893 a0bd 58d5 11bc
00000180: 3c29 b1be c7a4 07be 7931 07bf 84ee 0abe
00000190: 6f15 b13d 59f4 8abe 8d0c 42bf 57f1 77be
000001a0: 9376 6dbf 287d 84be bb53 66be 9cba 90bd
000001b0: 6800 1cbd 69f9 6e3d fcbf 9bbe 8ca7 33bb
000001c0: f976 dabe a50f 163e 18d6 f3bd dffa 7bbd
000001d0: cdeb d3be 8755 793e d58d 23be cf43 68be
000001e0: 02db cbbd e0a2 7fbe 3b52 ca3d 7bed ecbe
000001f0: b0a5 b03c 87e1 39bf 341b 133e 602b 3dbd
00000200: 0a26 a2be c561 80be af9c 1ebf 319a ff3c
00000210: 5f2e 7ebd d050 f3be fed4 63bf 9679 53be
00000220: 2067 8ebf 4aaa 2bbf bf21 03be e479 8e3d
00000230: 82b8 61bf 2ded 853d afec aebe dd04 0d3e
00000240: 8cf6 a8bd ffa8 12bf ed4d 1d3e 41c1 eb3d
00000250: de00 c1be 8d5f a7be 3a30 1dbf 79b7 0abe
00000260: 9481 583e 4367 ae3e 9546 023e ffc4 dabe
00000270: ea00 eabd 7a7c dcbe a02d 0d3e a06a 683e
00000280: d57b d03e 2152 ed3d c86a b1be 15e7 07be
00000290: c574 0c3e 00b5 72be 0576 ae3d 1b13 8abe
000002a0: a6f7 02bf 90e4 27bf 7693 f63b f410 193f
000002b0: a6f4 94bd 099b c63c 1a06 b3bd 964a 31be
000002c0: d3eb 2ebf eddf 36be 3dca ca3d 6e9f 013e
000002d0: 5525 86bd 9599 d8bd 8108 8bbc 6ac9 b53d
000002e0: ead2 7b3e 7867 42bd 7666 823e f8d6 69be
000002f0: c718 8f3e f945 aebe 4a20 1a3d e359 663e
00000300: 2730 46bd 1602 bcbe b204 4fbf e9fb 22be
00000310: 25d6 c5be b85d 74bd 2de9 5cbd c5b4 ac3e
00000320: 9b91 453d 6901 33be bf12 d7be de45 9ebd
00000330: 7525 65be 79fc 453e 34db 85bd 9189 54bf
00000340: 57a2 74bf fcf6 d3be 195b 183e e9ce 143e
00000350: d5b3 1bbf b933 833e c3a6 7dbe 0f0b fbbc
00000360: fbe8 79be 3192 fbbd 4363 ffbe a128 05bf
00000370: bd3d 473e ed9a 6fbf eeff 38bd 9254 5e3e
00000380: c63e e63d 1466 ecbd 0191 8abe e040 1ebe
00000390: c676 90be 0150 233c e2ed a8bd c604 a1bd
000003a0: 554f 1e3e cc99 fb3a 7b4b 2fbf 387d 913e
000003b0: 033e b0bd 1574 173e cd0f 74bd 7207 bcbe
000003c0: 76bc e3be 894f c9bc b538 723e 4eb4 063e
000003d0: 57e8 2ebf cb11 cdbe 187c 93be f661 0dbd
000003e0: 7b44 0cbf 03bb 873c 1877 d0be c21e f7be
000003f0: f453 69be d2f0 b6be bf93 8ebd c001 2f3e

sequential_1/conv1d_5/Conv1D f4 [128, 1, 3, 64]
-0.14443696 -0.09996034 -0.087366074 0.030796442 -0.05563805 -0.12104785 -0.007789534 -0.04943699
-0.099510625 -0.022414327 -0.07607469 -0.049005702 -0.09957852 0.1057856 -0.008313452 0.015809508
-0.013381053 -0.075071335 -0.104953535 -0.02613684 -0.13408092 -0.0030896612 -0.038454182 0.070578694
-0.16534597 0.07582915 -0.2133553 -0.099743 -0.09684633 -0.05812423 -0.04986358 0.011966893
0.045381304 0.019677684 0.008639602 -0.022274293 -0.025768228 -0.009588261 0.019628378 -0.140586
-0.07095704 0.05016366 -0.09814976 -0.08400976 -0.12876788 0.029470187 -0.085819386 0.041315746
-0.08245868 -0.07050032 -0.099417895 0.07560551 -0.08381302 0.023603134 -0.16094431 0.069618195
-0.15503705 0.02831532 -0.16321972 0.04587206 -0.08738304 -0.10762465 0.006607833 -0.10377703
0.03091729 -0.0027541753 -0.0756855 0.12926553 -0.045484424 -0.056453645 -0.009712354 0.0097970115
-0.121739216 -0.11106924 0.090049006 -0.0018922426 -0.016469022 -0.0815755 -0.07108764 0.080253474
-0.08482369 -0.017559968 0.079673134 -0.08874485 -0.033276666 0.0287256 -0.023002284 0.007436913
-0.14650953 0.0973657 0.0029128136 0.058891583 -0.0305997 -0.047060903 0.040294096 0.046421316
-0.028754884 -0.046859927 -0.027745256 -0.078956716 -0.0072162156 0.034963943 -0.055421285 -0.1380324
-0.009646449 0.07408036 -0.06394232 -0.0813177 -0.020018134 -0.07237544 -0.054776974 -0.046198998
-0.12445117 0.055605713 0.032403234 0.13574927 -0.027032921 -0.026702382 -0.04402345 0.026286343
0.03825466 -0.0743291 0.046104893 -0.0008238983 -0.13103308 0.1639803 -0.16006164 0.018461326
-0.16321823 -0.089988604 0.04311538 0.06495576 -0.009724781 -0.026187114 0.015057283 0.08162438
-0.020632539 -0.13977578 -0.06877441 -0.072929636 -0.0027090719 -0.14575775 -0.06988554 -0.17912765
-0.13266148 0.011772141 0.09394738 0.051194612 -0.12182028 -0.11142444 0.09508705 -0.044008385
-0.0016587365 0.008545401 -0.14059521 0.030236695 0.06553538 0.063492894 -0.049096774 0.085573785
0.019922744 -0.021597384 0.03823761 -0.04902915 0.088501014 0.022716533 -0.0023628196 -0.055044997
-0.0050052074 -0.040782038 -0.022293115 -0.027147822 -0.052504815 -0.11502162 -0.06332811 0.03940851
-0.04916783 0.08148605 -0.009353966 -0.062526934 -0.086705096 0.06738914 -0.018280745 0.015586379
-0.19490767 -0.105836764 -0.0032983483 -0.053072542 -0.12245041 -0.17425913 -0.0029760178 0.013774407
0.06552112 0.017216526 0.10554021 -0.32137772 0.06901936 -0.14053635 -0.27151185 0.27341306
-0.8246111 -0.3423555 0.03514492 -0.43446225 -0.01846901 0.035072286 0.01937133 0.1554958
-0.07733187 -0.37833935 0.23463528 -0.61199933 -0.0029860302 0.0016441068 -0.17810985 -0.6026817
-0.08430766 -0.05678953 0.11410946 -0.18132488 0.31998745 0.27517712 0.13630913 0.24243923
-0.09862636 -0.11569976 -0.6476859 -0.30265895 -0.23371056 -0.07060471 0.060392603 -0.3266418
-0.33052146 0.07485417 0.017414095 0.34624946 -0.31395778 -0.1654024 0.004532333 -0.049531963
-0.37631714 -0.09017592 0.17048338 -0.21994446 -0.6164234 0.091100544 0.049630836 0.019691782
-0.27267328 -0.6690425 0.13679184 -0.025383731 -0.10473744 0.12579504 -0.37714633 0.04174804
00000000: 48e7 13be 02b8 ccbd fcec b2bd d248 fc3c
00000010: b9e4 63bd efe7 f7bd 593f ffbb 717e 4abd
00000020: 3acc cbbd 409e b7bc 0ccd 9bbd 34ba 48bd
00000030: d3ef cbbd 1fa6 d83d 2535 08bc f182 813c
00000040: 343c 5bbc 00bf 99bd e1f1 d6bd ed1c d6bc
00000050: 824c 09be ea7b 4abb 2282 1dbd 908b 903d
00000060: 7450 29be 504c 9b3d d079 5abe 0f46 ccbd
00000070: 5e57 c6bd ac13 6ebd c13d 4cbd ca10 443c
00000080: bfe1 393d 1833 a13c 1e8d 0d3c 9478 b6bc
00000090: e417 d3bc 1518 1dbc b1cb a03c c7f5 0fbe
000000a0: ed51 91bd 6978 4d3d be02 c9bd 4f0d acbd
000000b0: badb 03be 766b f13c 13c2 afbd b33a 293d
000000c0: 19e0 a8bd 7962 90bd 9c9b cbbd 10d7 9a3d
000000d0: 29a6 abbd 5c5b c13c 96ce 24be fc93 8e3d
000000e0: 08c2 1ebe 88f5 e73c 1223 27be 57e4 3b3d
000000f0: e1f5 b2bd 506a dcbd 8586 d83b 0d89 d4bd
00000100: 4246 fd3c 657f 34bb 0001 9bbd 2f5e 043e
00000110: e04d 3abd f03b 67bd 9120 1fbc a583 203c
00000120: 6952 f9bd 4578 e3bd 9d6b b83d 2005 f8ba
00000130: 0bea 86bc 0e11 a7bd 6696 91bd ef5b a43d
00000140: 0bb8 adbd ecd9 8fbc ab2b a33d dcbf b5bd
00000150: 1d4d 08bd f351 eb3c 496f bcbc 59b1 f33b
00000160: 9806 16be ab67 c73d e7e4 3e3b 4d38 713d
00000170: 39ac fabc efc2 40bd 6c0b 253d 4724 3e3d
00000180: 5d8f ebbc 32f0 3fbd 054a e3bc 0fb4 a1bd
00000190: 0176 ecbb 5a36 0f3d 6e01 63bd 5e58 0dbe
000001a0: 240c 1ebc 72b7 973d 31f4 82bd e589 a6bd
000001b0: 12fd a3bc 9339 94bd d25d 60bd 293b 3dbd
000001c0: 41e0 febd d1c2 633d 41b9 043d db01 0b3e
000001d0: 2574 ddbc f4be dabc ef51 34bd 7556 d73c
000001e0: ebb0 1c3d db39 98bd 7cd8 3c3d e1fa 57ba
000001f0: 892d 06be 74ea 273e 33e7 23be 353c 973c
00000200: ae22 27be f24b b8bd c199 303d 8707 853d
00000210: b054 1fbc 5c86 d6bc d3b2 763c af2a a73d
00000220: 9205 a9bc 6221 0fbe 99d9 8cbd 225c 95bd
00000230: af8a 31bb 8541 15be 2620 8fbd 3d6d 37be
00000240: 69d8 07be f0df 403c 7c67 c03d 71b1 513d
00000250: e97c f9bd 7f32 e4bd 00bd c23d 2342 34bd
00000260: f669 d9ba 0202 0c3c 31f8 0fbe f2b2 f73c
00000270: 6a37 863d 9008 823d b319 49bd 4f41 af3d
00000280: 0635 a33c ffec b0bc 0a9f 1c3d cad2 48bd
00000290: 0540 b53d 0618 ba3c 89d9 1abb dd76 61bd
000002a0: b902 a4bb 110b 27bd 0da0 b6bc 1c65 debc
000002b0: 4a0f 57bd 7590 ebbd 2bb2 81bd d16a 213d
000002c0: 3564 49bd 28e2 a63d 6141 19bc 1f0e 80bd
000002d0: 7192 b1bd 5103 8a3d 80c1 95bc 035e 7f3c
000002e0: e095 47be f2c0 d8bd 1a29 58bb 9862 59bd
000002f0: 48c7 fabd fc70 32be 4b09 43bb 0dae 613c
00000300: f02f 863d ac09 8d3c 7725 d83d 9f8b a4be
00000310: 065a 8d3d c3e8 0fbe 9a03 8bbe ccfc 8b3e
00000320: b719 53bf 3849 afbe 1ff4 0f3d d671 debe
00000330: 524c 97bc f5a7 0f3d a0b0 9e3c 4a3a 1f3e
00000340: 2c60 9ebd b2b5 c1be 3b44 703e fdab 1cbf
00000350: 46b1 43bb 127f d73a 6e62 36be 5949 1abf
00000360: 7fa9 acbd 239c 68bd 38b2 e93d 3bad 39be
00000370: 65d5 a33e 04e4 8c3e 9f94 0b3e fd41 783e
00000380: 9efc c9bd fff3 ecbd bece 25bf 1df6 9abe
00000390: d251 6fbe 3499 90bd 3c5e 773d 983d a7be
000003a0: 1c3a a9be 254d 993d 01a8 8e3c 9c47 b13e
000003b0: 13bf a0be 3f5f 29be f783 943b 07e2 4abd
000003c0: a4ac c0be 27ae b8bd 3293 2e3e 1f39 61be
000003d0: edcd 1dbf ec92 ba3d b449 4b3d a950 a13c
000003e0: d59b 8bbe 5f46 2bbf 2913 0c3e 8bf1 cfbc
000003f0: 9580 d6bd 6ad0 003e 5319 c1be feff 2a3d

sequential_1/dense_3/BiasAdd/ReadVariableOp f4 [11]
0.21914385 0.18565133 0.8029708 0.3033784 -0.5224543 -0.19107148 -0.47187167 -0.26199234
0.0531656 -0.58346 -0.034845702
00000000: 3f67 603e 621b 3e3e 7f8f 4d3f 6a54 9b3e
00000010: 91bf 05bf 3ea8 43be 2a99 f1be dc23 86be
00000020: 2cc4 593d a25d 15bf 5eba 0ebd

sequential_1/dense_2/BiasAdd/ReadVariableOp f4 [64]
0.17604774 0.30920777 -0.42002866 -0.55154985 0.9301621 -0.56749463 0.14455621 0.5016002
-0.8843456 -0.77867687 -0.36006165 0.8701724 -0.14997053 -0.73961186 0.7680671 -0.21888055
0.6103184 -0.47083285 -0.54519236 -0.537635 -0.90745544 -0.71301216 -0.14137068 -0.6734441
-0.07155162 -0.52881855 -0.06394785 0.9554069 -0.6628308 -0.52396816 0.3609742 -0.50430906
-0.25954124 -0.55453634 0.37895235 -0.5799208 0.6331437 0.28797722 -0.3397613 0.6510251
0.06573634 -0.46884993 -0.08842017 -0.6857913 0.024319679 0.38686016 0.24635696 -0.18423831
0.01315002 0.048177242 0.33308208 1.0334305 0.46086004 0.13654035 0.48356774 -0.5364444
0.8612251 -0.097760394 -0.23373473 -0.27353817 -0.9919452 -0.82768244 -0.50772744 0.19850329
00000000: dc45 343e 7b50 9e3e ff0d d7be 5f32 0dbf
00000010: 1a1f 6e3f 5447 11bf 8b06 143e df68 003f
00000020: 7964 62bf 5e57 47bf 005a b8be 9ec3 5e3f
00000030: e091 19be 3457 3dbf 0ca0 443f 3922 60be
00000040: d43d 1c3f 0111 f1be ba91 0bbf 73a2 09bf
00000050: 004f 68bf f787 36bf 7ac3 10be d566 2cbf
00000060: a889 92bd a760 07bf 17f7 82bd 8c95 743f
00000070: 48af 29bf c722 06bf 9cd1 b83e 661a 01bf
00000080: 97e2 84be 18f6 0dbf 0b06 c23e b175 14bf
00000090: b515 223f c071 933e 31f5 adbe 95a9 263f
000000a0: c6a0 863d 190d f0be a215 b5bd 0590 2fbf
000000b0: 103a c73c 8912 c63e 0045 7c3e f8a8 3cbe
000000c0: 2e73 573c 8055 453d bc89 aa3e 7347 843f
000000d0: d9f5 eb3e 3cd1 0b3e 3196 f73e 6c54 09bf
000000e0: 4079 5c3f 9a36 c8bd 2858 6fbe 320d 8cbe
000000f0: 1ff0 7dbf ffe2 53bf 6dfa 01bf 7244 4b3e

sequential_1/dense_2/MatMul f4 [64, 1664]
-0.027954293 0.44475293 0.17680852 0.14847219 0.42655644 0.1805976 0.04279375 -0.005412644
0.0055606817 0.039691206 0.5531389 0.04971071 0.0015946717 0.1440404 0.07292126 0.1327193
-0.03060262 0.28299466 -0.29473606 -0.09201018 0.70161515 0.2751045 -0.32168007 0.12192481
-0.24810277 -0.100394264 0.10159791 -0.012690548 -0.0062393714 0.06628429 -0.20977853 0.087417446
-0.0790212 -0.023490522 0.33825153 -0.341063 -0.30997312 -0.6677228 -0.26609927 -0.07458284
-0.1862937 0.43675056 0.011858417 0.566364 0.25230047 -0.09052409 -0.028852839 -0.027092636
-0.10679324 0.44837213 -0.4083151 0.28450665 0.35053557 -0.016547214 0.17617068 0.29287353
-0.28873047 -0.24714184 0.030127408 0.2746715 -0.40326703 0.08162891 -0.36070395 0.28499484
0.10914954 0.1733649 0.25900915 -0.28022304 0.22471514 0.19089878 -0.7917962 0.048021667
0.37194574 0.1941551 -0.94605094 -0.026449788 -0.10896147 -0.3301715 0.14933743 0.1137762
0.06762222 0.16966824 -0.5589732 -0.03445521 -0.059048053 0.21177474 -0.0946832 -0.000844649
0.08444337 0.22711992 -0.56953996 -0.39680606 -0.025500149 -0.22140582 0.20914423 0.009286488
0.17054175 -0.48339382 0.49925184 0.030078681 0.21806686 -0.49769694 0.04882057 0.0589871
0.31374136 0.009507485 0.28243667 0.072688356 0.07934991 0.12017244 -0.58259964 -0.49457914
-0.2420318 -0.1681148 0.085798375 -0.7285812 0.2913799 -0.15683953 0.2910519 -0.07002668
0.01708742 -0.23291233 -0.0047534774 0.20575443 0.11774031 0.47111073 0.10895266 0.14336655
-0.027082622 -0.026680931 -0.120422125 0.21985444 0.14236398 0.26224256 -0.0608073 0.025383081
-0.19987977 -0.17646079 0.43565956 0.1826698 0.11597265 -0.23881142 -0.01640226 0.02569437
0.114692286 0.21978374 -0.33489424 -0.023284849 0.38856795 0.08616635 -0.15610951 0.14527471
-0.2862747 -0.12433651 -0.26574826 0.0853092 -0.002436697 0.28054518 0.29355794 0.078364946
0.2481527 0.16315386 0.3809416 -0.055819884 0.041757222 -0.08791491 -0.13216484 -0.010056189
0.14640453 0.13695101 0.20224658 0.1202519 -0.23650885 -0.25872472 0.011018404 0.055744078
-0.05386365 0.2116014 -0.47616994 0.16837208 0.3625276 -0.034193765 0.14634657 0.122475065
-0.08231802 -0.013396611 0.09854604 -0.010351408 0.051190615 0.0014653095 -0.39453906 0.20984645
0.06024861 0.42038444 -0.038557585 -0.20285046 0.12761082 -0.32171884 -0.36872473 0.012833203
0.27539167 0.00045075302 -0.5478704 0.10326935 -0.07557138 -0.10547683 -0.059431314 -0.017682543
-0.0023963882 0.3293794 -0.2769041 0.1721151 -0.120009914 0.17406753 -0.19828454 -0.1260414
0.10360969 -0.012494779 -0.55439776 0.12181069 0.08653149 -0.1866476 -0.09481545 0.08904315
-0.15180653 -0.69903904 0.5480112 -0.034667578 0.06709546 -0.050259173 -0.025364133 0.33510947
0.028164135 -0.095743015 0.107962154 0.085901454 0.23537117 -0.21828209 -0.221665 0.009477244
-0.4099961 -0.2789952 0.24701206 -0.4631979 -0.28560525 -0.34665504 0.08195307 0.2070285
-0.05165583 -0.03817394 0.6193798 0.14822231 0.43778244 0.18209451 0.4760794 -0.1487974
00000000: 6700 e5bc a8b6 e33e 4b0d 353e 1809 183e
00000010: 9b65 da3e 94ee 383e 8048 2f3d 8c5c b1bb
00000020: 6136 b63b 3f93 223d 839a 0d3f 759d 4b3d
00000030: 4e04 d13a 547f 133e be57 953d 91e7 073e
00000040: 59b2 fabc ade4 903e a5e7 96be d56f bcbd
00000050: 0d9d 333f 7fda 8c3e 40b3 a4be b7b3 f93d
00000060: a70e 7ebe 829b cdbd 9112 d03d 04ec 4fbc
00000070: a473 ccbb 0fc0 873d 2fd0 56be eb07 b33d
00000080: ded5 a1bd 326f c0bc 4e2f ad3e cf9f aebe
00000090: ccb4 9ebe e2ef 2abf 2a3e 88be e3be 98bd
000000a0: c7c3 3ebe c59d df3e ce49 423c 3bfd 103f
000000b0: 872d 813e b264 b9bd ca5c ecbc 60f1 ddbc
000000c0: 6ab6 dabd 0891 e53e ad0e d1be dbaa 913e
000000d0: 6679 b33e 068e 87bc 1666 343e 85f3 953e
000000e0: 7bd4 93be c012 7dbe c1cd f63c bea1 8c3e
000000f0: 0479 cebe 0f2d a73d 30ae b8be d8ea 913e
00000100: cb89 df3d 9186 313e d99c 843e 6579 8fbe
00000110: ba1b 663e f87a 433e 28b3 4abf 5eb2 443d
00000120: ac6f be3e 98d0 463e 6530 72bf 3aad d8bc
00000130: 3127 dfbd 3d0c a9be e9eb 183e 7f03 e93d
00000140: 857d 8a3d 83bd 2d3e de18 0fbf e820 0dbd
00000150: 5fdc 71bd 7adb 583e 44e9 c1bd 6f6b 5dba
00000160: a5f0 ac3d 2092 683e 5fcd 11bf 2a2a cbbe
00000170: b0e5 d0bc 35b8 62be e829 563e 5b26 183c
00000180: 7fa2 2e3e 657f f7be f09d ff3e 9167 f63c
00000190: eb4c 5f3e 22d2 febe 14f8 473d 759c 713d
000001a0: b5a2 a03e 48c5 1b3c 8a9b 903e a2dd 943d
000001b0: 3582 a23d f81c f63d 4025 15bf 7a39 fdbe
000001c0: 2fd7 77be 4926 2cbe 0fb7 af3d 4c84 3abf
000001d0: bf2f 953e 8b9a 20be c104 953e 266a 8fbd
000001e0: ebfa 8b3c 9280 6ebe 0fc3 9bbb 4ab1 523e
000001f0: d521 f13d 6d35 f13e 9222 df3d aece 123e
00000200: 60dc ddbc f891 dabc e09f f6bd 8621 613e
00000210: ddc7 113e a844 863e 1311 79bd 2ef0 cf3c
00000220: 48ad 4cbe 23b2 34be c50e df3e cb0d 3b3e
00000230: 1283 ed3d fb8a 74be 085e 86bc 007d d23c
00000240: cae3 ea3d fd0e 613e 4277 abbe debf bebc
00000250: 61f2 c63e fc77 b03d 2cdb 1fbe e5c2 143e
00000260: 9992 92be 24a4 febd 2810 88be 97b6 ae3d
00000270: feb0 1fbb 9ea3 8f3e 3a4d 963e cd7d a03d
00000280: be1b 7e3e ce11 273e c70a c33e 64a3 64bd
00000290: 9f09 2b3d bb0c b4bd 3856 07be b7c2 24bc
000002a0: 12eb 153e e33c 0c3e ba19 4f3e a146 f63d
000002b0: 602f 72be 9177 84be 8986 343c e753 643d
000002c0: 21a0 5cbd 0aae 583e 8ccc f3be bb69 2c3e
000002d0: 389d b93e c30e 0cbd e0db 153e 35d4 fa3d
000002e0: 5a96 a8bd 767d 5bbc 82d2 c93d f498 29bc
000002f0: 40ad 513d a10f c03a 0601 cabe fde1 563e
00000300: 3fc7 763d a13c d73e 8fee 1dbd 08b8 4fbe
00000310: 69ac 023e 55b8 a4be 7dc9 bcbe 5b42 523c
00000320: 2300 8d3e 0c53 ec39 3c41 0cbf e27e d33d
00000330: 2bc5 9abd 3c04 d8bd 406e 73bd fbda 90bc
00000340: b90c 1dbb 6ba4 a83e 60c6 8dbe f13e 303e
00000350: c2c7 f5bd c23e 323e 1a0b 4bbe ff10 01be
00000360: 5131 d43d e7b6 4cbc 03ed 0dbf e277 f93d
00000370: 6c37 b13d 8c20 3fbe 9a2e c2bd 415c b63d
00000380: 2c73 1bbe 39f4 32bf 764a 0c3f 97ff 0dbd
00000390: 5869 893d 90dc 4dbd 71c8 cfbc 7893 ab3e
000003a0: 79b8 e63c ea14 c4bd 431b dd3d 1aed af3d
000003b0: 2405 713e 5785 5fbe 26fc 62be 7146 1b3c
000003c0: 02eb d1be 75d8 8ebe bbf0 7c3e 4628 edbe
000003d0: da3a 92be c57c b1be 03d7 a73d 47ff 533e
000003e0: 1095 53bd 475c 1cbd ad8f 1e3f 97c7 173e
000003f0: 0525 e03e fc76 3a3e aec0 f33e 585e 18be

sequential_1/dense_3/MatMul f4 [11, 64]
0.07020189 -0.48598927 -0.20618963 -0.47066668 0.5079407 0.064329416 0.0056399303 0.11560863
-0.06895568 -0.69212246 -0.12997052 0.14674748 0.031652693 0.09420229 0.23470873 -0.086084954
0.16336527 -0.34201962 -0.413439 -0.0022471366 -0.15505141 -0.01093516 -0.08851714 -0.056057718
0.029591503 -0.22911185 -0.24568626 0.1997832 -0.034507714 0.31157783 -0.18429922 0.12232935
0.04206174 -0.0655766 -0.10587745 -0.33879116 0.11978559 -0.0065480634 -0.17261219 0.04369278
-0.27400565 -0.34841403 -0.21781969 -0.090897396 -0.47667253 -0.029317113 -0.19620419 -0.008398328
-0.16314828 -0.629601 -0.3239301 0.19227825 0.07866429 0.11763974 0.20037895 -0.19573267
-0.0865994 -0.2067441 0.089769594 -0.1372962 -0.036238436 -0.21821527 -0.16506562 0.01753496
0.09040013 0.023709899 -0.26477075 -0.6108617 0.12106378 0.1518927 -0.15172194 0.059555598
-0.12768841 -0.025068218 -0.1805713 0.1387351 -0.6495287 -0.38009173 0.041731317 -0.28765658
-1.382473 -0.44185293 -0.38830188 -0.015532582 0.019904438 0.017403841 0.058009475 -0.21363749
-1.9955431 -0.63480896 -0.22105266 -0.27352387 -0.43689406 0.020041108 -0.25508505 -0.03175486
-0.3214213 -0.002714977 -0.14096938 -0.39978707 -0.3994245 -0.018214218 -0.16755244 0.24144863
-0.05206081 -0.008903175 -0.5960594 -0.055705074 -0.14948304 -0.3403345 0.08697074 -0.81227523
-1.0206271 -0.18757391 -0.004161141 -1.1888466 -0.6406064 0.021035232 -0.066488594 -0.08373717
0.16678482 -1.0166324 0.028619897 -0.122193545 0.26716638 -0.29358742 0.11448375 -0.636041
-0.49683738 0.15745033 -0.8367492 -0.5553643 -0.50949883 0.14894755 -0.08039738 0.10995194
-0.068056986 -0.17364293 -0.11344816 -0.25738755 -1.8069102 0.010630558 -0.10246386 -0.05494884
0.07449065 -0.5412417 -0.53755754 -0.75129265 -0.114505254 -0.1052844 -0.60888594 -0.00757778
-0.15275781 -0.14933325 -0.87342143 -1.2670771 -0.6806859 -0.06437812 -0.31462225 -0.31186202
-0.24769628 -1.8407366 0.13454345 -0.09156329 -0.15236686 0.043240346 -0.042187225 0.054765057
-0.25516102 -0.39366916 -1.0881916 -0.38195083 -0.050817937 0.089537926 0.055282164 0.14242895
-2.3079863 -0.010132557 -0.2257226 -0.39942607 0.06660151 -0.4920998 0.26161858 -0.34456798
-0.2322699 -0.36191583 0.021232715 -0.5010293 -0.112122886 -0.5022987 -1.1360749 0.06067124
0.20987265 0.08726601 -0.33225128 -0.46220425 0.110656194 0.17887463 -0.24457075 0.0124864625
-0.27607068 0.07239187 -0.523664 -0.32930684 -0.3732386 -0.18239781 -0.077096544 -0.6518808
-0.39186484 -0.39219445 -0.2254835 -1.092587 -0.08165223 0.0037176167 -0.20240414 -0.18250664
-0.8530403 -0.38927415 -0.06412576 -1.0214702 -0.56215435 -0.054173194 -1.1299397 0.01770645
-0.1429447 0.0065315827 0.29127488 -0.33849895 -0.40556762 0.10498472 -0.12055464 0.27778107
-0.13039863 -0.015878437 -0.4264483 0.03122658 -0.10795091 0.049507365 0.031601556 0.111628056
0.30817258 -0.1317595 0.031004716 -2.4438345 -0.36756212 0.034736965 0.16840948 -0.32845992
-0.5216281 -1.4404763 -0.037900634 -1.3036042 0.29135633 -0.11229163 0.20091602 -0.119488545
00000000: 02c6 8f3d 96d3 f8be 6023 53be 39fb f0be
00000010: 6708 023f 24bf 833d 2acf b83b 38c4 ec3d
00000020: a338 8dbd f02e 31bf fe16 05be f944 163e
00000030: 41a6 013d 21ed c03d 7c57 703e 4f4d b0bd
00000040: 3a49 273e 321d afbe 47ae d3be b244 13bb
00000050: ccc5 1ebe 6329 33bc 7948 b5bd c79c 65bd
00000060: e169 f23c 4c9c 6abe 2e95 7bbe f893 4c3e
00000070: f657 0dbd 2187 9f3e efb8 3cbe cf87 fa3d
00000080: ee48 2c3d 064d 86bd 47d6 d8bd 0976 adbe
00000090: 2652 f53d 2391 d6bb 40c1 30be 33f7 323d
000000a0: 784a 8cbe 5363 b2be 200c 5fbe 6a28 babd
000000b0: 6c0e f4be 712a f0bc c0e9 48be 2499 09bc
000000c0: 5810 27be 882d 21bf 2bda a5be 97e4 443e
000000d0: be1a a13d 1bed f03d 2430 4d3e 256e 48be
000000e0: 075b b1bd bab4 53be 1fd9 b73d 6097 0cbe
000000f0: c16e 14bd d373 5fbe f606 29be 7aa5 8f3c
00000100: b423 b93d 433b c23c 0890 87be 6f61 1cbf
00000110: 49f0 f73d c389 1b3e ff5c 1bbe 92f0 733d
00000120: c0c0 02be dd5b cdbc afe7 38be 9310 0e3e
00000130: 8347 26bf 629b c2be 75ee 2a3d b947 93be
00000140: e0f4 b0bf 8c3a e2be 81cf c6be 5f7c 7ebc
00000150: a20e a33c 8092 8e3c 589b 6d3d c9c3 5abe
00000160: f56d ffbf d782 22bf a15b 62be 520b 8cbe
00000170: 94b0 dfbe 402d a43c 829a 82be 6211 02bd
00000180: 5591 a4be c1ed 31bb 475a 10be e4b0 ccbe
00000190: 5e81 ccbe fc35 95bc de92 2bbe 4f3e 773e
000001a0: b73d 55bd 9fde 11bc 5997 18bf 012b 64bd
000001b0: 1512 19be 5340 aebe b71d b23d 45f1 4fbf
000001c0: e9a3 82bf 6013 40be 2e5a 88bb 202c 98bf
000001d0: c8fe 23bf 1452 ac3c 2c2b 88bd 657e abbd
000001e0: a4c9 2a3e 0321 82bf 4674 ea3c 9c40 fabd
000001f0: 08ca 883e 1751 96be 7576 ea3d 95d3 22bf
00000200: 7861 febe a93a 213e 3235 56bf 5b2c 0ebf
00000210: 846e 02bf b585 183e 62a7 a4bd 7c2e e13d
00000220: 7661 8bbd 74cf 31be 8257 e8bd 4dc8 83be
00000230: d548 e7bf cb2b 2e3c 92d8 d1bd 0912 61bd
00000240: 8e8e 983d d18e 0abf 5f9d 09bf b754 40bf
00000250: bb81 eabd 599f d7bd f3df 1bbf 074f f8bb
00000260: 8b6c 1cbe d1ea 18be 8c98 5fbf 952f a2bf
00000270: 6e41 2ebf add8 83bd 2b16 a1be 61ac 9fbe
00000280: 18a4 7dbe 429d ebbf c2c5 093e 8985 bbbd
00000290: 0f06 1cbe ca1c 313d 83cc 2cbd 5351 603d
000002a0: 77a4 82be 018f c9be dd49 8bbf 0f8f c3be
000002b0: 7826 50bd a95f b73d 8d6f 623d e5d8 113e
000002c0: 0cb6 13c0 0603 26bc d323 67be 9381 ccbe
000002d0: 5f66 883d 81f4 fbbe dff2 853e 376b b0be
000002e0: 29d8 6dbe 084d b9be 3bf0 ad3c 7543 00bf
000002f0: afa0 e5bd a696 00bf e76a 91bf 6882 783d
00000300: dbe8 563e 86b8 b23d d71c aabe 09a6 ecbe
00000310: b79f e23d e92a 373e c170 7abe 0594 4c3c
00000320: 2359 8dbe 3042 943d d80e 06bf e89a a8be
00000330: 2119 bfbe 7ec6 3abe cbe4 9dbd a9e1 26bf
00000340: 82a2 c8be b6cd c8be 26e5 66be e4d9 8bbf
00000350: 4939 a7bd 42a3 733b 0843 4fbe 05e3 3abe
00000360: d960 5abf f14e c7be 5e54 83bd 89bf 82bf
00000370: 59e9 0fbf b6e4 5dbd dda1 90bf 1e0d 913c
00000380: 1860 12be e306 d63b fb21 953e bc4f adbe
00000390: 8fa6 cfbe 3b02 d73d 5ae5 f6bd 5239 8e3e
000003a0: 3887 05be 7f13 82bc 6e57 dabe e2ce ff3c
000003b0: 5e15 ddbd 3cc8 4a3d a270 013d 409d e43d
000003c0: ccc8 9d3e f6eb 06be 9afd fd3c c967 1cc0
000003d0: 1a31 bcbe 5948 0e3d 8973 2c3e e62b a8be
000003e0: 6b89 05bf 8761 b8bf b23d 1bbd 81dc a6bf
000003f0: a82c 953e 27f9 e5bd eebc 4d3e 69b6 f4bd
