models/presentation_models/task3_model_final.tflite (tflite, 582920 bytes, 12 tensors)

sequential_3/conv1d_9/BiasAdd/ReadVariableOp f4 [32]
0	0xbe29d7e2	-0.16586259
1	0x3dde9b9e	0.108695254
2	0xbece8f94	-0.40343916
3	0x3ca3c15b	0.01998966
4	0xbdddf1b3	-0.10837116
5	0xbe56d3bb	-0.20979206
6	0xbe38a5e7	-0.18032037
7	0x3d8aa33e	0.06769417
8	0xbcbf4a27	-0.023350788
9	0xbc6057c4	-0.0136928
10	0xbd6eff43	-0.058348905
11	0xbe8213e2	-0.25405794
12	0xbe4d5bf7	-0.20054613
13	0xbe6756e9	-0.22591747
14	0xbe4092e5	-0.18806036
15	0xbeccc7ae	-0.39996094
16	0x3e46dbc2	0.19419768
17	0x3db42149	0.08795411
18	0xbee257d7	-0.4420764
19	0xbe82fec3	-0.25584993
20	0xbecbb7b7	-0.397886
21	0xbe2c8fdf	-0.16851757
22	0x3daed8b5	0.08537427
23	0xbe8787e2	-0.26470858
24	0xbe24e8c3	-0.16104417
25	0x3c82f3fa	0.015985478
26	0xbdc7948f	-0.09745132
27	0xbdf3a5b6	-0.11896841
28	0xbef563f5	-0.47927824
29	0xbeb9e095	-0.36304155
30	0xbde144b5	-0.10999433
31	0xbd816e13	-0.06319823

sequential_3/conv1d_10/BiasAdd/ReadVariableOp f4 [64]
0	0xbe168344	-0.14698511
1	0x3cc0533c	0.02347719
2	0xbbe583eb	-0.0070042512
3	0x3ddf4ac4	0.10902932
4	0x3d5aa46d	0.053379465
5	0xbe0998bb	-0.13437168
6	0xbdfccc71	-0.123436816
7	0xbd761e25	-0.06008734
8	0xbe5429cd	-0.2071907
9	0xbe629870	-0.22128463
10	0xbcc07e46	-0.023497712
11	0x3a0fddec	0.0005488086
12	0xbe65b863	-0.22433619
13	0xbdc47c54	-0.09594026
14	0xbe1679df	-0.14694928
15	0xbd0bf6cc	-0.03417091
16	0xbdfe408e	-0.124146566
17	0xbde4f575	-0.1117963
18	0xbdaf2280	-0.08551502
19	0xbc81ba21	-0.015835823
20	0xbde5d26f	-0.11221778
21	0xbe09b7ae	-0.13448974
22	0xbcf1610f	-0.029465226
23	0xbde41b3b	-0.11138006
24	0x3ceeea78	0.029164538
25	0xbd9c9495	-0.07645527
26	0x3c29cdcc	0.010364007
27	0xbe44b5ef	-0.19210027
28	0xbe076225	-0.13221033
29	0xbe131d46	-0.14366636
30	0x3ddfb8b5	0.10923902
31	0xbdb9089a	-0.09034844
32	0xbcd5eb8c	-0.026113294
33	0xbdafd1e5	-0.08584956
34	0xbe326f02	-0.17425159
35	0xbe164dbe	-0.14678094
36	0x3e25025c	0.16114181
37	0xbdb89601	-0.09012986
38	0xbe222b51	-0.15836836
39	0xbdcc33cc	-0.09970817
40	0xbd0857bc	-0.033286795
41	0xbde9a86e	-0.114090785
42	0xbe46465f	-0.19362782
43	0x3d223bc4	0.03960778
44	0xbe1c8e24	-0.15288597
45	0xbd0ddbd6	-0.03463348
46	0xbba3444b	-0.0049825064
47	0xbe6f11dd	-0.23346658
48	0xbe00af65	-0.12566908
49	0xbda8c429	-0.082405396
50	0xbd9b41c2	-0.07580902
51	0xbe1958b9	-0.14975251
52	0x3da91678	0.08256239
53	0xbde234d2	-0.11045231
54	0xbdf4f0cb	-0.1195999
55	0xbe414faa	-0.18878046
56	0xbe062f12	-0.13103893
57	0xbe4489d7	-0.19193207
58	0xbc0dffe6	-0.008666968
59	0xbe03efb1	-0.12884404
60	0xbdac4067	-0.08410721
61	0xbdf269ea	-0.11836608
62	0xbda6b798	-0.081404865
63	0xbda6fb4c	-0.081534

sequential_3/conv1d_11/BiasAdd/ReadVariableOp f4 [128]
0	0x3d20e07a	0.039276578
1	0xbe21b754	-0.1579259
2	0xbe8a0a88	-0.2696116
3	0xbe14a30a	-0.1451532
4	0xbdd7f982	-0.10545637
5	0xbdbe4392	-0.09290232
6	0xbd0cc08d	-0.03436332
7	0xbe661153	-0.22467546
8	0xbe04028e	-0.128916
9	0xbe7ef3cc	-0.24897689
10	0xbe855f75	-0.2604939
11	0xbeac5bb3	-0.3366371
12	0xbe94a2cc	-0.29030454
13	0xbdf464ef	-0.11933314
14	0xbe3012f0	-0.17194724
15	0xbe7214c0	-0.23640728
16	0x3c007112	0.007839458
17	0xbe7aa6c8	-0.24477684
18	0xbe90203b	-0.2814959
19	0xbcedb281	-0.029015781
20	0xbd93c4b6	-0.07215254
21	0xbdd05ebc	-0.10174319
22	0xbe40a655	-0.1881345
23	0x3c9de11f	0.019272385
24	0x3c9af8ab	0.018917402
25	0xbe3bb839	-0.18331994
26	0x3c9ce20b	0.019150754
27	0x3abc190d	0.0014350727
28	0xbe13a994	-0.14420158
29	0xbe9d2e51	-0.306994
30	0xbdfae31b	-0.12250348
31	0xbda7dc87	-0.08196359
32	0x3c4ad381	0.012379528
33	0xbdd7576a	-0.1051472
34	0xbe36b281	-0.17841531
35	0x3b0022fd	0.0019552105
36	0xbd6e762e	-0.058218174
37	0xbe6ce7c1	-0.23135282
38	0xbe177d76	-0.14793953
39	0xbdc020a4	-0.09381226
40	0xbc4d557b	-0.012532587
41	0xbdf310ed	-0.11868463
42	0xbe8f2ba0	-0.2796297
43	0xbe8df25f	-0.27723977
44	0xbe4d80ec	-0.20068711
45	0xbd5ece6a	-0.05439607
46	0xbd7081a7	-0.058717396
47	0xbdbe1d16	-0.092828915
48	0xbe489abf	-0.19590281
49	0xbde496a2	-0.111615434
50	0x3ca10f5c	0.019660644
51	0xbe633240	-0.22187138
52	0xbdb0e42f	-0.086372726
53	0xbe348b00	-0.1763115
54	0xbd742bf7	-0.05961224
55	0xbd7ef960	-0.06224954
56	0xbc99df5d	-0.018783266
57	0xbda73dbe	-0.08166073
58	0xbddb8017	-0.107177906
59	0xbe28dadb	-0.16489737
60	0xbdd8bb8a	-0.10582645
61	0xbe67f521	-0.22652103
62	0x3bb0eecf	0.005399562
63	0xbdc6658c	-0.09687337
64	0x3ab7bf2e	0.0014018768
65	0xbdb1bec6	-0.08678965
66	0x3c5f93b0	0.013646051
67	0xbe50b2b7	-0.20380674
68	0xbe66a2f5	-0.225231
69	0xbd0696d4	-0.032858685
70	0xbe55fa51	-0.2089627
71	0xbdbbf721	-0.091779955
72	0xbd1ab8b0	-0.037773788
73	0xbe2f00b2	-0.17090109
74	0xbd216725	-0.039405007
75	0xbd8b1326	-0.06790762
76	0xbe569b7d	-0.20957752
77	0xbe38b375	-0.18037207
78	0xbe0cc345	-0.13746364
79	0xbc2c13ca	-0.010502765
80	0xbe711f58	-0.23547113
81	0xbda9be8a	-0.082882956
82	0xbe39d0b6	-0.18146023
83	0xbe8de558	-0.27714038
84	0xbba0ab4a	-0.0049032317
85	0x3d569616	0.052389227
86	0xbdf3c430	-0.11902654
87	0x3d6752e6	0.056475542
88	0xbd9e3e63	-0.07726743
89	0xbe06d431	-0.13166882
90	0xbcb448da	-0.022007395
91	0x3d950e55	0.07278124
92	0xbeae4b34	-0.3404175
93	0x3ca78d45	0.020453105
94	0xbe1fa5c6	-0.15590581
95	0xbc998021	-0.018737854
96	0x3d21452e	0.039372616
97	0x3cd66625	0.026171753
98	0xbe0e2917	-0.13882862
99	0xbdf75d3b	-0.12078329
100	0xbdf2dc30	-0.11858404
101	0xbe976da3	-0.29575834
102	0xbdc60b2f	-0.09670102
103	0xbd08a8a5	-0.033363957
104	0xbd715222	-0.05891622
105	0xbdca16c3	-0.09867623
106	0xbe2ceff1	-0.16888405
107	0xbd6ca3e5	-0.05777349
108	0xbe2b1988	-0.16708958
109	0xbe224ee3	-0.15850405
110	0xbd278b42	-0.04090429
111	0xbe84af8b	-0.2591518
112	0xbeb1dd56	-0.34739178
113	0xbde29d30	-0.110651374
114	0xbdbc4948	-0.09193665
115	0x3cab6965	0.02092428
116	0xbe67f09e	-0.22650382
117	0xb9757898	-0.00023409945
118	0x3cbc018f	0.022949962
119	0xbebcecd6	-0.3689944
120	0xbe5bb5e5	-0.21456106
121	0xbe3f3ad1	-0.1867478
122	0xbcb18241	-0.021668555
123	0xbdc927e5	-0.098220624
124	0xbc8125ff	-0.015765188
125	0xbe6f84b5	-0.23390467
126	0xbd882091	-0.066468365
127	0xbde30533	-0.11084976

sequential_3/conv1d_9/Conv1D f4 [32, 1, 3, 12]
0	0xbd3a492f	-0.04547995
1	0x3db723d5	0.08942381
2	0x3cd5abe1	0.026082935
3	0xbf1cb75e	-0.61217296
4	0xbdf6a0de	-0.12042402
5	0xbeb0e1cc	-0.3454727
6	0xbe6a0b95	-0.2285598
7	0xbeb2e83b	-0.34942803
8	0x3e65f6a7	0.22457372
9	0xbeb1c6cc	-0.34721982
10	0xbf159f04	-0.58445764
11	0x3e9c30a6	0.30505866
12	0x3d7a3e67	0.061094668
13	0xbe1ece56	-0.15508398
14	0xbe33d536	-0.17561802
15	0xbebe442b	-0.37161383
16	0xbed7f830	-0.4218154
17	0xbf1307db	-0.5743386
18	0xbe7d3164	-0.24725872
19	0x3f1c7e4f	0.6113023
20	0xbeac30c4	-0.33630955
21	0xbee86cfc	-0.45395648
22	0xbe85d98c	-0.26142538
23	0x3eeac837	0.45855877
24	0xbddffb6b	-0.10936626
25	0xbe2ac04d	-0.1667492
26	0x3e0e1a2e	0.13877174
27	0xbe986625	-0.2976543
28	0xbe974c5f	-0.29550454
29	0xbf2e43b2	-0.68072045
30	0x3f23b8fb	0.6395413
31	0x3e6cc9e6	0.23123893
32	0xbe4455e1	-0.19173385
33	0x3edb9977	0.42890522
34	0x3f0524fa	0.52009547
35	0xbe268d01	-0.16264726
36	0xbb63249e	-0.0034659277
37	0x3f2bbc3e	0.6708411
38	0xbcaa8dc9	-0.020819562
39	0xbe925945	-0.28583732
40	0x3d6218e5	0.055199523
41	0xbf239f4a	-0.6391493
42	0xbdfbcc37	-0.1229481
43	0xbf725764	-0.946646
44	0xbdd753b4	-0.10514012
45	0xbca5401c	-0.020172171
46	0xbf15396b	-0.5829074
47	0x3ebac85d	0.3648099
48	0xbe19d18e	-0.15021345
49	0x3f2d515c	0.6770227
50	0xbe2c9f28	-0.16857588
51	0xbd3434a0	-0.0439955
52	0x3ebc0313	0.36721095
53	0xbf1501fe	-0.58206165
54	0x3f076bd3	0.528989
55	0x3ea32f41	0.3187199
56	0xbe193e54	-0.14965183
57	0x3e03228b	0.12806146
58	0xbf112f71	-0.56713015
59	0xbeb1ac97	-0.34701988
60	0xbe0b70e6	-0.13617286
61	0x3f22f27c	0.6365125
62	0x3e248aa7	0.16068517
63	0xbe2a9873	-0.16659717
64	0x3e23ffb7	0.16015516
65	0xbebaed71	-0.36509278
66	0xbf59fe20	-0.8515339
67	0xbee018a5	-0.43768802
68	0x3e99f28a	0.30067855
69	0xbf13d8c2	-0.5775262
70	0xbe4c4d14	-0.19951278
71	0x3e5941ef	0.21216558
72	0xbde57cbf	-0.11205434
73	0x3d52f841	0.051506285
74	0x3cbd8085	0.023132572
75	0xbed6d814	-0.4196173
76	0xbe99a146	-0.30005854
77	0xbdb52aee	-0.08846079
78	0xbb947f59	-0.0045317826
79	0xbdabd769	-0.083906956
80	0xbf072852	-0.527959
81	0x3c28f515	0.010312338
82	0x3f011319	0.50419766
83	0xbcd467c9	-0.025928395
84	0xbb8f1b94	-0.0043673012
85	0x3dd68509	0.10474593
86	0x3d0f24bd	0.034947146
87	0xbeaadcd0	-0.33371592
88	0x3e93c460	0.2886076
89	0x3e13aeeb	0.14422195
90	0xbdc6b8d1	-0.0970322
91	0x3e1c44f8	0.15260684
92	0xbe03ba7c	-0.12864107
93	0xbc51a342	-0.012795271
94	0x3e3bab15	0.18326981
95	0xbef4a66c	-0.4778322
96	0xbe63cf70	-0.222471
97	0x3e0582bf	0.13038157
98	0x3d949aac	0.07256064
99	0xbb85bff0	-0.0040817186
100	0x3db0f698	0.08640784
101	0xbe9c3f7c	-0.30517185
102	0xbda24c5f	-0.07924723
103	0xbe9e0cc7	-0.30869123
104	0xbd54e0a1	-0.051972035
105	0x3d308c7e	0.043102734
106	0xbe5c6e9e	-0.21526572
107	0xbc0fd815	-0.008779545
108	0xbe437e30	-0.19091105
109	0xbd86f986	-0.065905616
110	0x3dbd2350	0.09235251
111	0xbee244f2	-0.44193226
112	0xbf0f4e5e	-0.55978954
113	0xbe8d6e56	-0.27623242
114	0xbe964ec7	-0.29356977
115	0xbe77aa6a	-0.24186102
116	0x3eb04383	0.34426507
117	0xbe6400e9	-0.22265972
118	0x3ed2f56d	0.4120287
119	0x3e2db1dc	0.16962379
120	0x3df3fb59	0.11913175
121	0x3d8ac636	0.06776087
122	0xbe11ca70	-0.1423738
123	0xbdb123b2	-0.086493865
124	0xbbdd3060	-0.0067501515
125	0x3d23a3e1	0.03995121
126	0xbe606c87	-0.219164
127	0xbcad4727	-0.021152092
128	0x3c983821	0.018581452
129	0xbe1abed5	-0.15111859
130	0x3e18f8ef	0.1493871
131	0x3e23f2ff	0.16010664
132	0xbbe00a1a	-0.0068371417
133	0xbde50d0e	-0.111841306
134	0x3cbabaf4	0.022794224
135	0x3ea38c74	0.31943095
136	0x3f312eba	0.69211924
137	0x3e5e77fb	0.21725456
138	0xbcccf727	-0.025020195
139	0xbe339e24	-0.17540795
140	0x3e9e89fb	0.30964646
141	0x3cbea9b0	0.023274273
142	0x3c680600	0.014161587
143	0x3db37665	0.08762816
144	0xbe089390	-0.1333754
145	0x3d33898b	0.043832343
146	0x3e302fe3	0.17205767
147	0xbe855bbb	-0.26046547
148	0xbe90c5ba	-0.28275853
149	0xbec10438	-0.3769853
150	0xbc73d98c	-0.01488341
151	0x3e8482f7	0.25881168
152	0x3de0ad8b	0.10970601
153	0xbe0320b1	-0.1280544
154	0xbec14f49	-0.37755802
155	0xbe8e13cc	-0.2774948
156	0xbd5e9031	-0.05433673
157	0xbcedd8a7	-0.029033972
158	0xbe0fe89c	-0.14053577
159	0x3ebceab9	0.3689783
160	0x3f54170c	0.82847667
161	0x3e863696	0.2621352
162	0xbdfa2fb7	-0.12216132
163	0x3ec3c4fe	0.3823623
164	0x3e37142b	0.17878787
165	0xbeb3d8bb	-0.3512629
166	0x3f156a1a	0.58365023
167	0xbbb021e3	-0.0053751334
168	0x3e1e479e	0.15457007
169	0x3d67e5aa	0.05661551
170	0xbd4a95f1	-0.0494594
171	0xbe2136c2	-0.15743545
172	0xbd4d4dd8	-0.050123066
173	0x3e48ca1b	0.19608347
174	0xbe90af96	-0.2825896
175	0xbe2148e7	-0.15750466
176	0x3dc507f5	0.09620658
177	0xbeabc2cc	-0.33547056
178	0x3ec741d9	0.38917425
179	0x3e9d2c19	0.30697706
180	0x3e6aa0a7	0.22912847
181	0x3e96b27d	0.2943305
182	0x3cdb7736	0.026790243
183	0xbef3cabc	-0.47615612
184	0xbd53334f	-0.051562604
185	0xbe86597d	-0.2624015
186	0xbc6f1f59	-0.014594876
187	0x3e393453	0.18086366
188	0xbf040035	-0.51562816
189	0xbe215412	-0.15754727
190	0xbd9f0fbf	-0.07766675
191	0xbef4667f	-0.47734448
192	0x3dd4eefd	0.10397146
193	0x3ee5d52b	0.44889197
194	0x3c3949b0	0.011309072
195	0xbecb4d61	-0.39707473
196	0xbd9244be	-0.07142018
197	0xbe868e9f	-0.26280686
198	0xbeed6f48	-0.46373963
199	0x3da4583c	0.08024642
200	0x3e103d9d	0.14086004
201	0xbefe3329	-0.49648407
202	0x3e514d99	0.20439757
203	0xbe465ccc	-0.19371337
204	0xbd606c9b	-0.054791074
205	0x3eccee38	0.40025496
206	0xbe8356ed	-0.25652257
207	0xbdecd538	-0.11564106
208	0xbeeb2261	-0.45924667
209	0xbd6ecbd8	-0.05829987
210	0x3cb1bbcd	0.021695996
211	0x3df22af4	0.11824599
212	0xbddc61e1	-0.107608564
213	0xbe9db450	-0.3080163
214	0x3d62ab20	0.05533898
215	0xbddb0b1d	-0.10695479
216	0x3d23ee79	0.040022347
217	0xbe7e8e95	-0.24859078
218	0x3e10cd02	0.14140704
219	0xbe913d75	-0.283672
220	0xbee0ac8e	-0.4388165
221	0xbe5e8cc2	-0.21733382
222	0xbe72217c	-0.23645586
223	0xbe970a47	-0.29500028
224	0x3e9c6aec	0.30550325
225	0xbe733aa3	-0.23752837
226	0x3e8d7ec4	0.27635777
227	0x3e39033b	0.18067639
228	0x3e6ba0f5	0.23010619
229	0xbe9d1895	-0.30682817
230	0xbe4c8331	-0.1997192
231	0xbe4fc218	-0.20288885
232	0xbe05c8fb	-0.13064949
233	0xbeb2edb3	-0.34946975
234	0xbeb531cf	-0.35389563
235	0xbe1d74ea	-0.1537663
236	0xbe31334c	-0.17304724
237	0xbea7b07a	-0.32751828
238	0xbe669d4b	-0.2252094
239	0x3d65d681	0.05611277
240	0x3db5101f	0.088409655
241	0x3be852bc	0.007089941
242	0x3c7eb93b	0.015547092
243	0xbf03fc1e	-0.51556575
244	0x3f05ebaf	0.5231275
245	0x3e283f08	0.16430295
246	0x3ecccf54	0.4000193
247	0x3d70ea61	0.05881727
248	0x3ea17580	0.31534958
249	0x3e7b1356	0.24519095
250	0xbd2c11af	-0.042009052
251	0x3c555f1c	0.013023164
252	0xbdfdf5ab	-0.12400373
253	0x3ef31c10	0.47482347
254	0x3e18c8de	0.14920375
255	0xbec9efbc	-0.39440715

sequential_3/conv1d_10/Conv1D f4 [64, 1, 3, 32]
0	0x3deff588	0.11716753
1	0xbe2a4ebc	-0.16631597
2	0x3df6b857	0.12046879
3	0xbd317b47	-0.043330457
4	0x3d652f04	0.05595304
5	0x3cc358c4	0.023846038
6	0x3bbcf973	0.0057670414
7	0x3d8e844e	0.06958829
8	0xbdf81cfc	-0.12114903
9	0x3da7351a	0.08164425
10	0xbdc2b7c0	-0.09507704
11	0xbe7b6e85	-0.24553879
12	0xbc8354e1	-0.016031684
13	0xbe29fe60	-0.16600943
14	0xbd75aab6	-0.059977256
15	0xbe186dab	-0.14885585
16	0xbcf1413d	-0.029450053
17	0xbbb0e014	-0.005397806
18	0xbd898218	-0.067142665
19	0x3d3fac81	0.046795372
20	0x3c013933	0.0078871725
21	0xbe58bfa8	-0.21166861
22	0xbd79479f	-0.06085932
23	0xbe376fcc	-0.17913741
24	0xbd8e4f0e	-0.06948672
25	0x3ba3f2ca	0.005003308
26	0xbd0bd1f5	-0.034135778
27	0xbe4681f6	-0.19385514
28	0xbdda8525	-0.106699266
29	0xbe32eb6b	-0.17472617
30	0x3dae4d12	0.08510794
31	0xbd703cc7	-0.05865171
32	0x3bc667eb	0.0060548685
33	0x3dce2b25	0.10066823
34	0x3c8b5841	0.017009856
35	0x3d710c1e	0.058849446
36	0xbea44879	-0.32086542
37	0x3d95b0b0	0.07309091
38	0x3cfb46cc	0.030673407
39	0xbbeead83	-0.007283868
40	0xbd8b9f40	-0.06817484
41	0xbd0c4145	-0.034241933
42	0xbde09264	-0.10965422
43	0xbca9899a	-0.020695496
44	0xbe3ddcc1	-0.18541242
45	0xbdb9bf55	-0.09069697
46	0xbe06b761	-0.13155891
47	0xbe9c1f8c	-0.30492818
48	0xbdc3e04a	-0.09564264
49	0xbd7bec9d	-0.06150495
50	0xbe8b4ba7	-0.27206156
51	0xbda30c28	-0.07961303
52	0xbc70df60	-0.014701694
53	0xbcaccb0f	-0.02109292
54	0xbc777ab3	-0.015104937
55	0xbe1f032e	-0.15528557
56	0x3c85038d	0.016237045
57	0x3db6ae4d	0.08919964
58	0xbd628491	-0.055302206
59	0xbe7e37fc	-0.24826044
60	0x3bac938d	0.005266613
61	0xbc82b8fe	-0.015957352
62	0x3de26cde	0.11055921
63	0xbe4e3b38	-0.20139778
64	0xbda85864	-0.08219984
65	0x3bffa498	0.0078016035
66	0xbde7485e	-0.112931
67	0x3d3ce361	0.046115283
68	0xbefe2f80	-0.49645615
69	0x3e082671	0.13295914
70	0x3ab2c2e3	0.0013638403
71	0xbe115c93	-0.1419547
72	0x3dc86588	0.097849905
73	0xbd5ffc38	-0.054683894
74	0x3d80bba2	0.06285788
75	0xbd7d373e	-0.06182026
76	0xbdf77c95	-0.12084309
77	0xbe57d425	-0.2107702
78	0x3d23566f	0.03987735
79	0xbeb1452f	-0.34623095
80	0x3dd8dbd0	0.10588801
81	0x3e6665e3	0.22499804
82	0xbeacddaa	-0.33762866
83	0x3cb69223	0.02228648
84	0x3d518af9	0.051157925
85	0xbdb943c7	-0.090461306
86	0xbb99acfd	-0.0046898113
87	0xbde37af3	-0.11107435
88	0x3d3c0b19	0.04590902
89	0xbd8b574c	-0.0680376
90	0xbcf3488b	-0.029697677
91	0xbed739ca	-0.42036277
92	0xbd67e6fe	-0.056616776
93	0xbd1478b1	-0.036247913
94	0x3d89b0a7	0.06723147
95	0xbe41a146	-0.18909177
96	0xbdb80cd3	-0.08986821
97	0x3e6b85b4	0.23000222
98	0xbcb88722	-0.022525374
99	0xbe9111fc	-0.28334033
100	0xbeea7a9b	-0.45796666
101	0xbe32d6e5	-0.17464788
102	0xbd99736e	-0.074927196
103	0x3e8bec00	0.2732849
104	0xbe7d9ce0	-0.24766874
105	0x3e50b4e8	0.2038151
106	0xbe142a6a	-0.14469305
107	0x3dfe2da9	0.12411053
108	0xbddf2e7b	-0.10897537
109	0xbdd6f754	-0.10496393
110	0xbe8da14c	-0.27662122
111	0xbcdfe35f	-0.027330099
112	0xbdb904f9	-0.090341516
113	0xbdbea010	-0.09307873
114	0xbe69d54e	-0.22835276
115	0xbeefecda	-0.4686039
116	0x3d8257ec	0.06364426
117	0xbcf12e7d	-0.029441113
118	0xbedfb6c2	-0.4369412
119	0xbe1f83fd	-0.15577693
120	0xbdc1d662	-0.094647184
121	0xbd62cf68	-0.05537358
122	0x3db61a70	0.08891761
123	0xbccba53d	-0.024859065
124	0x3b1c817d	0.0023880892
125	0xbebecc81	-0.372654
126	0xbd86b208	-0.065769255
127	0xbe405a17	-0.18784367
128	0xbcc47e19	-0.02398591
129	0xbd56dbd0	-0.052455723
130	0xbbf419f0	-0.007449381
131	0xbea25145	-0.3170263
132	0xbeec12ce	-0.46108097
133	0xbd65d610	-0.05611235
134	0x3cec1c42	0.028822068
135	0x3e7a3954	0.24435931
136	0xbe4fae0a	-0.20281234
137	0x3e38bdb0	0.1804111
138	0xbe4a8b7c	-0.19779772
139	0x3e573784	0.21017271
140	0xbe8b8d51	-0.27256253
141	0xbd710ed6	-0.05885204
142	0x3dd1e305	0.10248379
143	0xbd8498cd	-0.06474457
144	0xbccee78e	-0.025256898
145	0x3db30de0	0.08742881
146	0xbdb8ec1d	-0.0902941
147	0xbeb8f724	-0.36126053
148	0x3c929e21	0.017897667
149	0x3e3b7615	0.18306763
150	0xbec3e5d4	-0.38261282
151	0xbe1817d9	-0.14852847
152	0xbe27b481	-0.1637745
153	0x3e02da9b	0.12778704
154	0x3e409d19	0.18809928
155	0xbe69666a	-0.22792974
156	0xbed71433	-0.42007598
157	0xbea05a4d	-0.31318894
158	0x3c9c03db	0.019044807
159	0xbe14cbc9	-0.14530863
160	0xbdede7ec	-0.11616501
161	0xbd2371b7	-0.03990337
162	0x3d78f13e	0.06077694
163	0x3cf2d513	0.029642617
164	0xbd5dc9bf	-0.05414748
165	0xbe0cb93f	-0.13742541
166	0x3c05eca8	0.008174099
167	0x3d4505b8	0.048101157
168	0xbd34f98c	-0.0441833
169	0x3d6fc32c	0.05853574
170	0xbd6dacf5	-0.058026273
171	0x3dfe445e	0.12415384
172	0xbe0dd114	-0.13849288
173	0x3d6e722b	0.058214348
174	0xbd270e47	-0.0407851
175	0xbdc0cb68	-0.09413797
176	0x3e394210	0.18091607
177	0xbd985f57	-0.0744006
178	0xbe2e9219	-0.1704792
179	0xbed2f671	-0.41203645
180	0xbdeed91a	-0.116625026
181	0x3cf085e0	0.029360712
182	0xbf212b45	-0.6295665
183	0xbe451571	-0.1924646
184	0xbe9fcf47	-0.31212828
185	0x3eadd859	0.33954123
186	0x3d7843ca	0.060611524
187	0x3dd78df1	0.1052512
188	0xbef819ee	-0.48457283
189	0x3ee06c33	0.4383255
190	0x3dfe1ce2	0.12407853
191	0xbdaa5bfa	-0.083183244
192	0x3bf1ddbc	0.007381169
193	0xbcfb1157	-0.030647917
194	0xbdbf15de	-0.09330343
195	0xbf13eb02	-0.5778047
196	0xbe3c3d9d	-0.18382879
197	0xbbeae980	-0.0071689487
198	0xbe74eee0	-0.23919249
199	0x3e4b0251	0.19825102
200	0xbe9d380e	-0.3070683
201	0xbdbc50b9	-0.09195084
202	0x3e507915	0.20358689
203	0xbe8f8131	-0.28028253
204	0xbde8e9b5	-0.11372701
205	0x3d98b5d5	0.07456557
206	0xbd2bebbf	-0.041972872
207	0xbd9c94f4	-0.07645598
208	0xbd6051f5	-0.05476566
209	0xbe83b6bb	-0.2572535
210	0x3d8bcf7d	0.068266846
211	0xbf43ca4d	-0.7648056
212	0xbe59c6d5	-0.21267255
213	0xbe110baf	-0.14164613
214	0x3df46d4b	0.119349085
215	0x3d7b13bc	0.061298117
216	0x3d755fea	0.059905924
217	0xbec8254c	-0.39090955
218	0xbebbec92	-0.36703926
219	0x3c658923	0.014009747
220	0x3cf8bd7d	0.030363793
221	0xbcaaed19	-0.02086501
222	0x3da7825e	0.081791624
223	0x3d9ccd25	0.07656316
224	0xbd80b998	-0.06285399
225	0x3cdb5c94	0.026777543
226	0xbdafb3c6	-0.08579211
227	0xbebede77	-0.37279102
228	0xbe889ae3	-0.2668067
229	0x3e4e379d	0.20138402
230	0xbcdda6f3	-0.027057147
231	0x3d9564ec	0.0729464
232	0x3d0e2438	0.03470251
233	0xbde44394	-0.11145702
234	0x3d9d1333	0.076696776
235	0xbed022f3	-0.40651664
236	0xbcb6b612	-0.022303615
237	0x3d4530f7	0.0481424
238	0xbdcb5ee6	-0.0993021
239	0xbe5a063e	-0.21291444
240	0x3e73ea12	0.2381976
241	0xbe47bb7a	-0.1950511
242	0xbe83dc9f	-0.25754258
243	0xbf175cf3	-0.59126204
244	0xbcb3a61d	-0.021929795
245	0xbc1af8a4	-0.009458695
246	0x3e74cdcb	0.23906629
247	0x3c210e4d	0.00983007
248	0xbd57fa50	-0.05272895
249	0xbecee9df	-0.40412804
250	0xbf070164	-0.52736497
251	0xbe5aee85	-0.2138005
252	0xbda85de8	-0.08221036
253	0x3e0e8512	0.1391795
254	0xbdd62cff	-0.10457801
255	0x3debd653	0.115154885

sequential_3/conv1d_11/Conv1D f4 [128, 1, 3, 64]
0	0xbcb90b85	-0.0225885
1	0xbdb42163	-0.087954305
2	0xbec6b08c	-0.3880657
3	0xbe4e1f65	-0.20129164
4	0x3e49bb53	0.19700365
5	0xbdc30401	-0.09522248
6	0x3bd8d564	0.006617235
7	0xbf1b179d	-0.60582906
8	0xbdcf348f	-0.10117447
9	0x3e1cab4f	0.15299724
10	0x3d9271d5	0.07150618
11	0xbe2a7ff4	-0.16650373
12	0x3d7d17d1	0.06179029
13	0x3d826e98	0.0636875
14	0xbd16714a	-0.036729135
15	0xbd47cd52	-0.048779793
16	0xbc88401e	-0.016632136
17	0xbe97b307	-0.29628775
18	0x3d53c56c	0.051701948
19	0xbda4ddb2	-0.080500975
20	0x3d41426c	0.047182485
21	0xbc568a56	-0.013094505
22	0xbe3cf5a1	-0.18453075
23	0xbd70fae1	-0.058833007
24	0xbec704e0	-0.38870907
25	0x3dbfa957	0.09358471
26	0x3cca6d64	0.024710365
27	0xbdc954ad	-0.09830604
28	0x3cb0725f	0.021538911
29	0x3d5e993e	0.054345362
30	0xbe7a0eb5	-0.24419673
31	0xba05d56f	-0.00051053514
32	0xbe4e8c7e	-0.20170781
33	0x3b8bd306	0.0042670993
34	0x3d3259b7	0.04354259
35	0xbd3470a7	-0.044052746
36	0x3bb6ae0d	0.0055749477
37	0xbf38392b	-0.7196223
38	0xbe019238	-0.12653434
39	0xbc29284e	-0.010324551
40	0xbe9d7ef7	-0.3076093
41	0xbe991cae	-0.29904693
42	0x3da098b1	0.078416236
43	0xbd814270	-0.063115
44	0x3bbbaf9d	0.005727722
45	0xbcf9fec0	-0.030516982
46	0xbd2364b0	-0.039890945
47	0x3d2cc766	0.04218235
48	0x3c5d726e	0.013516052
49	0xbc8c4ffe	-0.017127987
50	0xbc2034f1	-0.009778247
51	0x37cf247d	2.4693314e-05
52	0xbf979b5d	-1.1844288
53	0xbcb4d378	-0.022073492
54	0xbe9b4933	-0.30329284
55	0xbeca5bdd	-0.3952321
56	0x3d1df26c	0.03856127
57	0xbd886bf3	-0.06661215
58	0xbe3eb250	-0.18622708
59	0x3d123ca2	0.035702355
60	0x3d1ab910	0.037774146
61	0x3bc6021c	0.006042732
62	0x3d420805	0.04737093
63	0xbd923d7a	-0.07140632
64	0x3d5f54ca	0.05452422
65	0x3dc3ab3e	0.09554146
66	0xbe90ab73	-0.28255805
67	0xbd6c73fa	-0.05772779
68	0xbd9ba2df	-0.075994246
69	0x3c99ea25	0.018788407
70	0xbdd76586	-0.10517411
71	0xbeb78320	-0.35842228
72	0x3cd21b5a	0.025647808
73	0xb9d04fff	-0.00039732453
74	0x3d8fbdb8	0.07018608
75	0x3d82b472	0.063820735
76	0x3d5de69c	0.054175004
77	0xbc8d7789	-0.017268913
78	0xbd2c82fe	-0.04211711
79	0xbd985cd3	-0.0743958
80	0x3c7ca6a3	0.015420589
81	0xbe87c1d0	-0.26515055
82	0x3d5db072	0.05412335
83	0x3dac8910	0.0842458
84	0xbce6a99f	-0.028157054
85	0xbcd7e804	-0.02635575
86	0xbd17ef5d	-0.03709351
87	0xbc90fdcc	-0.017699145
88	0xbe95f9d6	-0.29292172
89	0xbc3fe06f	-0.011711224
90	0x3e812166	0.25220793
91	0xbd17b366	-0.037036322
92	0xbd9a5941	-0.07536555
93	0xbdd4a564	-0.10383108
94	0x3dfb97e7	0.122848324
95	0xbcb4508e	-0.022011068
96	0xbe7d2e96	-0.24724802
97	0x3db7103c	0.08938643
98	0xbde6ef4a	-0.112761095
99	0xbdcb3b17	-0.0992338
100	0xbd8e2ff3	-0.06942739
101	0xbc1fafcb	-0.009746502
102	0xbd967bb9	-0.07347817
103	0x3bac3abe	0.005256026
104	0xbee133a4	-0.4398471
105	0xbc659b5b	-0.01401409
106	0xbdb36df6	-0.08761208
107	0x3dd095c9	0.10184819
108	0x3d312df4	0.043256715
109	0xbd749846	-0.05971553
110	0x3c9a5c03	0.018842703
111	0xbea04b94	-0.31307662
112	0xbe1cee8a	-0.1532537
113	0x3c98e898	0.018665597
114	0x3d3459b7	0.04403087
115	0xbe1b1cc5	-0.15147693
116	0xbf3b3142	-0.73122036
117	0xbbfc133a	-0.0076927217
118	0x3e06ecf1	0.13176323
119	0xbec07d07	-0.37595388
120	0xbc7ae436	-0.015313199
121	0xbcb11e0f	-0.021620778
122	0xbf4378ef	-0.76356405
123	0xbd44d8db	-0.048058372
124	0xbdbdb9cd	-0.09263954
125	0x3d362939	0.044472907
126	0xbe753c6a	-0.23948827
127	0x3ce57e37	0.028014285
128	0xbd71f734	-0.059073642
129	0xbe0663ab	-0.13123958
130	0xbeed13e5	-0.4630424
131	0xbe94dcf4	-0.29074824
132	0xbd858f39	-0.06521458
133	0xbab9460f	-0.0014135259
134	0xbde931be	-0.11386441
135	0xbe71d17f	-0.23615073
136	0xbb502c93	-0.003176485
137	0xbdb7b8c9	-0.08970792
138	0xbd1079d2	-0.035272427
139	0xbdd4e997	-0.10396116
140	0xbdac15e6	-0.08402614
141	0xbdcf8929	-0.10133583
142	0x3c5f22ba	0.013619119
143	0xbd16a064	-0.036774054
144	0xbdcb329f	-0.099217646
145	0xbe5b72cf	-0.21430515
146	0xbc2026c1	-0.009774865
147	0x3c8d51cd	0.01725092
148	0x3dc53ece	0.0963112
149	0x3c832fdf	0.016014038
150	0xbde5b78e	-0.11216651
151	0xbd3f811e	-0.046753995
152	0xbf018525	-0.5059379
153	0xb9ee220b	-0.0004542026
154	0x3e8fc574	0.28080332
155	0xbdad87ed	-0.084731914
156	0x3d350057	0.044189777
157	0xbdd30eca	-0.10305555
158	0xbda4ec6e	-0.08052908
159	0xbafbe219	-0.0019217163
160	0xbe5acb61	-0.21366645
161	0x3de2d53e	0.11075829
162	0x3db8ebb3	0.09029331
163	0xbdd927b6	-0.106032774
164	0xbc388b1b	-0.011263634
165	0xbedfb5b4	-0.43693316
166	0xbc89a0de	-0.01680034
167	0xbd8969fb	-0.06709667
168	0xbede17e3	-0.433776
169	0x3d80e94d	0.062944986
170	0xbd902e4c	-0.070400804
171	0xbd806760	-0.06269717
172	0xbdc59adf	-0.0964868
173	0xbdfc05bd	-0.12305782
174	0x3e0cabec	0.13737458
175	0x3ca05c79	0.019575344
176	0xbd44758a	-0.047963656
177	0x3d76af09	0.06022552
178	0x3dd60193	0.10449519
179	0xbdd2ec12	-0.10298933
180	0xbf10ad86	-0.56514776
181	0x3d2ed39f	0.042682286
182	0xbecc9693	-0.3995863
183	0xbea718c3	-0.3263608
184	0x3db1a0e2	0.08673264
185	0x3d4f2ce1	0.05057991
186	0xbf0c6b58	-0.54851294
187	0x3c960a27	0.018315388
188	0xbda84d59	-0.08217878
189	0x3d240dce	0.040052228
190	0xbe3fa5b8	-0.1871556
191	0x3ca549ce	0.020176794
192	0xbdd700ee	-0.10498224
193	0x3ce0c1a6	0.027436089
194	0xbdddbdff	-0.108272545
195	0xbe620d18	-0.22075307
196	0xbdf33d49	-0.118769236
197	0x3ceb7b01	0.028745176
198	0x3c04405f	0.008071988
199	0xbe180b91	-0.14848162
200	0xbd9c1195	-0.07620541
201	0x3e0753e4	0.13215595
202	0xbe07689b	-0.13223498
203	0xbcda4c45	-0.026647696
204	0x3d06e166	0.0329298
205	0x3bb855fd	0.005625485
206	0xbd889924	-0.06669834
207	0x3c7c8527	0.015412605
208	0xbddba420	-0.10724664
209	0x3d462ba5	0.048381466
210	0xbc8dfaac	-0.017331444
211	0xbe441cbe	-0.1915159
212	0x3d0faff7	0.035079923
213	0xbdea5a75	-0.114430346
214	0xbe22d722	-0.15902379
215	0xbc8ae862	-0.016956512
216	0xbe505a1f	-0.20346878
217	0xbd66a242	-0.056307085
218	0xbe6b631f	-0.2298703
219	0x3d5b137f	0.05348539
220	0x3d0a189e	0.033714883
221	0x39ebdecf	0.00044988698
222	0xbdc906bb	-0.09815737
223	0xbca61529	-0.020273762
224	0x3d89e620	0.06733346
225	0xbc996cf0	-0.018728703
226	0xbd9a5616	-0.07535951
227	0xbc358fd4	-0.011081655
228	0xbdb64811	-0.08900464
229	0xbda77750	-0.08177054
230	0x3de72fe5	0.11288432
231	0x3c8ae739	0.016955959
232	0xbe8b13c7	-0.27163526
233	0xbca6fcc4	-0.0203842
234	0xbb6da80a	-0.003626349
235	0xbea65a38	-0.32490706
236	0xbdd66126	-0.10467748
237	0xbc3e78b0	-0.011625454
238	0xbe6aed20	-0.22942019
239	0xbd3d03c8	-0.046146184
240	0xbdc96b26	-0.0983489
241	0x3d427bf0	0.047481477
242	0x3d87cb43	0.06630566
243	0x3b27b717	0.0025591308
244	0xbe237218	-0.15961492
245	0x3d3131b1	0.04326028
246	0xbdf51047	-0.11965995
247	0xba76240a	-0.00093895255
248	0x3c0db6f7	0.008649579
249	0xbe3d64cf	-0.18495487
250	0xbf03b28b	-0.5144431
251	0x3d819da6	0.06328897
252	0x3da5d9a8	0.08098155
253	0xbd95775c	-0.072981566
254	0x3c85b5da	0.016322065
255	0x3d815c97	0.06316488

sequential_3/dense_12/BiasAdd/ReadVariableOp f4 [15]
0	0xbe516b05	-0.20450981
1	0x3e1c970f	0.15292
2	0x3be17f97	0.006881665
3	0x3d6c96c5	0.057760973
4	0xbe3ad18d	-0.18244
5	0x3cebae88	0.028769746
6	0xbe2d1fae	-0.16906616
7	0xbc586268	-0.013207056
8	0x3c5b1267	0.013371087
9	0xbd29b073	-0.04142804
10	0xbd56f4a7	-0.052479412
11	0xbdaf4995	-0.085589565
12	0x3dce5dd5	0.10076491
13	0x3e6c1c95	0.23057778
14	0xbd473948	-0.048638612

sequential_3/dense_11/BiasAdd/ReadVariableOp f4 [64]
0	0x3e59f621	0.21285297
1	0x3e5bf16a	0.21478811
2	0x3e026d38	0.12736976
3	0x3df887cf	0.121352784
4	0x3e492c59	0.19645824
5	0x3e59a8cf	0.21255802
6	0xbc913a66	-0.017728042
7	0x3e37f894	0.17965919
8	0x3ded9167	0.11599999
9	0x3ea2c741	0.31792644
10	0x3e770752	0.24123886
11	0x3e250fe0	0.16119337
12	0x3e3e5c80	0.18589973
13	0x3e8c0c8d	0.27353325
14	0x3e95859e	0.29203504
15	0x3ddfea04	0.10933307
16	0x3d95a78b	0.07307347
17	0x3e56fe92	0.20995548
18	0x3df4ccd7	0.119531326
19	0x3db2163c	0.08695647
20	0x3dcffe4e	0.10155927
21	0x3d4e66a1	0.050390843
22	0x3db98b4f	0.09059774
23	0x3e0e1ebd	0.13878913
24	0x3e480e81	0.19536783
25	0x3ea01418	0.3126533
26	0x3df2d89f	0.118577234
27	0x3e9476db	0.2899693
28	0x3e012cf7	0.12614809
29	0x3e65ef08	0.22454464
30	0xbc0bcc26	-0.0085325595
31	0x3e6f4df4	0.2336958
32	0x3eb7125a	0.3575619
33	0x3e65c81e	0.2243962
34	0x3dc16b94	0.09444347
35	0x3dd775da	0.10520525
36	0x3e68f7ad	0.22750731
37	0x3e22b761	0.15890266
38	0x3e1ad2b8	0.15119445
39	0x3e33a9d9	0.1754526
40	0x3df9a51d	0.12189696
41	0x3e9098b0	0.2824149
42	0x3dc68aba	0.09694429
43	0x3da24cc1	0.07924796
44	0x3e8879e0	0.26655483
45	0x3e48d6f6	0.19613251
46	0x3e8ecaca	0.2788909
47	0x3e93bcea	0.28855067
48	0x3e98c23b	0.29835686
49	0x3d94fa63	0.0727432
50	0x3d87f819	0.06639118
51	0x3cf2ceb3	0.029639577
52	0x3e2855a0	0.16438913
53	0x3e1d0157	0.15332542
54	0x3de57f44	0.112059146
55	0x3e12a91b	0.14322321
56	0x3e708b54	0.2349065
57	0x3e5d5db1	0.21617772
58	0x3e49e125	0.19714792
59	0x3e5049ac	0.20340604
60	0x3e4eb544	0.20186335
61	0x3dc7427d	0.097294785
62	0x3e04b0e7	0.12958108
63	0x3dce3bee	0.100700244

sequential_3/dense_10/BiasAdd/ReadVariableOp f4 [64]
0	0xbc0b71e6	-0.008511042
1	0xbec2669b	-0.37968907
2	0x3d66e463	0.05637015
3	0xbeaa3e86	-0.33250827
4	0xbebeff9c	-0.3730439
5	0xbf032f49	-0.51244026
6	0x3dc70ff8	0.09719843
7	0x3ddf1c88	0.10894114
8	0xbeb8fc87	-0.36130163
9	0xbdfe8d97	-0.1242935
10	0xbe6cbcf0	-0.23118949
11	0xbde967e4	-0.11396769
12	0x3de0f478	0.10984129
13	0x3e741aff	0.23838423
14	0x3e228d35	0.15874179
15	0xbe9db43e	-0.30801576
16	0xbab1301e	-0.0013518368
17	0x3e62e270	0.22156692
18	0x3ded2f54	0.11581293
19	0x3e39f8bd	0.18161292
20	0x3e5d91fb	0.21637718
21	0xbe6ec4dc	-0.23317283
22	0x3e666d98	0.22502744
23	0x3e4570ed	0.19281359
24	0x3dce7ec0	0.100827694
25	0xbc52bf3a	-0.012862975
26	0xbc0d4646	-0.0086227115
27	0xbe95102e	-0.29113907
28	0x3cc938f3	0.024563288
29	0xbdbe7c7a	-0.09301086
30	0xbe9e1679	-0.3087652
31	0x3e435728	0.19076216
32	0xbe9e3e97	-0.30907127
33	0x3e3353de	0.17512462
34	0x3d8d7021	0.069061525
35	0x3e0aea08	0.13565838
36	0xbe1aa093	-0.15100317
37	0x3e107743	0.14107995
38	0x3d817645	0.06321386
39	0x3c9c3fba	0.019073356
40	0xbc9cc411	-0.01913646
41	0x3d1a338e	0.037646823
42	0xbeb101f9	-0.34571818
43	0xbd5dc1f6	-0.054140054
44	0x3d29b634	0.041433528
45	0x3dada45d	0.084786154
46	0x3cb06ff2	0.021537755
47	0x3d9f58f3	0.077806376
48	0xbb43b48d	-0.0029862255
49	0xbea6a046	-0.32544154
50	0xbe00df78	-0.12585247
51	0xbe88dc1e	-0.26730436
52	0xbdd14bd8	-0.10219544
53	0x3d995734	0.07487336
54	0xbdbd51f6	-0.092441484
55	0xbf14d380	-0.58135223
56	0xbc87f960	-0.016598403
57	0xbef85c01	-0.48507693
58	0xbe2bf72f	-0.16793512
59	0xbe3cebef	-0.18449377
60	0x3cc4e967	0.024037076
61	0x3e88261c	0.26591575
62	0xbe428165	-0.18994673
63	0x3dde4b44	0.108541995

sequential_3/dense_10/MatMul f4 [64, 1664]
0	0x3d08eca4	0.033428803
1	0x3dc4e393	0.09613719
2	0xbd801bb8	-0.06255287
3	0x3dffd0d0	0.12491
4	0xbf185210	-0.5950022
5	0x3c2a093f	0.010378181
6	0xbd36b4ee	-0.04460614
7	0x3d9e0354	0.077154785
8	0xbc889c5d	-0.016676122
9	0xbd39bb4b	-0.045344632
10	0x3c87d3fc	0.016580574
11	0xbd028a3a	-0.031870104
12	0xbe3b8801	-0.183136
13	0xbe1f90a1	-0.15582515
14	0x3c711c09	0.014716157
15	0x3e2a529d	0.16633077
16	0xbe402134	-0.18762666
17	0xbe7416dd	-0.23836847
18	0x3c473f39	0.01216107
19	0xbd63326a	-0.055468
20	0x3cb3710e	0.021904495
21	0xbe6b86f6	-0.23000702
22	0xbdc27771	-0.09495438
23	0xbe1ac58f	-0.15114425
24	0x3d802e38	0.062588155
25	0x3da68130	0.08130109
26	0x3e0e0b31	0.13871457
27	0xbe226e57	-0.15862404
28	0x3cafe2f5	0.021470526
29	0xbd8ef49b	-0.069802485
30	0xbdf0913f	-0.117464535
31	0xbe1a29e4	-0.15055043
32	0xbf08822f	-0.53323644
33	0x3b7b8eda	0.0038384707
34	0x3b6fb638	0.0036577117
35	0xbd13b912	-0.03606517
36	0xbbb00fcc	-0.005372977
37	0x3d22fac7	0.03978994
38	0xbd911979	-0.07084937
39	0xbe010c54	-0.12602359
40	0x3c9b5a67	0.018964006
41	0xbe9e6550	-0.3093667
42	0x3bd618b8	0.0065337084
43	0xbc8b3d08	-0.016996875
44	0x3dac513d	0.084139325
45	0xbc48b772	-0.012250768
46	0xbe80c7ac	-0.25152338
47	0xbdb90970	-0.09035003
48	0xbe125688	-0.14290822
49	0xbe995ebb	-0.29955086
50	0xbe77cce7	-0.24199258
51	0xbc835de5	-0.016035983
52	0x3bf07367	0.007337976
53	0xbd9ec525	-0.07752446
54	0xbe1d8520	-0.15382814
55	0x3d15da6c	0.036585256
56	0xbe9a0c31	-0.30087426
57	0xbe708776	-0.23489174
58	0xbeb0bb7a	-0.34518033
59	0xbeab4176	-0.3344838
60	0x3d6f66e6	0.05844774
61	0xbc5a6f2e	-0.013332171
62	0x3d20c2a3	0.03924812
63	0xbe4028bb	-0.18765537
64	0x3e20d63c	0.15706724
65	0xbb82dd2e	-0.003993652
66	0x3cae843d	0.02130329
67	0x3e705aa1	0.23472072
68	0xbcaea383	-0.021318203
69	0x3eb0c79a	0.34527284
70	0xbd959d51	-0.07305396
71	0xbc728cb3	-0.014804053
72	0xbcc25d84	-0.023726232
73	0xbd840e22	-0.06448008
74	0xbf024c15	-0.5089734
75	0xbccbeb6f	-0.024892537
76	0x3de769e2	0.112994924
77	0xbcdac74c	-0.02670636
78	0xbc22577e	-0.009908555
79	0xbe0d4086	-0.13794145
80	0x3e0da951	0.1383412
81	0xbf09378f	-0.536004
82	0xbe99ce19	-0.30040053
83	0xbe7b3060	-0.24530172
84	0xbe162c71	-0.1466539
85	0x3a84853c	0.0010110508
86	0xbe0ba907	-0.13638698
87	0xbb10b8d3	-0.002208282
88	0xbcbb691f	-0.022877274
89	0xbe822fbd	-0.25427046
90	0xbdfbd46b	-0.12296375
91	0xbed2b5d0	-0.41154337
92	0xbe2a4963	-0.16629557
93	0xbdba7d8d	-0.09105978
94	0xbe2d36d1	-0.16915442
95	0x3cf7f157	0.030266447
96	0xbe91ac6f	-0.2845187
97	0x3d995b37	0.07488101
98	0xbdbe2dde	-0.09286092
99	0x3d11a762	0.03556002
100	0x3dcfd0f1	0.10147274
101	0xbdb0ec20	-0.08638787
102	0xbdc6f8c9	-0.09715421
103	0xbdb2d79f	-0.08732533
104	0xbe13adf2	-0.14421824
105	0xbe6fdf19	-0.23424949
106	0x3db49fa9	0.08819515
107	0xbeda0b77	-0.42586872
108	0xbd881200	-0.06644058
109	0xbdea66b7	-0.114453726
110	0x3e26930a	0.16267028
111	0xbcaf3e52	-0.021392021
112	0xbe9ee8e0	-0.31037045
113	0xbe04a76d	-0.12954493
114	0xbddf8805	-0.109146155
115	0x3e232270	0.15931106
116	0x3932246c	0.00016988971
117	0xbe3d9a36	-0.18515858
118	0xbe301d5a	-0.17198697
119	0xbe7a62de	-0.24451777
120	0xbde4e242	-0.11175968
121	0x3b149e17	0.0022677237
122	0xbed7bcdf	-0.42136285
123	0xbe90b4d9	-0.28262976
124	0xbd52e5b3	-0.05148859
125	0xbeb01979	-0.34394434
126	0x3cc683ac	0.024232708
127	0xbe8623da	-0.26199228
128	0x3d9c82e8	0.07642156
129	0x3e8393ef	0.25698802
130	0xbe648973	-0.22318058
131	0xbc99195e	-0.018688854
132	0x3de4e1bd	0.11175869
133	0xbc966ddd	-0.018362934
134	0x3de7c887	0.113175444
135	0xbd684836	-0.05670949
136	0x3d29f80c	0.04149632
137	0xbe4ac9c7	-0.19803534
138	0xbd6ca6a4	-0.05777611
139	0xbe1857dd	-0.14877267
140	0xbe40f4d2	-0.18843392
141	0xbd1398a8	-0.036034256
142	0xbe00f388	-0.125929
143	0x3df587c9	0.119887896
144	0x3e708f02	0.23492053
145	0x3d994ce9	0.074853726
146	0x3be81762	0.0070828656
147	0xbeb02448	-0.3440268
148	0x3e1166f5	0.14199431
149	0x3e497a1a	0.19675484
150	0xbdabf383	-0.083960555
151	0x3e2eb2c0	0.17060375
152	0x3d58651c	0.0528308
153	0x3da32615	0.07966248
154	0xbe422886	-0.18960771
155	0x3de20c62	0.11037518
156	0x3dcd57c7	0.10026508
157	0x3cc7fb43	0.024411803
158	0xbcacb455	-0.021082083
159	0x3df624f5	0.12018768
160	0xbe358498	-0.17726362
161	0xbca2fa72	-0.019894812
162	0xbe3e80be	-0.18603799
163	0xbe51843d	-0.20460601
164	0x3e4fb6c6	0.20284566
165	0xbd2850b6	-0.041092597
166	0xbcbb57f7	-0.022869093
167	0xbeddf285	-0.4334909
168	0xbe5d4134	-0.21606904
169	0x3e60582d	0.21908636
170	0xbe0a67b8	-0.13516128
171	0xbd47ba78	-0.048761815
172	0xbdd1a3ea	-0.10236342
173	0x3dc442a2	0.09583022
174	0xbe685186	-0.22687349
175	0x3d863eac	0.065549225
176	0x3d3b1fe9	0.04568473
177	0xbda2f08a	-0.079560354
178	0xbd33c3fb	-0.043888073
179	0x3d787413	0.060657572
180	0x3dbd0fdf	0.09231543
181	0xbd46c9d1	-0.04853231
182	0xbe3239fc	-0.17404932
183	0x3d1a0063	0.037598025
184	0xbda39353	-0.07987084
185	0xbed51b77	-0.41622517
186	0xbde8598f	-0.11345207
187	0xbe98bd22	-0.29831797
188	0xbd181de4	-0.03713788
189	0x3ded1dfa	0.11577983
190	0x3d9da078	0.076966226
191	0xbe167019	-0.146912
192	0x3d3f418a	0.046693362
193	0xbda67518	-0.081278026
194	0x3dfacbbc	0.122458905
195	0xbe0cac5b	-0.13737623
196	0xbbbbd028	-0.0057316013
197	0x3e4bfafa	0.19919959
198	0xbc89a48b	-0.016802093
199	0xbd89247a	-0.066964105
200	0x3d97a38e	0.074042425
201	0x3c4809f6	0.012209406
202	0xbe240fbd	-0.16021629
203	0xbde9cd8e	-0.114161596
204	0x3dcdf399	0.10056228
205	0x3ddfabed	0.10921464
206	0x3dbfb582	0.09360792
207	0xbe959211	-0.29213002
208	0xbe6cf0bb	-0.23138706
209	0x3c1fc086	0.009750491
210	0xbd92495a	-0.07142897
211	0x3c1315d6	0.008977374
212	0xbdc7a165	-0.097475804
213	0x3d40c147	0.047059324
214	0x3e34939c	0.17634434
215	0xbcea5eb6	-0.028609615
216	0x3d5bd03e	0.053665392
217	0xbe0eae32	-0.13933638
218	0xbdeea416	-0.11652391
219	0x3ca83ded	0.020537341
220	0xbabdef4d	-0.0014490873
221	0xbd463fe0	-0.04840076
222	0xbdf6441f	-0.12024712
223	0x3e19479d	0.14968725
224	0xbeda0740	-0.42583656
225	0xbe0ddc15	-0.13853486
226	0x3d5092c4	0.050921217
227	0xbdc83a9e	-0.09776805
228	0xbb697e85	-0.003562839
229	0xbdc8ad06	-0.097986266
230	0xbe9ac446	-0.3022787
231	0xbc3fd343	-0.011708084
232	0x3e75f45d	0.24018998
233	0x3bcbcc42	0.006219418
234	0xbd38984e	-0.045067124
235	0x3e0219e8	0.12705195
236	0xbcc39151	-0.023873003
237	0x3e4f7d2c	0.20262593
238	0xbd9f5e26	-0.07781629
239	0xbd964c7b	-0.07338806
240	0xbe97b072	-0.29626805
241	0xbeb63d6d	-0.3559374
242	0x3eacd735	0.3375794
243	0x3e094bfd	0.13407893
244	0xbd563f8d	-0.0523067
245	0x3e7b7a4d	0.24558373
246	0xbd5dacd2	-0.054119892
247	0x3e7aa460	0.24476767
248	0x39c0e836	0.00036794104
249	0xbd86c83d	-0.06581161
250	0xbdd05587	-0.10172563
251	0xbd0ece1b	-0.034864526
252	0xbebb61d3	-0.3659807
253	0xbe8c9c42	-0.27462965
254	0xbe8021ca	-0.2502578
255	0xbcd4f821	-0.025997223

sequential_3/dense_11/MatMul f4 [64, 64]
0	0xbf89f4e2	-1.0777857
1	0x3e7a0d5e	0.24419162
2	0x3e30d8c5	0.17270191
3	0xbf00cd93	-0.5031368
4	0xbf225453	-0.6340992
5	0x3d0c9e9d	0.034330953
6	0xbe026acc	-0.12736052
7	0x3e8b5dfe	0.27220148
8	0x3e98ae8c	0.2982067
9	0x3ed4f1fd	0.41590872
10	0xbdd13adb	-0.10216304
11	0xbf2c53b4	-0.6731522
12	0xbf5b204d	-0.8559616
13	0x3dd334d3	0.1031281
14	0xbf090ff8	-0.5353999
15	0xbd921dc3	-0.07134583
16	0xbda507c1	-0.080581196
17	0x3ed79235	0.42103735
18	0xbe88c045	-0.2670919
19	0x3d5e2ed5	0.05424388
20	0xbdaf31b4	-0.08554402
21	0xbe79b3fe	-0.24385068
22	0x3f073dea	0.5282885
23	0x3f5a55bf	0.8528709
24	0xbf0df9f3	-0.5545952
25	0xbef18076	-0.4716832
26	0x3d75b72f	0.05998915
27	0xbf30f331	-0.6912108
28	0xbfac1873	-1.3444961
29	0x3db7e918	0.08980006
30	0xbe5b0ce5	-0.21391638
31	0x3e35f584	0.17769438
32	0xbd92479c	-0.07142565
33	0x3f2c05ac	0.67196155
34	0x3dce9498	0.10086936
35	0xbe8992f2	-0.26869923
36	0x3e3fb8c9	0.18722834
37	0xbdd6297d	-0.10457132
38	0xbe1be98b	-0.15225808
39	0xbecb1f90	-0.39672518
40	0xbd87f742	-0.066389576
41	0x3db79aca	0.089650705
42	0xbf446d64	-0.76729417
43	0x3ed17bbb	0.4091471
44	0x3f0a389c	0.5399263
45	0xbf59fb1c	-0.8514879
46	0x3ee24521	0.44193366
47	0xbdc53e6b	-0.09631046
48	0x3ce9c3e1	0.028535785
49	0xbe804ada	-0.25057107
50	0x3e1636d5	0.14669354
51	0xbedb9a16	-0.42890996
52	0xbe44a4f8	-0.19203556
53	0x3e86df8f	0.26342437
54	0x3f0db495	0.5535367
55	0x3dfdadae	0.123866424
56	0x3ed37b77	0.41305134
57	0x3e6a7b3f	0.22898577
58	0x3ebbcba7	0.36678812
59	0xbf06ded6	-0.5268377
60	0x3df8153a	0.12113424
61	0x3eb922ae	0.3615927
62	0x3ea5efb5	0.32409444
63	0x3eb1ffce	0.34765476
64	0x3e94c5c5	0.29057136
65	0xbe8a8d75	-0.27061048
66	0x3e5e9f2a	0.21740404
67	0x3e237c4a	0.15965381
68	0x3ebe419c	0.3715943
69	0x3cec9cad	0.028883303
70	0x3e908cea	0.2823251
71	0xbf0ae2eb	-0.542525
72	0xbe149da2	-0.14513257
73	0x3e93b977	0.28852436
74	0x3e531574	0.20613652
75	0x3dd89cc5	0.105767764
76	0x3d64c8d3	0.055855583
77	0xbea5eebf	-0.3240871
78	0xbd06f8c7	-0.032952096
79	0x3e8eaa81	0.2786446
80	0xbe99fd06	-0.30075854
81	0xbdec0743	-0.115248226
82	0x3ec1d7cf	0.3785996
83	0x3ec5cd23	0.3863307
84	0xbf0110ba	-0.5041615
85	0xbc7c28b4	-0.015390564
86	0xbd9627e2	-0.07331826
87	0xbf4dd3d6	-0.8040136
88	0x3f698d59	0.91231304
89	0x3f324e04	0.6965029
90	0xbe1d6ced	-0.15373583
91	0xbcba05d0	-0.02270785
92	0x3d67960f	0.05653959
93	0x3f19c228	0.60061884
94	0xbe11e7db	-0.14248602
95	0xbf399b04	-0.7250216
96	0xbed6ec00	-0.4197693
97	0x3f85757f	1.0426482
98	0xbf57b076	-0.84253633
99	0xbeada7c5	-0.3391706
100	0xbe642e5d	-0.22283311
101	0x3ea16b49	0.31527165
102	0x3d3b22d9	0.04568753
103	0xbd81db6c	-0.063406795
104	0x3f20eded	0.62863046
105	0x3cd77e35	0.026305297
106	0x3e94b38c	0.29043233
107	0xbdc3fd57	-0.09569805
108	0x3f0f993e	0.56093204
109	0xbd777bce	-0.060420804
110	0xbf0114ca	-0.50422347
111	0xbe37eba0	-0.17960978
112	0x3e053e7f	0.13012122
113	0x3c6411d0	0.013920262
114	0xbdedd061	-0.11612011
115	0x3c657300	0.014004469
116	0x3daecbbf	0.08534955
117	0xbeb79608	-0.35856652
118	0xbd139673	-0.03603215
119	0x3d778d43	0.060437452
120	0x3eab5a71	0.3346744
121	0xbdf62eaa	-0.12020619
122	0x3f4aa236	0.79153764
123	0x3efee77e	0.4978599
124	0xbe619223	-0.22028403
125	0xbf8bbaed	-1.091642
126	0xbf05b698	-0.5223174
127	0xbe8eaadb	-0.27864727
128	0x3eec1d5f	0.46116158
129	0x3e10761f	0.1410756
130	0x3e8d61da	0.27613717
131	0xbb8e54b3	-0.004343593
132	0xbdfa323f	-0.12216615
133	0x3e4935e8	0.1964947
134	0xbf720661	-0.94540983
135	0x3e84d54f	0.25943992
136	0x3b3a32f8	0.0028411727
137	0x3deacfd4	0.11465421
138	0xbd9cf0e9	-0.076631375
139	0x3d30c6dc	0.043158397
140	0x3f037035	0.5134309
141	0xbf08b4f6	-0.53401124
142	0x3ef13446	0.47110194
143	0x3e876673	0.2644535
144	0x3e0d9a15	0.13828309
145	0x3e0a9896	0.1353477
146	0x3bd24df9	0.0064179865
147	0x3ecc8730	0.3994689
148	0xbe9c0e9b	-0.30479893
149	0xbe9612cb	-0.29311213
150	0xbe8b0b06	-0.27156848
151	0xbf1ab0eb	-0.60426205
152	0xbf3f4f4d	-0.7473038
153	0x3e82e9a9	0.25568894
154	0x3e70ada0	0.23503733
155	0x3cd3fbd4	0.025876917
156	0x3efa3e5d	0.48875704
157	0xbd345bce	-0.044032864
158	0xbc9742f9	-0.018464552
159	0x3b42e399	0.002973771
160	0x3f06751b	0.5252244
161	0xbea659bf	-0.32490346
162	0xbf11dca7	-0.56977314
163	0x3dafba18	0.085804164
164	0xbd97b61f	-0.07407784
165	0x3e8756ec	0.26433504
166	0xbeaa135e	-0.332179
167	0xbd719e56	-0.05898889
168	0x3eed91d5	0.46400324
169	0x3f3831a2	0.71950734
170	0x3e7140f4	0.23559934
171	0x3e190b94	0.14945823
172	0x3c98fc69	0.018675046
173	0x3e7c0fca	0.24615398
174	0x3e1621fc	0.14661402
175	0xbf152f9e	-0.58275783
176	0x3cfbf23c	0.030755155
177	0x3e8f9211	0.28041127
178	0x3e15e4e3	0.14638095
179	0x3f1693e3	0.5881941
180	0xbdbba89b	-0.09163018
181	0xbddf5f2c	-0.109068245
182	0x3df5ae34	0.11996117
183	0x3da59f70	0.08087051
184	0xbf229256	-0.6350454
185	0xbe44cc66	-0.19218597
186	0xbd4693e3	-0.04848088
187	0x3d8e5f5e	0.069517836
188	0x3f429c0b	0.7601935
189	0xbf2c7972	-0.6737281
190	0x3e8dff64	0.2773391
191	0xbf3813a2	-0.7190496
192	0xbebf79a9	-0.37397507
193	0x3e4640e2	0.19360688
194	0x3e3c7915	0.18405564
195	0x3e0d74ef	0.13814138
196	0x3e583315	0.21113236
197	0x3eacd3cc	0.33755338
198	0xbe25f101	-0.16205217
199	0xbf185eb0	-0.5951948
200	0x3e42a906	0.1900979
201	0xbf06080f	-0.52356046
202	0x3e933e6b	0.2875856
203	0x3d336ca3	0.043804776
204	0x3f354422	0.7080709
205	0x3e41a273	0.18909626
206	0xbf2cbd57	-0.6747641
207	0x3e78a393	0.24281149
208	0x3df76a0b	0.12080773
209	0x3e7dcea0	0.24785852
210	0xbf858f40	-1.0434341
211	0x3e29fe7c	0.16600984
212	0xbd03f783	-0.032218467
213	0xbe6f37bc	-0.23361105
214	0x3ec0f196	0.37684315
215	0x3e70fa8a	0.23533073
216	0x3f7ed4ea	0.9954363
217	0xbe82ac1f	-0.25521943
218	0xbf0b223f	-0.5434913
219	0xbd8239b4	-0.06358662
220	0x3f32ba31	0.69815356
221	0xbdbc4ca6	-0.09194307
222	0xbd2054c9	-0.039143357
223	0xbf0b83ec	-0.5449817
224	0xbedce6bd	-0.4314479
225	0xbf82eb8b	-1.0228132
226	0xbcfad1ab	-0.030617556
227	0x3de6f6c8	0.112775385
228	0x3e33462d	0.17507239
229	0x3f46d99d	0.776758
230	0xbf1464d9	-0.5796638
231	0xbb91f0ed	-0.0044537694
232	0xbf9606ef	-1.1720866
233	0x3d809d2f	0.062799804
234	0x3e8e88ac	0.27838647
235	0xbefffc7b	-0.49997315
236	0xbdee67ce	-0.11640893
237	0xbedc0959	-0.42975882
238	0xbe690b29	-0.22758164
239	0xbebd24d4	-0.3694216
240	0x3eaaa17d	0.3332633
241	0x3dac6987	0.08418565
242	0xbd64d6db	-0.055868965
243	0xbede4b2e	-0.43416733
244	0x3ea82862	0.3284331
245	0x3dab4471	0.083626635
246	0x3ee790fc	0.45227802
247	0x3da0feca	0.07861097
248	0x3e2cb974	0.1686762
249	0xbd729995	-0.0592285
250	0x3e0459e9	0.12924923
251	0xbe1abce8	-0.15111125
252	0xbf9bc848	-1.2170496
253	0xbef5efab	-0.48034415
254	0xbdfd8728	-0.12379295
255	0xbe78beef	-0.24291585

sequential_3/dense_12/MatMul f4 [15, 64]
0	0xbf51515e	-0.8176478
1	0x3e4bf3e0	0.1991725
2	0xbd235e56	-0.039884888
3	0x3ed9b6a0	0.42522144
4	0xbf767b8a	-0.96282256
5	0x3e68a28e	0.2271826
6	0x3effe37e	0.4997825
7	0xbeead3fa	-0.4586485
8	0x3dec47da	0.11537142
9	0x3e838706	0.25688952
10	0x3e528efa	0.20562354
11	0xbf90e4a4	-1.1319776
12	0xbe88ccad	-0.26718655
13	0xbfe73464	-1.8062863
14	0xc0185b4c	-2.3805723
15	0xbf1e2b36	-0.61784685
16	0x3eb70d47	0.35752317
17	0xbf06ef43	-0.52708834
18	0x3eafa89d	0.3430833
19	0xbe1f9c4a	-0.15586963
20	0x3e6facac	0.23405713
21	0xbed2d629	-0.41179016
22	0x3d5f33ca	0.05449275
23	0x3ec3e7b7	0.38262722
24	0x3e1c1ae9	0.1524464
25	0xc03685c0	-2.8519135
26	0x3f16ce98	0.5890899
27	0xbf1e762c	-0.61899066
28	0xbf0db68d	-0.55356675
29	0xbf0fe69e	-0.5621127
30	0x3e04f9dc	0.12985939
31	0xbf0f505c	-0.55981994
32	0x3e194ae9	0.14969982
33	0x3eaab166	0.3333847
34	0x3dbe8edb	0.09304591
35	0xbfab77ba	-1.3395913
36	0xbf89c25c	-1.0762439
37	0x3d4f6b22	0.05063928
38	0x3ec6681f	0.38751313
39	0x3edcafdf	0.4310293
40	0x3e68cbe7	0.22734033
41	0x3ecdbaff	0.4018173
42	0xbf314afa	-0.6925503
43	0xbf30dad8	-0.6908393
44	0xbf03c507	-0.51472515
45	0x3df4fb5b	0.11962005
46	0xbf3fdd1d	-0.7494677
47	0xc0001982	-2.0015569
48	0xbdafa789	-0.08576877
49	0x3e84ce75	0.25938764
50	0xbf17213c	-0.59035087
51	0x3eb3a796	0.35088795
52	0xbf2fc0bf	-0.6865348
53	0x3e94a639	0.29033068
54	0xbf0792cb	-0.52958363
55	0x3e858740	0.2607975
56	0x3ec7e8e1	0.3904486
57	0xbdff396f	-0.124621265
58	0xbecddd4b	-0.40207896
59	0x3d8dafbf	0.069182865
60	0xbf8698e6	-1.0515411
61	0xbf616f4b	-0.88060445
62	0xbe899504	-0.26871502
63	0xbe93c9da	-0.28864938
64	0x3e631b1e	0.22178313
65	0x3ed2a0e2	0.4113837
66	0x3e29498a	0.16531959
67	0xbf25ffbc	-0.64843345
68	0xbdec6149	-0.11541993
69	0x3eae4cd5	0.34042993
70	0xbeb327b9	-0.34991243
71	0x3e032874	0.128084
72	0xbfab22e4	-1.3370023
73	0xbc3ae397	-0.011406801
74	0x3eccd3fb	0.40005478
75	0xbceb5206	-0.028725635
76	0xbf8698ef	-1.0515422
77	0xbfb337e7	-1.4001435
78	0xbe77535f	-0.24152897
79	0xbe2f8078	-0.1713885
80	0xbf6c648a	-0.9234091
81	0xbf8759cf	-1.0574282
82	0xbebbcf48	-0.3668158
83	0x3e872231	0.26393273
84	0x3e2b3a61	0.16721489
85	0x3e922e8f	0.28551146
86	0xbf8e4227	-1.1113938
87	0x3e1805e5	0.14845999
88	0xbf7b877d	-0.98253614
89	0xbf8f20fd	-1.1181942
90	0x3ea14fa4	0.31506073
91	0x3efe050d	0.49613228
92	0xbf5e6278	-0.86869
93	0xbfdb1d2e	-1.711828
94	0xbeb0f01c	-0.3455819
95	0xbfc35c17	-1.5262479
96	0x3f02f67b	0.5115735
97	0xbed3c699	-0.41362455
98	0xbeadc817	-0.3394172
99	0xbf6ca01f	-0.92431825
100	0x3e12460e	0.14284536
101	0xbf324991	-0.69643503
102	0xbefc9b62	-0.49337298
103	0x3e10c831	0.14138867
104	0x3db8a4d8	0.090158165
105	0xbded1314	-0.115759045
106	0xbfb6cff9	-1.4282218
107	0xbfa08593	-1.2540764
108	0x3eed69d9	0.46369818
109	0x3e9c2213	0.30494747
110	0x3e6fd60e	0.23421499
111	0xbfa8a634	-1.3175721
112	0x3ec7894b	0.38971934
113	0xbfbe6fd6	-1.487788
114	0xbfb15543	-1.3854145
115	0xbfd4d398	-1.6627073
116	0x3dfbaf80	0.12289333
117	0x3e969cc7	0.29416487
118	0x3e706d85	0.23479278
119	0x3ec19c77	0.37814686
120	0xbeb672da	-0.356345
121	0xbe9c9e65	-0.30589595
122	0xbfa1da5d	-1.2644764
123	0x3eca78da	0.39545327
124	0x3eab3c72	0.33444554
125	0x3e14bdfd	0.145256
126	0xbf71158c	-0.941735
127	0xbf0da5c9	-0.55331093
128	0xbef99683	-0.48747644
129	0x3dcde7e1	0.10053993
130	0x3ea1ba0a	0.3158725
131	0x3eac7f88	0.3369105
132	0xbee8386b	-0.45355543
133	0xbe97774d	-0.29583207
134	0xbd0fa8e9	-0.035073195
135	0x3eba9f6b	0.3644975
136	0xbeb285ea	-0.34867793
137	0x3d343f61	0.044005755
138	0xbd848bb4	-0.06471959
139	0xbe67a1ec	-0.22620362
140	0xbfc58c39	-1.5433418
141	0xc005284c	-2.0805845
142	0xbf4a715e	-0.79079235
143	0x3ea15fa1	0.31518272
144	0xbed02ba5	-0.40658298
145	0xbee33ca6	-0.4438221
146	0x3eaaa8ad	0.33331814
147	0xbe99e5cb	-0.3005813
148	0xbe2d0c06	-0.16899118
149	0x3ec4ab57	0.38411972
150	0xbe28cd36	-0.16484532
151	0x3e7105dc	0.23537391
152	0xbf67c67c	-0.9053724
153	0xbfe1cf3f	-1.7641371
154	0xbe2c5f82	-0.16833308
155	0x3ee7ae7e	0.45250314
156	0xbe2afb40	-0.16697407
157	0xbff37e8c	-1.9022994
158	0x3de97268	0.113987744
159	0xbfcfe803	-1.6242679
160	0x3eb45546	0.35221308
161	0x3e8ef356	0.27920026
162	0xbeadd0a8	-0.33948255
163	0xbd2e8dc5	-0.04261567
164	0xbf1ddba0	-0.61663246
165	0xbf1beccd	-0.60908204
166	0xbd0b9773	-0.03407998
167	0x3e838824	0.25689805
168	0x3eae581e	0.34051603
169	0xbf55a32d	-0.8345211
170	0xbfafb125	-1.3725935
171	0xbfc8f4a7	-1.5699662
172	0x3ed16734	0.4089905
173	0x3e27035e	0.16309878
174	0x3e99653a	0.29960042
175	0xbfc3f3f9	-1.530883
176	0xbd84a066	-0.06475906
177	0xbee85d8c	-0.4538387
178	0xbfe23ea7	-1.767537
179	0xbe10c481	-0.1413746
180	0xbe207e18	-0.15673101
181	0x3e5a4ce8	0.213184
182	0xbd9acd8d	-0.07558737
183	0x3e91c364	0.28469384
184	0x3dccd530	0.100016
185	0x3e90ed6b	0.28306136
186	0xbfb69528	-1.4264269
187	0xbd5fe530	-0.05466193
188	0xbe0d0843	-0.13772683
189	0xbeb0140a	-0.3439029
190	0xbf9cf292	-1.2261527
191	0xbf83c4a1	-1.0294381
192	0x3e97fb12	0.2968374
193	0xbdeebe0f	-0.116573445
194	0xc0319c9d	-2.775184
195	0xbcff4937	-0.031162841
196	0xbf24244e	-0.64117897
197	0xc019a1d6	-2.4005027
198	0x3d78e7e3	0.06076802
199	0xbe41427f	-0.18873022
200	0x3ead5f70	0.33861876
201	0xc0350573	-2.8284576
202	0xbdbf06a1	-0.09327436
203	0xbec3f15f	-0.3827009
204	0x3d094584	0.03351356
205	0xbeef2571	-0.46708253
206	0xbf6620a9	-0.89893585
207	0x3e1cbb4b	0.15305822
208	0x3ea72bac	0.32650506
209	0x3e09fcc0	0.13475323
210	0x3e94edaa	0.29087573
211	0xbe20b9f5	-0.15695937
212	0xbdb68be2	-0.08913399
213	0xbf4db759	-0.8035789
214	0x3b121398	0.002228951
215	0x3e3e6f51	0.18597151
216	0x3e82eba1	0.25570396
217	0xbf345be0	-0.7045269
218	0xc025580f	-2.5834997
219	0xbf2372de	-0.6384715
220	0xbdd8dcfb	-0.10589024
221	0x3d597133	0.05308647
222	0xbde9473b	-0.11390539
223	0x3eaba79c	0.33526313
224	0x3e144284	0.14478499
225	0x3dd7ea8e	0.10542785
226	0x3e0e494b	0.13895147
227	0xbf901c81	-1.1258699
228	0xbf09067c	-0.5352552
229	0xbe6bc56e	-0.23024532
230	0xc03e937f	-2.9777524
231	0x3db59b06	0.08867459
232	0xbf22b84c	-0.63562465
233	0xbee8a87b	-0.4544104
234	0x3d826285	0.06366447
235	0x3e898448	0.26858735
236	0xbf8fa32e	-1.1221673
237	0x3dc3be97	0.095578365
238	0x3df5412f	0.119753234
239	0xbe757ed8	-0.23974168
240	0xbed84c08	-0.42245507
241	0x3e06815a	0.13135281
242	0xbfe0e24f	-1.7569064
243	0xbe58ec88	-0.2118398
244	0xbf106090	-0.5639734
245	0xc03d2f96	-2.9560294
246	0x3e8d07f5	0.27545133
247	0xbdf156d8	-0.11784142
248	0x3e872a51	0.26399472
249	0xbfdf3ce8	-1.7440462
250	0x3e196277	0.14978968
251	0xbd0df59f	-0.03465807
252	0xc006d31e	-2.1066356
253	0x3e69839d	0.22804113
254	0x3ac646e3	0.0015127327
255	0x3e955170	0.29163694
