models/demo_models/all_physical_classifier.tflite (tflite, 463032 bytes, 10 tensors)

sequential_3/conv1d_9/BiasAdd/ReadVariableOp f4 [32]
-0.6880068 -0.6064698 -0.44218504 -0.030319545 -0.14777996 -0.40210629 0.11742656 -0.092087194
-0.1875304 -0.5490772 -0.019847307 -0.30409664 -0.47136766 -0.341423 -0.35855234 -0.23014358
-0.4615144 -0.10562282 -0.5453331 -0.11197606 -0.3560432 -0.26014817 -0.28265873 0.07960885
-0.65344536 -0.49991408 -0.654697 -0.46605697 -0.50706655 -0.25980705 -0.32141232 -0.22485067
00000000: 3721 30bf 9b41 1bbf 1466 e2be b260 f8bc
00000010: a153 17be e0e0 cdbe 567d f03d 3698 bcbd
00000020: f807 40be 5390 0cbf d296 a2bc 8eb2 9bbe
00000030: 1a57 f1be ffce aebe 2c94 b7be c2aa 6bbe
00000040: 9e4b ecbe c750 d8bd f39a 0bbf b453 e5bd
00000050: 4b4b b6be 2432 85be a5b8 90be f709 a33d
00000060: 3248 27bf bdf4 ffbe 399a 27bf 059f eebe
00000070: 1dcf 01bf 6e05 85be 2890 a4be 413f 66be

sequential_3/conv1d_10/BiasAdd/ReadVariableOp f4 [64]
-0.092371374 -0.2030209 -0.6715592 -0.08267049 -0.097748175 -0.6516182 0.035643432 -0.40574527
-0.28118372 -0.53886575 -0.58988893 0.29418635 -0.527865 -0.41913053 0.0068575833 -0.5778374
-0.42182353 -0.34426948 0.32783878 0.21090801 -0.45446742 0.011774127 -0.41340157 -0.1347448
-0.6461801 0.0631443 -0.47883415 -0.5708567 -0.23664458 -0.50463283 -0.35196123 0.064693384
-0.4621727 0.18139729 -0.2460635 0.10618661 -0.22220884 -0.07936883 -0.20200026 -0.203904
-0.30868006 -0.44758666 0.32858875 0.37201628 -0.23569885 -0.51911634 -0.3147312 -0.6981931
-0.090728186 0.06468192 -0.027305046 0.17140856 -0.36040962 -0.3646054 -0.08874188 -0.18814205
-0.31613207 -0.6732657 -0.6936772 -0.21071704 -0.15140538 -0.24213019 -0.16336106 -0.0880115
00000000: 342d bdbd b6e4 4fbe 4eeb 2bbf 254f a9bd
00000010: 3230 c8bd 73d0 26bf d9fe 113d d8bd cfbe
00000020: 50f7 8fbe 1bf3 09bf f602 17bf 989f 963e
00000030: 2922 07bf 4798 d6be 94b5 e03b 27ed 13bf
00000040: 41f9 d7be 1744 b0be 7cda a73e 45f8 573e
00000050: f4af e8be 45e8 403c 5fa9 d3be 8afa 09be
00000060: 0f6c 25bf cc51 813d c029 f5be aa23 12bf
00000070: f552 72be 9e2f 01bf 4334 b4be f77d 843d
00000080: e6a1 ecbe 36c0 393e 12f8 7bbe 5e78 d93d
00000090: b78a 63be 208c a2bd 28d9 4ebe 36cc 50be
000000a0: 500b 9ebe 142a e5be c93c a83e eb78 be3e
000000b0: 0a5b 71be cfe4 04bf 7324 a1be c8bc 32bf
000000c0: b3cf b9bd f477 843d d5ae dfbc ba85 2f3e
000000d0: 9c87 b8be 8fad babe 4ebe b5bd 4fa8 40be
000000e0: 10dc a1be 245b 2cbf d494 31bf 35c6 57be
000000f0: 030a 1bbe faf0 77be 1f48 27be 603f b4bd

sequential_3/conv1d_11/BiasAdd/ReadVariableOp f4 [128]
-0.21111341 -0.089557715 -0.3609078 0.23123695 -0.17438114 0.1110834 -0.12457056 0.22592722
-0.15145883 0.3910718 -0.0665966 -0.16779558 0.09068809 -0.47965539 0.034812056 -0.0786047
-0.44087422 -0.251125 0.16685338 -0.27318263 -0.45739707 0.37214962 0.3238722 -0.0958393
0.1904258 -0.273036 -0.101621926 -0.23201664 -0.07891468 0.09545618 -0.3700129 -0.071098216
-0.27013466 -0.09209316 0.19316345 0.21722388 -0.15872511 -0.0636813 0.11522099 0.038288217
0.4302423 -0.011771532 -0.066793606 0.23541428 -0.51245934 -0.04199142 -0.11004145 0.5387861
-0.08796413 0.06579156 -0.47070324 0.14364165 0.0046501206 -0.14753115 -0.20461679 0.04470994
-0.2108323 0.11063551 0.08325191 0.14247437 -0.2508322 -0.23985693 -0.12734263 -0.1705519
-0.14834665 -0.03561313 0.04375441 0.28905758 -0.39348298 -0.55946445 -0.1373059 -0.106039695
-0.01151623 -0.052398935 -0.0027431203 0.026840467 0.2755208 -0.028618278 -0.09976079 -0.084720254
-0.08579563 0.1498149 0.17732242 -0.1596755 -0.09694881 -0.25655016 -0.30479354 -0.030569563
-0.09642658 -0.12935778 0.21144721 -0.11143604 -0.2765212 0.022582479 0.21169093 -0.12111107
0.637211 -0.06027443 -0.1739467 0.08475877 -0.057755694 -0.22244205 0.045672305 -0.14756553
0.074632354 -0.08170345 -0.029114878 -0.0823092 -0.4141415 0.07814815 -0.009006888 0.17698592
-0.5160718 -0.1151129 -0.17999698 0.023683593 -0.24254636 -0.06884371 0.14877869 -0.61690485
-0.4669304 -0.44622046 0.25622097 -0.13603188 0.45507666 0.028437505 0.028400525 -0.3062469
00000000: 1d2e 58be 096a b7bd e8c8 b8be 61c9 6c3e
00000010: f890 32be b27f e33d da1e ffbd 7759 673e
00000020: 0618 1bbe 903a c83e cc63 88bd 9bd2 2bbe
00000030: adba b93d 6495 f5be 1697 0e3d 80fb a0bd
00000040: 44ba e1be 7593 80be 9ddb 2a3e 98de 8bbe
00000050: f32f eabe 658a be3e 94d2 a53e 6547 c4bd
00000060: fbfe 423e 60cb 8bbe 281f d0bd c595 6dbe
00000070: 059e a1bd 887e c33d 5572 bdbe f19b 91bd
00000080: 174f 8abe 579b bcbd a4cc 453e f06f 5e3e
00000090: d688 22be 576b 82bd fbf8 eb3d 1bd4 1c3d
000000a0: b848 dc3e 62dd 40bc 16cb 88bd 7110 713e
000000b0: 8930 03bf 32ff 2bbd 695d e1bd e3ed 093f
000000c0: 8a26 b4bd babd 863d 0400 f1be cc16 133e
000000d0: 0a60 983b 6812 17be 1087 51be c521 373d
000000e0: 6ce4 57be df94 e23d fa7f aa3d cde4 113e
000000f0: 146d 80be 0e9d 75be 1b66 02be 28a5 2ebe
00000100: 2fe8 17be 13df 11bd d337 333d 5bff 933e
00000110: 9a76 c9be 1039 0fbf eb99 0cbe 572b d9bd
00000120: 92ae 3cbc 44a0 56bd ecc5 33bb 8ae0 db3c
00000130: 1011 8d3e e170 eabc 634f ccbd d081 adbd
00000140: 9fb5 afbd 1469 193e 0294 353e f981 23be
00000150: 198d c6bd 8b5a 83be e60d 9cbe 056d fabc
00000160: 4c7b c5bd 5e76 04be 9e85 583e 9438 e4bd
00000170: 3094 8dbe e4fe b83c 82c5 583e 1509 f8bd
00000180: 4320 233f 52e2 76bd 151f 32be 0296 ad3d
00000190: 3c91 6cbd d9c7 63be e212 3b3d 6b1b 17be
000001a0: d9d8 983d 2354 a7bd 5382 eebc ba91 a8bd
000001b0: 5b0a d4be 230c a03d a091 13bc cc3b 353e
000001c0: 481d 04bf 50c0 ebbd 2151 38be 1804 c23c
000001d0: 135e 78be eefd 8cbd 7159 183e 7aed 1dbf
000001e0: 8011 efbe 0277 e4be 652f 833e f14b 0bbe
000001f0: cfff e83e c5f5 e83c 38a8 e83c 65cc 9cbe

sequential_3/conv1d_9/Conv1D f4 [32, 1, 3, 3]
-0.16427907 -0.44964054 -0.13581002 -0.09563771 -0.030851437 -0.32046458 -0.0129951285 -0.083593
-0.21463156 -0.14641972 0.07517107 -0.17392159 -0.1732548 -0.14188524 0.22005446 -0.33580303
0.025450733 0.18335174 -0.040438674 0.38874507 -0.46470213 0.76966286 0.069233306 0.57762563
-0.7008536 0.09209091 -0.04772891 0.34675533 0.059094448 0.45212588 0.27766562 0.40881234
0.064643204 0.034479402 0.40323505 0.13732992 0.6251835 0.42523524 0.30593085 -0.41599613
0.12657261 0.07645518 -0.24253307 -0.5928562 -0.30546522 0.35918066 -0.0605348 0.22855103
-0.5023736 -0.35559928 0.1544283 0.22311708 0.293545 -0.18649681 0.0034178707 0.5438732
0.031447154 0.17496248 0.11678028 -0.15173027 0.22276273 -0.54237056 -0.017995842 -0.30543187
-0.008778212 0.99090725 -0.2060422 -0.051784396 -0.15746811 0.5205571 0.06896192 -0.8223939
0.060877062 -0.44760817 -0.46245664 0.03162421 -0.12409702 -0.37519553 -0.08183559 0.34871107
0.77482724 0.02260477 -0.42002535 -0.033435065 0.21784712 -0.30244333 0.070066996 0.16245697
-0.0021271773 0.04060104 -0.4851448 -0.19422519 0.4284108 0.3149023 -0.012925693 0.21223961
0.37470686 0.3236772 0.18473391 -0.111135446 0.12219367 0.106820084 -0.0774277 -0.12902765
0.2907295 0.060653493 0.24665956 0.15017952 -0.09580553 0.529754 -0.107025675 -0.15113975
0.445912 0.22770858 -0.1628026 -0.25327227 0.34890932 0.18586299 0.1158182 -0.16098845
0.308999 -0.047750633 0.18996023 0.4191951 -0.100969814 0.007362454 0.19421656 -0.052581877
0.34848836 -0.28222963 -0.0039791605 0.32954857 0.1757293 -0.3601715 0.1804988 0.61952204
-0.11886424 0.15810932 0.34647688 0.30390736 -0.20979409 0.097532906 -0.3103427 -0.19766623
-0.500647 -0.4083895 -0.3684408 0.51265544 0.25589195 -0.2124702 0.14940047 0.006036703
0.75741863 0.6759032 -0.24261227 0.12685193 0.14090271 -0.115793765 0.24458385 -0.7478375
0.27970466 -0.35214922 -0.15666719 -0.06333353 0.23659681 -0.024562882 0.22247453 0.331093
-0.15091532 -0.18499936 -0.28858936 0.26539844 0.45352548 -0.21995635 0.29442763 0.33687428
-0.018870637 0.24760798 0.3008701 -0.025430031 0.22237985 0.84266514 0.08341991 0.009319956
1.1142282 0.07871523 0.23798507 0.6568241 0.16738658 0.36342862 0.50678545 -0.20942494
0.3416384 -0.14203916 -0.07208491 0.0059523243 -0.0052758907 0.030162916 0.349921 -0.15937115
-0.18079533 0.39842364 -0.18561304 -0.124809854 0.29855153 -0.22067848 -0.009499381 -0.6761849
-0.4255942 -0.098833226 0.21193163 -0.04936068 -0.0379689 0.559056 0.5977837 0.18220077
0.035602987 -0.15707926 -0.20088284 -0.25142696 -0.084565505 -0.099539936 -0.28886515 0.032632645
-0.2262687 -0.27404305 0.1361258 -0.268855 -0.41295862 -0.2191748 -0.3800046 -0.18814959
-0.05539488 0.14052108 0.021535056 -0.30601293 0.14868431 -0.19213906 -0.1824632 0.023879934
-0.37881845 -0.051706247 -0.022262616 0.1336777 0.1738072 -0.09288595 -0.15986654 0.44466773
-0.24773966 -0.1014207 0.20181471 -0.18473868 0.011040937 -0.15792137 -0.045873176 -0.094320275
00000000: c638 28be 4937 e6be c811 0bbe b4dd c3bd
00000010: 27bc fcbc ef13 a4be 85e9 54bc cf32 abbd
00000020: 60c8 5bbe 0def 15be 4af3 993d 8018 32be
00000030: b569 31be 5d4a 11be f555 613e 60ee abbe
00000040: 0e7e d03c 8fc0 3b3e 06a3 25bd 9809 c73e
00000050: 70ed edbe a008 453f 31ca 8d3d 46df 133f
00000060: 246b 33bf 299a bc3d 647f 43bd ea89 b13e
00000070: 050d 723d 0b7d e73e 302a 8e3e da4f d13e
00000080: a863 843d 463a 0d3d d374 ce3e 37a0 0c3e
00000090: 070c 203f 6fb8 d93e f8a2 9c3e 72fd d4be
000000a0: 409c 013e 8994 9c3d 975a 78be 6dc5 17bf
000000b0: f065 9cbe 87e6 b73e 57f3 77bd 4809 6a3e
000000c0: 8e9b 00bf 1c11 b6be 7422 1e3e ce78 643e
000000d0: 884b 963e 05f9 3ebe 5bfe 5f3b 463b 0b3f
000000e0: bbce 003d 5d29 333e 802a ef3d 2e5f 1bbe
000000f0: ea1b 643e ccd8 0abf 046c 93bc 9161 9cbe
00000100: 7dd2 0fbc 19ac 7d3f bafc 52be e01b 54bd
00000110: 523f 21be 3b43 053f e83b 8d3d 6888 52bf
00000120: 3a5a 793d e62c e5be 1ec7 ecbe 6388 013d
00000130: 9426 febd a119 c0be 6b99 a7bd 428a b23e
00000140: 145b 463f a32d b93c 900d d7be 35f3 08bd
00000150: 5113 5f3e dad9 9abe 497f 8f3d 1f5b 263e
00000160: 1d68 0bbb 474d 263d e664 f8be f8e2 46be
00000170: a958 db3e e03a a13e 49c6 53bc 5755 593e
00000180: 94d9 bf3e 05b9 a53e e32a 3d3e fb9a e3bd
00000190: ad40 fa3d 7dc4 da3d 6a92 9ebd d31f 04be
000001a0: 7fda 943e cc6f 783d 5394 7c3e a9c8 193e
000001b0: b135 c4bd f59d 073f 4730 dbbd 61c4 1abe
000001c0: 944e e43e 702c 693e bab5 26be e7ac 81be
000001d0: 3ea4 b23e de52 3e3e 1832 ed3d 28da 24be
000001e0: 1e35 9e3e 2b96 43bd ef84 423e bda0 d63e
000001f0: 43c9 cebd be40 f13b b5e0 463e 1860 57bd
00000200: 116d b23e 6780 90be 9e63 82bb 97ba a83e
00000210: 62f2 333e 6668 b8be add4 383e ff98 1e3f
00000220: 186f f3bd 69e7 213e 6b65 b13e bf99 9b3e
00000230: 43d4 56be 55bf c73d 3de5 9ebe 0469 4abe
00000240: 672a 00bf 6e18 d1be 46a4 bcbe 633d 033f
00000250: 4504 833e ca91 59be 70fc 183e 89cf c53b
00000260: 30e6 413f fe07 2d3f 5a6f 78be 79e5 013e
00000270: cd48 103e 4825 edbd 3074 7a3e 4772 3fbf
00000280: 7335 8f3e e74c b4be 5d6d 20be 03b5 81bd
00000290: 6f46 723e 1938 c9bc 5dd0 633e 0685 a93e
000002a0: 8c89 1abe 7970 3dbe fcc1 93be 4ee2 873e
000002b0: 7e34 e83e 3d3c 61be 38bf 963e c97a ac3e
000002c0: 9896 9abc f28c 7d3e a50b 9a3e a452 d0bc
000002d0: 8bb7 633e e7b8 573f 0fd8 aa3d bbb2 183c
000002e0: 089f 8e3f 7335 a13d 5cb2 733e a025 283f
000002f0: 6367 2b3e 5113 ba3e b1bc 013f 7e73 56be
00000300: 3aeb ae3e b772 11be 41a1 93bd b70b c33b
00000310: 61e1 acbb 3818 f73c d828 b33e 3132 23be
00000320: 6922 39be 2ffe cb3e 5811 3ebe 4f9c ffbd
00000330: bfdb 983e 8af9 61be 4ba3 1bbc 741a 2dbf
00000340: 7ce7 d9be 1369 cabd 9b04 593e 6d2e 4abd
00000350: 4785 1bbd 4b1e 0f3f 5a08 193f d792 3a3e
00000360: 70d4 113d 63d9 20be 3bb4 4dbe 09bb 80be
00000370: ae30 adbd 98db cbbd 22e6 93be cfa9 053d
00000380: fbb2 67be 5f4f 8cbe 9064 0b3e 5da7 89be
00000390: 506f d3be 5c6f 60be f78f c2be 49aa 40be
000003a0: bee5 62bd c2e4 0f3e 496a b03c baad 9cbe
000003b0: b340 183e 1ac0 44be a2d7 3abe da9f c33c
000003c0: 7ef4 c1be eec9 53bd 1760 b6bc cfe2 083e
000003d0: 84fa 313e fd3a bebd 0eb4 23be 7dab e33e
000003e0: 77af 7dbe a8b5 cfbd 84a8 4e3e 232c 3dbe
000003f0: 0ce5 343c 24b6 21be 83e5 3bbd fd2a c1bd

sequential_3/conv1d_10/Conv1D f4 [64, 1, 3, 32]
-0.9519798 -0.38123408 -0.1807339 -0.06459982 -0.13143548 -0.0033477154 -0.120855324 0.050932262
-0.15000929 -0.3553284 -0.031311247 -0.13564257 -0.37655988 0.073411584 -0.042649467 0.03714685
0.057684794 -0.20770591 -0.1992106 0.0040933127 -0.20818815 -0.12992951 0.0029175978 -0.1546202
-0.13083425 -0.04283674 -0.26356354 -0.32020274 0.031482074 0.02872297 -0.16928017 -0.16336042
-0.8041161 -0.37044826 0.0018076766 0.1465522 -0.13747701 -0.08954767 -0.095086776 -0.22163433
0.006011951 -0.35956278 -0.1089579 -0.085953765 -0.4086998 -0.09915423 -0.13530779 -0.12041297
0.026603248 -0.11018262 -0.12501486 0.16122133 -0.21144257 -0.13577235 -0.07218896 -0.13925819
-0.15277003 -0.047847103 -0.29528105 -0.3232103 0.11638433 -0.09809223 -0.0051065106 -0.03809906
-0.7040607 -0.41298988 -0.28853846 0.13781576 -0.30090922 -0.24250396 -0.122400194 -0.14807242
-0.23932466 -0.26888344 0.05109041 -0.2735607 -0.44659922 0.09468318 -0.031091182 -0.00031026584
-0.039606895 -0.22223258 -0.33588117 0.03006804 -0.0075463024 -0.08114724 -0.039162237 -0.33541632
-0.051187366 -0.15407893 -0.32650763 -0.3145246 -0.13731916 0.07951208 -0.06109176 -0.27616954
-0.33060527 -0.009088156 0.57826173 0.14485793 -0.08922017 -0.16572584 -1.3645698 0.042608406
-0.3036409 -1.3892204 0.017518818 0.16791376 -0.16180936 -1.8211095 0.13900833 -0.99418753
-0.19596086 -1.3618017 -0.72614586 -0.2619411 -0.5076113 0.23456322 -0.35385227 -0.1130328
-0.11111381 0.01830476 0.031826943 -0.25752714 -1.3018131 -0.43703094 0.09531369 0.41975787
-0.050067287 0.12453015 0.26916608 0.3570532 0.21126094 -0.25284594 -1.2035005 0.070141725
-0.24034396 -1.1612388 0.14199018 0.07948301 -0.26396346 -1.8093896 0.093865484 -0.8153276
0.33242914 -0.8864838 -0.6611596 -0.40566212 -0.6062701 0.17499293 -0.5681295 -0.07670522
-0.17475915 -0.15043 -0.040778395 -0.16649015 -1.0800079 -0.36650962 0.15511172 0.56900823
-0.24894454 0.12346677 1.082723 0.14599857 -0.019037355 0.056278735 -1.1669649 -0.5116195
0.2945336 -1.3811831 0.088971354 0.126108 -0.040518157 -1.5477337 0.23096214 -0.6160865
0.6880935 -0.9163479 -0.67274827 -0.25086963 -0.41377118 0.257709 -0.3329299 -0.13294344
-0.1996319 0.12740102 -0.102215126 -0.21932517 -1.3587887 -0.278629 -0.066438444 0.6729342
-0.28457123 0.56499046 -0.09975453 -0.12624902 -0.5422052 -0.23802978 -0.6433132 -0.46293938
-0.7978698 -0.20940815 0.011862204 0.38732645 0.3473299 0.49466544 0.095936105 -0.21486941
0.07302353 -0.6779166 -0.15174542 0.31391805 0.132781 -0.1489894 -0.051145613 -0.80657697
-0.18462905 0.15013508 0.3084212 -0.3080555 -0.03623337 0.7271222 0.1911232 0.192313
-0.17267743 0.29274684 -0.3543564 0.092199296 -0.4542675 -0.20994604 -0.6618279 -0.2228955
-0.5168828 -0.08067241 -0.03310211 0.14623599 0.27803862 0.57063425 -0.08699767 -0.3381608
-0.1490157 -0.5005219 -0.2167658 0.36389703 0.2119443 -0.1400179 -0.21265227 -0.84098613
-0.33890724 0.10088818 0.21632822 -0.113823876 -0.05212523 0.28241333 0.017544607 0.24209891
00000000: f3b4 73bf 1d31 c3be 4f12 39be e94c 84bd
00000010: 0697 06be 5865 5bbb ff82 f7bd 599e 503d
00000020: 099c 19be 9bed b5be 3940 00bd e3e5 0abe
00000030: 75cc c0be d058 963d 35b1 2ebd 4c27 183d
00000040: e446 6c3d dcb0 54be ddfd 4bbe 3221 863b
00000050: 462f 55be 3e0c 05be 2b35 3f3b c254 1ebe
00000060: 6af9 05be 9475 2fbd cdf1 86be 9df1 a3be
00000070: 59f3 003d 6f4c eb3c c857 2dbe f447 27be
00000080: 8dda 4dbf 65ab bdbe 90ef ec3a c811 163e
00000090: c6c6 0cbe c564 b7bd dbbc c2bd 1cf4 62be
000000a0: e6ff c43b 9d18 b8be 5225 dfbd 8708 b0bd
000000b0: 1a41 d1be 5f11 cbbd 208e 0abe 139b f6bd
000000c0: 0eef d93c 6da7 e1bd e503 00be 3417 253e
000000d0: 6784 58be e807 0bbe ced7 93bd b399 0ebe
000000e0: bf6f 1cbe 53fb 43bd 142f 97be d27b a5be
000000f0: e85a ee3d 94e4 c8bd 8454 a7bb c30d 1cbd
00000100: 523d 34bf 6973 d3be 50bb 93be 931f 0d3e
00000110: c610 9abe f552 78be f4ac fabd 4ca0 17be
00000120: 8611 75be 17ab 89be 2e44 513d 2610 8cbe
00000130: a7a8 e4be 41e9 c13d efb2 febc 2dab a2b9
00000140: d73a 22bd f090 63be 9ef8 abbe 4051 f63c
00000150: f946 f7bb 8630 a6bd 9568 20bd b0bb abbe
00000160: d8a9 51bd dec6 1dbe 022c a7be 5e09 a1be
00000170: 659d 0cbe 3bd7 a23d 5a3b 7abd 1866 8dbe
00000180: 1845 a9be 7de6 14bc f608 143f a355 143e
00000190: 11b9 b6bd 09b4 29be 39aa aebf 2786 2e3d
000001a0: d276 9bbe f9d1 b1bf a083 8f3c 96f1 2b3e
000001b0: 5ab1 25be 1e1a e9bf 3358 0e3e 1383 7ebf
000001c0: f7a9 48be 854f aebf b2e4 39bf 251d 86be
000001d0: d0f2 01bf 5731 703e 202c b5be be7d e7bd
000001e0: a38f e3bd ddf3 953c f85c 023d 99da 83be
000001f0: d0a1 a6bf 85c2 dfbe d333 c33d 81ea d63e
00000200: 5b13 4dbd aa09 ff3d 23d0 893e adcf b63e
00000210: ca54 583e 0675 81be 4e0c 9abf 77a6 8f3d
00000220: ba1c 76be 79a3 94bf e065 113e fdc7 a23d
00000230: 3826 87be 149a e7bf 8c3c c03d 4fb9 50bf
00000240: 2734 aa3e 9af0 62bf c141 29bf f2b2 cfbe
00000250: 8434 1bbf 5931 333e ef70 11bf a017 9dbd
00000260: 10f4 32be 520a 1abe 3f07 27bd 657c 2abe
00000270: b33d 8abf 26a7 bbbe 9bd5 1e3e 86aa 113f
00000280: 51eb 7ebe 25dc fc3d ab96 8a3f a680 153e
00000290: 3af4 9bbc 8884 663d 1b5f 95bf 7ff9 02bf
000002a0: 1ccd 963e 9cca b0bf 9d36 b63d 7522 013e
000002b0: 5ef6 25bd 231c c6bf 5781 6c3e d8b7 1dbf
000002c0: e526 303f c795 6abf 3b39 2cbf fc71 80be
000002d0: d1d9 d3be 6ff2 833e ca75 aabe 5322 08be
000002e0: 4e6c 4cbe 6a75 023e 2a56 d1bd c796 60be
000002f0: caec adbf 76a8 8ebe e110 88bd 6a45 2c3f
00000300: 52b3 91be 37a3 103f 1a4c ccbd 6c47 01be
00000310: f6cd 0abf 14be 73be 2db0 24bf 6406 edbe
00000320: 3241 4cbf 176f 56be b159 423c a74f c63e
00000330: 3ad5 b13e ca44 fd3e 267a c43d ba06 5cbe
00000340: 5c8d 953d f18b 2dbf 2763 1bbe deb9 a03e
00000350: bef7 073e ad90 18be 107e 51bd d47b 4ebf
00000360: 660f 3dbe 03bd 193e 62e9 9d3e 73b9 9dbe
00000370: 7169 14bd ae24 3a3f cdb5 433e b3ed 443e
00000380: 5ad2 30be eae2 953e 346e b5be fcd2 bc3d
00000390: c095 e8be 18fc 56be 8e6d 29bf b83e 64be
000003a0: 6e52 04bf 9437 a5bd 1496 07bd e3be 153e
000003b0: 145b 8e3e 1615 123f d62b b2bd 6a23 adbe
000003c0: 9297 18be 3422 00bf dbf7 5dbe b650 ba3e
000003d0: ed07 593e da60 0fbe 84c1 59be de4a 57bf
000003e0: 4085 adbe 769e ce3d 2585 5d3e 7e1c e9bd
000003f0: 4481 55bd 7b98 903e b5b9 8f3c c7e8 773e

sequential_3/conv1d_11/Conv1D f4 [128, 1, 3, 64]
-0.08875322 0.3782487 -0.15432733 0.43179315 -0.007863941 0.19427574 0.41177782 0.2030581
-0.13533242 -0.12337198 -0.19211908 -0.75569457 -0.020986507 -0.31147498 0.36363497 0.57654804
0.28383297 -0.3672714 -0.39913335 -0.8403593 0.16075835 -0.68066794 -0.20389095 0.01914992
-0.24377084 -0.75788885 -0.36808237 0.404027 -0.4623875 -0.56632835 -0.09218058 -0.23226151
-0.5414581 -0.0033088964 -0.14169322 0.30493248 0.0044886274 0.09077897 0.37798175 -0.32742602
0.030012395 0.027522594 -0.19380662 -0.17730032 0.44009203 0.31083205 0.028760932 -0.017446551
-0.2936435 0.031088304 0.13053927 0.22182502 0.31826076 0.30833286 0.19483061 -0.2432555
-0.63293105 0.5557921 0.12935293 -0.06900669 -0.038300008 -0.21819781 -0.78433067 -0.32528028
0.07711326 0.08525109 -0.022630077 0.27071384 0.0078078397 -0.009786811 0.057806835 -0.13211638
0.25991747 -0.5113076 -0.20124932 -0.21633296 0.04435248 -0.37882665 0.32565138 -0.08026569
0.48868528 0.246635 -0.40619186 -0.1485732 -0.12169158 -0.028508369 0.031949233 -0.10658027
0.5921598 -0.620529 -0.12240763 0.34906003 0.3839896 -0.29469174 -0.076957375 -0.16005848
-0.42789552 0.08726291 -0.4094856 0.20717517 -0.06507779 0.12445359 0.003718434 0.08724158
-0.09023658 0.15602475 -0.010227789 -0.095900245 0.24708724 0.021461722 0.029264929 0.5662823
-0.08465506 -0.05528906 0.6020413 0.07839914 0.57051593 -0.06440187 0.35459474 -0.17642161
-0.35828653 0.22875841 -0.1724451 -0.45216438 0.049002174 -0.1039646 -0.11659419 -0.27498654
-0.037248258 0.32921487 -0.20951225 -0.103930354 -0.0047544534 0.25402805 0.35653153 0.61205846
-0.099198684 -0.17656507 0.10898263 0.48432878 0.16680187 0.053747166 0.6365643 0.28426042
-0.10759404 0.18016887 0.012063453 0.20261535 0.89662987 -0.36076173 0.4164449 -0.11471194
0.7882671 -0.28149852 0.070721254 0.0198081 0.48029834 0.042435862 0.005417002 0.016022831
-0.10727834 0.41096306 -0.18081291 -0.062099848 0.06235107 0.04594323 1.144756 -0.034538615
-0.059316643 0.15964282 0.08458997 0.34017813 0.26921216 0.20825751 0.26319534 0.059532832
-0.19907762 -0.01633324 -0.10377295 0.44000235 -0.09626442 -0.11060191 0.21424714 -0.11704259
0.058064662 0.2631171 -0.88740516 -0.4534035 0.0033891182 0.30162367 -0.0324486 0.15093146
-0.06163282 -0.1663959 -0.4038582 0.45416468 -0.05701786 -0.27825877 0.06077084 -0.20047858
-0.03823384 0.15624167 0.078506954 -0.37923768 -0.08626018 0.0565634 -0.23685685 -0.5222861
0.08704069 -0.016684141 0.11771329 -0.21902297 0.051927038 0.26567104 -0.4214039 0.07675081
-0.17455289 0.040473565 0.2376171 0.47465897 -0.47405455 -0.46720934 0.07453322 0.087998554
0.1651259 -0.2513055 -0.35121447 0.4110458 0.10512877 0.040444136 -0.41334015 -0.0976012
0.102751456 0.43272844 0.18262279 -0.9000833 -0.15714383 -0.21470831 -0.041756634 -0.079731435
-0.16654332 -0.3409047 -0.023447243 -0.02146921 0.20908357 0.06440886 -0.36716375 0.0513093
-0.1388457 -0.03409661 -0.16021308 -0.043147296 -0.0025203149 -0.40968174 -0.65183944 -0.049205437
00000000: 40c4 b5bd d0a9 c13e fc07 1ebe fe13 dd3e
00000010: c2d7 00bc 38f0 463e 8bd4 d23e 76ee 4f3e
00000020: 9594 0abe 73aa fcbd ddba 44be 3375 41bf
00000030: e5eb abbc a679 9fbe 5d2e ba3e a798 133f
00000040: 8e52 913e ff0a bcbe 355b ccbe c921 57bf
00000050: d69d 243e 4140 2ebf cac8 50be 4be0 9c3c
00000060: 109f 79be 0105 42bf 4b75 bcbe a0dc ce3e
00000070: 0ebe ecbe e5fa 10bf 2cc9 bcbd f6d5 6dbe
00000080: ff9c 0abf 12da 58bb 0718 11be 1c20 9c3e
00000090: 5615 933b 53ea b93d d386 c13e 62a4 a7be
000000a0: 8edc f53c 1077 e13c 3e75 46be 378e 35be
000000b0: be53 e13e 6125 9f3e 0c9c eb3c 12ec 8ebc
000000c0: 7158 96be e6ac fe3c 16ac 053e 1926 633e
000000d0: 13f3 a23e cedd 9d3e ad81 473e f817 79be
000000e0: c507 22bf 6448 0e3f 1875 043e 6153 8dbd
000000f0: 78e0 1cbd 3f6f 5fbe e5c9 48bf 238b a6be
00000100: 8fed 9d3d 2098 ae3d b662 b9bc 019b 8a3e
00000110: e8d8 ff3b dc58 20bc dcc6 6c3d 8449 07be
00000120: e713 853e 0ee5 02bf 4d14 4ebe 6386 5dbe
00000130: f2aa 353d 91f5 c1be c7bb a63e 5762 a4bd
00000140: f534 fa3e e38d 7c3e 61f8 cfbe 9323 18be
00000150: 6f39 f9bd 628a e9bc 33dd 023d c246 dabd
00000160: c997 173f fdda 1ebf dab0 fabd ffb7 b23e
00000170: 499a c43e d6e1 96be d49b 9dbd 5fe6 23be
00000180: 1f15 dbbe e6b6 b23d 19a8 d1be ba25 543e
00000190: 8147 85bd 86e1 fe3d f8b0 733b b7ab b23d
000001a0: f5cd b8bd f4c4 1f3e 7592 27bc 5967 c4bd
000001b0: 7004 7d3e 7ed0 af3c 01bd ef3c e0f7 103f
000001c0: a25f adbd c876 62bd 611f 1a3f ba8f a03d
000001d0: 550d 123f 21e5 83bd 718d b53e dea7 34be
000001e0: 5571 b7be a53f 6a3e 7395 30be 1782 e7be
000001f0: 81b6 483d 64eb d4bd efc8 eebd 09cb 8cbe
00000200: a191 18bd da8e a83e 618a 56be 70d9 d4bd
00000210: 3fcb 9bbb f70f 823e 4d8b b63e ddaf 1c3f
00000220: ae28 cbbd 79cd 34be 4932 df3d f1f9 f73e
00000230: 1cce 2a3e fd25 5c3d e1f5 223f 958a 913e
00000240: 445a dcbd 307e 383e caa5 453c 667a 4f3e
00000250: 8989 653f c3b5 b8be 4438 d53e 18ee eabd
00000260: dfcb 493f 9320 90be 4ed6 903d 9944 a23c
00000270: aae9 f53e 3ad1 2d3d 1b81 b13b 5042 833c
00000280: bfb4 dbbd c069 d23e 0527 39be 695c 7ebd
00000290: d663 7f3d f82e 3c3d 5d87 923f 5d78 0dbd
000002a0: 02f6 72bd 6879 233e 823d ad3d d42b ae3e
000002b0: 2dd6 893e 7541 553e 8ac1 863e b3d8 733d
000002c0: 01db 4bbe 49cd 85bc ea86 d4bd fd47 e13e
000002d0: 4826 c5bd 4183 e2bd 9a63 5b3e 07b4 efbd
000002e0: 36d5 6d3d 49b7 863e fc2c 63bf 8124 e8be
000002f0: f81b 5e3b 6b6e 9a3e d3e8 04bd c78d 1a3e
00000300: b272 7cbd b063 2abe 81c6 cebe 4688 e83e
00000310: 8f8b 69bd ef77 8ebe d8ea 783d 424a 4dbe
00000320: 169b 1cbd d1fd 1f3e 41c8 a03d 712b c2be
00000330: 2da9 b0bd 06af 673d 9a8a 72be 8bb4 05bf
00000340: 6442 b23d 2ead 88bc aa13 f13d 8f47 60be
00000350: 72b1 543d 0906 883e 41c2 d7be 872f 9d3d
00000360: febd 32be 9cc7 253d e651 733e 8006 f33e
00000370: 47b7 f2be 1036 efbe dfa4 983d 9638 b43d
00000380: c416 293e 1dab 80be 62d2 b3be 9874 d23e
00000390: c14d d73d c0a8 253d 52a1 d3be 23e3 c7bd
000003a0: 5b6f d23d 958e dd3e 7801 3b3e dc6b 66bf
000003b0: 50ea 20be 7fdc 5bbe 0109 2bbd 3c4a a3bd
000003c0: 558a 2abe 108b aebe 6f14 c0bc 32e0 afbc
000003d0: 011a 563e cbe8 833d e3fc bbbe b329 523d
000003e0: 912d 0ebe e3a8 0bbd e60e 24be 38bb 30bd
000003f0: de2b 25bb cec1 d1be f3de 26bf a48b 49bd

sequential_3/dense_7/BiasAdd/ReadVariableOp f4 [11]
-0.028665071 0.66728854 1.6331229 0.40461022 -0.5965061 -0.42294812 -0.29252973 -0.4805952
-0.032232232 -0.6473283 -0.61146116
00000000: 03d3 eabc 6cd3 2a3f 2c0a d13f 1229 cf3e
00000010: a0b4 18bf a88c d8be 75c6 95be 9310 f6be
00000020: f205 04bd 4fb7 25bf b888 1cbf

sequential_3/dense_6/BiasAdd/ReadVariableOp f4 [64]
-1.2184389 -1.251933 0.59717405 0.36314183 -0.40624467 1.4916407 -1.1544706 0.060425058
0.042665407 -0.8553953 -1.3863825 -1.1109304 -0.52053154 -0.8562972 -1.4477255 -0.9064536
-1.6750416 -0.5808641 -1.166248 -1.5791435 -1.0178775 -0.8441191 0.0077183577 0.46524653
0.050849337 0.7810549 -0.21728872 -0.571766 0.78738 -0.48535857 0.45218366 1.4276528
0.2304573 -0.8282405 1.2866683 -0.24913198 -0.032897457 0.905514 -0.76710695 1.8342551
-0.8758757 -0.6201447 0.41508177 0.90557 -0.4862128 -0.83489805 0.24183553 0.48965323
1.122697 -0.6126469 0.22896072 -1.2130929 -1.6291808 -0.10786184 -0.98032945 -1.2798821
0.9142139 -1.0792059 -1.1675813 -0.61632925 0.73594886 0.06057079 -1.2523061 0.6312726
00000000: cef5 9bbf 573f a0bf 66e0 183f baed b93e
00000010: 4dff cfbe 15ee be3f b1c5 93bf 4480 773d
00000020: ecc1 2e3d 30fb 5abf fb74 b1bf f832 8ebf
00000030: 8e41 05bf 4b36 5bbf 124f b9bf 580d 68bf
00000040: c367 d6bf 82b3 14bf 9d47 95bf 6021 cabf
00000050: cf49 82bf 3018 58bf 47ea fc3b cb34 ee3e
00000060: 6547 503d 37f3 473f ef80 5ebe 425f 12bf
00000070: bc91 493f eb80 f8be 9e84 e73e 54bd b63f
00000080: 00fd 6b3e 9207 54bf 8cb1 a43f 741c 7fbe
00000090: 7cbf 06bd c4cf 673f 1f61 44bf dfc8 ea3f
000000a0: 6439 60bf cec1 1ebf 9985 d43e 6fd3 673f
000000b0: e2f0 f8be e1bb 55bf bca3 773e d4b3 fa3e
000000c0: 89b4 8f3f 6dd6 1cbf ae74 6a3e a146 9bbf
000000d0: ff88 d0bf abe6 dcbd dff6 7abf 2dd3 a3bf
000000e0: ec09 6a3f 6b23 8abf 4e73 95bf c1c7 1dbf
000000f0: 2567 3c3f 1419 783d 914b a0bf 159b 213f

sequential_3/dense_6/MatMul f4 [64, 1280]
0.12979333 0.65412647 0.21845871 0.90895224 0.0039060793 -0.08733958 0.24825935 -0.3124907
0.19713144 -0.40652603 0.0080594625 -0.14134881 0.10932016 -0.088069595 0.20462365 0.18367454
-0.11499232 -0.61109453 0.11293371 0.023622392 0.019514473 -0.5420758 0.24942395 -0.86014557
0.18433158 0.16148268 -0.36068475 -0.31368282 -0.299129 -0.40839386 -0.10390873 0.020003363
-0.14755355 -0.09451449 0.47347254 -0.46726924 0.5080544 -0.024890566 0.24006088 -0.1555844
-0.9319244 0.08344053 0.07536548 0.28706294 -0.125246 0.27514642 0.048922613 0.1987827
-0.18089345 -0.6553321 0.14416996 -0.51541656 -0.07204142 0.30877933 0.10902876 -0.27816796
-0.28968602 -0.08081224 0.3489015 -0.29189748 -0.19685781 0.15211278 0.00058730046 -0.18289617
0.44727033 0.028002191 0.020672482 0.13491668 0.2229518 0.047049507 0.06377227 -0.107206315
-1.0710354 -0.33838692 0.105836585 -0.5832744 -0.7102517 0.40083048 -0.028194016 -0.2823602
0.42430878 0.111679144 -0.09684887 0.76749635 0.020404842 -0.060728703 -0.2741272 -0.34813383
0.04242095 0.1286265 0.37130848 0.011019376 0.25112724 0.9228032 0.20182163 -0.0038534845
0.014079171 -0.060374368 0.20229042 0.25341922 -0.13261807 0.5297894 0.566242 -0.15736948
0.8692391 0.09812619 -0.07149675 0.00079658255 -0.24072737 0.15701933 -0.10254234 0.061911866
-0.064741045 -0.3357954 0.4060615 0.42808053 -0.10903405 -0.3909606 0.0833377 0.1729726
0.046053663 -0.083545364 0.43931195 -0.19784465 -0.021549037 0.6712637 -0.014329394 -0.13978875
0.37027803 -0.032204915 0.122332364 0.37150255 0.06841213 -0.2785309 0.076838225 -0.09130017
0.2378529 -0.091243796 0.16351256 -0.21557593 0.42272496 0.05457518 -0.1293417 -0.6046242
-0.10188395 -0.021931136 0.36689427 0.38613757 -0.5197488 -0.83289653 0.47721288 -0.4055843
0.3835368 0.07887479 -0.11006807 -0.18778977 -0.075756446 -0.44829816 -0.4450201 -0.07115883
0.057269666 0.028406866 -0.010493733 -0.4771879 0.30264837 0.069757275 -0.23443155 0.389131
-0.41145566 0.3479883 -0.225816 0.7264314 -0.2357628 0.099106945 0.0010658035 0.6234617
0.46535036 -0.24197546 0.077330425 -0.09764798 -0.008106085 0.05875014 -0.30309007 -0.43671647
-0.30068982 -0.44710305 0.42669713 -0.48093486 -0.20534664 0.23150483 0.020476336 -0.4012818
0.24284734 0.69835204 0.17773436 -0.7387287 -0.24813074 0.13441649 0.36431673 -0.73898816
0.12045498 0.76184845 0.09260197 -0.10176043 -0.11438713 0.41920516 0.08684605 0.073501624
0.21056291 0.31164613 0.41155875 0.038321964 0.04775401 -0.32550967 -0.42348412 -0.13351811
-0.016740868 0.017143868 0.1400195 0.17212185 0.20250097 0.40340865 0.29193902 0.036663067
0.03165705 -0.008188254 -0.19231707 0.925672 -0.097061396 0.21925215 0.35838917 -0.19612487
0.54866236 -0.3097429 -0.027379578 0.14560018 0.032736596 0.12649825 -0.3738245 0.030892674
-0.03362632 -0.021203106 0.21066463 0.07639627 -0.09332438 -0.45330212 0.12608418 -0.23473722
-0.42589766 0.20212287 0.873816 0.6278803 -0.2581122 -0.15617603 0.10881427 -0.031559106
00000000: 8be8 043e d574 273f a4b3 5f3e 18b1 683f
00000010: 23fd 7f3b 18df b2bd b337 7e3e c8fe 9fbe
00000020: d3dc 493e 2e24 d0be d60b 043c bebd 10be
00000030: 3fe3 df3d d55d b4bd dd88 513e 2e15 3c3e
00000040: 1881 ebbd b170 1cbf ca49 e73d bf83 c13c
00000050: d1dc 9f3c 7bc5 0abf fe68 7f3e 8032 5cbf
00000060: 6bc1 3c3e b75b 253e acab b8be 099b a0be
00000070: 7027 99be 0019 d1be 1ace d4bd 18de a33c
00000080: 4718 17be d090 c1bd fe6a f23e ea3d efbe
00000090: da0f 023f 4de7 cbbc 85d2 753e 8451 1fbe
000000a0: 9992 6ebf dee2 aa3d 3759 9a3d eaf9 923e
000000b0: 7d40 00be fedf 8c3e 1463 483d b18d 4b3e
000000c0: 223c 39be d8c3 27bf 4aa1 133e 57f2 03bf
000000d0: 748a 93bd 5318 9e3e 784a df3d 086c 8ebe
000000e0: ba51 94be e380 a5bd 38a3 b23e 9673 95be
000000f0: 1895 49be 74c3 1b3e 11f5 193a 2249 3bbe
00000100: 9e00 e53e da64 e53c 5659 a93c 9927 0a3e
00000110: 7a4d 643e fcb6 403d 099b 823d fc8e dbbd
00000120: b017 89bf 0d41 adbe dac0 d83d 7951 15bf
00000130: 0ed3 35bf a739 cd3e 23f7 e6bc 8491 90be
00000140: 003f d93e 09b8 e43d b358 c6bd a47a 443f
00000150: 0e28 a73c a9be 78bd 665a 8cbe 993e b2be
00000160: 97c1 2d3d aab6 033e 251c be3e 9d8a 343c
00000170: c093 803e d53c 6c3f 54aa 4e3e be8a 7cbb
00000180: 53ac 663c 1d4b 77bd 3825 4f3e 2ac0 813e
00000190: 08cd 07be 47a0 073f 3cf5 103f 7725 21be
000001a0: 7486 5e3f 62f6 c83d e36c 92bd c0d1 503a
000001b0: 3c81 76be adc9 203e b801 d2bd 4c97 7d3d
000001c0: f496 84bd 60ed abbe 4be7 cf3e 5f2d db3e
000001d0: 3e4d dfbd fd2b c8be f5ac aa3d bb1f 313e
000001e0: c4a2 3c3d d519 abbd 7fed e03e ca97 4abe
000001f0: 9b87 b0bc f0d7 2b3f d6c5 6abc c824 0fbe
00000200: 1595 bd3e 4de9 03bd 6489 fa3d 9535 be3e
00000210: a91b 8c3d 9a9b 8ebe 5c5d 9d3d 95fb babd
00000220: b68f 733e 07de babd d66f 273e f0bf 5cbe
00000230: 686f d83e 398a 5f3d 2772 04be a7c8 1abf
00000240: 88a8 d0bd eda8 b3bc 91d9 bb3e d3b3 c53e
00000250: 420e 05bf b538 55bf 3f55 f43e bfa8 cfbe
00000260: ef5e c43e 1b89 a13d 5e6b e1bd f64b 40be
00000270: 3226 9bbd 5687 e5be add9 e3be b8bb 91bd
00000280: 9993 6a3d 84b5 e83c e8ed 2bbc f951 f4be
00000290: baf4 9a3e e7dc 8e3d d30e 70be 2e3c c73e
000002a0: 51aa d2be 862b b23e 4f3c 67be 69f7 393f
000002b0: ce6b 71be 95f8 ca3d 6eb2 8b3a 309b 1f3f
000002c0: 6742 ee3e 6ac8 77be 6a5f 9e3d aafb c7bd
000002d0: 62cf 04bc fda3 703d 9f2e 9bbe 4d99 dfbe
000002e0: 04f4 99be b1ea e4be 0c78 da3e 183d f6be
000002f0: 6446 52be 9a0f 6d3e fdbd a73c cf74 cdbe
00000300: f9ac 783e 33c7 323f ffff 353e 531d 3dbf
00000310: fc15 7ebe 7aa4 093e b987 ba3e 542e 3dbf
00000320: 1ab1 f63d 8008 433f 1aa6 bd3d c667 d0bd
00000330: cd43 eabd 0fa2 d63e 58dc b13d 0588 963d
00000340: ce9d 573e 1590 9f3e d4b7 d23e 7ef7 1c3d
00000350: b599 433d 34a9 a6be e9d2 d8be f9b8 08be
00000360: 2524 89bc 4c71 8c3c 4661 0f3e b640 303e
00000370: 6a5c 4f3e 948b ce3e 0879 953e 032c 163d
00000380: d3aa 013d 0728 06bc c4ee 44be d7f8 6c3f
00000390: 20c8 c6bd a383 603e c97e b73e f5d4 48be
000003a0: 2375 0c3f 9f96 9ebe 234b e0bc 3718 153e
000003b0: cf16 063d c288 013e ed65 bfbe a212 fd3c
000003c0: c1bb 09bd 23b2 adbc 78b8 573e a675 9c3d
000003d0: da20 bfbd 3717 e8be 361c 013e f45e 70be
000003e0: 420f dabe 4cf9 4e3e 68b2 5f3f c3bc 203f
000003f0: 4827 84be 9cec 1fbe 04da de3d 1f44 01bd

sequential_3/dense_7/MatMul f4 [11, 64]
-0.1570045 -0.08844612 -0.48371792 -0.119530916 -0.3875732 -0.28043061 -0.17509276 -0.2598915
-0.22127977 -0.1891657 -0.264443 -0.28804412 -0.26402327 0.18880218 -0.58212805 -0.15123516
-0.124701396 -0.07433496 -0.12866373 -0.13654268 -0.21995047 -0.23316185 -8.738638e-05 0.017884824
0.051152103 0.053504407 -0.34234294 -0.3145853 -0.098960415 -0.406273 -0.2539572 0.19142205
-0.02746323 -0.3876205 0.0677109 0.043300197 -0.12009109 -0.057479955 0.13818498 0.32437643
0.28289285 -0.06706656 -0.11566345 -0.118956156 -0.20477337 -0.4313464 0.11240487 -0.16419879
-0.29746318 -0.29746628 -0.07834383 -0.25570723 -0.2865879 -0.039711263 -0.6663753 -0.2661513
-0.5003209 0.118836015 -0.25486103 -0.4718297 -0.10163338 -0.43380052 0.019269515 -0.17300127
-1.1765479 -0.66821766 -0.042254142 -0.07463358 -0.31686917 -0.06775882 -0.25664946 -0.26685148
-0.050960153 -0.302961 -0.39992732 -0.5286651 -0.16813746 -0.48831585 0.08755275 -0.9423122
-0.18814567 0.030665988 -0.13703996 0.04983078 -0.26700473 -0.5546769 -0.48025674 -1.017449
-0.57773304 -0.1116091 -0.5010863 -0.2456857 0.06510771 -0.15843038 -0.11254226 -1.3792605
-0.06288721 -0.18470927 -1.638708 0.060902596 -0.04622194 -1.2163646 -0.0064582657 -0.6162751
-0.08129625 -0.13505891 -1.6676888 0.022832258 -0.42838442 -0.32523286 -0.039451607 -0.172345
-0.42881268 -0.20653526 -0.023771456 -0.6463375 -0.41180852 -0.17040013 -0.470783 -0.29432243
0.08359121 -0.15857714 -0.24389945 0.06026323 0.041050415 0.0017124277 -0.6899979 -0.03503627
-1.2998031 -1.6547663 -0.46100858 -0.060293835 0.26231346 0.043571208 -0.06354152 -0.032421604
-1.734194 0.11397492 -0.23128429 -0.16966936 -0.06876636 -0.40108407 -0.27332118 -0.34278527
-0.09780904 -0.06861177 -0.8798285 -1.4172093 -0.85795647 -0.36326537 -0.89195335 -0.707317
-0.04431963 -0.90913486 -5.2912335 -0.18165104 -1.6369877 -3.047196 -0.644496 0.04109154
-0.028835252 -1.068203 -1.3186278 -1.3358303 -0.12779826 0.08464691 -2.1389244 -0.75514686
0.18095446 -1.272882 -2.990506 -0.051822037 -1.7549242 -0.76886517 0.047530755 -0.4796717
-0.08485299 -1.0272189 -0.8410688 -0.27048987 0.009190433 -0.13089307 -0.26032826 -0.048421223
-0.006880214 -0.15230773 -0.0659785 0.037446056 -0.017167967 0.028026078 -0.1666697 -1.1788713
-1.042927 -1.2374382 -0.057194725 0.07353853 -0.049914654 -0.11983486 -0.3091471 -0.9118271
0.010679502 -0.1941906 -0.17694512 -0.5755528 -0.07747232 -0.3804236 0.11114738 -1.1684158
-0.20372318 0.1824642 0.018324317 -0.15054078 -0.28569853 -0.41697878 -0.33340713 -1.5833741
-0.20066138 -0.76556337 -0.4258762 -0.68040323 -1.4972763 -0.20637925 -0.06827283 -0.372731
-0.57205105 -2.2995913 -2.2429361 -0.72615075 -0.04339784 -0.5272215 0.2727858 -0.34440047
-0.16994959 -0.0186893 -0.7903929 0.099161245 -0.29364502 0.33085653 -0.52326155 -1.324755
-0.15307128 -0.0072863447 -0.18949854 -0.23761863 -0.27387363 -0.055172127 -0.3350807 -0.18782265
0.105232134 -0.31175816 -0.040404964 0.14584987 0.12661667 0.24603638 -0.2277271 -0.059435174
00000000: cac5 20be 3d23 b5bd e0a9 f7be a0cc f4bd
00000010: ff6f c6be 9a94 8fbe 844b 33be 8010 85be
00000020: 2a97 62be a7b4 41be 1365 87be 857a 93be
00000030: 0f2e 87be 5c55 413e 5806 15bf 64dd 1abe
00000040: 7263 ffbd ed3c 98bd 6dc0 03be d8d1 0bbe
00000050: b23a 61be fbc1 6ebe 3543 b7b8 3283 923c
00000060: de84 513d 7027 5b3d 9347 afbe 5311 a1be
00000070: c2ab cabd 0403 d0be ae06 82be 2404 443e
00000080: 91fa e0bc 3276 c6be 03ac 8a3d 8c5b 313d
00000090: 51f2 f5bd 1a70 6bbd 5d80 0d3e ab14 a63e
000000a0: 55d7 903e 315a 89bd f5e0 ecbd 499f f3bd
000000b0: 1cb0 51be 6fd9 dcbe 8634 e63d ba23 28be
000000c0: 184d 98be 804d 98be bb72 a0bd 0fec 82be
000000d0: a6bb 92be 47a8 22bd 9297 2abf fc44 88be
000000e0: 0815 00bf 4c60 f33d 257d 82be aa93 f1be
000000f0: 2925 d0bd 1a1b debe 1adb 9d3c 3f27 31be
00000100: 1f99 96bf 5010 2bbf ae12 2dbd 7ed9 98bd
00000110: ad3c a2be 23c5 8abd 8f67 83be c2a0 88be
00000120: 98bb 50bd b41d 9bbe 46c3 ccbe 9956 07bf
00000130: 3a2c 2cbe 8904 fabe db4e b33d 5f3b 71bf
00000140: 42a9 40be 3d37 fb3c 3454 0cbe 5c1b 4c3d
00000150: d8b4 88be 4eff 0dbf 36e4 f5be c53b 82bf
00000160: 50e6 13bf 5093 e4bd 3147 00bf 0895 7bbe
00000170: 3157 853d 933b 22be 8e7c e6bd 9c8b b0bf
00000180: 02cb 80bd 6d24 3dbe 2fc1 d1bf 0075 793d
00000190: 3853 3dbd d6b1 9bbf dc9f d3bb 34c4 1dbf
000001a0: a67e a6bd e24c 0abe d476 d5bf b70a bb3c
000001b0: 3455 dbbe ec84 a6be 0298 21bd 357b 30be
000001c0: 568d dbbe fb7d 53be 5bbc c2bc 6076 25bf
000001d0: 91d8 d2be 5f7d 2ebe 780a f1be 6eb1 96be
000001e0: de31 ab3d 0c62 22be c7c0 79be 94d6 763d
000001f0: 7b24 283d 8a73 e03a b4a3 30bf 3182 0fbd
00000200: f35f a6bf 62cf d3bf 5109 ecbe abf6 76bd
00000210: f34d 863e b977 323d 0e22 82bd 84cc 04bd
00000220: 12fa ddbf af6b e93d cad5 6cbe cebd 2dbe
00000230: 61d5 8cbd e45a cdbe c1f0 8bbe 8d81 afbe
00000240: 1b50 c8bd 5484 8cbd 713c 61bf 1d67 b5bf
00000250: 09a3 5bbf ebfd b9be 0e57 64bf ba12 35bf
00000260: 8088 35bd 10bd 68bf c951 a9c0 bb02 3abe
00000270: d088 d1bf 4205 43c0 b1fd 24bf 9a4f 283d
00000280: e837 ecbc e0ba 88bf ccc8 a8bf 7dfc aabf
00000290: 8cdd 02be 5c5b ad3d 23e4 08c0 4e51 41bf
000002a0: 204c 393e cced a2bf 7364 3fc0 5843 54bd
000002b0: 5ba1 e0bf 59d4 44bf 9caf 423d 8797 f5be
000002c0: 68c7 adbd e97b 83bf 4950 57bf a67d 8abe
000002d0: 7893 163c d508 06be bf49 85be 5555 46bd
000002e0: 6b73 e1bb 8ff6 1bbe bc1f 87bd 0961 193d
000002f0: d6a3 8cbc f296 e53c 76ab 2abe 41e5 96bf
00000300: a27e 85bf 6064 9ebf 0445 6abd 5e9b 963d
00000310: 4f73 4cbd fb6b f5bd 8748 9ebe 806d 69bf
00000320: 14f9 2e3c e7d9 46be 1a31 35be 6e57 13bf
00000330: cfa9 9ebd e2c6 c2be 3da1 e33d a68e 95bf
00000340: cf9c 50be e5d7 3a3e e11c 963c 5d27 1abe
00000350: 1447 92be 3e7e d5be 57b4 aabe 01ac cabf
00000360: 2d7a 4dbe f6fb 43bf 720c dabe e82e 2ebf
00000370: c0a6 bfbf 1555 53be a0d2 8bbd 99d6 bebe
00000380: f071 12bf 812c 13c0 448c 0fc0 04e5 39bf
00000390: efc1 31bd fdf7 06bf 95aa 8b3e 4255 b0be
000003a0: 4407 2ebe 4e1a 99bc 3057 4abf 0d15 cb3d
000003b0: a458 96be 0766 a93e 78f4 05bf 9291 a9bf
000003c0: b8be 1cbe 4ac2 eebb e80b 42be 4c52 73be
000003d0: 2a39 8cbe 2bfc 61bd b38f abbe 9554 40be
000003e0: f283 d73d c49e 9fbe ad7f 25bd ab59 153e
000003f0: cda7 013e f6f0 7b3e 4b31 69be 4c72 73bd
