models/demo_models/lying_down_right_model.tflite (tflite, 463532 bytes, 12 tensors)

sequential_3/conv1d_12/BiasAdd/ReadVariableOp f4 [32]
00000000: 6118 61bd 00f1 eabb ef81 4fbd 02d2 6dbe
00000010: 1802 bebd 9bcd b03c 4f6a 90bd 5b13 13bd
00000020: cfb2 333c f4a3 88bd 3a75 23bd 317e 1dbd
00000030: 3462 01bd 896b 74bd 0354 03be 0f53 85bb
00000040: e23c af3d 18b0 bd3c 4fd4 86bd 4d6b 31be
00000050: b977 2ebc f4e6 1bbe a8f5 5bbd 3833 bf3d
00000060: 9870 dfbd 506c 3dbf 0714 883d 6e09 093b
00000070: 3b77 febb a525 99bd be76 d6be c95a 9fbd
-0.05495489 -0.0071698427 -0.050661024 -0.23224643 -0.09277743 0.021582415 -0.07051527 -0.03590713
0.010967924 -0.066718966 -0.039906718 -0.038450424 -0.031587794 -0.059672866 -0.12825017 -0.0040687392
0.08556534 0.023155257 -0.065834634 -0.17326088 -0.010648661 -0.1522482 -0.053701073 0.09335941
-0.109101474 -0.73993397 0.06644445 0.0020910162 -0.007765678 -0.07477883 -0.41887468 -0.07780988

sequential_3/conv1d_13/BiasAdd/ReadVariableOp f4 [64]
00000000: f018 96bd 7837 22be ca3f 90bd cf5e c33d
00000010: b634 4cbe 9b43 2ebe 0408 62bd 7241 01be
00000020: f0fd acbe 603d 9abd 69ea 09be 179d 0ebe
00000030: 7b97 13be d3bd 1fbe 24cd 88bd 7f1a 34bd
00000040: 5335 37be ac35 39bd 4071 eabd c7a6 2cbd
00000050: b749 d5bc ddf7 2abd d90f babd e211 43be
00000060: 3ef7 74be 5fe2 80be a61c 41be f7e9 2ebe
00000070: 2d61 0dbd 7e59 ccbd 45a2 72be ac96 08be
00000080: e688 50be f369 86bd 65b7 59bd 3120 72be
00000090: 3336 cfbd 73d0 6ebe 1fb7 10be 3213 2abd
000000a0: 2932 ecbd 384a 50be c76b 50be 1947 39bd
000000b0: 62d1 c1bd 614c 9bbd 4c73 92bc 7f92 b3bd
000000c0: 2ff5 10be 3db2 70bd 668c 63bd 8be3 d6bc
000000d0: 7d2c 90bd c21d 22be 4112 9dbd 52d1 78be
000000e0: e334 6abe f577 0cbe e07f 6fbd bcd8 8cbd
000000f0: 36ff 2abe e8ac 92be a784 64bd e5af 3ebe
-0.07328975 -0.15841472 -0.07043417 0.09539568 -0.19941983 -0.17017977 -0.055183426 -0.12622622
-0.3378749 -0.075312376 -0.13468327 -0.13927113 -0.14413254 -0.15599756 -0.066797525 -0.04397058
-0.17891435 -0.0452172 -0.11447382 -0.04215124 -0.026036127 -0.041740287 -0.09085054 -0.1904979
-0.2392244 -0.25172707 -0.18858585 -0.17081438 -0.034516502 -0.09978007 -0.23694713 -0.13338727
-0.20364723 -0.06563177 -0.053153414 -0.23645093 -0.101177596 -0.23321705 -0.14132355 -0.041522212
-0.11533005 -0.20340812 -0.20353614 -0.04523382 -0.09463765 -0.075829275 -0.017877243 -0.08768176
-0.1415603 -0.05876373 -0.055553816 -0.026231548 -0.070397355 -0.15831664 -0.07669497 -0.242986
-0.22871737 -0.13717635 -0.05847156 -0.06877276 -0.16698918 -0.28647542 -0.05579057 -0.18621786

sequential_3/conv1d_14/BiasAdd/ReadVariableOp f4 [128]
00000000: a156 e7bd 5a16 8cbe d846 4bbe 85ef 13be
00000010: ae02 05be c1a7 11bd 7b7e a8bd 77bd 35be
00000020: a2c2 57bd 043a b2bd feeb 06be 175f 28be
00000030: dd0d babd 48ad 333d 5cae 83bd 4257 8ebd
00000040: 1eca 52be e7ae 1abe fb3e 7fbe 0053 8fbe
00000050: 5e63 34be d2bc 1cbe 00c5 23be 28a6 9fbe
00000060: e906 0ebe fc35 f4bd 4eab 1dbd 359e 5dbd
00000070: 53a7 e2bd 2470 31be b97e 87bc 0891 90bd
00000080: 25e2 dfbd 7ade 0fbe 8251 94be 4eb1 47be
00000090: aa66 16be 88eb d8bd 09f8 8dbe 5b6d 3bbe
000000a0: 8de7 2abd d915 72be b206 5abe c3ee 1fbd
000000b0: 0484 22be 91af d5be 63c9 b9bd b759 5dbe
000000c0: 06eb 31be 5b9c 43bd 9e51 1dbd fac1 68bc
000000d0: c9d4 c2bd 897c 6cbd 19ba 22bd fbd9 83bd
000000e0: ee83 17be 7421 9ebe 0e01 72bd a4be 9bbd
000000f0: 2bcc c5bd d402 a0bd 20b8 efbd 11a4 8ebe
00000100: 5c14 9abd c17e c9be 8b92 3bbe 99e1 d8bd
00000110: d0bb 2ebd ec84 82be 2e97 9d3d e8b1 c7bd
00000120: f86e e8bd bc34 e4be 37b1 c9bd d81b 8bbe
00000130: 8db6 66bd 790b c1bd 3cac 49bd 6549 5cbe
00000140: 0fde ccbd 9e79 2cbe 2ebc f23c bc86 8cbd
00000150: 574e 643c 9ccf d9bd 5f67 34be 0853 d7bd
00000160: cbd3 2cbe 30b2 07be de42 99be 4738 81bd
00000170: d361 a2bd a102 b5bd 1767 a4bd 2329 4ebe
00000180: 2d6d 00bc 53bb 3939 c4d0 bbbc d753 d9bd
00000190: dfe3 84be 0c66 41be 1c84 80be 4e74 6abd
000001a0: 8c2e 96bc 9394 4bbd 77cf 69bd 4e22 a7be
000001b0: a84d ebbd 4c13 15be e0d2 67bd 4622 cfbd
000001c0: cde1 f3bc 1af2 3fbe cce6 84bd 54b3 cfbd
000001d0: 0137 9bbe 5461 f5bd a0aa 11be ea10 2abe
000001e0: a79c 03be 04ce 9abe 8423 95bd 49f9 a1bd
000001f0: 6fe0 ddbd d88e 17be f28f 20be 0f62 a1be
-0.1129582 -0.27360803 -0.19851243 -0.14446838 -0.12989303 -0.035560373 -0.08227249 -0.17748056
-0.05267585 -0.08702472 -0.13175961 -0.16442524 -0.090846755 0.043866426 -0.06429741 -0.06950237
-0.20584914 -0.15105782 -0.24926369 -0.2799301 -0.1761603 -0.15306404 -0.15993118 -0.31181455
-0.13869824 -0.11924359 -0.038493447 -0.054105956 -0.11067071 -0.17327935 -0.016539918 -0.070589125
-0.109318055 -0.14049712 -0.28968436 -0.1950123 -0.146876 -0.10591799 -0.27728298 -0.18303435
-0.04172473 -0.23641147 -0.21291617 -0.03904606 -0.15870672 -0.4173551 -0.090716146 -0.21616255
-0.1737481 -0.047756534 -0.038407914 -0.014206404 -0.09513242 -0.057735953 -0.039728258 -0.06438061
-0.14796421 -0.30884898 -0.059083037 -0.07604721 -0.096580826 -0.078130394 -0.11705041 -0.27859548
-0.075234145 -0.39354518 -0.1831762 -0.10589904 -0.04265958 -0.25492036 0.07694851 -0.0975073
-0.113492906 -0.44571483 -0.09848254 -0.2716968 -0.056326438 -0.09426016 -0.04923652 -0.21512373
-0.10003292 -0.16843268 0.029630747 -0.06861636 0.013934693 -0.106353015 -0.17617558 -0.10513884
-0.16877668 -0.13251567 -0.29933828 -0.06309562 -0.07928815 -0.08838392 -0.08027475 -0.2013288
-0.00783853 0.00017712759 -0.022926696 -0.10611694 -0.25955102 -0.18886584 -0.2510079 -0.057239823
-0.018332742 -0.04970224 -0.05708262 -0.3264336 -0.11489421 -0.14558142 -0.05659759 -0.10113959
-0.029770756 -0.18744698 -0.064893335 -0.10141626 -0.30315402 -0.119814545 -0.14225245 -0.16608015
-0.12852727 -0.30235302 -0.07282165 -0.079088755 -0.10833823 -0.14800584 -0.15679911 -0.31520125

sequential_3/conv1d_15/BiasAdd/ReadVariableOp f4 [128]
00000000: 6915 9fbd 0e9e 5fbe f003 bebd 0872 23be
00000010: fa70 09be 3de6 00bd 9b74 fa3d 5129 98bd
00000020: facc 5bbe f2ba dfbd e5cb 8ebd 450c 97bd
00000030: ca0a 2dbd b795 cc3d a9a6 a3bd fd1a 22bd
00000040: dfaf 1dbe 5f81 4ebc 31cc b93c e7bb 9cbe
00000050: d081 b9bd b6ca 903d b326 c8bd 2cd3 37bd
00000060: fa42 afbd 5d05 f2bd 226e 90bd 94f1 823c
00000070: cbf7 2abd 7efb acbd 9b2b 7dbd ee0a 7abd
00000080: 9b02 a9bd 9a27 24be b85b f9bd 5710 55bd
00000090: 8490 efbc ff53 20be 6ba1 4fbc 312a 59bd
000000a0: c1da a6bd da32 19bd 0d09 343d ece5 1cbd
000000b0: 0046 ad3c be78 b53d 5476 0cbd c42c 8e3c
000000c0: a203 8cbd b66b aabd a3e4 35bd 112d e5bc
000000d0: 0117 20be fea2 81bd 7a0c cfbd 2617 14be
000000e0: 1691 103e 2e63 0c3e 4b59 b6bd 1dc1 cc3d
000000f0: cddf f53d 42f8 d4be 05e3 f23d 1f86 bcbd
00000100: 74a3 2fbd 7d1f 56be d3a6 1bbe c3cf b0bd
00000110: 7a65 00bd b18c afbd ba7a 49be 4bb7 77be
00000120: a20f 47bd b7db aabd 00bc 87bd 18e9 53bc
00000130: 08b2 0c3e 99f1 81bb 749d bebd b8b8 d0bd
00000140: 638b dfbd 0d89 afbd 8f2a 9abd 69b1 b3bd
00000150: f108 aabd 6569 50bd 41c6 c5bd d33c 93bd
00000160: ae15 913c 4e05 ccbd 889a 033e 70d4 0a3c
00000170: 424c 073b 5b95 5d3d 3f58 e13b 9454 7dbd
00000180: 050b 6fbd 54ea abbd 5c32 4ebe 6491 64bd
00000190: 84e7 843d 5baa 7fbd 1780 93bd d86b dfbd
000001a0: 626a 5ebd a51c 41bd c20e 67bd 6f3a 9f3b
000001b0: 6f52 20be d778 2bbc 147e 9fbc a4d3 c03c
000001c0: d721 143d 45f4 96bd 1edc 0dbd 2e18 a9bc
000001d0: 52ee 8dbd bdc1 50bd 02c8 16bb b89e 23be
000001e0: d0b3 59bd d057 9dbe cf39 f1bd 0abd 83bd
000001f0: cd23 a0bd 031f 0abe 6870 053d a35b 2ebd
-0.077677555 -0.21837637 -0.09278095 -0.15961468 -0.13422003 -0.031469572 0.12229272 -0.074297555
-0.21464911 -0.10924329 -0.069724835 -0.07375387 -0.042246617 0.09989493 -0.07990772 -0.03957652
-0.15399121 -0.012604087 0.022680374 -0.30612108 -0.09057963 0.07069914 -0.09773006 -0.044879124
-0.08557697 -0.11817429 -0.07052256 0.015984334 -0.04174022 -0.08446406 -0.061809164 -0.06104558
-0.0825245 -0.16030732 -0.12175697 -0.052017536 -0.029243715 -0.15657042 -0.012672762 -0.053018752
-0.08147193 -0.03740201 0.043953944 -0.038305208 0.021151543 0.0886092 -0.034292534 0.01735533
-0.068366304 -0.083213255 -0.044407498 -0.02797559 -0.15633775 -0.063299164 -0.101098016 -0.14461955
0.14117846 0.13709709 -0.0890375 0.09997771 0.12005577 -0.41595656 0.11859707 -0.09205269
-0.04288049 -0.2091045 -0.15200357 -0.086333774 -0.031346776 -0.08571757 -0.19675723 -0.24191014
-0.048598893 -0.083426885 -0.06627655 -0.012933992 0.13739789 -0.0039655683 -0.093073756 -0.10191482
-0.10915258 -0.08571062 -0.07527649 -0.08774073 -0.08302487 -0.050881762 -0.096569546 -0.07189336
0.017710533 -0.09961949 0.12851918 0.008473501 0.0020644818 0.054097515 0.006876975 -0.061848238
-0.05836012 -0.08394304 -0.20136398 -0.055802718 0.064894706 -0.062418323 -0.072021656 -0.109092414
-0.054300673 -0.04714646 -0.05641056 0.0048592607 -0.15656446 -0.010465822 -0.019469298 0.023538418
0.036165085 -0.073708095 -0.03463375 -0.020641413 -0.069302216 -0.050966013 -0.0023007398 -0.15978515
-0.05315 -0.30731058 -0.11778604 -0.06432541 -0.078193285 -0.13488393 0.032577902 -0.04256786

sequential_3/conv1d_12/Conv1D f4 [32, 1, 3, 3]
00000000: 9935 c2be 3d37 15be ef18 d33e a297 44be
00000010: d7ee 50be 702d 3d3e b5f2 00bf a3e1 63be
00000020: a78d 863d 8efa cdbc 2b8b af3e 2c4c 66be
00000030: 0401 ec3d 1ec2 a23e 6732 febe 2fec 25bb
00000040: 330a 623e e417 b2be e276 84be 4625 f6bb
00000050: 0a67 8c3e e9a6 6dbe c1bd 85be 60c6 69bd
00000060: 4923 a1bd 6e8c 65bd a83a c0bd 1304 cbbb
00000070: 995d d3be 5505 aa3e 33b4 77be 00e7 e6be
00000080: ed91 ef3e d671 92be 174a 80be 5c69 cc3e
00000090: ed30 063e b970 05bd 78e0 623e cfdc 13be
000000a0: 9162 3e3d 8d5c fbbe 77a2 3fbd 5c66 95be
000000b0: d1fb dabd f5ae 5ebd ebfb 303f b7d1 07bf
000000c0: e4f2 cf3d aef4 dcbe b704 28bc 51b5 553e
000000d0: 03d9 34bf 269f c63d 9fc4 66bd 4f69 5a3f
000000e0: e45a 843e 4e1e 933d e565 c73e 553d 22bd
000000f0: 843c 32be 42ed 2f3f 48d2 97be 2734 c0bd
00000100: 7759 343e 30fd c3be 10e5 163e 0774 223e
00000110: b0b8 25bf 2430 2e3e d3ae b63e 34ff 6dbe
00000120: fb6d c2be ecce 19bf 3340 ec3a cf3a 7abd
00000130: b2e5 05bf 960b 9bbd ad10 ccbd c2ec 09bf
00000140: ff82 11be d294 873d 4ab2 0ebe 01ed f3be
00000150: beed 08bd f172 07be c7be b1be ae02 02be
00000160: ab14 5ebe 0041 44bd 2c5a 693e f0e8 07be
00000170: 9319 44bf 7aae f93d d9ba a9be 0ad3 14bd
00000180: a1a5 c83d dc98 53be c1dc 24bf 9188 b83e
00000190: ab4c b4be bcfd 83be 41a2 acbe c93d 943e
000001a0: 4c61 093f 9c58 c03c 61b7 c2bd da2f 87be
000001b0: 526b a23d 48a5 20bf 0126 a33e 1b90 153e
000001c0: 3537 fabd 1a72 3cbe 6bd2 42bd c896 c13f
000001d0: 4e59 00be 4787 013c 9f03 acbe dcff 04bf
000001e0: 39f0 d53d 057c 85be 019c fabe d4de 66bd
000001f0: ae2e 09be 06db 1cbf acd9 4abf a616 213e
00000200: 65c6 5e3e 00d9 93bb 9632 063e b66f 023b
00000210: 6429 69be f0f4 3bbe cc8f 9c3d 19ee 19bf
00000220: f5e5 813e c82f ab3e 978b 0fbf 8a43 863e
00000230: 8747 1f3e 2312 98bd 69b0 6cbd 63d7 4d3e
00000240: ce98 1a3e 6a26 bd3e 692b 01bf 3418 e5bd
00000250: 871e b23e 0b17 b6be 4c71 9e3e f0b0 153f
00000260: 0081 44bf e329 68bc 7b2a a03f 8e68 9abc
00000270: bc6d aabe cba3 f2be 07fe 433d 9184 673e
00000280: 6485 d8be 6f0b 703e 06a8 65be c935 89be
00000290: 7a6a b93b fd29 53be df7d eebb cc31 883e
000002a0: 1a2e 38be 711c bcbe ac83 623e c827 6bbe
000002b0: 0e2c 883e 9b80 fbbd 53b8 de3d ca4e 1d3e
000002c0: 54ba c93d acc5 ab3d 0d26 2bbe fd9f 17be
000002d0: f713 28be 8adc d1bd e859 c8bd 510e ee3d
000002e0: 5be5 913c d5a4 05bf 3c49 b5bd 678a 91be
000002f0: 2231 33be 86cd eebb ac80 f5be 2652 53bd
00000300: 975c d93d 23fc 1ebf ee9e 5cbd ddb8 57bd
00000310: 0382 fb3e f3e1 79be 0d23 c63d 535f 1b3d
00000320: ff90 1d3e 70ff d7be a886 a6be 14da 16bd
00000330: ea9a 7dbc 2ace 8fbe 908b 7b3d 86ac cc3d
00000340: e230 533e d7e1 34bf 112b b03d e891 de3d
00000350: da8b 42bf daa0 c5bd 3b4d b73e 2922 98bd
00000360: 8377 4dbe 0b0f 93bd ebf4 773e d827 243e
00000370: 5d92 3abf 06e9 62be b4ae be3d 9c7a 193f
00000380: 6396 60bd 220b 24be 3fad 9cbf 5db7 e23e
00000390: 377f 903e b942 cabe 9658 383f a7f7 d23e
000003a0: 1d18 19bf 3195 303f dcd7 ffbe 5a4e 023f
000003b0: 9a22 5a3e 035a b8be cb5e d13e 6947 b43d
000003c0: 4f05 d1be 8e27 e63d 51a8 b6bd de17 35bd
000003d0: 9a04 4d3e ceb6 a2be 7587 c7bc f488 923e
000003e0: 4478 ccbe d225 073e 789a dd39 d3df 59bf
000003f0: 27b4 74be d3b9 aab9 9c25 423d 9d23 9bbe
-0.37931517 -0.14571853 0.4122996 -0.19198468 -0.2040361 0.18474364 -0.5037034 -0.22254042
0.06569987 -0.025143888 0.34285864 -0.22489995 0.11523631 0.31788725 -0.4964783 -0.0025317778
0.22074203 -0.34783852 -0.2587195 -0.0075117676 0.27422363 -0.23208202 -0.26121333 -0.05707395
-0.07868058 -0.056042127 -0.09386188 -0.006195554 -0.41282347 0.33207193 -0.24189834 -0.45098114
0.4679102 -0.28602475 -0.25056526 0.39924133 0.13104601 -0.032578204 0.2215594 -0.144397
0.04648072 -0.49094048 -0.046785798 -0.29179657 -0.106925614 -0.05436607 0.69134396 -0.53054374
0.101537496 -0.43155426 -0.01025503 0.20869948 -0.70643634 0.09698324 -0.056339856 0.8531694
0.25850594 0.071835145 0.38944927 -0.039609272 -0.17405897 0.687214 -0.2965262 -0.09384947
0.17612253 -0.38279104 0.14735818 0.15864573 -0.64734936 0.17010552 0.35680255 -0.23241884
-0.37974533 -0.6008136 0.0018024504 -0.06109124 -0.5230361 -0.07570569 -0.09964118 -0.5387689
-0.14210127 0.06620182 -0.139352 -0.47641757 -0.033429854 -0.1322744 -0.34715864 -0.12696335
-0.21687572 -0.04791355 0.22788304 -0.13272452 -0.76601523 0.12191482 -0.33150366 -0.036334075
0.09797216 -0.2066378 -0.64399344 0.36041692 -0.35214743 -0.2577952 -0.3371754 0.28953388
0.5366409 0.023479752 -0.09507633 -0.26403695 0.07930626 -0.627522 0.31864932 0.14605753
-0.12217561 -0.18402901 -0.04756395 1.512414 -0.12534067 0.007905788 -0.33596513 -0.5195291
0.104462095 -0.26071182 -0.48947147 -0.05636485 -0.13396713 -0.61271703 -0.7923839 0.15731296
0.21755369 -0.0045119524 0.13105235 0.001990301 -0.22769696 -0.18355155 0.076446146 -0.60128933
0.25370756 0.33434892 -0.5607237 0.26223403 0.1555463 -0.07425334 -0.057785425 0.20101695
0.15097353 0.3694337 -0.50456864 -0.11186257 0.34788916 -0.35564455 0.30945814 0.5847311
-0.7675934 -0.014170143 1.2512964 -0.018848684 -0.33286846 -0.4739059 0.04784968 0.22609164
-0.4228927 0.23441862 -0.22427377 -0.26798847 0.005658445 -0.20621486 -0.0072781886 0.26600492
-0.17986336 -0.3674045 0.22120541 -0.22964394 0.2659611 -0.12280389 0.10875001 0.15362087
0.098499924 0.08387312 -0.16713734 -0.14807124 -0.16413866 -0.102471426 -0.09782773 0.116238244
0.01780956 -0.5220464 -0.08851859 -0.28425905 -0.17499211 -0.007287684 -0.4794973 -0.051592015
0.10613363 -0.6210348 -0.053862505 -0.052666534 0.4912263 -0.24402599 0.09674654 0.037932705
0.15387343 -0.4218707 -0.3252461 -0.03682907 -0.015478829 -0.28086978 0.061412394 0.09993844
0.20624116 -0.70657104 0.08601964 0.10867673 -0.75994647 -0.096498206 0.3580111 -0.074283905
-0.20065121 -0.071806036 0.24214523 0.16030824 -0.7287958 -0.22159204 0.09310666 0.5995271
-0.05483092 -0.16019872 -1.224037 0.4428052 0.28222057 -0.3950403 0.7201017 0.4120457
-0.5980242 0.6897765 -0.49969375 0.50900805 0.21302262 -0.36006173 0.40892634 0.08802683
-0.40824363 0.11238013 -0.089188226 -0.044212215 0.20021287 -0.31780094 -0.024356583 0.28620112
-0.39935505 0.13198021 0.00042267493 -0.85107154 -0.23896848 -0.00032563377 0.04739915 -0.30300608

sequential_3/conv1d_13/Conv1D f4 [64, 1, 3, 32]
00000000: 797f b3bd cea5 e4bd ff60 003c 7564 9bbd
00000010: a6ca 81bd 665b fbbd 066b 483d 5ef5 75bc
00000020: 9677 68bd 2a05 6dbe 0ba5 1cbe 4168 0ebe
00000030: 1457 86bd 9dbd 8a3c 0a00 ad3d 5bc6 05be
00000040: 1dea dfbd e941 383d 72ed 203d 31d2 713c
00000050: 38bd 0ebd fac9 74bd cd28 91bb e97e df3b
00000060: 51b7 863c 38ad 46be e75f 593e f5ea bfbd
00000070: 4067 65bd 297f b5bd 67bc 01be 0411 243d
00000080: 21e3 133e 46a4 17be 40dd db3d d622 48bc
00000090: 90a0 7dbd 0c2a aabd 0cdf 083e 7c84 23bd
000000a0: 8b09 83bd d3f6 33be 5a2b 2abd 2813 25bd
000000b0: 76d1 6a3d 4419 06be 6bca b23d cd8f 2dbd
000000c0: 43de 223d 5e6d f7bd cdbb ed3d 5ba1 1cbe
000000d0: 4ede dcbd 917b 2dbd 39ba 92bd 51f9 bebc
000000e0: 0add 3c3d 4f3c a1bd e774 673e 7d06 933d
000000f0: 037d bbbd a07b 2cbe 3727 e1bc d630 f0bb
00000100: 01e0 a5bd b110 293d 540e 073e 626d fa3c
00000110: 349f 593b 9ded 25be 9f27 263d 441b 603d
00000120: 196b 0f3d a50c 38be 3fa9 56be 59b7 90bc
00000130: 0488 0ebe f12c 683d d602 b3bd d860 85bd
00000140: 4f9d 8cbd ba8c 20be 594f 23bd fe62 4cbe
00000150: 8117 86bd 34cd 003d 75f3 41be 65b0 2dbe
00000160: 403a 4c3b 66b6 713d cfe6 a93d 6485 193c
00000170: 9210 65bd 759d fcbd 6a31 27be 6f83 54be
00000180: 8ebc 873e ed3f 4ebd 61af 573e ac10 943d
00000190: 4d0c e8bd 707b 38be 7a44 0fbe cf0f 03bd
000001a0: a704 273d d311 c1bd dcf8 53bd 066a 7ebc
000001b0: 3b5a d9bd 81a7 17be c192 07bd 3239 ae3c
000001c0: b9ec 1abe 8cb5 eebd c72a 0a3e 3fed c13c
000001d0: 3800 023d feaf 013e 4902 1a3e ca75 0a3d
000001e0: 36fd e63d 4430 13bd b8ac ffbd 4f61 ec3a
000001f0: a3bf d13d e4f9 f6bd 0caf 133c e367 c1bb
00000200: f4e4 043e 83b0 5cbe c9f6 a43d c953 b4bb
00000210: 57d0 fa3c ece9 9bbd aa63 27be f26f 953c
00000220: 2cdf 883e adb5 3cbe 3432 37be 4414 e8bd
00000230: b22e 59bd 49bf 5dbd 42e8 333e f157 153e
00000240: 7eee 18bd dc54 dfbd 4385 d43d a584 053d
00000250: 0549 353d b5f4 313e 02a1 433d d11b f43d
00000260: e722 4e3d 32e0 fdbd 6e48 32bd c555 9c3a
00000270: 0860 e9bc a615 92be b2f7 b03c 859d 87bd
00000280: f51d 343d a8ac 1fbe bd32 403e 4041 f4bd
00000290: 40fa debd 3616 56be e88b 813d 61b8 c13d
000002a0: cf53 063e 89bf 803c 6780 09be 75cb 873c
000002b0: 2c0d 9ebe 1dac 84bd 88d8 9b3d 37c1 1abc
000002c0: 0620 eabd af1a 3cbe 72a3 403e d8df b63d
000002d0: d8a4 1fbe 74ae 85bd 74e8 f53d 80c0 5b3b
000002e0: 07ab 70bd fab9 e8bd a3a2 cc3c 23a9 84bd
000002f0: f3d1 743b d1ea 96bd 2215 18be db42 aabc
00000300: ed07 83bd aa26 1abb c0f2 e23d 9c82 843d
00000310: d152 45bd 3b44 f3bc adc2 f4bd 0159 c83d
00000320: 8cf3 5dbd 8085 eabd 1989 30be 2bf0 8bbd
00000330: 2bfc 33bd 4a13 ddbc a014 d9bc d114 873d
00000340: f567 223d 6646 383d dec3 02be c30d fe3b
00000350: 929f 143c 963a 773d 93aa da3c 90c7 cdbd
00000360: 000b aebd c838 03be 99df c5bc 7cb4 52bc
00000370: 1d6e ebbd b891 0a3d 966e 82bd cefb 643d
00000380: 3b1f 20bc 492b a9bc 3241 bf3d 69c8 0fbd
00000390: c622 09be ad32 d83d 2c2a afbd d930 823d
000003a0: 5ad6 c4bd 0c10 36bd 8355 fabc 5bae 783d
000003b0: 2161 fbbd 87c8 9a3c 2319 ed3c 9f18 6c3c
000003c0: 320c 63bd f292 84bd a2a7 a43d a5e3 f6bd
000003d0: 29ca 133d 28ec d93d 50c3 17be 1a8b d2bd
000003e0: a839 fc3d 7b9f 4ebe 8952 843c eb35 18be
000003f0: f2d4 f9bd 7626 59bd 250f 02bd f695 89bd
-0.08764548 -0.11164437 0.007835626 -0.0758752 -0.0633748 -0.12273292 0.04893019 -0.015012113
-0.05675467 -0.23146501 -0.15297334 -0.13906957 -0.065595776 0.016936118 0.08447273 -0.13063948
-0.109333254 0.04498473 0.039288945 0.014759586 -0.03484842 -0.059762932 -0.0044299127 0.006820549
0.016444834 -0.19402015 0.2122799 -0.09370986 -0.05600667 -0.088621445 -0.12669526 0.04005529
0.14442112 -0.14808759 0.107355595 -0.012215337 -0.061920702 -0.08308801 0.13366336 -0.03992127
-0.063983046 -0.17574625 -0.04154525 -0.040301472 0.057328664 -0.13095576 0.087300144 -0.042373467
0.039762747 -0.12081407 0.11608086 -0.15295927 -0.10784589 -0.04235417 -0.071644254 -0.023312243
0.046109237 -0.07872831 0.22603188 0.07178972 -0.091547035 -0.16844034 -0.02748452 -0.0073300404
-0.08099366 0.041275684 0.1318906 0.030569736 0.0033206465 -0.16203924 0.04056513 0.054713503
0.035014246 -0.17973574 -0.20963 -0.017665552 -0.13919073 0.056683484 -0.08740775 -0.06512612
-0.06865942 -0.15678683 -0.039870594 -0.19959638 -0.06547452 0.031445697 -0.18940528 -0.1696182
0.003116265 0.05901184 0.08295976 0.009370182 -0.055924006 -0.1233472 -0.16327444 -0.20753263
0.26511043 -0.050353933 0.21062995 0.072297424 -0.11330471 -0.18015838 -0.13990965 -0.031997498
0.04077592 -0.09427228 -0.051751003 -0.015528208 -0.10612913 -0.14809991 -0.03309894 0.021267507
-0.15129365 -0.11655721 0.13492881 0.023672698 0.03173849 0.12664792 0.15039934 0.03380374
0.11278765 -0.0359347 -0.12484115 0.0018034371 0.1024163 -0.120593816 0.009013902 -0.005902277
0.12977964 -0.21551709 0.08054883 -0.005503152 0.030616922 -0.076129764 -0.16346613 0.018241856
0.26732767 -0.18428679 -0.17890245 -0.1133199 -0.053023048 -0.054137502 0.17569068 0.14584328
-0.03733682 -0.109048575 0.1037698 0.032597203 0.04425909 0.17378505 0.04776097 0.11919368
0.050326254 -0.123962775 -0.043526106 0.0011927417 -0.028488174 -0.2853214 0.021602485 -0.06621841
0.04397388 -0.15593207 0.18769355 -0.11926508 -0.10887575 -0.2090691 0.06325513 0.094589956
0.13117908 0.015716331 -0.13427888 0.016576508 -0.30869424 -0.064781405 0.076096594 -0.00944548
-0.11431889 -0.18369554 0.1881235 0.089294136 -0.15590227 -0.06527415 0.120072275 0.0033531487
-0.058756854 -0.11363597 0.024979895 -0.06477573 0.0037356585 -0.073690064 -0.14851812 -0.020783832
-0.06397996 -0.002352158 0.11081457 0.06470224 -0.048174683 -0.02969562 -0.11951194 0.09782601
-0.054187343 -0.11451244 -0.17239799 -0.06832918 -0.043941658 -0.026986737 -0.026499093 0.06595767
0.039649922 0.044989012 -0.1277003 0.0077531054 0.009071248 0.060358606 0.026692664 -0.10047829
-0.08498192 -0.12814629 -0.024154471 -0.012860414 -0.11495612 0.033830374 -0.06368749 0.055904202
-0.009773071 -0.020650523 0.09338607 -0.035103235 -0.13392171 0.10556541 -0.085529655 0.06356973
-0.09611197 -0.044448897 -0.030558353 0.060713153 -0.12274385 0.018894447 0.02894265 0.014410167
-0.055431552 -0.0647334 0.08039786 -0.120551385 0.036081467 0.10640746 -0.148206 -0.10280438
0.123156846 -0.20178024 0.016152637 -0.14864318 -0.12198819 -0.053015195 -0.031752724 -0.06718056

sequential_3/conv1d_14/Conv1D f4 [128, 1, 3, 64]
00000000: 4c10 09bc 5f82 1b3d 28be 663d 8125 84bd
00000010: e80d 26be 7185 b83d 77f7 4a3d 470c 343c
00000020: e810 5a3e 3d5e bebd 9d8a ad3d 9a78 ed3c
00000030: 4c3d ea3d 998b 1c3e beef f9bc 6df3 1cbc
00000040: 944e 153e dfb5 a6ba 9552 553d 41dd 93bd
00000050: 9d2d 54be 7cdb 34be afb5 8ebc 4762 17be
00000060: 2e90 0dbe 4bb5 4c3d ab48 69be 304c 613d
00000070: 195d d8bc 8124 34bd a351 6dbd 481f fabd
00000080: 9ff4 2f3e 0765 bbbd d3b8 75bd ae15 ca3d
00000090: 02a6 3ebc b9c0 783d 22c4 6bbe 8e11 b43d
000000a0: 4f80 c6bd b053 2a3e 5d52 d7bd a5d8 e83c
000000b0: c5d2 8d3c 706b bf3d 597c 15be ba3a c03d
000000c0: f243 003e c4c4 f9bd a47a 173d ab9f 3c3e
000000d0: 0bf8 3f3d 4bca a2be 12a3 193c 6955 a63d
000000e0: da5a dbbd 0295 c53e c835 a33d 37da 773e
000000f0: 0d28 6ebd 6fdc 403d f830 0b3e 95c4 0bbc
00000100: 241a a13c 966c 0d3e b093 9a3b 73ca 34bd
00000110: 853f 03be 213d b43d 8264 873d b476 0fbe
00000120: 9683 013e b399 04be d36c 333d 8317 3d3d
00000130: f0c4 e33d 2775 383e e29f 693d 654d b23c
00000140: 730b b83d 1c32 123c 1986 953d 7de7 b23d
00000150: 09b0 30be b1d8 8d3c 321f 2ebd fb28 b2bd
00000160: d51e 19bc 0b90 e63b a2c1 8dbe ce48 cc3d
00000170: abbf ce3c 2a74 bdbc aa02 c3bd 0c58 21be
00000180: b662 513d 6b43 dcbd a9fd 0b3d 53e3 83bd
00000190: c856 a13d 0a60 bcbd 3c61 0dbe 9a9f d6bc
000001a0: 5c78 a83c 61d2 813e fcf9 47bd c157 133d
000001b0: 6975 963d f2bb 81bd af57 9abc bacf da3d
000001c0: a5e4 eabc ed57 d13c 64a7 10bd 3d31 323e
000001d0: 8a03 30bd 1654 92be 599a 563d 587e 44bd
000001e0: 4a18 4dbe 8f03 953e 0c9d dabc 14ba 3d3e
000001f0: 7a16 563d 8645 92bd b81b a53d fc77 a83d
00000200: 5515 353d b11c f43d 4602 ad3d f65f 57bc
00000210: 3504 22be 69a8 e63c dff2 ab3c fade 21bd
00000220: 6ca7 403e acc7 283c 7271 073e 8797 123d
00000230: bcb6 453d 01b7 9a3e a4cf 103e a41a 233d
00000240: bb33 513d 9a8c 64bd 0740 c73d 09c2 5f3d
00000250: 8268 6cbe 2d52 a1bd 9389 393d 1875 cb3d
00000260: 6d53 0dbd 77f4 1b3d e587 3dbe 942e ce3d
00000270: 5884 bdbd 0e16 f8bd 7dc0 1bbe 6567 12be
00000280: 0aa4 323e 5e36 5cbd f0db 4a3d 2a3e afbb
00000290: 5cbb 90bd 5743 4f3d 8fd3 10be c2fa da3d
000002a0: 586e 87bd 91d2 953d 3092 04be 4d32 e63d
000002b0: 02c5 02be 5613 9cbd c52d 33be 9a6d b33c
000002c0: 69de e7bb 5bbc 04be e4c8 bdbd fb75 173e
000002d0: fec3 f1bc e9a4 82bd 5706 cf3c d964 9f3d
000002e0: 59cc bcbd caba be3e aaf3 61bd 5913 283e
000002f0: d6cf e63c 5e8d e13d 37b6 053b 0227 a93d
00000300: 2128 893d c67e d03b 0785 4c3d b29f 29bd
00000310: dad1 143e 9056 9cba eb8b 81bd 4d28 5cbd
00000320: ca4a 083e aa2a 0ebd ee5d c0bd 21f2 a33d
00000330: 56dd a93d 592a dc3b 481b 84bd 6e07 1c3d
00000340: 458b c23d 2113 6abd 8ffb 783b af41 91bd
00000350: c8a7 94bd cf43 60bd 359f a5bb 0ccc 33bd
00000360: a9cd a83d 0358 52bd e241 803d b90b 93bd
00000370: 5b76 1fbd ea99 413d d3aa cf3c 6292 b0bd
00000380: 4f81 9439 7992 8bbd 4df0 79bc 6bf6 d43d
00000390: a9d9 f0bc 074d 063d 4361 3bbe 9f3e c53c
000003a0: e3e7 97bc 1669 25bd 992f df3d 05b8 c83c
000003b0: b414 f8bd dfd7 56bd 2d89 bfbd 7c23 89bd
000003c0: 94b9 41bc ffab b23d dbeb 24bd b877 87bc
000003d0: 47dd a43d 4f2d ad3c c40f 373d a078 31bd
000003e0: bd70 41bd 68e3 e83d fda0 75bc 6b34 d8bd
000003f0: d0ae 11bd 079c bc3c 6c2a 073e a08c 19be
-0.008365702 0.03796613 0.05633369 -0.06452466 -0.16216242 0.09009827 0.049552407 0.010989255
0.21295512 -0.09295318 0.08473704 0.028988171 0.11437473 0.15287627 -0.030509826 -0.009579522
0.14580756 -0.0012718997 0.05208071 -0.07219935 -0.20720525 -0.17661852 -0.017420618 -0.14783584
-0.13824531 0.049977582 -0.22781627 0.0550043 -0.02641158 -0.043980125 -0.057939183 -0.12212998
0.1718316 -0.09150129 -0.059990715 0.09867416 -0.011636259 0.06073067 -0.23024037 0.08792411
-0.09692442 0.16633487 -0.105137564 0.028423617 0.017312417 0.09346664 -0.14598216 0.09386201
0.12525919 -0.12195733 0.036982194 0.18420283 0.04686741 -0.31794962 0.009377258 0.081217594
-0.10710688 0.38590246 0.07969242 0.24204336 -0.058143664 0.04708522 0.13592899 -0.0085307555
0.019665785 0.13810953 0.0047173128 -0.044138383 -0.128172 0.08800722 0.06610967 -0.14010125
0.12647852 -0.12949257 0.043804955 0.046165 0.11121547 0.1801344 0.05703724 0.02176542
0.08986559 0.00892308 0.07300968 0.08735559 -0.17254652 0.01731524 -0.04251022 -0.08699223
-0.00934573 0.007036214 -0.27686793 0.09974824 0.025237879 -0.02312668 -0.095219925 -0.15756243
0.05111953 -0.107550465 0.034177456 -0.06439843 0.0787788 -0.091980055 -0.13806623 -0.02619915
0.020565204 0.2535582 -0.048822388 0.03597236 0.07346613 -0.06334676 -0.018840639 0.10684152
-0.02867348 0.025554622 -0.035315886 0.17401595 -0.042972125 -0.28579777 0.05239329 -0.047972053
-0.20028797 0.29104277 -0.026686214 0.18528014 0.05226753 -0.07142167 0.080619276 0.0822601
0.044209797 0.11919535 0.08447699 -0.013145437 -0.15821917 0.028156476 0.020989833 -0.039519288
0.18813866 0.010301512 0.1322687 0.03578904 0.048269972 0.30217746 0.14141709 0.03982033
0.051074725 -0.05579815 0.09729009 0.054628406 -0.23086742 -0.07877002 0.045297217 0.09934443
-0.03450339 0.038074937 -0.18508871 0.10067478 -0.09253758 -0.121135816 -0.15210147 -0.14297254
0.17445388 -0.053762786 0.049526155 -0.0053479867 -0.07066986 0.05060133 -0.14143203 0.106923595
-0.06612843 0.07315553 -0.12946391 0.11240063 -0.12770465 -0.076208755 -0.17497928 0.021902848
-0.007076074 -0.12962477 -0.092668325 0.147911 -0.029512402 -0.0637911 0.025271578 0.07782907
-0.09218664 0.37251884 -0.055164017 0.1641363 0.028175276 0.11013292 0.0020402798 0.08259393
0.06697107 0.006362769 0.049931552 -0.041412063 0.14533177 -0.0011927653 -0.06325515 -0.05374937
0.1330978 -0.034708656 -0.09392916 0.08005167 0.082941696 0.0067189154 -0.06450516 0.038093023
0.0949922 -0.05714715 0.0037991737 -0.07092606 -0.07258564 -0.054752167 -0.0050543793 -0.043895766
0.082423516 -0.051353466 0.06262566 -0.0717997 -0.038931232 0.047265925 0.02535001 -0.0862167
0.00028325102 -0.06815047 -0.015255046 0.10398563 -0.029400663 0.032788303 -0.18298821 0.024077712
-0.01854319 -0.04038342 0.108977504 0.02450181 -0.12113324 -0.052451964 -0.09352336 -0.06696221
-0.01182403 0.08724212 -0.04026399 -0.016536579 0.08050018 0.021139769 0.04469277 -0.043327928
-0.047226656 0.11371499 -0.014991996 -0.10556873 -0.035567105 0.023023618 0.13199776 -0.1499505

sequential_3/conv1d_15/Conv1D f4 [128, 1, 3, 128]
00000000: 457b d6bd c86b 363d be39 3ebd 4149 973d
00000010: c011 acbb 6d98 0dbb fbe7 1cbe 65ca adbb
00000020: 5927 f9bd 2710 ac3c 128d 193e af1b 193f
00000030: 71f0 19bc d0d9 503e cc8b 11bc 4fab 8cbd
00000040: cbb2 ad3e 4c18 623d 2709 1dbe 4552 3a3e
00000050: 9c33 9d3e 02ad 8839 fa83 bcbd 5ef5 433e
00000060: 46cd 803d 3619 1c3b 0b22 313e 0ce8 003e
00000070: 59ee 5abe 3256 97bd 4db4 cb3d 6ca0 053e
00000080: 6fa9 7c3d dfdf 903d 2f0c 173d 608d e0bc
00000090: 9c8b edbd 8453 09bd 54e7 9d3e aa2b 9b3e
000000a0: c5fc 7c3e 9059 cd3d b218 7dbc acb8 1bbc
000000b0: d528 343f b542 443e bf6c 813d 30b3 ec3e
000000c0: c8b9 0e3c 6982 5fbc 0c4c 7bbe 8a75 e23d
000000d0: ecae 14bd f8ac 843d 7f3b 673d 114e 56bd
000000e0: 5417 363e 3850 fb3c f98f 4d3d d2cf 213e
000000f0: 50ac 213d 77d6 3b3d ded6 373c 6a80 96bd
00000100: e574 f7bc 064e b4bc 2740 423c e3c1 a03c
00000110: ebac 193e 19bb 953d af39 3cbe 076a 513d
00000120: eeb0 b53c 88c9 8bbd 6403 84be 5dec ad3b
00000130: bfb6 3fbd 5d1b 38bd 393c 713c 3e2f aebb
00000140: 82ae 8b3d e926 23be 5730 a2be ed56 86bd
00000150: 24c1 4f3e 6920 a03c 593c 8e3d 43c1 c3bd
00000160: 6852 553d a136 0a3f 22ac 89bd d1d9 78bc
00000170: 27b0 4e3e 24e1 0bbd ae9d c8bc 663c d6be
00000180: 9b38 3c3d c7c2 a63e 9e0c c4be fb1b 143d
00000190: f394 d63d 90b8 9abe 1f8c a5bd bd89 c43d
000001a0: 20c3 d03d 1ce1 243e 9628 893d 41b9 3abe
000001b0: 6430 3b3d 50cb bc3d 21e4 93bc eb99 46be
000001c0: a631 86bd 11e3 61bd e332 763d 9aa5 983d
000001d0: a415 e73c 8fa6 c1bd 3218 bc3d 40a6 00bd
000001e0: 7f6b e4bc 678d a33d 4cb3 25bd f449 e1bc
000001f0: 057c 2d3d b7d5 c9ba b28c 323d 7df0 b53d
00000200: d248 96bc 72f6 d43a 5221 85be 6f64 373d
00000210: 4ab9 10bd 768e 02bd b6b2 8a3d e5e1 a53d
00000220: 2223 7abd b0a8 173e edc6 803d d0d9 a8bd
00000230: 4b79 ce3c d293 853a d100 7e3d 4d9e 963b
00000240: 4142 05bd 16e8 353d 6a99 95bd 8bd5 ab3d
00000250: 7691 183e d953 01bd e29f a63d 4e7e e23d
00000260: 1868 3fbd 0466 b43d 89be 3d3e 2462 8bbc
00000270: b316 9c3e a99d d2bd ba96 7bbd 657f 073e
00000280: ef50 41bc b4cc a73d 7e80 c53d dede 00bf
00000290: 75a5 7fbe 8249 42bd 8595 2a3d 92a1 d43b
000002a0: c690 76be 10c6 e13d 9cc4 943d c814 fcb9
000002b0: 1935 cebd 60af 95be ec08 a2bc 55c5 8b3d
000002c0: d14d 44bc f3be 2a3d ccc2 93be 5c1f 6d3e
000002d0: 0126 9cbd df86 c2bd 3400 71bd 2bb0 8a3d
000002e0: 9a6b 843d 24bc 41bd 502f b1bd 9348 833e
000002f0: e34f 723c 659c 463d 9387 953d 65ee a7bd
00000300: 782f 8c3d 22cd 1a3e 8806 57bc d368 983c
00000310: d7e0 f3bc aa0e 86bd c9ea 2fbd e738 633d
00000320: bd6c f2bd d122 73be 2280 42be 4c9a 30bd
00000330: 6208 8a3d 8b8b 1cbe a7cb 4dbd 54e5 febc
00000340: d391 9d3d 09a1 85be 8ba5 98be 7458 43bd
00000350: e4a5 5b3e 5079 443d 80e4 f33c 16bf 93bc
00000360: 21a9 c2bd 6597 a73e 49ff f83c f6d9 143a
00000370: 5ed3 1f3d 4357 38bd f9cb a43d 8c65 1fbe
00000380: b153 823e 80b0 ae3e 226a 99be 4439 e3bd
00000390: d02c fc3c dbfe dabe 9050 5b3c 6a27 04bd
000003a0: 43ce 28be 8939 f83c 0867 b83d 964a 0bbe
000003b0: 947e 4dbd dcc8 c43d 6592 12bd d684 3abe
000003c0: 8d88 99be 36e9 c8bd 57f8 a5bd 8da8 07be
000003d0: c47b 163e d26e 7bbd 0e1b 5e3e db9c 97bd
000003e0: 5827 053e 41f9 743d c0aa 3ebd 088a 5fbd
000003f0: 8733 ac3d 99ba 7abc 42ff 00bd da76 763d
-0.104727305 0.044536382 -0.046441786 0.07387019 -0.0052511394 -0.0021605745 -0.15322869 -0.0053036683
-0.12165708 0.021003796 0.1499522 0.59807867 -0.009395705 0.20395589 -0.008883428 -0.06868612
0.3392547 0.055198953 -0.15335523 0.18195446 0.30703437 0.00026068842 -0.0920486 0.19136569
0.06289153 0.0023818738 0.17298143 0.12588519 -0.21379985 -0.07389487 0.09946499 0.13049477
0.061685022 0.0707395 0.036876854 -0.027411163 -0.11598894 -0.033526912 0.30840552 0.3030675
0.24705799 0.10026848 -0.015447782 -0.009504478 0.70374805 0.19166072 0.0631957 0.4623046
0.008711286 -0.013641932 -0.24540728 0.11057575 -0.03629963 0.06478304 0.056453224 -0.052320544
0.17782336 0.0306779 0.05018613 0.15801933 0.03947097 0.045858826 0.011220662 -0.07348712
-0.030207107 -0.02200986 0.011856115 0.019623702 0.15007369 0.07311077 -0.1838138 0.051126506
0.022179093 -0.068255484 -0.25783837 0.0053077177 -0.04680514 -0.04494797 0.014723831 -0.0053156903
0.06820394 -0.15932812 -0.31677505 -0.065595485 0.20288521 0.019546704 0.06945104 -0.09558346
0.05208054 0.5398961 -0.06722285 -0.01518865 0.20184384 -0.034150258 -0.02448925 -0.41842955
0.04595242 0.32570478 -0.38290876 0.036159497 0.104776286 -0.30218935 -0.080833666 0.09596584
0.10193467 0.16101497 0.06697194 -0.18234731 0.045700446 0.09218466 -0.018053116 -0.19394653
-0.065524384 -0.055148188 0.060107123 0.07453461 0.028208561 -0.09455597 0.091843024 -0.03140855
-0.02788329 0.07985955 -0.040454194 -0.027501084 0.042354602 -0.0015398775 0.04359121 0.0888376
-0.01834527 0.0016247763 -0.26001984 0.044773515 -0.035332955 -0.031874143 0.06772368 0.080997266
-0.06106866 0.14810443 0.06287942 -0.082446694 0.025204321 0.0010191149 0.062012497 0.0045965076
-0.032533888 0.044410788 -0.07304652 0.083903395 0.14899239 -0.031574104 0.08135964 0.11059247
-0.04673013 0.088085204 0.18529715 -0.01701457 0.30486068 -0.102839775 -0.06142304 0.13232191
-0.011799081 0.08193341 0.096436486 -0.5034007 -0.2496546 -0.047433384 0.0416465 0.0064889872
-0.24078664 0.110241055 0.07264063 -0.0004808067 -0.10068721 -0.29235363 -0.019779645 0.068247475
-0.0119814435 0.04168601 -0.28859556 0.23156494 -0.07624436 -0.09498381 -0.058838084 0.067718826
0.06465836 -0.047298566 -0.08651602 0.25641307 0.014789554 0.048488993 0.07301249 -0.08199767
0.068449914 0.15117314 -0.013124116 0.018604672 -0.029770298 -0.06545766 -0.042948518 0.05547419
-0.118371464 -0.2374375 -0.18994191 -0.0431159 0.0673988 -0.15287606 -0.050243046 -0.031115212
0.076938294 -0.26099423 -0.298138 -0.047691777 0.21450001 0.047967255 0.029772043 -0.018035453
-0.09504915 0.32732692 0.030395167 0.00056782307 0.039019935 -0.045005094 0.08046717 -0.15566081
0.25454476 0.34119034 -0.29963785 -0.11094907 0.030783087 -0.42772564 0.013385907 -0.03226415
-0.16484933 0.030300872 0.09004027 -0.13602671 -0.050169542 0.096086234 -0.035784144 -0.18214735
-0.29986992 -0.098101065 -0.08104008 -0.13247891 0.1469565 -0.061384983 0.21690008 -0.07402965
0.1300329 0.05980802 -0.04654956 -0.054574996 0.084082656 -0.015303277 -0.031493433 0.06017194

sequential_3/dense_7/BiasAdd/ReadVariableOp f4 [4]
00000000: e4f4 abbd 75cd 0fbf 29dc ff3c 9f45 ce3e
-0.083963186 -0.5617288 0.03123291 0.40287492

sequential_3/dense_6/BiasAdd/ReadVariableOp f4 [64]
00000000: e2c4 ed3d 1fda b5bd 2b8b 5c3d 1d2e 8e3d
00000010: 2452 ff3e 782e 8f3e 0162 183e b8d3 72be
00000020: 0eb8 553e 8f1c 74be 2e2f 2bbd 29c8 033e
00000030: 2d5c 993e 07bf 1abe 41c3 ac3e b161 24be
00000040: ef65 ecbe 4541 b53e d10d 3bbe b057 60be
00000050: f9b8 893e a946 443f faa3 bcbd af5e c6be
00000060: 6ee6 3abe d3a9 95bd e673 a7be 82a9 ae3e
00000070: 777d 0cbe 8c8d 313f 4957 2fbe 675f 0f3f
00000080: 62a4 d43e 3e97 69be 89a9 babe 673f 16be
00000090: 088e 51be f2ae 36be a23d 04be 4942 bfbe
000000a0: 51c2 91be 3ec2 ca3e d9c8 ed3c 3fee b9be
000000b0: b4e7 c03d 2b73 e53c ac4c 94bc eb6a e13e
000000c0: 0cbc 5a3e 5863 98bd f8de ee3e 4c95 0a3e
000000d0: ecb4 413f 8beb 073e 455b 88be be0e b13d
000000e0: 90fe 82be 4bf0 973e 1fcd 4abd 69cc 0a3e
000000f0: 8371 8e3d 043c 653e 1360 583d 04fd afbe
0.11609818 -0.08879494 0.05384366 0.06942389 0.49867356 0.2796514 0.14881136 -0.23713577
0.20870993 -0.23839019 -0.04179304 0.12869324 0.29953137 -0.15111934 0.33742717 -0.16052891
-0.4617152 0.3540136 -0.1826699 -0.2190845 0.26898935 0.7667032 -0.092109635 -0.38744113
-0.18251964 -0.07307782 -0.3270561 0.341137 -0.13719736 0.6935661 -0.1712314 0.5600495
0.41531664 -0.228116 -0.3645747 -0.14672624 -0.20464337 -0.17840174 -0.12914136 -0.3735526
-0.28468564 0.3960132 0.029026436 -0.3631458 0.09419194 0.028009018 -0.018102966 0.44026884
0.21360797 -0.07440823 0.46654487 0.13533515 0.7566669 0.13273446 -0.26632133 0.0864539
-0.2558484 0.29675516 -0.049512025 0.13554539 0.069552444 0.22386175 0.052826 -0.34372723

sequential_3/dense_6/MatMul f4 [64, 512]
00000000: 0ecc 23be cc46 5cbe 19f9 6ebd b995 a9bd
00000010: fdf1 453e 55d6 193e 7b59 d8bd bb89 e13c
00000020: a169 6a3d d9b0 e6bd f266 383d a739 68bd
00000030: 0db6 f4bb 30e9 0c3d 12d3 8b3c 0dd3 a1bd
00000040: ae1b 04be add4 873e f027 c63d a7fe 063e
00000050: 99bb c83c 50a0 923d 5c59 edbb b5fa febc
00000060: 4a37 e2bc 8bcc 19be dc65 8d3d 971c 6d3e
00000070: de01 323e 9b1c 493e ef02 803e 661b c23e
00000080: 3080 d3bd fe07 813d 4a53 52bf caf4 b33d
00000090: 1d9a f73d 0460 38bf 6dbb 8fbd 158b 21bd
000000a0: 123c 10bd 4e19 273d bdc0 683e 4a1c 9cbd
000000b0: 77fe cc3d c334 38ba 4488 7bbe deb0 313d
000000c0: 1dd1 8ebf 09da 703d d2bc 983e 8380 0f3e
000000d0: eb4c 1b3e b278 99bd 45d3 c83e aece 28bf
000000e0: 42ed ecbc f921 d9bd 9918 f03d b5ed 333c
000000f0: dcc4 32bd 92ab e3bc c0b6 89bd 341e 82bc
00000100: 963a c33d 05ea 6abf 55ff 9ebd 448a 843e
00000110: 1dc8 143e 2032 973c 7627 693d ce2c afbd
00000120: b54f e53e 703f 08bd 7b3c 1f3e 57da dabd
00000130: 89d1 98bd 5b91 d23e e9a1 253d f6b9 f33d
00000140: 9242 02bd c191 023e 9a24 223e 620a 8ebd
00000150: 0ebc 6a3d f558 693e 105d de3b bda1 93bd
00000160: deb2 2b3d e6ec 1d3e ad2e 5c3c 175d af3e
00000170: ea98 e7bc 14fa 303d e2de 4c3e 27ad 333e
00000180: 9f6c 803d d130 833c 08d4 293d ff39 a8bb
00000190: 30c9 003e 8fa1 1c3e 1267 c33d 539c b3bd
000001a0: 2dbb ae3d 2c06 b73d 7523 a9bd c0e0 643d
000001b0: e8a2 34be ec16 2abe 4ce8 bcbc 4d04 013d
000001c0: cbfc 7b3e 1c77 ecbc 8dd1 bfbd 22e8 3e3e
000001d0: afbb 25be f022 57be 014d b83e 94b5 94bc
000001e0: df9c 1c3e 8ec3 a8be 0d30 1dbe 7831 843d
000001f0: 9d7e 23be 9938 b1bd 097d 713e c76b 6b3d
00000200: 677a 213e 0062 353b 17fc f43b a04f f2bc
00000210: f58d 3a3e bc7b 043d d5be 9e3d b446 a4bc
00000220: eeb2 82bd 0545 96bd ec9b 3cbe 4f0d b5bb
00000230: a361 933d 5aeb 9f3d 1a82 6dbd 4a98 7d3d
00000240: b51c 7abc c7f5 673c 5549 2b3e 4c37 6f3e
00000250: 8567 8ebd 4ff2 9bbd b1f4 a53d 1604 523c
00000260: fa17 8e3d c036 a4be 730f 603d 3e16 343c
00000270: 8184 39bb 0da9 613e e5f4 ba3d 01a4 7a3e
00000280: 3c75 10bc b664 6b3e e576 56bf d8bf acbd
00000290: 29d4 923c bc17 70bf bd9c 98bd d908 a13d
000002a0: 3b7d f0bc 409f 47be f5ab 5a3e d247 773c
000002b0: 01f0 6d3e 922a 373d 0a6e eabd 46eb 973d
000002c0: 3245 2abf 386c 2abc 7f58 2f3e 4732 94be
000002d0: 4608 033e 0e7a 3b3e 65b9 b03e 37c8 85be
000002e0: 2b21 49bd 82a7 24bd 633a e0bc 85b4 e9bd
000002f0: 25aa 4a3d 4343 653e c3f0 023d 32e8 b93d
00000300: 2eb7 8f3e 0317 82bf 5a30 48be 5053 393e
00000310: 6296 353e dd3b 063e 7b81 883e 8c11 123e
00000320: 918f 243e da00 cbbc eb52 ca3d 5b67 5a3d
00000330: 35c0 ca3c 05a0 f63e f984 16bd 843e 0d3b
00000340: f8c9 07be 69c7 ba3d e661 8ebd ea05 743e
00000350: c464 dfbc 180a 0bbe 77cc 453e eb4c f0bc
00000360: c5c6 393d 9b1f a43d 2168 0d3e 06fe 5fbd
00000370: bc3e 1f3e c4a3 02bd d415 09be e731 033e
00000380: df44 0abd f2e0 de3c dc96 013d b8b6 aebc
00000390: 59dd 05bd e15a 693e 0f6c c1bc 0ff8 9c3d
000003a0: 1a8e 19bd c85a d5bd 9801 bbbc 9854 7f3d
000003b0: af64 eebc f4ec 4bbe 56a3 3ebe 4387 603e
000003c0: d31d 163d ed71 7c3d ab07 9d3c e658 1e3e
000003d0: 5f71 7b3e 3c50 fdbd 0d08 3a3d 93f9 bebc
000003e0: 2f65 f2be 3922 043e 9b71 0c3e 5597 d13d
000003f0: 5357 15bd d9b9 00bd 77b0 2dbd bed0 9a3e
-0.1599581 -0.21511382 -0.058343027 -0.082805105 0.19330592 0.15023167 -0.10563942 0.027531495
0.05722964 -0.112642 0.04502005 -0.056695607 -0.007467991 0.034402072 0.01706842 -0.07901583
-0.12901184 0.26529446 0.09675586 0.1318308 0.024503516 0.071594834 -0.0072433185 -0.031125406
-0.027614255 -0.15019433 0.06904194 0.23155437 0.17383525 0.19639818 0.25002238 0.37911528
-0.10327184 0.063003525 -0.8215834 0.08786924 0.12089942 -0.7202151 -0.070181705 -0.03943928
-0.035213538 0.040795617 0.22729774 -0.07622583 0.10009473 -0.0007026905 -0.245637 0.043381564
-1.1157566 0.058801685 0.29831558 0.14013867 0.1516606 -0.07493724 0.39223686 -0.6594037
-0.028921727 -0.10602183 0.11723442 0.010981967 -0.04364477 -0.027791772 -0.0672431 -0.015883543
0.09532659 -0.91763335 -0.077635445 0.25886738 0.14529462 0.018456519 0.0569224 -0.08553468
0.44787374 -0.033263624 0.15550415 -0.10686176 -0.07461841 0.41126522 0.040437613 0.119007036
-0.031801768 0.12750913 0.15834275 -0.06935574 0.05730825 0.2278784 0.0067859963 -0.072085835
0.041918628 0.15422401 0.013438863 0.3425071 -0.028271157 0.043207243 0.20006898 0.17546521
0.06270718 0.016014488 0.041461974 -0.005133867 0.12576747 0.15296005 0.095411435 -0.08770051
0.08531795 0.08936724 -0.08258716 0.0558784 -0.17640269 -0.16610307 -0.023059987 0.031498242
0.24608152 -0.02886539 -0.093661405 0.18643239 -0.16184877 -0.21009421 0.3599625 -0.01815299
0.15294217 -0.32961696 -0.15350361 0.06454748 -0.15966268 -0.08653373 0.23582853 0.05747583
0.15769349 0.002767682 0.0074763405 -0.029578984 0.18218215 0.032344565 0.07751242 -0.020053245
-0.063817844 -0.07337383 -0.18418854 -0.005525268 0.07196357 0.078085616 -0.057985403 0.061912812
-0.015265633 0.014157719 0.16727193 0.23360938 -0.069533385 -0.07614576 0.08103312 0.012818357
0.06938167 -0.3207302 0.054702234 0.010991631 -0.0028307738 0.22037144 0.09128741 0.24476625
-0.008817013 0.22987637 -0.8377517 -0.08435029 0.017923431 -0.93786216 -0.074517705 0.07863016
-0.02935659 -0.19494343 0.21354659 0.015092807 0.23236085 0.044718333 -0.114467695 0.07417922
-0.66511834 -0.010401778 0.17123602 -0.2894461 0.12796125 0.18308279 0.34516445 -0.26129314
-0.049103897 -0.04019881 -0.027371591 -0.114113845 0.04947867 0.2238894 0.03196789 0.09077491
0.28069443 -1.0163273 -0.19549695 0.18098187 0.17733148 0.13108774 0.26661286 0.14264506
0.16070391 -0.02478068 0.098790966 0.053321224 0.024749855 0.4816896 -0.036747906 0.0021552155
-0.13260639 0.09120066 -0.069522664 0.23830381 -0.027269728 -0.13578069 0.19316278 -0.029333552
0.045355577 0.08013841 0.13809253 -0.054685615 0.15551275 -0.03189446 -0.13387233 0.12812005
-0.033757087 0.027206872 0.03163801 -0.021327361 -0.032681797 0.22788574 -0.023611097 0.07664501
-0.037489034 -0.10417706 -0.022827908 0.062336534 -0.029100744 -0.19914609 -0.18616995 0.21926598
0.036649536 0.061632086 0.019168695 0.154636 0.24554966 -0.12368819 0.045417834 -0.023312366
-0.47342822 0.1290368 0.13715212 0.102339424 -0.036460232 -0.031427238 -0.042404618 0.30237383

sequential_3/dense_7/MatMul f4 [4, 64]
00000000: 73c3 5fbf 4470 893e 78b6 1fbf 068e d6bd
00000010: c7bf 243f 8231 453e 2af9 603d 576f 7a3e
00000020: 1081 a93d e325 bcbe 636d 4ebf 1001 1dbc
00000030: 6b75 e03e 84c1 783b 7c6d 063e 2f50 b7be
00000040: 4dd6 cebe 8c16 4bbf cfb1 3b3e 43f5 e2be
00000050: 7623 223f c517 6e3e 907c b3be f049 143e
00000060: 8e99 55be b2c5 7c3e 8dcc c33d 9a92 8ebf
00000070: a3ae c2bc ef1f 9f3e cac2 62bd 7830 ae3e
00000080: 9c5a 4a3e ea92 59bf e932 1b3e 78b1 d2be
00000090: f1c7 87bd 10ca 24bf b2f1 adbd 705d af3d
000000a0: d332 c03e 4b96 4b3e dcc9 52bf c3f0 043e
000000b0: 43a4 99be fff7 65bf ce80 a5be 7d6c 793e
000000c0: 7000 b0bf d43b 833e 58dd 343f 2d23 943e
000000d0: 01df 813d e5df cc3d 1b8f 97be 23d3 ea3b
000000e0: 12c5 b5bd 841d ac3e 2aa4 863d c058 4fbb
000000f0: c8a3 36be 32fb 9bbf 7991 89bf a392 1d3e
00000100: 3a5b 1cbc 60a7 03be dd54 16be ed62 e2bd
00000110: 8795 ecbf e234 bfc0 7eae acbe 79e8 b2be
00000120: e7a8 c8bd 7e98 d23d d2c7 4f3e 45ca dd3c
00000130: 4bae 08c0 25ef b6be b268 64bd 7505 90be
00000140: 53ed 31be 1440 20bf 9641 01bf 67dd 92bd
00000150: f34a f9bf 1624 5dbf f109 00bd ec1b ce3a
00000160: 82f8 2bbe 7df0 9ebe dca0 4f3d a409 b8bd
00000170: 7874 023e 9915 83bf 345a ebbe 32a3 68bf
00000180: 79d0 2cbe b9c1 af3d e423 04bf 44c4 143d
00000190: a1d0 a2be 8f8b 8dbe 52b0 f63c 3e86 713e
000001a0: 7700 80bf 9f5a 13bf f995 a4bd 70f8 4bbe
000001b0: 1373 983d f592 5b3e 5b44 8f3d acec 75bd
000001c0: 06da 7dbd 2092 c9bc bb26 c6bf b2ce 48bf
000001d0: ea4e 0bc0 f8b2 56be aa5c 88be ed08 443e
000001e0: c800 13bd 7f5f ccbf 13fe 19be 03a1 a0be
000001f0: 0ab6 7d3c f5c6 183e 7069 b13b ad49 033e
00000200: d8ec d03c 1c01 4bbe e2f8 9c3d 5b6d fabe
00000210: d0d6 c5be 4a43 adbe 30de 9fbe 10bd 883e
00000220: 94b1 8cbe 7168 e63d 8840 77bb 57c1 80be
00000230: cab0 6abf 2deb 123e 0b6b 59be f4a0 443e
00000240: e622 ba3c df18 c53e 8a6f 403e 341c 493e
00000250: 7885 70bf 42df 923e 575f d23d 5fe1 5f3e
00000260: 1f57 0d3e caa9 a0be e95c 14be 213f e13e
00000270: dd43 bfbd 6444 cc3e d5eb bb3d 9cc8 9c3d
00000280: 9041 5e3e 6a0b af3d a045 36be 630a e8be
00000290: 6102 21be 9cd2 0cbe 74dd 803d 1d6e b03d
000002a0: 95b8 33bd 57d1 8abe a222 9cbd b301 30bf
000002b0: 8dda a3be 9136 9d3d 97a9 99bd bcb7 183e
000002c0: 8a3b 253e 5532 503e e629 d8be 96bc febe
000002d0: 1849 0f3f d0ca c5be 2a20 2b3d b205 9abe
000002e0: 50d8 5abe bf14 bbbe 756c 12be 3ed4 34bf
000002f0: 2877 9fbd de53 003e 852f b9bc 9d7c 4ebe
00000300: ff01 383c e9f9 3fbe 0cd7 ce3d cf57 fabd
00000310: f864 dbbe 2566 c3bd 5398 3fbe fc65 a6be
00000320: f00e 943d 1aa0 1ebe 21d1 cf3d 29fe 393d
00000330: 8570 4abe d472 41bd 5512 f93d 292e 36be
00000340: baed 23be ec6d 6bbe d28f 9bbe e8aa 38be
00000350: 15ff ecbe a085 223e fa77 54bd e491 1f3e
00000360: d923 983c 0d05 44be 9fbe da3c 5a5c 03be
00000370: 0e1a 4f3c 2fe0 99be 0c4a dcbd eb45 c83e
00000380: 07fd 153e fd67 40bd 0f83 57be 4289 5abe
00000390: 067a 65be efa7 e6bd c231 e73c 4bb1 353e
000003a0: cc27 95be 88ff db3d 0c26 d4bd add9 5ebe
000003b0: 165b fc3e fc79 323e 44bd 8a3d e111 4d3e
000003c0: 8428 cfbe 8257 2c3e 5c33 02bf f602 73be
000003d0: 896e 74be 8eb6 8c3e 675c fcbd 9d61 493e
000003e0: f9ac ec3d dd9a 25bd 468b 733d 24f9 333e
000003f0: 46b6 5c3e 00cc ad3d 28f1 01bd 896b a53c
-0.87407607 0.26843464 -0.623878 -0.104763076 0.6435513 0.19257167 0.05492512 0.24456535
0.0827657 -0.36747655 -0.8063566 -0.009582773 0.43839583 0.0037957141 0.13127702 -0.35803363
-0.40397874 -0.7933128 0.18329547 -0.44327745 0.6333536 0.23251255 -0.3505597 0.1448133
-0.20859358 0.2468479 0.09560499 -1.1138489 -0.023764914 0.3107905 -0.055361547 0.34021354
0.19761127 -0.849898 0.1515614 -0.41151023 -0.06629933 -0.6437082 -0.08493365 0.08562744
0.37538776 0.19881551 -0.8233926 0.12982468 -0.30008134 -0.89831537 -0.32324833 0.24357791
-1.3750134 0.25631583 0.70650244 0.28933087 0.06341363 0.10003642 -0.29601368 0.0071662827
-0.08875479 0.3361627 0.065742806 -0.0031638592 -0.17835915 -1.2186034 -1.074752 0.15387969
-0.0095432345 -0.12856817 -0.1468081 -0.11054025 -1.8483132 -5.9752054 -0.33726877 -0.34942988
-0.097978406 0.10282992 0.20291069 0.027073989 -2.135638 -0.35729328 -0.055763908 -0.28129163
-0.17375688 -0.62597775 -0.504907 -0.071711354 -1.9475998 -0.8638319 -0.03125948 0.0015724874
-0.16794017 -0.31042853 0.050690517 -0.08986214 0.12739742 -1.0240966 -0.45967257 -0.90874016
-0.16876401 0.085818715 -0.51617265 0.036319986 -0.31799796 -0.27645537 0.030113373 0.23586366
-1.0000142 -0.5756015 -0.080364175 -0.1991899 0.07443824 0.21442778 0.0699546 -0.06004016
-0.0619755 -0.02460581 -1.548057 -0.7844039 -2.1766915 -0.20966709 -0.26633197 0.1914403
-0.035889417 -1.5966643 -0.15038328 -0.31372842 0.015485296 0.14919646 0.0054141805 0.12821074
0.02550356 -0.19824642 0.07664658 -0.48911557 -0.3864045 -0.338404 -0.31224203 0.26706743
-0.2747923 0.11250389 -0.0037727673 -0.25147507 -0.9167601 0.14347525 -0.2123224 0.19202024
0.022721719 0.38495538 0.18792549 0.19639665 -0.9395366 0.28685957 0.10272091 0.21863316
0.13802765 -0.3137954 -0.14488567 0.43993476 -0.09339116 0.39895928 0.09175841 0.07655451
0.21704698 0.08547099 -0.17799997 -0.45320424 -0.15723564 -0.13752216 0.06292239 0.086147524
-0.043877203 -0.2711284 -0.07623793 -0.6875259 -0.3200268 0.07676423 -0.0750305 0.14913839
0.16135994 0.203317 -0.42219466 -0.49753255 0.5597091 -0.38631296 0.04177872 -0.3008247
-0.21371579 -0.36539266 -0.14299186 -0.70636356 -0.07786399 0.12531993 -0.022605667 -0.20164724
0.011230945 -0.18747677 0.10099611 -0.122237794 -0.4285047 -0.09540967 -0.18710451 -0.32499683
0.072294116 -0.15490761 0.1014731 0.0454084 -0.19769485 -0.04722865 0.121617 -0.17791046
-0.16008654 -0.2299115 -0.30383164 -0.18033946 -0.46288362 0.15871286 -0.05187223 0.15582997
0.018571781 -0.19142552 0.026702223 -0.12828198 0.012640489 -0.3005385 -0.10756311 0.39115843
0.14647304 -0.04697417 -0.21046089 -0.21341422 -0.2240983 -0.112624995 0.028221969 0.17743413
-0.29131925 0.10742098 -0.10358819 -0.21762724 0.49288243 0.17429346 0.06774381 0.20026352
-0.40460598 0.16830257 -0.5085962 -0.23731598 -0.23870291 0.27483028 -0.12322312 0.19666143
0.115564294 -0.040430892 0.059458993 0.17575508 0.21553907 0.084861755 -0.031724125 0.020192878
