models/demo_models/lying_down_stomach_model.tflite (tflite, 463532 bytes, 12 tensors)

sequential_4/conv1d_16/BiasAdd/ReadVariableOp f4 [32]
-0.044324227 -0.12413993 -0.11139928 -0.037108995 -0.123021804 -0.15609083 -0.10022379 0.028315028
-0.049827985 -0.07042789 -0.041933812 -0.1383939 -0.03800563 0.051261 -0.111766085 -0.08833251
-0.0700584 0.1660352 -0.017748455 0.25466442 0.07729957 -0.06651933 -0.047085118 0.043658298
-0.01478511 0.11666615 0.038273342 0.024293635 0.0 -0.11781786 0.1031051 0.000924803
00000000: 528d 35bd 133d febd 4e25 e4bd 9aff 17bd
00000010: dbf2 fbbd 46d6 1fbe 2142 cdbd ebf4 e73c
00000020: 6e18 4cbd 7f3c 90bd cac2 2bbd 21b7 0dbe
00000030: cbab 1bbd 0ef7 513d 9ee5 e4bd ade7 b4bd
00000040: c77a 8fbd 2205 2a3e 3565 91bc 6063 823e
00000050: 3d4f 9e3d 493b 88bd 53dc 40bd 0bd3 323d
00000060: 3f3d 72bc aaee ee3d 82c4 1c3d 7203 c73c
00000070: 0000 0000 7d4a f1bd c428 d33d 7b6e 723a

sequential_4/conv1d_17/BiasAdd/ReadVariableOp f4 [64]
-0.044681363 -0.18343802 -0.09437331 -0.019233437 -0.15867329 -0.30659315 -0.08484137 -0.13482498
-0.06527727 -0.23952803 -0.24872683 -0.03262422 -0.13383606 -0.23525651 -0.20366389 -0.028566485
-0.012069075 -0.30109033 -0.032240704 -0.2533257 -0.06474325 -0.2788448 -0.12550947 -0.03693402
-0.10100581 -0.21882911 -0.114927135 -0.07425663 0.0018029637 -0.16310693 -0.03989372 -0.045624718
-0.40099534 -0.16638708 -0.0669555 -0.17197604 -0.055434808 -0.1461714 -0.13420282 -0.034786128
-0.16415353 -0.093155324 -0.09836915 -0.061929397 -0.28974915 -0.059329703 -0.21588463 -0.17589319
-0.11816017 -0.23807633 -0.22478315 -0.1759112 -0.098514475 -0.044633467 -0.07029213 -0.07203389
-0.10702241 -0.047075335 -0.36559469 -0.3052895 -0.09361784 -0.2266691 -0.04794472 -0.23553018
00000000: ce03 37bd 2dd7 3bbe cb46 c1bd 718f 9dbc
00000010: 407b 22be c7f9 9cbe 50c1 adbd 8f0f 0abe
00000020: 17b0 85bd d646 75be 3fb2 7ebe f9a0 05bd
00000030: 520c 09be 15e7 70be 448d 50be 4304 eabc
00000040: 5fbd 45bc 8328 9abe d40e 04bd e8b3 81be
00000050: 1c98 84bd bfc4 8ebe 8e85 00be 2148 17bd
00000060: 22dc cebd bd14 60be eb5e ebbd dc13 98bd
00000070: 6c51 ec3a 8105 27be 9967 23bd fce0 3abd
00000080: 434f cdbe 6061 2abe f71f 89bd 7d1a 30be
00000090: 9c0f 63bd f5ad 15be 776c 09be e67b 0ebd
000000a0: dd17 28be 38c8 bebd c475 c9bd aea9 7dbd
000000b0: 005a 94be b403 73bd dc10 5dbe 581d 34be
000000c0: f6fd f1bd 48ca 73be 8e2d 66be 1122 34be
000000d0: f5c1 c9bd 95d1 36bd 52f5 8fbd 8186 93bd
000000e0: 912e dbbd 11d2 40bd 3a2f bbbe e84e 9cbe
000000f0: b6ba bfbd f21b 68be af61 44bd d32e 71be

sequential_4/conv1d_18/BiasAdd/ReadVariableOp f4 [128]
-0.2921121 -0.063065715 -0.27968723 -0.0704704 -0.23052196 -0.08579674 -0.06322364 -0.05245189
-0.081922024 -0.2352146 -0.21334179 -0.2563467 -0.36218023 -0.07782348 -0.29020947 -0.210012
-0.094240114 -0.24853966 -0.06322234 -0.20456098 -0.12245569 -0.4463313 -0.08995836 -0.06903852
-0.082266115 -0.07545681 -0.029360373 -0.045333683 -0.23733541 -0.115628436 -0.1952338 -0.080850855
-0.10529445 -0.10520888 -0.35569045 -0.05942387 -0.36045584 -0.18048568 -0.060424246 -0.034519553
-0.31270212 -0.07634389 -0.23319368 -0.26980844 -0.088292345 -0.17136084 -0.33104542 -0.28651813
-0.08763231 -0.06603767 -0.42068112 -0.20066456 -0.2801876 -0.08267437 -0.2131483 -0.068913005
-0.1383183 0.002953047 0.038541824 -0.21780446 -0.21830615 -0.22208261 -0.15234229 -0.2244504
-0.10251388 -0.1851354 -0.039280772 -0.057844676 -0.07423438 -0.08403212 -0.2502072 -0.12961881
-0.21447045 -0.23142554 0.0035675443 -0.16355678 -0.06187989 -0.06907539 -0.13155478 -0.12833951
-0.137721 -0.2762225 -0.088127375 -0.2646468 -0.30174083 -0.22454497 -0.036017083 -0.321648
0.015153846 -0.13182709 -0.46965113 -0.14797606 -0.09130656 -0.033525586 -0.09111803 -0.038924877
-0.138357 -0.22269133 -0.075952984 -0.20927525 -0.07403069 -0.20447235 -0.08063053 -0.12801276
-0.15064263 -0.019416366 -0.3307017 -0.36528727 -0.053788815 -0.27534428 -0.09721656 -0.24056008
-0.08014599 -0.086874016 -0.022870472 -0.085692495 -0.21878338 -0.23024048 -0.2666078 -0.34876654
0.0846532 -0.26924464 -0.073683634 -0.18841586 -0.24416068 -0.091030106 -0.22649135 -0.25980455
00000000: b88f 95be 9928 81bd 2a33 8fbe c952 90bd
00000010: f30d 6cbe 34b6 afbd 657b 81bd cbd7 56bd
00000020: bcc6 a7bd 19dc 70be 4576 5abe e03f 83be
00000030: b06f b9be eb61 9fbd 5696 94be 630d 57be
00000040: f600 c1bd 2e81 7ebe b77a 81bd 6f78 51be
00000050: 0cca fabd 8985 e4be 173c b8bd 1164 8dbd
00000060: 237b a8bd 1a89 9abd 2a85 f0bc d0af 39bd
00000070: 0e08 73be 9ace ecbd 5feb 47be 2295 a5bd
00000080: 9ea4 d7bd c177 d7bd 0f1d b6be 7266 73bd
00000090: ab8d b8be 3dd1 38be 6a7f 77bd 6064 0dbd
000000a0: 7e1a a0be 2f5a 9cbd 53ca 6ebe 5524 8abe
000000b0: 9ed2 b4bd 3779 2fbe c97e a9be 81b2 92be
000000c0: 9278 b3bd c23e 87bd 8463 d7be 037b 4dbe
000000d0: c074 8fbe 2e51 a9bd 8c43 5abe 4322 8dbd
000000e0: 50a3 0dbe e887 413b 08de 1d3d 2208 5fbe
000000f0: a68b 5fbe a069 63be 9eff 1bbe 53d6 65be
00000100: ccf2 d1bd 2294 3dbe e0e4 20bd 8aee 6cbd
00000110: 3208 98bd 0819 acbd 281b 80be cbba 04be
00000120: 249e 5bbe d1fa 6cbe 76cd 693b 6e7b 27be
00000130: c475 7dbd 6677 8dbd 4cb6 06be 6f6b 03be
00000140: bc06 0dbe 096d 8dbe 207c b4bd c97f 87be
00000150: c67d 9abe 1eef 65be a686 13bd 0caf a4be
00000160: d647 783c aefd 06be 1d76 f0be 0987 17be
00000170: effe babd 2052 09bd 179c babd b16f 1fbd
00000180: 75ad 0dbe 3209 64be 3d8d 9bbd 404c 56be
00000190: 679d 97bd 3361 51be 9f21 a5bd c715 03be
000001a0: 1042 1abe 120f 9fbc bc51 a9be ef06 bbbe
000001b0: a951 5cbd edf9 8cbe 7a19 c7bd 6255 76be
000001c0: 9523 a4bd 01eb b1bd db5a bbbc 8c7f afbd
000001d0: c008 60be 29c4 6bbe d180 88be 8791 b2be
000001e0: a85e ad3d 6fda 89be 72e7 96bd 16f0 40be
000001f0: 4205 7abe fe6d babd 59ed 67be 1a05 85be

sequential_4/conv1d_19/BiasAdd/ReadVariableOp f4 [128]
0.02808738 -0.08513393 -0.05463947 -0.29471907 -0.00071295287 -0.44281572 -0.3233646 -0.33250365
0.07544106 -0.33231288 -0.04855507 -0.088400014 -0.09806032 -0.33877423 -0.108277984 -0.06364889
-0.1678585 -0.06675919 -0.054775875 -0.40244406 -0.061190132 -0.07913798 -0.043849554 -0.06454288
-0.14524765 -0.17823385 -0.07667842 -0.02845606 -0.08997148 -0.059106078 -0.052413937 -0.07318558
0.028717466 -0.059581254 0.06871116 -0.08614455 -0.05488788 0.0010490529 -0.3399895 -0.18448727
-0.28433987 -0.045038167 -0.04826707 -0.30091554 -0.3295058 -0.052292302 -0.14271586 -0.11885229
-0.023483364 -0.16561407 -0.06303659 -0.054775767 -0.2173951 -0.38908353 -0.056626208 -0.061130535
-0.064041294 -0.11036964 -0.0066767167 -0.20538488 -0.03548623 -0.32603547 -0.08227378 -0.11587053
-0.1676494 -0.031907205 -0.043137643 -0.3458955 -0.28541073 -0.056656085 -0.12474156 -0.195315
-0.053037625 -0.095923446 -0.15333678 -0.18349339 -0.1812504 -0.09573687 -0.08455778 -0.027881164
-0.011929057 -0.08097432 -0.20831496 0.050513715 -0.059971396 -0.00097410986 -0.2977409 -0.031748652
-0.054580893 -0.05639943 -0.21621466 -0.12721908 0.04436676 0.06672157 -0.11352113 -0.20770584
-0.0552422 -0.018541694 -0.04224541 -0.17295218 -0.039409492 -0.12469868 -0.08312041 -0.48911464
-0.10127864 -0.04310797 -0.0693116 -0.09867655 -0.12951988 -0.05591115 -0.51201594 -0.04460537
-0.04485354 -0.052903768 -0.09018595 -0.061341677 -0.08721051 -0.08418703 -0.08528165 -0.22913174
-0.07114203 -0.053877447 -0.21102361 0.1174861 -0.10768058 -0.1575136 -0.007766521 -0.07425437
00000000: 8117 e63c b35a aebd a3cd 5fbd 6be5 96be
00000010: 75e5 3aba beb8 e2be 0b90 a5be eb3d aabe
00000020: d880 9a3d ea24 aabe aee1 46bd 110b b5bd
00000030: d9d3 c8bd d173 adbe d9c0 ddbd 595a 82bd
00000040: 19e3 2bbe 0bb9 88bd ab5c 60bd 260d cebe
00000050: 81a2 7abd 1813 a2bd 979b 33bd 0f2f 84bd
00000060: cdbb 14be ef82 36be 9309 9dbd af1c e9bc
00000070: f842 b8bd 3719 72bd ffaf 56bd 52e2 95bd
00000080: e440 eb3c 790b 74bd 70b8 8c3d 8e6c b0bd
00000090: 1dd2 60bd 6080 893a 1b13 aebe 3bea 3cbe
000000a0: ff94 91be f179 38bd b1b3 45bd 9a11 9abe
000000b0: fcb4 a8be 7430 56bd 1b24 12be d468 f3bd
000000c0: 2f60 c0bc bc96 29be 5419 81bd 8e5c 60bd
000000d0: d29c 5ebe f535 c7be e2f0 67bd 0364 7abd
000000e0: 1528 83bd 7a09 e2bd 5cc8 dabb 6a50 52be
000000f0: 025a 11bd 1fee a6be 287f a8bd 874d edbd
00000100: 49ac 2bbe 21b1 02bd 19b1 30bd 3719 b1be
00000110: 5b21 92be 3610 68bd 8178 ffbd a800 48be
00000120: fb3d 59bd 8373 c4bd 5104 1dbe b1e5 3bbe
00000130: b499 39be b111 c4bd a12c adbd 0a67 e4bc
00000140: 1772 43bc ddd5 a5bd 8450 55be 78e7 4e3d
00000150: 91a4 75bd 685b 7fba 7f71 98be e00a 02bd
00000160: 3790 5fbd 1703 67bd 6067 5dbe b845 02be
00000170: ebb9 353d 52a5 883d c47d e8bd d7b0 54be
00000180: a545 62bd c0e4 97bc 8609 2dbd 601a 31be
00000190: d96b 21bd 0662 ffbd 093b aabd 3c6d fabe
000001a0: 2d6b cfbd fc91 30bd 3df3 8dbd ee16 cabd
000001b0: dca0 04be 1703 65bd 7a13 03bf 1fb4 36bd
000001c0: 58b8 37bd 9fb1 58bd 69b3 b8bd 6941 7bbd
000001d0: 6d9b b2bd 406a acbd 25a8 aebd 83a1 6abe
000001e0: eab2 91bd 99ae 5cbd 9316 58be 8d9c f03d
000001f0: a387 dcbd 3f4b 21be 4d7e febb ad12 98bd

sequential_4/conv1d_16/Conv1D f4 [32, 1, 3, 3]
0.31152907 0.29981065 0.17889869 -0.35606268 -0.65793914 -0.18110959 -0.75155157 0.09746126
0.21994282 -0.1677804 0.33485535 0.20391773 -0.25002977 0.5500615 0.055878658 0.11775238
0.5887801 -0.115502864 8.850497e-05 -0.03086957 0.07409954 0.08199664 0.2531966 0.18724027
-0.16362143 0.3056589 -0.01825285 0.19871387 0.013989339 0.181374 0.026730381 -0.31352806
0.360371 0.13810979 -0.17389739 0.031784862 -0.2190179 0.013792213 -0.07478239 -0.23960978
-0.043985292 -0.11220768 -0.10041758 -0.09899424 0.19238506 0.10258953 0.577872 0.330987
0.11584524 0.5684207 0.04349913 0.2108391 0.61535996 0.086825326 0.11550622 0.31104133
-0.021494068 -0.06493561 0.6359688 0.049634896 -0.14173795 0.6321494 0.18269734 -0.27759907
-0.038518537 0.06652743 -0.3151852 -0.15685838 0.20969371 -0.10598275 -0.132355 0.122437015
-0.32891738 -0.08607581 0.3465322 -0.107355416 -0.22793268 -0.20893067 0.40392697 0.5612775
-0.14873226 0.31627324 0.64990467 -0.049901642 0.08260168 0.67667717 0.26673263 0.4472209
0.2223296 -0.117309466 0.0065462613 -0.19103591 0.29004714 -0.60533553 -0.30267057 0.062091477
-0.073508136 -0.0058395527 0.09896896 -0.10189817 -0.038234893 0.3141187 0.24468374 0.27953878
-0.08251315 -0.16617243 0.40716568 -0.058805555 -0.13478513 -0.364946 0.050238434 -0.051037192
0.05578821 0.05441026 -0.07255441 0.1351512 0.16273636 -0.022183819 0.12479807 -0.27932963
0.38823926 0.41053817 0.38885853 -0.3541361 0.3410212 0.39404222 -0.12853603 0.36623117
0.2365229 -0.39074668 0.17637944 0.21641535 -0.123821974 0.18217568 -0.10277153 -0.22980589
0.52418274 -0.015742112 -0.41188902 0.49230564 0.22879227 -0.38877103 0.4087254 0.12134473
-0.012361253 -0.06020147 0.17612785 -0.10835556 -0.0695367 0.30309033 0.36421728 -0.25548974
0.045608845 -0.89794457 0.0014455668 -0.24146463 -0.6191991 0.2313017 -0.190681 -0.32093588
0.025156172 -0.67263114 -0.13616459 0.15975182 0.100788146 0.029290894 0.018344484 0.22413386
0.16586998 -0.050892483 0.13513847 0.53969157 0.20910193 -0.69139415 0.5019939 -0.08121214
0.38316664 -0.120826036 0.16247056 0.4598131 0.2754796 -0.27351224 0.22672737 0.3673437
-0.33752728 0.2766031 0.31504434 -0.21982358 0.2048885 -0.22734405 0.18389721 0.23501456
-0.006309025 0.22996199 0.23820019 -0.034458406 0.4745474 -0.15195909 -0.1900286 -0.3908931
0.06039484 -0.09863491 -0.5897237 0.20375101 0.14245 -0.39473724 -0.0760179 -0.22221045
0.043931052 -0.28170526 -0.25267473 0.07251462 0.014663654 0.049099334 -0.076828174 -0.35095003
0.29590946 -0.022525802 0.3732871 0.31257015 -0.43698105 0.20322 -0.107018955 -0.30015957
0.22212495 -0.5714875 0.3542954 0.02201821 -0.6794408 -0.74110365 -0.017066486 -0.56771487
-0.28371155 0.1407128 0.45086908 0.25582862 -0.1255375 -0.009398768 -0.04796069 0.46553656
0.08636463 -0.09799726 0.46228236 -0.39413294 -0.23036799 -0.0544092 -0.3974827 -0.46218362
-0.12316645 -0.15871446 -0.45852384 -0.30002 -0.039443165 0.017852858 0.12074058 0.13130866
00000000: bd80 9f3e c880 993e 3831 373e d94d b6be
00000010: b36e 28bf cb74 39be af65 40bf c599 c73d
00000020: b138 613e a0ce 2bbe 2972 ab3e cfcf 503e
00000030: e703 80be d5d0 0c3f 05e1 643d 2928 f13d
00000040: 4bba 163f c48c ecbd be9b b938 2ee2 fcbc
00000050: 80c1 973d dbed a73d fca2 813e eabb 3f3e
00000060: 608c 27be 537f 9c3e 0087 95bc a67b 4b3e
00000070: 8a33 653c 1bba 393e acf9 da3c c086 a0be
00000080: 8c82 b83e a76c 0d3e 2812 32be d830 023d
00000090: 3a46 60be bcf8 613c 8227 99bd 445c 75be
000000a0: ec29 34bd 24cd e5bd bba7 cdbd 7ebd cabd
000000b0: 9700 453e 761a d23d 6bef 133f 2177 a93e
000000c0: 4540 ed3d 0584 113f 252c 323d 34e6 573e
000000d0: 3b88 1d3f 7ad1 b13d 868e ec3d cf40 9f3e
000000e0: 5414 b0bc f6fc 84bd dace 223f f64d 4b3d
000000f0: c123 11be 8bd4 213f 0315 3b3e 7721 8ebe
00000100: 9dc5 1dbd 893f 883d f45f a1be 7c9f 20be
00000110: f3b9 563e 7c0d d9bd 1288 07be 42c0 fa3d
00000120: dc67 a8be 8448 b0bd ab6c b13e 28dd dbbd
00000130: 2f67 69be ecf1 55be 84cf ce3e e2af 0f3f
00000140: 454d 18be 91ee a13e 2760 263f aa65 4cbd
00000150: 122b a93d b73a 2d3f 2e91 883e 23fa e43e
00000160: 5faa 633e f23f f0bd 0582 d63b eb9e 43be
00000170: 0f81 943e 45f7 1abf a3f7 9abe a253 7e3d
00000180: 6f8b 96bd b859 bfbb 3db0 ca3d fdaf d0bd
00000190: 319c 1cbd 2bd4 a03e 608e 7a3e b51f 8f3e
000001a0: a8fc a8bd 1b29 2abe 0578 d03e 18de 70bd
000001b0: 1d05 0abe 34da babe d1c6 4d3d 600c 51bd
000001c0: 2e82 643d 4bdd 5e3d 6897 94bd 1465 0a3e
000001d0: 5ca4 263e d7ba b5bc 2196 ff3d 4b04 8fbe
000001e0: 4cc7 c63e 0f32 d23e 7718 c73e 5451 b5be
000001f0: 559a ae3e e7bf c93e f39e 03be a782 bb3e
00000200: 0f33 723e f30f c8be d09c 343e fc9b 5d3e
00000210: 6096 fdbd 438c 3a3e e179 d2bd 3c52 6bbe
00000220: d730 063f 9af5 80bc 1ee3 d2be 7c0f fc3e
00000230: 8548 6a3e ff0c c7be 7544 d13e 9683 f83d
00000240: da86 4abc d195 76bd dc5a 343e 85e9 ddbd
00000250: 4269 8ebd a82e 9b3e b07a ba3e 8dcf 82be
00000260: 57d0 3a3d b2df 65bf 2c79 bd3a 8142 77be
00000270: d583 1ebf 5ada 6c3e e141 43be b551 a4be
00000280: 5114 ce3c 8e31 2cbf bb6e 0bbe fb95 233e
00000290: 046a ce3d 75f3 ef3c 2c47 963c 5983 653e
000002a0: d2d9 293e a374 50bd bd61 0a3e 3a29 0a3f
000002b0: d11e 563e 35ff 30bf ac82 003f 8d52 a6bd
000002c0: 6b2e c43e a473 f7bd af5e 263e 9f6c eb3e
000002d0: aa0b 8d3e cc09 8cbe 382b 683e 7914 bc3e
000002e0: 60d0 acbe ec9e 8d3e 7e4d a13e 6f19 61be
000002f0: 4ace 513e e1cc 68be 8d4f 3c3e a8a7 703e
00000300: f0bb cebb 287b 6b3e c0ea 733e 4224 0dbd
00000310: e0f7 f23e 2a9b 1bbe db96 42be 2423 c8be
00000320: 9460 773d 1a01 cabd 22f8 16bf 1ba4 503e
00000330: 6ade 113e 001b cabe 46af 9bbd 238b 63be
00000340: 0cf1 333d ac3b 90be 955e 81be 8c82 943d
00000350: d33f 703c 621c 493d 1758 9dbd b9af b3be
00000360: 7281 973e 0888 b8bc 7d1f bf3e 3209 a03e
00000370: fbbb dfbe e718 503e c12c dbbd 84ae 99be
00000380: b974 633e 014d 12bf 3566 b53e 885f b43c
00000390: d5ef 2dbf f8b8 3dbf 04cf 8bbc c355 11bf
000003a0: a442 91be 0417 103e 50d8 e63e f8fb 823e
000003b0: e78c 00be 4afd 19bc 6e72 44bd cf5a ee3e
000003c0: f0df b03d cab2 c8bd 46b0 ec3e cbcb c9be
000003d0: 96e5 6bbe 2edc 5ebd da82 cbbe 55a3 ecbe
000003e0: b13e fcbd 0b86 22be a3c3 eabe 399c 99be
000003f0: 288f 21bd 2840 923c d646 f73d c775 063e

sequential_4/conv1d_17/Conv1D f4 [64, 1, 3, 32]
-0.11335321 0.069583975 0.036346536 -0.12065651 0.030675821 0.024050679 -0.091959976 -0.06170228
0.027833365 0.10080886 0.028159887 0.05620995 -0.006855308 -0.14677154 0.11093484 0.03522862
-0.077784605 -0.1364921 0.046062097 -0.005899811 -0.006385718 -0.101703316 0.056825615 -0.16950421
0.060596142 -0.11952304 0.0757311 0.011839868 0.10453443 -0.092409685 -0.013729283 -0.054469757
0.006692505 -0.14647265 0.05628782 -0.036482997 -0.0029926824 0.06477863 0.056811634 0.066021934
0.07132135 -0.027657164 -0.04171174 -0.056117352 -0.087506115 0.10733245 -0.08692391 -0.10056221
-0.07892688 -0.030128276 -0.008975461 -0.017596891 0.034564916 -0.085616164 0.1123715 -0.12170155
-0.026418297 -0.078278355 0.089146994 -0.08203738 0.059093937 -0.028476773 -0.0077762613 -0.090617575
-0.054123152 -0.08352326 -0.050043456 -0.15436174 -0.068622395 0.043603558 0.050031435 -0.092950955
-0.15059423 0.040583745 -0.008230972 -0.14596514 -0.05757326 0.08026296 -0.14224535 -0.00031717253
-0.003885325 0.08529836 -0.06944126 -0.14630808 -0.16767699 -0.07422862 0.06008803 0.06912031
0.041349888 0.0964306 0.061014462 0.012110636 -0.08997415 -0.03753105 0.073951654 -0.11841242
0.24680747 0.14933375 0.06765424 0.075054936 0.0071058795 0.45040053 0.085566275 0.060804117
-0.1440804 0.066049725 0.28030303 0.07708244 0.047349617 0.12445486 0.008508842 0.30634102
0.05264058 -0.22123472 -0.09146518 0.05475953 -0.17779186 0.19583385 0.12882993 -0.3162953
0.211154 0.32409877 0.28885508 0.11681142 0.1384632 0.5324552 -0.43118227 0.1597201
-0.11886125 -0.0012561718 0.15797131 0.086486064 -0.21940655 0.2310462 -0.058819506 0.14192607
-0.042026766 0.081063606 0.1762645 -0.0709203 0.19614075 -0.039600614 0.09163746 0.14823255
0.19432637 -0.1238732 -0.011844702 -0.13448358 -0.28227454 0.28173 0.18502916 -0.2968152
0.034135174 -0.10393715 0.19288942 0.09710731 -0.14321262 0.36331713 -0.28606156 0.10329559
0.05458447 0.12601213 0.24403064 0.16207893 -0.18898465 0.17444673 0.19658275 -0.09475557
-0.18716876 -0.042632867 -0.112216964 0.09314615 0.14463557 -0.06117717 0.124602266 0.29254952
0.10813936 -0.08502314 -0.06552191 -0.085571036 -0.13923438 0.1729933 0.05458247 -0.14983714
0.023865487 0.07600993 -0.116242185 0.007969071 -0.08968818 0.25767443 -0.1627496 -0.13880436
0.06617781 -0.15604037 0.109107755 0.09475811 0.07101136 -0.07200585 0.019161921 -0.10846916
0.00085375446 -0.11944569 -0.122531265 -0.009405483 -0.052724577 0.08571509 0.040818486 0.18888511
-0.12401684 0.020699555 -0.055877678 0.0354863 -0.047820117 0.18527427 -0.01578651 -0.21041201
-0.16252573 0.05058619 0.03585486 -0.05552959 -0.12745543 0.20154391 -0.038519986 -0.16642721
-0.04354425 0.041571055 -0.14576595 -0.17728278 -0.12962928 -0.01987869 0.09550642 0.006380039
-0.011522307 0.06283573 -0.14856043 0.13236013 0.113227405 -0.097298205 0.044526204 0.22194421
-0.058997568 -0.005932337 0.13939786 -0.02926032 -0.060719203 0.106058046 -0.028456157 -0.17709398
0.08721714 -0.12896475 -0.042601172 -0.081642985 -0.119780004 0.030676486 -0.008901888 0.03525098
00000000: ba25 e8bd 0b82 8e3d 1be0 143d c31a f7bd
00000010: dc4b fb3c ee05 c53c 8355 bcbd 88bb 7cbd
00000020: cc02 e43c e074 ce3d 90af e63c 683c 663d
00000030: 7ea2 e0bb 474b 16be ce31 e33d e34b 103d
00000040: 894d 9fbd 96c4 0bbe 9cab 3c3d 3453 c1bb
00000050: 493f d1bb d449 d0bd fac1 683d 8392 2dbe
00000060: a933 783d 7fc8 f4bd e818 9b3d 01fc 413c
00000070: 2616 d63d 4a41 bdbd c9f0 60bc ae1b 5fbd
00000080: cd4c db3b edfc 15be 0f8e 663d 326f 15bd
00000090: e120 44bb a9aa 843d 51b3 683d 8236 873d
000000a0: ee10 923d 4791 e2bc eed9 2abd 4fdb 65bd
000000b0: 6836 b3bd 1ed1 db3d 2a05 b2bd 8ff3 cdbd
000000c0: 6ba4 a1bd 93cf f6bc d00d 13bc 5b27 90bc
000000d0: f193 0d3d 8757 afbd 0723 e63d aa3e f9bd
000000e0: 2f6b d8bc 6750 a0bd b392 b63d 3703 a8bd
000000f0: 7c0c 723d 1f48 e9bc 02d0 febb b595 b9bd
00000100: 3db0 5dbd 3e0e abbd 5efa 4cbd 0111 1ebe
00000110: e689 8cbd a599 323d c3ed 4c3d 125d bebd
00000120: 6035 1abe 243b 263d 33db 06bc e377 15be
00000130: f0d1 6bbd e860 a43d c4a8 11be 2d4a a6b9
00000140: f0a0 7ebb e8b0 ae3d 3837 8ebd c9d1 15be
00000150: 84b3 2bbe 2d05 98bd de1e 763d f38e 8d3d
00000160: 805e 293d 687d c53d 4dea 793d b06b 463c
00000170: 5e44 b8bd 29ba 19bd f773 973d 3682 f2bd
00000180: 19bb 7c3e f2ea 183e 4e8e 8a3d 67b6 993d
00000190: 70d8 e83b e69a e63e 5f3d af3d bd0d 793d
000001a0: d089 13be 1445 873d e183 8f3e 66dd 9d3d
000001b0: acf1 413d 31e2 fe3d ac68 0b3c bbd8 9c3e
000001c0: a69d 573d 5b8b 62be 1952 bbbd 874b 603d
000001d0: 120f 36be ab88 483e feeb 033e 75f1 a1be
000001e0: c138 583e 46f0 a53e d0e4 933e d33a ef3d
000001f0: 4cc9 0d3e fc4e 083f ecc3 dcbe aa8d 233e
00000200: 876d f3bd 22a6 a4ba 3bc3 213e 9b1f b13d
00000210: 1cac 60be 6097 6c3e b9ec 70bd 1155 113e
00000220: 4224 2cbd ad04 a63d ae7e 343e aa3e 91bd
00000230: 1fd9 483e 4134 22bd 6cac bb3d 46ca 173e
00000240: 7efd 463e 3bb1 fdbd 4810 42bc 10b6 09be
00000250: 4a86 90be ea3e 903e 4978 3d3e 29f8 97be
00000260: 53d1 0b3d 00dd d4bd ce84 453e 33e0 c63d
00000270: 54a6 12be b404 ba3e a976 92be a38c d33d
00000280: f793 5f3d 5309 013e 2be3 793e 05f8 253e
00000290: 3185 41be 2aa2 323e fd4c 493e 350f c2bd
000002a0: 2ba9 3fbe cd9f 2ebd 02d2 e5bd 69c3 be3d
000002b0: 591b 143e ea94 7abd 792f ff3d 0dc9 953e
000002c0: 2b78 dd3d 9d20 aebd 5a30 86bd de3f afbd
000002d0: 7593 0ebe 2825 313e de91 5f3d e86e 19be
000002e0: 8e81 c33c 18ab 9b3d 6210 eebd b590 023c
000002f0: 70ae b7bd e7ed 833e d5a7 26be bb22 0ebe
00000300: 3b88 873d 0cc9 1fbe e373 df3d 8a10 c23d
00000310: 676e 913d ce77 93bd 76f9 9c3c 1425 debd
00000320: 7ece 5f3a f19f f4bd acf1 fabd 7419 1abc
00000330: baf5 57bd 658b af3d 4931 273d 196b 413e
00000340: 8afc fdbd 1d92 a93c fedf 64bd 155a 113d
00000350: 07df 43bd 8ab8 3d3e b652 81bc 3f76 57be
00000360: 256d 26be 7733 4f3d 8cdc 123d ff72 63bd
00000370: ad83 02be 8761 4e3e 22c7 1dbd e56b 2abe
00000380: 755b 32bd 6946 2a3d ab43 15be 9e89 35be
00000390: 8abd 04be a2d8 a2bc df98 c33d a50f d13b
000003a0: 0fc8 3cbc 05b0 803d 3a20 18be 6a89 073e
000003b0: c5e3 e73d 4844 c7bd 1c61 363d 5845 633e
000003c0: 6fa7 71bd 0d64 c2bb 50be 0e3e 57b3 efbc
000003d0: b3b4 78bd f634 d93d e31c e9bc 2058 35be
000003e0: e69e b23d 560f 04be 917e 2ebd 7034 a7bd
000003f0: 384f f5bd 414d fb3c 39d9 11bc 5563 103d

sequential_4/conv1d_18/Conv1D f4 [128, 1, 3, 64]
-0.02438535 0.26322615 0.09338239 -0.031975552 -0.076737605 0.004362657 0.112154014 -0.099368155
-0.021583172 0.1830265 0.40090534 0.063190885 -0.007553185 0.41017446 0.083266184 0.046067566
0.01106883 0.26512805 0.032808594 0.23876578 0.03174202 -0.1391302 0.009071624 0.06242766
0.012851324 -0.08088032 -0.10927299 0.13164268 -0.09189372 0.05597459 0.095764756 -0.024211392
0.00032878984 0.05509844 -0.026161969 -0.050207354 0.103187636 0.17835101 -0.064786494 -0.09381964
0.16347912 0.2293478 0.012095454 -0.101759516 0.012861707 -0.010292165 0.33430573 -0.22527975
0.090534374 0.21365154 0.17242055 0.18756752 -0.09571627 -0.09543507 -0.08411208 -0.13547426
0.037553154 -0.0072973617 0.5344222 0.3291924 -0.013459461 0.09151961 0.042420544 -0.15039845
-0.0630812 0.37216273 -0.01287633 0.15757434 -0.0816735 0.34276974 0.35945183 -0.05393712
0.004489237 0.08275085 0.25111493 0.059267733 0.010897189 -0.10915963 0.044880554 -0.078274
0.07828742 0.1857962 -0.023171993 0.33189347 -0.06295795 -0.09178396 0.04190873 0.054442644
-0.045044925 0.19733088 -0.01843158 0.083603255 -0.14589287 -0.141022 0.03668888 0.0018604398
0.28406966 -0.027334973 0.089948274 -0.055819623 0.094874576 0.039608598 0.112087905 -0.08820654
-0.08131006 0.057073053 0.06105458 0.04390064 0.22963315 -0.09038708 0.2101783 -0.13310297
0.08395574 0.15771309 0.13467886 -0.08481063 -0.06617708 0.043386012 0.070181355 -0.010157073
0.20946553 0.048515245 -0.13468628 0.070689455 -0.06299427 0.17376192 -0.19125694 -0.1890983
-0.04331281 0.16386504 0.11355573 0.0240358 -0.0037965947 0.072965845 0.19994761 -0.0030813601
0.06431293 0.033916816 0.044462483 -0.032253135 0.043400552 -0.08178203 0.062020443 -0.08535197
-0.09065073 -0.2864152 -0.07364013 0.168813 0.019550124 -0.11273777 -0.08900984 0.052228253
-0.077120446 -0.1250835 0.054666582 0.092004016 -0.034774855 0.017880643 0.07965483 0.023565844
0.00813153 -0.028359892 0.0537962 -0.084906146 -0.09188247 0.15304783 -0.1699187 -0.09986441
-0.1335936 0.07625836 -0.020131875 -0.061802845 0.041701775 -0.049768712 0.074109554 -0.1274042
-0.06736427 -0.02481141 0.08360719 -0.058107432 0.04616121 0.031555433 0.11316208 -0.107058376
0.061015498 0.014069563 -0.051941574 -0.051489066 -0.033920534 0.08591574 -0.0638533 -0.1596802
-0.03648511 0.018024936 -0.12018614 0.043361392 -0.101062566 0.016292525 0.027421433 0.07769878
0.01178778 -0.067612246 -0.009792362 -0.08068811 -0.11501725 -0.006233096 -0.032696895 -0.097211994
0.081861526 -0.0120620895 0.024014754 -0.03748918 -0.08467834 -0.09217338 -0.06498798 0.09952384
-0.051179085 -0.07584207 0.0050209356 -0.06423718 -0.067573056 -0.03596402 -0.0005487427 -0.041805163
-0.05860903 0.06703318 0.037294928 0.09402492 -0.014063127 0.10490191 -0.042506427 0.0324582
-0.07772999 0.039063167 -0.097134046 0.016030446 -0.025700176 0.048661217 -0.0617339 0.021156313
-0.07409482 0.054499444 -0.06392157 -0.016184365 -0.011077751 -0.09339011 -0.07396409 -0.067556284
0.04591092 -0.049726173 0.005652719 0.016054982 -0.0703906 0.036081634 -0.09195713 0.012944104
00000000: c9c3 c7bc 94c5 863e 443f bf3d ccf8 02bd
00000010: 9b28 9dbd 9ff4 8e3b 01b1 e53d 8881 cbbd
00000020: 31cf b0bc 4c6b 3b3e 7743 cd3e 396a 813d
00000030: b580 f7bb 6302 d23e 7687 aa3d 58b1 3c3d
00000040: 0a5a 353c ddbe 873e 4e62 063d 047f 743e
00000050: ec03 023d 2678 0ebe 26a1 143c 25b4 7f3d
00000060: 5c8e 523c 95a4 a5bd 84ca dfbd 57cd 063e
00000070: c632 bcbd 9d45 653d 5020 c43d f856 c6bc
00000080: 6d61 ac39 e7ae 613d a051 d6bc 3aa6 4dbd
00000090: 0a54 d33d a6a1 363e c8ae 84bd 8324 c0bd
000000a0: 1267 273e 26da 6a3e 032c 463c 4b67 d0bd
000000b0: e9b9 523c 78a0 28bc 1f2a ab3e bcaf 66be
000000c0: 166a b93d 78c7 5a3e 038f 303e b311 403e
000000d0: e406 c4bd 7673 c3bd f442 acbd c4b9 0abe
000000e0: 56d1 193d b51e efbb e5cf 083f e88b a83e
000000f0: 1285 5cbc a26e bb3d 2ac1 2d3d 0d02 1abe
00000100: b730 81bd 1d8c be3e 3ef7 52bc 2b5b 213e
00000110: 7044 a7bd 847f af3e 120a b83e 2bed 5cbd
00000120: 731a 933b 4779 a93d 2392 803e b9c2 723d
00000130: 208a 323c 168f dfbd acd4 373d 1e4e a0bd
00000140: 2855 a03d 5c41 3e3e 31d3 bdbc f1ed a93e
00000150: 19f0 80bd 3bf9 bbbd 7da8 2b3d 40ff 5e3d
00000160: 0781 38bd 1b11 4a3e d3fd 96bc 2f38 ab3d
00000170: f164 15be 1268 10be 1447 163d 00da f33a
00000180: 9471 913e 98ed dfbc cd36 b83d 1ea3 64bd
00000190: 9a4d c23d a03c 223d 588e e53d a1a5 b4bd
000001a0: e485 a6bd 6fc5 693d 5e14 7a3d 28d1 333d
000001b0: f424 6b3e dd1c b9bd fb38 573e 254c 08be
000001c0: fdf0 ab3d 8a7f 213e 41e9 093e 32b1 adbd
000001d0: d987 87bd 88b5 313d 3ebb 8f3d da69 26bc
000001e0: 227e 563e ecb7 463d 33eb 09be a2c5 903d
000001f0: 2403 81bd a5ee 313e dcd8 43be fca2 41be
00000200: c668 31bd 3dcc 273e e88f e83d bae6 c43c
00000210: 4ad0 78bb 1e6f 953d 11bf 4c3e a5f0 49bb
00000220: 7fb6 833d 5cec 0a3d 4b1e 363d dd1b 04bd
00000230: c7c4 313d 567d a7bd 2609 7e3d 03cd aebd
00000240: 17a7 b9bd 03a5 92be a3d0 96bd 51dd 2c3e
00000250: 9527 a03c 0fe3 e6bd ca4a b6bd 4bed 553d
00000260: 53f1 9dbd e415 00be 11ea 5f3d 9a6c bc3d
00000270: 1470 0ebd 6d7a 923c 1222 a33d 280d c13c
00000280: 1c3a 053c 0153 e8bc 6759 5c3d 46e3 adbd
00000290: e02c bcbd 92b8 1c3e 2bff 2dbe b685 ccbd
000002a0: c3cc 08be 582d 9c3d 9aeb a4bc fb24 7dbd
000002b0: 7bcf 2a3d 47da 4bbd c0c6 973d 3f76 02be
000002c0: 47f6 89bd 4c41 cbbc 3f3a ab3d 0f02 6ebd
000002d0: 8913 3d3d 4540 013d 85c1 e73d 6c41 dbbd
000002e0: 63eb 793d 0684 663c b0c0 54bd 33e6 52bd
000002f0: 42f0 0abd 97f4 af3d 85c5 82bd 3583 23be
00000300: 6971 15bd 08a9 933c 2724 f6bd b79b 313d
00000310: e4f9 cebd e777 853c eaa2 e03c 8a20 9f3d
00000320: 8821 413c 4a78 8abd 2570 20bc cf3f a5bd
00000330: 2a8e ebbd 003f ccbb 2eed 05bd 1517 c7bd
00000340: 04a7 a73d 12a0 45bc 97ba c43c 418e 19bd
00000350: d66b adbd 66c5 bcbd 6b18 85bd 28d3 cb3d
00000360: 29a1 51bd 1653 9bbd a986 a43b c88e 83bd
00000370: be63 8abd 024f 13bd 80d9 0fba e43b 2bbd
00000380: 0610 70bd b148 893d 91c2 183d 2390 c03d
00000390: 0869 66bc d0d6 d63d 381b 2ebd e4f2 043d
000003a0: e730 9fbd b300 203d 37ee c6bd 4852 833c
000003b0: 2d89 d2bc fc50 473d b0dc 7cbd 0150 ad3c
000003c0: 06bf 97bd cf3a 5f3d 50e9 82bd 1395 84bc
000003d0: 757f 35bc 5043 bfbd 7c7a 97bd f35a 8abd
000003e0: 170d 3c3d acad 4bbd 723a b93b bd85 833c
000003f0: f228 90bd 56ca 133d 0554 bcbd 8213 543c

sequential_4/conv1d_19/Conv1D f4 [128, 1, 3, 128]
0.039790235 0.021220913 -0.00472919 0.08017107 0.045605153 -0.02574728 0.052893743 0.021548878
-0.012275159 0.032760654 0.11188527 0.109566756 -0.11519826 0.02007032 0.13559867 -0.12397627
0.10650361 -0.20013136 -0.016498309 -0.07395774 -0.03315196 -0.053559612 0.007334456 -0.022807013
0.037144095 0.00039494038 0.04213957 -0.066799454 -0.08107361 0.08136433 0.05364154 -0.04466906
-0.07942233 0.038299713 -0.24416816 0.0724513 0.10620466 0.16856399 0.08265526 -0.06583234
0.21604854 -0.046348833 -0.12345878 -0.1932685 0.083321735 0.04095453 0.033121582 0.13867395
-0.0036717928 0.04867432 -0.026472697 0.09634889 0.17524195 0.017302627 0.042853042 0.031234529
0.064135104 -0.62874633 -0.2949655 0.04502745 -0.016886195 0.12381541 0.074951395 0.073005795
-0.1483647 -0.10819842 0.11730702 -0.077223815 -0.0011126746 -0.0372886 -0.032740876 -0.00818431
0.1516416 0.06750466 -0.07566551 -0.05831068 0.01842188 0.06616347 0.08903292 -0.032121673
0.2891851 0.29744 0.01708639 -0.097510695 -0.10771768 0.20664425 0.08679054 0.038311284
-0.28001145 -0.029720668 0.039096035 0.056640204 0.06857555 0.21191305 0.041514806 0.10541253
-0.014493972 0.044475637 -0.030778842 -0.09289088 -0.026120996 -0.010756306 0.028869519 -0.27976677
-0.12974845 -0.928204 0.111221164 0.11209508 0.08696163 0.06493607 -0.009368074 -0.12252227
-0.08098883 -0.060387168 0.076054335 0.0048426194 -0.15312313 -0.12275401 -0.10758699 -0.05703692
-0.10583238 0.013036503 -0.15095232 0.17332125 0.020982021 -0.034433465 0.088980965 0.1437262
-0.0072546434 0.09539843 0.018858137 0.07139475 0.029893547 0.06176373 0.00954819 -0.020420885
-0.057960965 0.024328673 0.15500608 0.07547361 -0.15984559 0.00034031484 0.10532944 0.04281467
0.084800616 -0.23420191 0.0065410463 -0.11340033 -0.15531768 -0.044541936 0.05936695 -0.047486465
-0.07788304 0.0022628456 0.023664318 -0.021077706 -0.12543634 0.0016560028 0.08654288 0.00462887
-0.077244416 0.030797921 -0.117851235 -0.08194053 0.10331964 0.24789406 -0.029308487 -0.06093818
0.19727306 -0.016469352 -9.152767e-05 -0.037071932 0.04844905 -0.07491824 -0.090432785 0.052410573
0.014084614 0.03950108 -0.015350925 -0.030367894 0.18571897 0.02347972 -0.0889687 -0.08752575
0.059148837 -0.6603954 -0.41843694 -0.014597511 -0.04042378 0.091279216 0.032683562 0.072379805
-0.012813032 0.036722824 0.051603 0.0531891 0.045908768 0.023161035 0.046097703 -0.008553653
0.11149206 0.07805862 -0.09040016 -0.013210513 -0.053081624 0.02094951 0.06369976 -0.06795506
0.16630541 0.21315688 -0.048708916 -0.15642884 -0.16824102 0.06881744 -0.036107283 0.023008456
-0.1505426 -0.16212827 0.09978711 0.07961027 -0.023579367 0.17662476 0.07743255 0.08835201
0.0512901 -0.04202611 -0.023054466 -0.13100728 0.012070297 -0.043531522 0.13133837 -0.40370837
-0.062030647 -0.91943365 0.1429947 0.016506495 0.0047116913 -0.0013027629 0.07919564 -0.084252454
0.05037655 0.009578378 -0.005699019 -0.077076 -0.069521405 -0.07163332 -0.18139055 0.05683332
-0.12834531 -0.028246814 -0.08499498 0.06728038 0.01439121 -0.03602157 0.047110602 0.17776613
00000000: 16fb 223d 7bd7 ad3c 52f7 9abb bb30 a43d
00000010: 78cc 3a3d f6eb d2bc 1ca7 583d 4687 b03c
00000020: c01d 49bc 0930 063d 1b24 e53d 8964 e03d
00000030: 11ed ebbd 836a a43c 61da 0a3e 45e7 fdbd
00000040: 911e da3d 3cef 4cbe 7627 87bc 2877 97bd
00000050: 59ca 07bd 5361 5bbd e055 f03b c6d5 babc
00000060: 6824 183d 0010 cf39 8b9a 2c3d 27ce 88bd
00000070: ec09 a6bd 58a2 a63d 3bb7 5b3d e7f6 36bd
00000080: 2da8 a2bd 29e0 1c3d 3807 7abe 5961 943d
00000090: d481 d93d 0a9c 2c3e 2947 a93d 1bd3 86bd
000000a0: d43b 5d3e 46d8 3dbd f5d7 fcbd 2de8 45be
000000b0: 96a4 aa3d f0bf 273d 7faa 073d 8b00 0e3e
000000c0: 76a2 70bb b95e 473d 45dd d8bc 9152 c53d
000000d0: a072 333e 3dbe 8d3c ac86 2f3d 8edf ff3c
000000e0: 4459 833d 85f5 20bf b805 97be b46e 383d
000000f0: eb54 8abc ef92 fd3d 1e80 993d 1084 953d
00000100: eaec 17be 2297 ddbd aa3e f03d 8527 9ebd
00000110: 2ad7 91ba eebb 18bd 4c1b 06bd 7c17 06bc
00000120: f047 1b3e e23f 8a3d 85f6 9abd 2ed7 6ebd
00000130: 7ce9 963c b780 873d e456 b63d 0492 03bd
00000140: 1210 943e 0e4a 983e c2f8 8b3c b0b3 c7bd
00000150: 169b dcbd 8d9a 533e 3dbf b13d 4bec 1c3d
00000160: a95d 8fbe c278 f3bc 2a23 203d 8fff 673d
00000170: 5771 8c3d bcff 583e 6e0b 2a3d 86e2 d73d
00000180: 2078 6dbc 162c 363d e923 fcbc 933d bebd
00000190: b3fb d5bc 383b 30bc c57f ec3c 973d 8fbe
000001a0: c7dc 04be c79e 6dbf ecc7 e33d 1b92 e53d
000001b0: f018 b23d 34fd 843d 8d7c 19bc f5ec fabd
000001c0: 79dd a5bd 8958 77bd 60c2 9b3d d6ae 9e3b
000001d0: 4fcc 1cbe 7466 fbbd 9156 dcbd 8c9f 69bd
000001e0: a6be d8bd 0f97 553c 3f93 1abe 207b 313e
000001f0: 7de2 ab3c 1b0a 0dbd a73b b63d f62c 133e
00000200: 5cb8 edbb 4160 c33d 617c 9a3c 6937 923d
00000210: 50e3 f43c f7fb 7c3d 0370 1c3c b349 a7bc
00000220: 7a68 6dbd ed4c c73c eab9 1e3e e891 9a3d
00000230: 90ae 23be 496c b239 f6b6 d73d 6f5e 2f3d
00000240: f2ab ad3d a0d2 6fbe 4656 d63b 6f3e e8bd
00000250: 990b 1fbe 9b71 36bd c22a 733d 2b81 42bd
00000260: 2581 9fbd 404c 143b acdb c13c 27ab acbc
00000270: 6272 00be 3c0e d93a 653d b13d c7ad 973b
00000280: 5232 9ebd ec4b fc3c fd5b f1bd 70d0 a7bd
00000290: 3f99 d33d f1d7 7d3e 5a18 f0bc 509a 79bd
000002a0: f301 4a3e bcea 86bc 8bf2 bfb8 bdd8 17bd
000002b0: 8372 463d bc6e 99bd d334 b9bd 78ac 563d
000002c0: 27c3 663c e2cb 213d 7282 7bbc 17c6 f8bc
000002d0: 1d2d 3e3e 8b58 c03c 3935 b6bd b340 b3bd
000002e0: 0d46 723d ac0f 29bf 5e3d d6be 662a 6fbc
000002f0: 6893 25bd 99f0 ba3d 33df 053d dd3b 943d
00000300: c0ed 51bc ac6a 163d ab5d 533d d0dc 593d
00000310: d50a 3c3d 36bc bd3c f2d0 3c3d 9f24 0cbc
00000320: f355 e43d 33dd 9f3d b823 b9bd e870 58bc
00000330: 1e6c 59bd 4f9e ab3c 0575 823d 062c 8bbd
00000340: f74b 2a3e cc45 5a3e 0083 47bd e22e 20be
00000350: 6047 2cbe 28f0 8c3d 3be5 13bd 3b7c bc3c
00000360: d727 1abe f404 26be 2f5d cc3d b60a a33d
00000370: 8429 c1bc 1fdd 343e f594 9e3d e6f1 b43d
00000380: 9115 523d 9223 2cbd b8dc bcbc c626 06be
00000390: 7fc2 453c 1c4e 32bd 917d 063e ddb2 cebe
000003a0: d913 7ebd 0160 6bbf 346d 123e a138 873c
000003b0: 8864 9a3b 78c1 aaba 5331 a23d 8d8c acbd
000003c0: a457 4e3d a1ee 1c3c d6be babb 06da 9dbd
000003d0: 3d61 8ebd 7db4 92bd 72be 39be 0eca 683d
000003e0: f46c 03be dd65 e7bc d911 aebd 4cca 893d
000003f0: 1cc9 6b3c 5b8b 13bd 0cf7 403d 5308 363e

sequential_4/dense_9/BiasAdd/ReadVariableOp f4 [4]
-0.27268034 -0.39200798 0.033393268 0.40391093
00000000: c29c 8bbe 45b5 c8be 61c7 083d 6acd ce3e

sequential_4/dense_8/BiasAdd/ReadVariableOp f4 [64]
0.50145394 -0.48268548 0.35757956 -0.2741283 0.4431741 0.33826366 0.42076737 0.27756572
0.018721916 -0.13466872 0.5255307 0.1069668 -0.53242195 0.2870506 -0.19520684 0.25816908
0.4205569 0.41374853 -0.47035304 -0.36010218 -0.21727936 -0.10025175 -0.15489982 0.50647205
-0.23260681 0.021725912 0.058607075 0.14316589 -0.09399987 -0.15112078 -0.07881255 0.035620946
-0.2578988 0.4077052 0.41584653 0.52584374 0.14253402 0.15049617 -0.31286794 -0.519066
0.10031047 0.13797538 0.20332612 -0.12742433 -0.0081551885 0.21777567 0.38156152 0.4318436
0.33144876 -0.014143711 0.20045546 -0.10003408 -0.09577334 0.36335015 -0.01773037 0.088738635
-0.19442715 0.4678946 -0.13321371 0.084819965 -0.00090878934 0.27507392 0.5329367 -0.4787738
00000000: 495f 003f 8d22 f7be ab14 b73e 8b5a 8cbe
00000010: b7e7 e23e e530 ad3e d26e d73e 181d 8e3e
00000020: b45e 993c 99e6 09be 2e89 063f 6911 db3d
00000030: ce4c 08bf 4cf8 923e 4de4 47be bd2e 843e
00000040: 3c53 d73e d9d6 d33e 1dd2 f0be 505f b8be
00000050: 7b7e 5ebe ca50 cdbd 0f9e 1ebe 27a8 013f
00000060: 7b30 6ebe 8afa b13c f90d 703d 149a 123e
00000070: 0183 c0bd 68bf 1abe 7968 a1bd 45e7 113d
00000080: 500b 84be bcbe d03e d6e9 d43e b29d 063f
00000090: 70f4 113e ab1b 1a3e 3a30 a0be 82e1 04bf
000000a0: 936f cd3d 6b49 0d3e b934 503e 867b 02be
000000b0: 579d 05bc 9600 5f3e 085c c33e 9b1a dd3e
000000c0: a7b3 a93e 06bb 67bc 3244 4d3e abde ccbd
000000d0: d024 c4bd 0809 ba3e 483f 91bc 9abc b53d
000000e0: e917 47be e28f ef3e 2d69 08be 17b6 ad3d
000000f0: d23b 6eba 7dd6 8c3e 8a6e 083f d721 f5be

sequential_4/dense_8/MatMul f4 [64, 512]
0.026126845 0.24056953 -0.039916128 -0.18278864 -0.016914498 0.079445295 -0.11539337 -0.34678742
-0.05450601 -0.0682385 -0.35691327 -0.11056551 0.09563557 0.18571752 -0.051876042 0.017046234
-0.106177166 0.062449787 0.0331784 0.15844958 0.011251709 0.12751499 -0.17498733 0.0443715
0.012768772 0.13248959 -0.008863087 -0.40415975 -0.011141453 -0.42050055 -0.23936123 -0.112708546
0.023894891 -0.064655855 0.31698877 0.06449527 -0.25311765 0.23696437 0.22754951 -0.06231294
0.07218894 0.029962406 -0.15020165 -0.12926428 0.037898652 0.19890778 -0.14763173 0.21037932
-0.2534199 0.04785272 -0.036940064 0.079826936 0.3304988 0.19755997 -0.032972947 -0.047923252
-0.032059938 0.036093034 -0.013695565 0.02582475 -0.056238025 -0.064485975 0.104958706 -0.083088055
0.15488933 -0.06783637 0.062576614 0.047808785 0.21036936 0.10195066 0.08257398 -0.037032705
0.082486495 0.08364805 0.4609527 -0.00659814 0.19389157 -0.10665285 0.029331617 -0.25738838
-0.64453816 -0.03242643 0.050819933 0.6275344 0.040780418 0.02625044 0.113244094 0.0016367682
0.06581294 0.07395086 0.18992573 -0.043994825 -0.074458696 0.319578 0.033228356 0.1998575
-0.28768152 0.15678959 -0.056556497 0.20454077 0.10391776 -0.017703852 0.3078523 0.07467648
-0.07478351 0.52679133 -0.09242633 -0.090218656 0.051828858 0.06147825 0.015392189 0.028401
-0.29096818 0.10136353 -0.087910146 -0.4353763 -0.09648539 -0.11601168 -0.017895272 -0.062777616
0.41439122 0.012611408 0.24047077 0.13710201 -0.016566355 0.08127802 0.06714097 0.16057044
0.1450393 0.3361147 -0.020696292 0.100375205 -0.050937448 0.026069375 0.026733592 0.1465988
-0.117591865 -0.17531529 -0.35683206 0.03754069 -0.04707105 0.045210037 -0.17519869 0.092932455
-0.07521357 -0.0773321 0.030508144 0.11608321 0.03227135 0.084602974 -0.49924397 0.0431875
-0.09262225 -0.008623134 -0.022393668 -0.35683948 -0.0081630945 -0.54819477 -0.3115959 -0.021545582
0.04472071 0.29458377 0.12833188 -0.005281621 -0.15501913 0.18594341 -0.0808381 0.17022815
0.10685707 0.0023220675 -0.19341737 0.10024512 0.047515113 0.20478691 0.015178008 0.036082067
-0.1412624 -0.12645577 -0.07346737 0.06370568 0.20965317 0.18268655 -0.029138386 -0.08493512
-0.09344587 -0.10954689 0.20031387 0.06478668 0.11479255 -0.075722374 -0.082873404 -0.027912512
-0.056488205 -0.103422895 -0.039530735 0.15283428 0.07072023 -0.043090645 0.03058074 -0.19869703
0.13219559 0.026348274 0.18991746 0.12887664 -0.037178688 0.06077629 0.0060444935 -0.07084075
-0.583201 0.11338712 -0.016278576 0.33287537 0.2879016 -0.0655036 0.29695258 -0.0034458868
0.17980179 -0.07646639 0.0385832 -0.0023561053 -0.22199601 0.34042475 0.12342869 -0.15739371
-0.23115924 0.14927615 -0.53484917 0.060752098 0.04627987 -0.008693032 0.14109598 0.047773454
-0.14125198 0.37497666 -0.0863127 0.035912953 0.04003397 -0.16983908 0.06056792 0.05688843
-0.45371404 0.022140844 -0.025329769 -0.10855334 0.04621702 0.10899185 0.025615048 0.09922666
0.019291598 0.006678976 0.07132972 0.18259262 -0.035127588 0.06040913 -0.023433607 0.08198636
00000000: f707 d63c dc57 763e 187f 23bd f22c 3bbe
00000010: 4690 8abc 37b4 a23d 5c53 ecbd 1f8e b1be
00000020: b241 5fbd a0c0 8bbd 56bd b6be 2c70 e2bd
00000030: 95dc c33d bc2c 3e3e f97b 54bd 8ba4 8b3c
00000040: 6a73 d9bd 59cb 7f3d 13e6 073d 9b40 223e
00000050: 1759 383c 4a93 023e e12f 33be e4be 353d
00000060: 1d34 513c 5aab 073e 7b36 11bc 07ee cebe
00000070: a48a 36bc d94b d7be 1c1b 75be bdd3 e6bd
00000080: 38bf c33c 4a6a 84bd 5a4c a23e 1916 843d
00000090: a398 81be caa6 723e bd02 693e da3b 7fbd
000000a0: ccd7 933d b873 f53c 76ce 19be db5d 04be
000000b0: 9e3b 1b3d 7bae 4b3e c62c 17be ad6d 573e
000000c0: 41c0 81be 3701 443d 774e 17bd 4e7c a33d
000000d0: 2437 a93e 294d 4a3e a40e 07bd 2c4b 44bd
000000e0: 4851 03bd 4ad6 133d 5d63 60bc 6d8e d33c
000000f0: d859 66bd 3911 84bd 97f4 d63d 122a aabd
00000100: 4f9b 1e3e cbed 8abd 2b28 803d 25d3 433d
00000110: 116b 573e 82cb d03d 8c1c a93d 9baf 17bd
00000120: aeee a83d ab4f ab3d fe01 ec3e 3635 d8bb
00000130: 838b 463e cf6c dabd dc48 f03c 69c8 83be
00000140: 7400 25bf 94d1 04bd 9028 503d 18a6 203f
00000150: 5e09 273d 2a0b d73c 85ec e73d d488 d63a
00000160: efc8 863d 8c73 973d e47b 423e eb33 34bd
00000170: cd7d 98bd ba9f a33e 751a 083d 72a7 4c3e
00000180: fe4a 93be 738d 203e c9a7 67bd 2373 513e
00000190: d6d2 d43d ab07 91bc d19e 9d3e fbef 983d
000001a0: 1928 99bd ccdb 063f 044a bdbd 8fc4 b8bd
000001b0: 7f4a 543d 9ed0 7b3d 852f 7c3c 37a9 e83c
000001c0: c8f9 94be af97 cf3d 3c0a b4bd a4e9 debe
000001d0: 229a c5bd 8897 edbd 1b99 92bc 8d91 80bd
000001e0: 162b d43e 14a0 4e3c f83d 763e 7864 0c3e
000001f0: 2ab6 87bc 1775 a63d 3481 893d 946c 243e
00000200: 2f85 143e 3a17 ac3e 458b a9bc 8491 cd3d
00000210: c9a3 50bd 718f d53c 6800 db3c ff1d 163e
00000220: 01d4 f0bd da85 33be b1b2 b6be 44c4 193d
00000230: 93cd 40bd 292e 393d 4967 33be 5f53 be3d
00000240: 9209 9abd 4b60 9ebd 37ec f93c 09bd ed3d
00000250: f72e 043d 5344 ad3d e89c ffbe 60e5 303d
00000260: bcb0 bdbd 0c48 0dbc ed72 b7bc aab3 b6be
00000270: 80be 05bc 7e56 0cbf 7f89 9fbe 5c80 b0bc
00000280: 102d 373d afd3 963e 6f69 033e 7311 adbb
00000290: 56bd 1ebe f367 3e3e 728e a5bd 4a50 2e3e
000002a0: e1d7 da3d d42d 183b 340f 46be 504d cd3d
000002b0: 359f 423d a9b3 513e 2ead 783c caca 133d
000002c0: 17a7 10be 9f7d 01be 0f76 96bd 2078 823d
000002d0: 52af 563e 2f12 3b3e a0b3 eebc 77f2 adbd
000002e0: 8c60 bfbd 1f5a e0bd 141f 4d3e e1ae 843d
000002f0: 5b18 eb3d 5514 9bbd 88b9 a9bd c8a8 e4bc
00000300: 2d60 67bd 62cf d3bd fbea 21bd 9780 1c3e
00000310: c5d5 903d d17f 30bd 7684 fa3c 3c77 4bbe
00000320: 485e 073e 56d8 d73c b979 423e 3df8 033e
00000330: ae48 18bd 8ff0 783d e310 c63b f514 91bd
00000340: a94c 15bf 8237 e83d a65a 85bc a46e aa3e
00000350: d767 933e c026 86bd 2b0a 983e 63d4 61bb
00000360: f61d 383e 699a 9cbd 6b09 1e3d e368 1abb
00000370: ec52 63be 274c ae3e 2ec8 fc3d d12b 21be
00000380: 02b5 6cbe d9db 183e e0eb 08bf 31d7 783d
00000390: f68f 3d3d 386d 0ebc 777b 103e 19ae 433d
000003a0: 5ca4 10be f1fc bf3e b6c4 b0bd 7619 133d
000003b0: a9fa 233d 4cea 2dbe 1116 783d d803 693d
000003c0: 354d e8be b760 b53c 6080 cfbc 3751 debd
000003d0: 0f4e 3d3d 1e37 df3d a6d6 d13c 5937 cb3d
000003e0: 6a09 9e3c 50db da3b 5115 923d 8ff9 3a3e
000003f0: f2e1 0fbd 906f 773d d6f7 bfbc 77e8 a73d

sequential_4/dense_9/MatMul f4 [4, 64]
0.24970248 0.07148428 0.15103474 -0.14434649 0.2978304 0.22358355 0.023828506 0.17709596
-0.67678696 0.0950927 0.080750726 -0.36720568 -0.03250395 0.63526803 0.03457745 0.04220075
0.680004 0.15552367 0.137627 -0.048911426 -0.67126787 -0.4104004 -0.28314984 0.17151499
-0.2055724 0.21321073 -0.43862107 -0.7001064 0.0040293587 0.30934408 0.110087596 0.16086443
-0.027270893 0.25610667 0.214789 0.082860544 -0.8182435 0.33792078 -0.11622569 -0.84488946
-0.53362787 -0.070152715 -0.37978882 -0.09322188 -0.098956965 0.26529932 0.2574346 0.1540026
0.57072115 -0.010377526 -0.3201576 -0.019870805 0.2827582 0.6051491 0.03943083 -0.58185124
0.37635398 0.20939352 -0.0012556768 0.20232637 -0.3158315 0.24121274 0.3856581 0.024216274
-0.37843135 0.027749373 -0.41507536 0.15203695 -0.4613868 -0.42644423 -0.761514 0.0506676
-0.2146094 0.044532917 -0.87029135 0.0674669 -0.03942168 -0.34975514 0.15123114 -0.070802554
-0.22414814 -0.5724669 0.23174644 0.12351747 -0.06586113 -0.016742736 -0.23048922 -0.42713425
-0.22827731 0.079741776 0.30183178 0.1996452 0.24419546 0.013762218 0.20079608 0.12605013
0.09600808 -0.21279313 -0.110716835 -0.5404868 0.030525485 -0.012342452 -0.26958373 0.011490884
0.20988163 0.1711372 0.02831923 -0.23145574 -0.27507776 -0.2006526 -0.56086963 -0.51906484
-0.18879296 0.14271778 0.08991083 0.19233021 -0.3811314 -0.3847559 0.10436609 -0.06714955
-0.41024873 -0.45461982 0.16216016 0.12842607 0.088720165 0.09379726 -0.2928191 0.13381766
-0.18373477 -0.09455902 -0.37265125 -0.3332323 -0.27826607 -0.24526319 0.21355306 -0.046518546
-0.27793667 0.026702227 0.307983 0.30932933 -0.10998065 -0.13762844 -0.21830355 -0.6384192
0.16156128 -0.43577257 0.021499034 -0.067673974 0.105868794 -0.48303565 -0.275909 0.32353908
-0.18860197 -0.22098497 -0.06651096 0.2525303 0.064098686 -0.10318059 -0.28005728 -0.2221679
-0.6352699 -0.11829891 -0.42473045 0.275058 0.095494404 -0.23744409 0.07319012 0.63087785
0.19285926 0.07573609 -0.06375505 0.1045163 -0.35762656 -0.13428713 0.25627878 -0.37115413
0.16460657 -0.33133873 0.07289586 0.049057633 -0.3795025 0.08018724 -0.2116831 -0.02191733
-0.18295789 0.2894996 0.3058307 -0.45700434 0.37933865 -0.5962924 -0.33598045 -0.019964412
0.14477237 -0.011430216 -0.1808471 -0.014234864 0.22149661 0.24078938 0.018829985 -0.28041187
-0.12269656 0.061462276 0.073246725 0.06452976 -0.085899286 -0.6173631 0.061736904 0.057104822
-0.74202144 0.09895549 0.10486738 0.05582683 -0.19671497 -0.24480125 -0.11745439 0.17804423
-0.020013837 -0.1486753 0.2014666 0.18309636 0.0056387857 -0.10088316 0.16428383 0.19790478
0.081907354 0.12549607 0.18658145 0.18611458 -0.0025307222 0.07044277 -0.22830828 -0.054239105
0.075663954 0.17955679 0.112245046 -0.101889364 -0.12461649 -0.24963568 0.3371158 0.25800145
-0.40613374 0.1552238 0.11528677 0.07998295 -0.13048866 0.026762811 0.12517986 -0.09517253
-0.31287536 0.178574 -0.20056362 0.17945856 -0.2602036 0.17007342 0.22024934 0.14306068
00000000: 02b2 7f3e 5a66 923d daa8 1a3e 91cf 13be
00000010: 3a7d 983e 16f3 643e 0034 c33c a558 353e
00000020: e941 2dbf f6bf c23d a360 a53d 6202 bcbe
00000030: dd22 05bd eda0 223f 16a1 0d3d b2da 2c3d
00000040: be14 2e3f 9941 1f3e 18ee 0c3e 5957 48bd
00000050: 36d8 2bbf 0020 d2be 04f9 90be a0a1 2f3e
00000060: 9281 52be ea53 5a3e f192 e0be 2c3a 33bf
00000070: b608 843b 5962 9e3e 9b75 e13d a5b9 243e
00000080: 3567 dfbc 6a20 833e a6f1 5b3e cab2 a93d
00000090: 6878 51bf f403 ad3e bc07 eebd ad4a 58bf
000000a0: d69b 08bf 3aac 8fbd ae73 c2be 1deb bebd
000000b0: f3a9 cabd 50d5 873e 78ce 833e dcb2 1d3e
000000c0: c81a 123f 8006 2abc b2eb a3be 19c8 a2bc
000000d0: afc5 903e 0deb 1a3f 3982 213d 34f4 14bf
000000e0: 78b1 c03e 416b 563e 8695 a4ba a52e 4f3e
000000f0: abb4 a1be 7900 773e fa74 c53e 3561 c63c
00000100: c1c1 c1be a752 e33c c284 d4be 93af 1b3e
00000110: e43a ecbe e656 dabe 95f2 42bf d488 4f3d
00000120: 91c2 5bbe 2668 363d 6acb 5ebf 162c 8a3d
00000130: a178 21bd 1b13 b3be 56dc 1a3e ee00 91bd
00000140: 1787 65be 318d 12bf f04e 6d3e baf6 fc3d
00000150: 33e2 86bd 1028 89bc 5e05 6cbe 57b1 dabe
00000160: 87c1 69be a84f a33d b289 9a3e cb6f 4c3e
00000170: 600e 7a3e ed7a 613c 7d9d 4d3e 4913 013e
00000180: e29f c43d 71e6 59be 82bf e2bd 585d 0abf
00000190: 9510 fa3c ff37 4abc e106 8abe 4344 3c3c
000001a0: 36eb 563e 973e 2f3e bbfd e73c bc02 6dbe
000001b0: fed6 8cbe e077 4dbe 2795 0fbf 6fe1 04bf
000001c0: f152 41be 9c24 123e 2b23 b83d 36f2 443e
000001d0: a823 c3be bafe c4be e3bd d53d b485 89bd
000001e0: 1f0c d2be eec3 e8be 500d 263e 2082 033e
000001f0: ebb2 b53d c718 c03d 63ec 95be 7f07 093e
00000200: f824 3cbe 29a8 c1bd 25cc bebe 6d9d aabe
00000210: e478 8ebe 4626 7bbe a7ad 5a3e 3b8a 3ebd
00000220: b74d 8ebe a1be da3c f3af 9d3e 6a60 9e3e
00000230: 893d e1bd 78ee 0cbe f78a 5fbe 716f 23bf
00000240: 5270 253e 951d dfbe be1e b03c a798 8abd
00000250: bdd1 d83d 7350 f7be f243 8dbe eaa6 a53e
00000260: e020 41be e249 62be e636 88bd a74b 813e
00000270: 2c46 833d 5850 d3bd ab63 8fbe fb7f 63be
00000280: 0ca1 22bf b346 f2bd 4576 d9be 67d4 8c3e
00000290: 9292 c33d 8b24 73be b4e4 953d 3681 213f
000002a0: e67c 453e 861b 9b3d 0292 82bd a40c d63d
000002b0: d41a b7be 9182 09be f936 833e ea07 bebe
000002c0: a08e 283e 3ba5 a9be 6d4a 953d a8f0 483d
000002d0: 274e c2be 3539 a43d 74c3 58be f98b b3bc
000002e0: 5059 3bbe 4b39 943e d795 9c3e 79fc e9be
000002f0: ad38 c23e 9ea6 18bf a105 acbe 688c a3bc
00000300: 353f 143e cd45 3bbc fb2f 39be 5939 69bc
00000310: 02d0 623e 7e91 763e 5741 9a3c 2592 8fbe
00000320: 5648 fbbd debf 7b3d 6102 963d 2e28 843d
00000330: f7eb afbd 820b 1ebf d6df 7c3d bfe6 693d
00000340: 1ef5 3dbf 2da9 ca3d b5c4 d63d adaa 643d
00000350: a66f 49be 2ead 7abe ed8b f0bd 3a51 363e
00000360: 0ff4 a3bc 563e 18be 434d 4e3e 9d7d 3b3e
00000370: 90c5 b83b d59b cebd 053a 283e 8da7 4a3e
00000380: 0bbf a73d 0b82 003e 350f 3f3e d294 3e3e
00000390: 79da 25bb 4d44 903d a5c9 69be d329 5ebd
000003a0: b4f5 9a3d bcdd 373e bbe0 e53d 5fab d0bd
000003b0: ee36 ffbd 7fa0 7fbe 719a ac3e c418 843e
000003c0: c3f0 cfbe fdf2 1e3e 781b ec3d 1ace a33d
000003d0: d29e 05be af3d db3c 262f 003e d1e9 c2bd
000003e0: 3331 a0be 1adc 363e 8d60 4dbe fcc3 373e
000003f0: 6839 85be ba27 2e3e 0b89 613e 807e 123e
