models/demo_models/lying_down_back_model.tflite (tflite, 463556 bytes, 12 tensors)

sequential_5/conv1d_20/BiasAdd/ReadVariableOp f4 [32]
00000000: 0cc5 60bd deef 833d 577b a93c a8d0 67be
00000010: f76e 35be 5d13 e7bd c1bb 70bc 4940 ec3b
00000020: 20e5 5c3d 3ff7 4fba e981 403d 8cfb 41bd
00000030: 1eaa e0bc 858d bcbd 3577 d3bd bb52 03bc
00000040: f0fa c1bd 48e7 b7bd 044f 53be 3e23 733d
00000050: 7172 5d3d 8e44 f8bd 9595 b4be c06c 03bd
00000060: 1027 80bd c000 33bd 96c3 d43d 9367 a73b
00000070: 2cd7 6abf ce10 4cbe c99a 83bd 3d6d 49bc
-0.05487542 0.064422354 0.020688696 -0.2263819 -0.17718111 -0.1128299 -0.0146932015 0.007209812
0.053929448 -0.0007933266 0.046998892 -0.047359034 -0.027424868 -0.0920668 -0.10325471 -0.00801533
-0.09471691 -0.0897966 -0.20635611 0.05935978 0.054064218 -0.12122451 -0.35270372 -0.032086134
-0.062574506 -0.043701887 0.103888676 0.0051087826 -0.91734576 -0.19928285 -0.06426007 -0.012294111

sequential_5/conv1d_21/BiasAdd/ReadVariableOp f4 [64]
00000000: 5c8a 33be f312 bebd cf69 27bd 5717 09bb
00000010: 07a3 27bd 3635 02be 5060 91bd 5bd6 2dbd
00000020: 1f7d c6bd f5d6 1ebc 2d32 77bd 19ca 74bd
00000030: 1a85 5dbc 8412 d8bd 54c6 97bd 4ebb cfbd
00000040: 1526 873c c02c 9fbd ff4e 69bd 952d c0bd
00000050: 4d0f f1bd 62cf 982a 30b4 71bd 383d 58bd
00000060: 59c2 3ebd eb32 0e3d 6aa3 84bd 4e25 5ebd
00000070: 64d4 8cbc 4974 0ebe 0000 0000 568e c2bd
00000080: 0314 bfbb 074e 86bd 9d5d 20bd 8bad afbd
00000090: 35ac c5bc 10cd 75bd d9d6 b5bd a02b 12bd
000000a0: 10b5 82bd 7f08 90bd 5781 47bb 44ee 95bd
000000b0: 7277 5fbd 0bdf 57bd 1523 073c 7f0b 35bd
000000c0: f4ad 333e c709 13bd 0fb3 00bd bfaf debc
000000d0: 5d12 b1bd cce7 8abd 6080 89bd 28f5 a3bd
000000e0: 0123 cbbd 5814 b6bd a427 96bc 6f7b 0bbd
000000f0: 0c69 9fbc 4f35 80bd 4c34 c0bd 80e6 dabd
-0.17533249 -0.09280958 -0.04087239 -0.0020918453 -0.04092696 -0.12715611 -0.07098448 -0.042440753
-0.09691834 -0.009694804 -0.060350586 -0.059763048 -0.013520503 -0.105504066 -0.07410875 -0.101431474
0.016497651 -0.07772207 -0.056960102 -0.09383694 -0.117704965 2.7144525e-13 -0.05900973 -0.052792758
-0.046572063 0.034716528 -0.06476481 -0.054234795 -0.01719112 -0.13911547 0.0 -0.09499805
-0.005831243 -0.06557851 -0.039151777 -0.085780226 -0.024129966 -0.060010016 -0.088788696 -0.035686135
-0.06382191 -0.070328705 -0.0030442083 -0.07320836 -0.05455727 -0.052702945 0.00824811 -0.044200417
0.17546827 -0.035897996 -0.031420764 -0.027183412 -0.08646081 -0.06782493 -0.06713939 -0.08005744
-0.09918786 -0.08890599 -0.018329449 -0.034053262 -0.01945927 -0.06260168 -0.09384975 -0.10688496

sequential_5/conv1d_22/BiasAdd/ReadVariableOp f4 [128]
00000000: f662 aebd 2e09 f3bd ff92 5bbd e78e f5bc
00000010: d455 55be 6991 fdbd 1a5c eabc 49ba c8bd
00000020: 19eb 26be 18b7 06be ecec 00be 144f 17be
00000030: 8fff 1cbe 5160 6ebe 8116 0abe 1ba2 05be
00000040: 4915 89bd 6466 cfbd 5b90 7dbd d38e ddbd
00000050: 9fea c0bd 08ed 06be 0706 1ebe 31df bcbd
00000060: 1e56 3cbd 977f e0bd 5c59 5abe d8a5 7cbd
00000070: 8181 0cbe 0e1e d7bd f777 bdbd ba87 d1bd
00000080: e5de c3bd 70ac d7bd bd7b 14be d82a e3bd
00000090: 01c1 05be ab87 f2bd 3364 aabd fa29 febd
000000a0: 1958 30be d86c 1abe 4bfa e7bd 6935 c4bd
000000b0: 4639 22be 5ea0 803d 42a2 0bbe 198b 26be
000000c0: 40ea ffbd 8e2b fa3b c7e4 45bd ac51 b4bd
000000d0: e243 05be 3360 a8bd 20c1 eabd ee29 12be
000000e0: 6ea5 21be f3ad c7bd 4427 d5bd 7834 1ebd
000000f0: 311b 87bd 2b26 bdbd e54b 49bd 15d9 2fbe
00000100: e5f4 72be cacd a0bd 9cf9 3bbd 786c e2bd
00000110: 7ac2 e3bc 9779 2cbe 168d f6bd c9ea f6bd
00000120: a386 3fbe e955 4cbd 0b98 adbd 88b5 22be
00000130: 13bb f8bd cfe0 49be 2c7d 66bd 80ee 70bd
00000140: 6195 29be 41d3 07be b0ef 63bd 236d 0dbd
00000150: d276 a7bd 0d08 d3bd d174 c1bd ec1e 77bc
00000160: fd67 4bbe 6dd7 fcbd e446 84bd ef82 22be
00000170: 10d4 76be 2702 16be 30ac 75be aeb8 58be
00000180: c4bb 89be 864e 82bd 48cf 2ebd 8cf4 e7bd
00000190: 3310 d0bd 840f 16be 09d3 b5bd 3483 12be
000001a0: 1c0e 06be 72b9 10bd 7b65 8abd f910 cfbd
000001b0: 708c 44bd 75b5 0abe 8fb0 94bd 97b1 9fbd
000001c0: 1c40 55be 9480 2cbe 76e7 b1bd 104f b1bd
000001d0: dc73 ecbd 309e 3dbe bff0 23bd a440 a9bd
000001e0: 05e7 65be a467 e9bd 9ac6 f8bd 724a f7bd
000001f0: 7ff0 b6bb 40fa cbbd 71b1 a4bd 5ed7 62bd
-0.08514969 -0.11866985 -0.053606983 -0.029975368 -0.20833522 -0.123812504 -0.02860837 -0.09801156
-0.1630062 -0.13155782 -0.12590379 -0.1477626 -0.15331863 -0.2327893 -0.13485147 -0.1305012
-0.06693513 -0.10126951 -0.061905246 -0.10818257 -0.094197504 -0.13176358 -0.15431987 -0.09222258
-0.045980565 -0.10961836 -0.2132315 -0.0616816 -0.13721277 -0.10503779 -0.09251397 -0.10230966
-0.09563998 -0.10530937 -0.14500327 -0.11092156 -0.13061906 -0.11842283 -0.08319893 -0.1241035
-0.17221107 -0.15080583 -0.113270365 -0.095805 -0.1584216 0.062805876 -0.13636115 -0.16263999
-0.124958515 0.0076345867 -0.048313882 -0.0880464 -0.13014176 -0.082214735 -0.11462617 -0.14273807
-0.15785763 -0.09749975 -0.1040788 -0.038624257 -0.06596983 -0.092357956 -0.049144644 -0.17172654
-0.23726232 -0.07851751 -0.045892343 -0.11055845 -0.027802695 -0.16843258 -0.12038629 -0.120565005
-0.18703704 -0.049886618 -0.084762655 -0.15889561 -0.121450566 -0.19714664 -0.056271717 -0.0588212
-0.1656089 -0.1326418 -0.055648506 -0.03452791 -0.0817696 -0.1030427 -0.09446109 -0.015083056
-0.19863887 -0.12345777 -0.06458834 -0.1587026 -0.24104333 -0.14649259 -0.23991466 -0.211642
-0.26901066 -0.063626334 -0.042678148 -0.113259405 -0.1015934 -0.14654356 -0.088781424 -0.14307863
-0.1309132 -0.035333104 -0.06757637 -0.10110659 -0.047985494 -0.13545783 -0.072602384 -0.077975444
-0.20825237 -0.16845924 -0.08686726 -0.08657658 -0.11545536 -0.18517375 -0.040024515 -0.08264282
-0.22451408 -0.11396721 -0.12147255 -0.12074746 -0.0055828686 -0.09959841 -0.08041657 -0.05538117

sequential_5/conv1d_23/BiasAdd/ReadVariableOp f4 [128]
00000000: 00db aa3d f755 08be bab5 53bd 087f 9abd
00000010: 9d28 39bd 68f0 14bd 8715 5abd d246 bfbc
00000020: a916 40bd 83f8 52bd 7f1f d6bd 7c32 edbd
00000030: 229a 7b3d 91b3 e8bd d990 82bd 1e96 50bd
00000040: 86f0 d73d 4e23 90bc f7d8 23bb d004 c5bd
00000050: e18d 8bbd 8e97 9cbd b8b2 7cbe 6bba d9bb
00000060: d884 b6bd 6b15 14be c67a 78be a735 49be
00000070: 61bc adbd 4082 0fbe 6d9e 18be 845e 63bd
00000080: ff5c a8bd 4013 0ebe 30e9 bcbd d6e1 e5bc
00000090: 6cfd 68be 3d44 d5bd 1649 383d 9e24 27bc
000000a0: 12c2 87bc 6914 6fbd 3f35 8bbd 2aaa c4bd
000000b0: 30ba 51bd 62e1 a43d 7c6e aebb 1a41 37be
000000c0: f71b 8dbd 14bd 49be 0e1f 9cbe 939c e5bd
000000d0: 7179 c5bd ec34 a4bc cdad 68bd aa42 68be
000000e0: 1a26 1cbd bbf0 cbbd 44a2 8bbc 94ff 22be
000000f0: 1c7d b0bd d5af a93d 60e0 babd 6904 6dbd
00000100: 08b2 24be 3053 07bc 902c e5bd ddba 5dbe
00000110: 7b48 b3bd cb59 08be 1f5f 13be a9c1 dcbd
00000120: fa87 abbe 0e9d f0bd 1468 3cbd b7e4 9cbd
00000130: 68f3 e0ba eee8 e0bb 6f25 95bd 8cc0 b0be
00000140: 41bf 06be b02b 05bd 1c2e abbd 9ec5 34bd
00000150: 22ba cbbd 1506 04bd 5cd6 82be cfe0 b7bd
00000160: c519 3dbc 5c63 ecbd 3eb0 07be c919 90bd
00000170: 31a7 75bd cf78 71bd 24b9 b7bd 9962 2abe
00000180: f680 b6ba fcfc 483d 1da4 bcbc 04d9 0ebd
00000190: 6582 9fbd b7ac 88bd 0139 7d3d 30bd 62bd
000001a0: c8d8 37be 86ce 0abe c6f0 24be 4491 bcbd
000001b0: 23d0 a0bd 9ea7 c3bd 1ecd 50bd 0a5f e4bd
000001c0: cbb4 d0bd c396 b2bd e912 c4bd ffa1 2bbe
000001d0: d14c dfbe 4ffc 75be 8864 e3bd c9c5 09be
000001e0: c8ff 49bc 6b04 9fbd 4391 9dbd c76d d83d
000001f0: bce2 b3bc 03ae 2abe 07b3 c73d e740 d93d
0.08342552 -0.13314043 -0.05168698 -0.075437605 -0.045204747 -0.03636208 -0.053243186 -0.0233492
-0.04689661 -0.05150653 -0.10455226 -0.11581895 0.06142629 -0.113623746 -0.06375284 -0.050924413
0.10543923 -0.01759496 -0.0025001147 -0.096200585 -0.06814171 -0.07646094 -0.24677551 -0.006644537
-0.08912057 -0.14461295 -0.24265584 -0.19649373 -0.08483196 -0.1401453 -0.14904185 -0.05551006
-0.082208626 -0.13874531 -0.092241645 -0.028061789 -0.22752923 -0.10413406 0.044991575 -0.010201601
-0.016572032 -0.058369074 -0.06797265 -0.09602769 -0.051202953 0.08050801 -0.0053232294 -0.17895928
-0.068900995 -0.19701034 -0.30492443 -0.11211505 -0.09642304 -0.020044766 -0.056806374 -0.2268168
-0.038122274 -0.09958025 -0.017045148 -0.15917808 -0.08617613 0.082854904 -0.091248274 -0.057865534
-0.16083539 -0.00825958 -0.1119014 -0.21653314 -0.08754059 -0.13315503 -0.14391755 -0.10779125
-0.3350218 -0.11748706 -0.045997694 -0.076608114 -0.0017162384 -0.006863705 -0.072825305 -0.34521902
-0.13158895 -0.032512367 -0.08358404 -0.044133775 -0.099476114 -0.032232363 -0.25554168 -0.08978426
-0.0115417885 -0.11542389 -0.13250825 -0.07036168 -0.0599739 -0.058953103 -0.0897086 -0.16639175
-0.0013923931 0.04906939 -0.023027474 -0.03487493 -0.07788543 -0.06673568 0.06182194 -0.055356205
-0.17953789 -0.13555345 -0.16107473 -0.09207395 -0.07852199 -0.09553455 -0.050976865 -0.1115094
-0.101907335 -0.08720162 -0.09573919 -0.16761015 -0.43613294 -0.2402203 -0.11103159 -0.13454355
-0.012329049 -0.077645145 -0.07693722 0.10567813 -0.021958701 -0.16667943 0.09750944 0.10608082

sequential_5/conv1d_20/Conv1D f4 [32, 1, 3, 3]
00000000: 196c 953e e4fc 3cbf 9490 3bbd faac 4abe
00000010: fe85 c0be 55af e6bd f6bd 313e 7585 78bf
00000020: 5440 013e 40ab 06bf 666e c8be f04a ac3e
00000030: 0989 d2bd d5c4 c2be 853b dc3e 6d99 5b3e
00000040: e1bb a6be f631 073e 5296 703e 3659 87be
00000050: 18c0 2bbe 5677 3e3e f855 8bbe 9773 eabd
00000060: 0ef9 77bd 4027 c8be 4604 18be c4e1 843e
00000070: 91b8 af3d aaeb 19bd ac14 11be f43c 103d
00000080: 1037 4dbe e189 8a3e 71ee 813c c7f4 e4bd
00000090: 1a34 a73d 06ca 593e 28ba f7bd 748e bcbd
000000a0: 43d8 d9bc 66ac f7bd 2c3b 5abd 2d0a 42be
000000b0: a30b ec3d fedb d63d 7c4b 97bd 8f48 44bd
000000c0: bfae 2e3d 340e 893a 97b2 263d 5853 73bd
000000d0: 108b 373d bfa3 98bb 5dbc 863d 7855 72bf
000000e0: d65d c23e 7819 e23b fb5c 2cbf 5084 103e
000000f0: 2211 d73e 5410 5ebf 410e 7b3e 57bd 7c3f
00000100: 267e bbbd 8fd2 c03c 4d30 213f dce9 73be
00000110: c56e ecbd 3570 1f3f c956 1e3e 58ce b5be
00000120: 8417 96be f6a8 51bf 36f3 e83e f78e 43be
00000130: 55bd 07bd 1b0d 883e 50a5 573e cb51 af3e
00000140: 8675 c9bd 0455 46bd 9608 693d 1b44 48be
00000150: fbf8 3b3e d2b2 863e c1b6 d3be e3f7 ff3c
00000160: 7c44 cf3d abbd 5cbe b50e ba3e 3b0e 6abd
00000170: bf0e d1bd 3e3b 7d3d 7a90 913c 5b7c 883d
00000180: b0e8 dabe e270 67bf b8db da3e 6a9b bb3d
00000190: 7b54 bf3d 0c82 d2bd 2261 d63d 9cc2 86be
000001a0: c53d c5be 93d5 58be f13b 86be 0c3a 44be
000001b0: 0d7e 383d 45f7 c5bc 868a 1ebe 4653 cbbd
000001c0: 43bd b23d c6b6 25bd 5b03 99bc 4b98 503e
000001d0: c3af 39be 9828 4e3d e5a4 8e3d 387d 14bd
000001e0: 8028 c73b ac07 5ebd 2fe1 fabd 0e4d 4e3d
000001f0: 93e5 1a3e 845f 94bd bb80 97bf 34fc 39be
00000200: 027c f43e fb71 49bf ed7f a2be 1433 623f
00000210: 1095 9ebe d7fe 62bf eca8 373f dfac d6bd
00000220: 4a51 063e fc01 af3c 602e 713c b335 543e
00000230: 5ea3 9fbe 5ae2 613d 3626 b1bd 9138 19be
00000240: 99d1 c43d 7daa 8abe 3180 86be 381c f5bd
00000250: 4910 86be fbcb 8dbe 2ad5 f83d 9510 c13d
00000260: 0225 6f3d 3c05 fb3d e083 c9be f9a0 8b3d
00000270: 8ec3 8dbe dc18 cdbe 9a3c 09be fd9b dbbd
00000280: 872e 06bf 9ab2 a53e 8869 333e ef43 833d
00000290: 5a91 7c3d c844 9f3c 33f5 033e 72ec 57be
000002a0: 874c fabd b8cc 3ebe 0616 aa3d f199 103e
000002b0: 3497 943d 33cc 04be 057a 91bd a9dc cb3c
000002c0: 33e8 95be 5a99 d73c e79c 3a3d bfb5 b4be
000002d0: 119e dbbe 9671 edbe 59b9 9e3e 74b0 ab3a
000002e0: 48cd c1be 40fb cb3e 9765 a63d c484 f9bd
000002f0: 94ba 293e c699 f2bd ff02 3cbe aa4b ebbc
00000300: 5ae0 0f3e 093d 2abd f83d b93d d7eb 4a3d
00000310: 267f 5ebd f289 ccbd 7370 6dbf 0e09 3bbd
00000320: bde5 92be a2e5 35bf b799 00be d010 c0bd
00000330: 50a0 06bf d3c9 1ebf 1fa3 1e3d 1ea9 5d3f
00000340: bcba b7ba 06ff 5fbc 63b8 753f 93e4 f03d
00000350: 7578 d83c aad1 ef3e 503a 15be 9325 03be
00000360: 2313 1abd b059 adbe adc4 00be 2a5c 253e
00000370: 88e8 afbe 8491 28be 603b 8f3e b484 b9be
00000380: 419e 51bd 89ad 87bc 9a59 12be f700 b3bc
00000390: d062 203e 5f56 02be 5730 8fbe d6af f1bd
000003a0: 2ab4 97bd 2989 eabb 2d1a 933e 27c3 f23d
000003b0: bdcf cdbe dfff 8abd 85b9 a43e 6599 8ebe
000003c0: 49bd 803d bb07 c9bd 2df2 c5be 36e1 403e
000003d0: b75b ddba b6c0 afbd 10fc 85be 46f0 213e
000003e0: a957 8ebe 7117 9c3d 2d53 663d e246 9fbe
000003f0: 3309 b3bf bc18 d6bd 9033 8b3e ff30 9cbf
0.29184034 -0.7382338 -0.045792177 -0.19792548 -0.37602228 -0.11263911 0.1735762 -0.9707864
0.12622195 -0.52605057 -0.39146727 0.33650923 -0.10280044 -0.38040796 0.4301416 0.21445246
-0.32565215 0.13202652 0.23494843 -0.2643525 -0.16772497 0.1860021 -0.27214026 -0.11447828
-0.06054025 -0.39092445 -0.1484538 0.25953496 0.08580125 -0.037578262 -0.14168042 0.03521438
-0.20040536 0.27058318 0.015860768 -0.111795 0.081642345 0.21268472 -0.12096053 -0.09206858
-0.02659238 -0.12093429 -0.053279087 -0.18949194 0.11525657 0.10491179 -0.073874444 -0.04792076
0.04264712 0.0010456503 0.04069766 -0.059405655 0.044810355 -0.004658192 0.06578896 -0.94661665
0.37962216 0.006900009 -0.67329377 0.14112973 0.4200526 -0.86743665 0.24517156 0.9872641
-0.0915492 0.023537902 0.62964326 -0.23819679 -0.11544565 0.6228059 0.15462793 -0.3550899
-0.29314816 -0.8189844 0.45498055 -0.19097506 -0.033139545 0.265725 0.21059155 0.3424209
-0.09836869 -0.04842092 0.056892954 -0.1955723 0.18356697 0.26308304 -0.41350368 0.031246131
0.10120484 -0.21556728 0.36339346 -0.057142477 -0.10207891 0.061824076 0.017769087 0.06664344
-0.4275565 -0.9040662 0.42745757 0.09160502 0.09342285 -0.10278711 0.10467745 -0.2632035
-0.3852369 -0.21175222 -0.26217607 -0.19162768 0.045042086 -0.024165759 -0.1548253 -0.099279925
0.08727505 -0.04045751 -0.018678358 0.20370595 -0.18133454 0.050331682 0.06965045 -0.03625223
0.006077826 -0.054206535 -0.122499816 0.050366454 0.15126638 -0.07244781 -1.183616 -0.18162614
0.4775086 -0.78689545 -0.31738225 0.8835919 -0.309731 -0.88670105 0.7174213 -0.10482191
0.13116947 0.02136325 0.014720529 0.2072361 -0.31179327 0.055147506 -0.08649866 -0.14962985
0.0961029 -0.27083197 -0.26269677 -0.11968273 -0.261843 -0.27694687 0.12150033 0.09426991
0.058384903 0.12256858 -0.39358425 0.068178125 -0.2768826 -0.4005803 -0.13402024 -0.10723112
-0.52414745 0.32362825 0.17520726 0.06409442 0.061662056 0.019441977 0.12886505 -0.2108629
-0.12221628 -0.18632782 0.08304982 0.14121224 0.07255402 -0.12968521 -0.071033515 0.024885492
-0.29278716 0.02631824 0.04555979 -0.3529491 -0.42894033 -0.46375722 0.31000784 0.0013098852
-0.3785193 0.39840126 0.081248455 -0.12183526 0.1657508 -0.11845736 -0.18360518 -0.028722603
0.14050427 -0.041562114 0.09045023 0.04954132 -0.054320477 -0.099872485 -0.9274971 -0.045662932
-0.286909 -0.71053517 -0.12558638 -0.09378207 -0.5258837 -0.6202671 0.038729783 0.8658618
-0.0014017443 -0.013671642 0.95984477 0.11762347 0.026424626 0.46839648 -0.14573026 -0.12807302
-0.037615906 -0.3385749 -0.12575026 0.16148439 -0.34357095 -0.1646176 0.27974987 -0.36234057
-0.051176313 -0.01656224 -0.14291993 -0.021851046 0.15662694 -0.1272826 -0.27966568 -0.11801116
-0.074074104 -0.007157464 0.28730908 0.118536286 -0.40197554 -0.06787085 0.3217279 -0.27851406
0.06286103 -0.098159276 -0.38661328 0.18835911 -0.0016888295 -0.085816786 -0.2616887 0.15814313
-0.27801254 0.076216586 0.056231666 -0.31108767 -1.3987182 -0.104539365 0.27187777 -1.2202452

sequential_5/conv1d_21/Conv1D f4 [64, 1, 3, 32]
00000000: a918 f23d 115a b5bd dafd 013e fc8e cb3d
00000010: 28a0 0d3e bbaa 9f3c bcb4 143d 27bd 5c3e
00000020: 2008 8cbe 843d 06bc 27e9 11be 6ecf b23d
00000030: 15dd 913e 6aa6 2dbd e898 46be 0c5b b3b8
00000040: 21ef 723d 4dc5 a53d dfe2 b8bd ee48 f73d
00000050: a20d de3b c307 80bd 22f3 e4bc b4ec a7bd
00000060: c9b8 97bd 9f2e febc 9500 073e a271 123e
00000070: a1df 98be 8225 1e3e 4106 4c3c dc81 db3d
00000080: 3856 d9bd 4962 0cbe 92b2 1e3d ccdd 413d
00000090: 7fee dc3d 3550 5c3c a61f 61bd 3701 0a3e
000000a0: 128a ecbd acc1 d03d abfb 933c a856 c13c
000000b0: 17a5 b03d 8856 49bb 7022 28be 2de4 3c3d
000000c0: 0c61 3f3d 37d4 253e 68ba 6d3d 2ff3 143e
000000d0: 68c6 41be e287 67bd 9c0c 34be 451e eb3c
000000e0: e4d6 ac3c 55ad 1a3d 20c2 8c3e 30a6 4f3e
000000f0: f512 1abe c7ba 313e 3b8b 75bd a0ff d0bb
00000100: 6636 e9bb 1cd0 3abe b3ee 183e cbd2 ad3d
00000110: 3966 53bd c3d2 393d fa83 46be ea5b 603d
00000120: d384 94be 1c1c 0d3e 2792 1d3d de75 c7bd
00000130: 9d35 a33c 61d6 06bd 27d0 9ebd 09d4 c13d
00000140: 548d 5c3e 5b6c 713e 979c e3bc 9b72 ff3d
00000150: 5627 78be 54df 07be 3c8e 87be fb15 16be
00000160: c4bc b63d 4350 58bd 102b ae3d a50e 6c3e
00000170: b138 bcbd ae5e ef3d b122 97be 4e43 22bd
00000180: 2efd b43b 89da 203c d871 c8bd e09b eeba
00000190: 1f2b f3bd 32aa 57be 07f3 1ebe f9c7 803d
000001a0: 1d98 5ebe be6d 60be 6463 6f3c 17eb b9bd
000001b0: 8ba0 99bd cea6 973d e343 b5bb c4d1 23bd
000001c0: 9193 203e c5a4 1cbb 964c 72bd f0d9 763c
000001d0: fed4 a33d 6848 a73c 0f84 e1bd ecba c23c
000001e0: 93c0 9c3c 1ba3 b93d d0d5 8f3c ef83 5b3d
000001f0: 19b4 2cbe f0b3 88bd c167 22be 90b1 c33d
00000200: e3fc 263c cf94 2ebd 749c ff3b 1a38 30bd
00000210: 3114 613d 9419 36be 42b9 8a3c f672 a0bd
00000220: 2b3b 1abe b2ff 76bc 0036 483d 3538 413d
00000230: acc6 5fbd 5059 dfbd 9f76 ca3c 6aaa c5bd
00000240: 7f9b ef3d 107f 923d b904 e13d 8892 abbd
00000250: 76d8 b2bd ca85 a3bc 22c5 9cbd 9edf 0cbe
00000260: 656b 1fbd 6409 953d 0b69 20be 0a46 9e3d
00000270: 077e 8bbc ed73 aebd 8fe0 b73b 9cec 073e
00000280: caf9 5fbd 8385 96bd 62f8 e43d 9b14 85bd
00000290: 35d5 4e3d 972c f73c 6c92 23be 75db dd3d
000002a0: 34f4 43be 4738 fdbd 8571 bd3d f035 3abd
000002b0: d7af c4bd dd01 c0bd 0d31 1dbe bd5a 9dbd
000002c0: ffa7 e03b 4c98 5a3d 67af 6e3d ee59 f8bb
000002d0: 5e30 673d 3626 a13d b449 e7bd 83ce cb3c
000002e0: 7d61 c4bd 7037 b83d b405 8bbc 0e1c 59bd
000002f0: 3b1c a5bd 0ed9 97bc fb84 07be 0bc6 11be
00000300: 5d35 0c3e 9a01 9abc 4c4c b63b ae49 5bbd
00000310: dfa9 17be 7fbc 143d 6850 5a3d efe4 69bc
00000320: 48bf 18be 582f fcbd 657b b83d 6f00 603c
00000330: 45cc c33c 8289 0ebd a713 69bd 422e cebc
00000340: 0c68 db3c 5c0f 13bd e9fd 3d3d a4fd 3b3d
00000350: 829a cf3d 6448 d63c 8272 8abc c121 fd3b
00000360: 680f e13d eb91 cdbd e89d 6f3d 0432 cdbd
00000370: ab43 29be 1ff9 e23c 7c36 c73b 7b0e 9d3b
00000380: 426c 363b b66f 81bd 344b ca3d 5c9e f2bc
00000390: 619d 2cbe 26d2 8b3d 6ddd 8d3d a274 313d
000003a0: aa77 323c 764c 143d 8f01 f0bc b30a 4c3d
000003b0: f409 8f3d 938c 1fbe d3a4 23be f7c2 d1bc
000003c0: bd62 f33d 7e3b 50bd 7251 19be 8253 133d
000003d0: 1b58 053c a8bd 0fbe 77b5 15be e5bf 2fbc
000003e0: f5b3 583c cffa 11be 89c2 2cbd 1b63 c53d
000003f0: 59a0 14be d2b7 37be 2822 0dbe 1aa2 2c3d
0.1182111 -0.088550694 0.12694493 0.099393815 0.13830626 0.01949059 0.036305174 0.21556531
-0.2734995 -0.008193377 -0.14249097 0.0873097 0.28488985 -0.042395033 -0.19394267 -8.552344e-05
0.059310082 0.08094273 -0.09027647 0.12074457 0.0067765275 -0.062514804 -0.027947966 -0.081994444
-0.07408292 -0.03102809 0.13183816 0.1430116 -0.29858115 0.15443996 0.012452663 0.10718128
-0.10612148 -0.13709368 0.038744517 0.047330663 0.10787677 0.013446857 -0.054961823 0.13477026
-0.11549772 0.1019319 0.01806434 0.023600891 0.086252384 -0.0030721743 -0.16419387 0.046116043
0.04672341 0.16194235 0.0580391 0.14545892 -0.18923342 -0.056526072 -0.17582935 0.028700957
0.021098562 0.03776296 0.27491856 0.20278239 -0.15046294 0.17356406 -0.059947234 -0.006378129
-0.0071170805 -0.1824345 0.14934807 0.08487471 -0.05161116 0.045367014 -0.19386283 0.054775156
-0.29007587 0.13780254 0.03846946 -0.09739278 0.019923026 -0.03291929 -0.07754546 0.094642706
0.21538287 0.2357649 -0.027784629 0.12473031 -0.24233755 -0.13268787 -0.26475704 -0.14656822
0.08922723 -0.05281092 0.08504307 0.23052461 -0.091905005 0.116879806 -0.29518655 -0.039614968
0.0055233454 0.009817728 -0.09787339 -0.0018204413 -0.11873459 -0.21061018 -0.15522395 0.06288142
-0.21737714 -0.21916863 0.014611099 -0.09078043 -0.07501324 0.07404862 -0.0055317744 -0.03999497
0.15681292 -0.0023901921 -0.05915507 0.015066609 0.079996094 0.020420268 -0.11011516 0.023770772
0.019134795 0.09064313 0.017558008 0.05359262 -0.16865577 -0.06674945 -0.15859891 0.09555352
0.010192129 -0.042622384 0.007800633 -0.043022253 0.054950897 -0.17783195 0.016934041 -0.07834427
-0.15061633 -0.015075611 0.048879623 0.047172744 -0.054632828 -0.10905707 0.024714766 -0.096516445
0.116995804 0.071531415 0.10987229 -0.08377558 -0.08732693 -0.019961257 -0.076547876 -0.13757178
-0.03892078 0.07277182 -0.1566507 0.07728203 -0.017027868 -0.08518205 0.0056114863 0.13273853
-0.054681577 -0.07349684 0.11180188 -0.06498071 0.0504963 0.03017263 -0.15973824 0.10832874
-0.19136125 -0.1236425 0.09250168 -0.045461595 -0.09603851 -0.093753554 -0.15350743 -0.076833226
0.006855964 0.053367898 0.058272745 -0.00757908 0.05644261 0.07868616 -0.11293355 0.024878746
-0.09588907 0.08994949 -0.016970493 -0.05300527 -0.08062025 -0.018536117 -0.13234322 -0.14235704
0.13692231 -0.018799592 0.0055632945 -0.053537063 -0.14810894 0.036312576 0.053299338 -0.014275773
-0.14916718 -0.123137176 0.09007911 0.013671978 0.023901114 -0.034799106 -0.056903508 -0.025168542
0.026783012 -0.03590332 0.046384726 0.045896187 0.10136892 0.026157565 -0.016900305 0.007724971
0.10989267 -0.10037597 0.0585002 -0.10019305 -0.1652972 0.02770668 0.006079493 0.004792986
0.0027835523 -0.06320135 0.09877625 -0.029616527 -0.1685691 0.06827192 0.06926999 0.04332412
0.010892788 0.03620573 -0.029297618 0.04981489 0.0698432 -0.15580969 -0.15980844 -0.025605662
0.11884067 -0.050837986 -0.14972475 0.03596831 0.008138682 -0.14037192 -0.14620005 -0.010726904
0.013226499 -0.14255832 -0.04217771 0.096380435 -0.14514293 -0.17941216 -0.13782561 0.04214678

sequential_5/conv1d_22/Conv1D f4 [128, 1, 3, 64]
00000000: 0cd5 3f3e 5f79 fdbd 99e9 e3bd 6264 e2bd
00000010: e6c7 7ebc 7da3 52bd 2ce0 743d 0e7a 54bd
00000020: b66b 5c3e 0353 963d 7789 013d 08a0 833c
00000030: f5b8 8fbd eeaf a9bc ee87 72bd 6f13 bdbd
00000040: 15cf 86bd 2c2f c8bd d50f 8abd 8d8d 77bd
00000050: 7cb0 3abd 1340 3ebd 9605 f43c aed7 143d
00000060: 7a29 ac3c 05db 8d3d 42a8 9d3c b10b a8bd
00000070: 8f80 26be 992e 5fbd 748d ab3d 3799 73bd
00000080: 40a2 9dbd 0e05 f83d a2aa 033c 45f9 ddbd
00000090: e934 44bd f9fa 903d 2df0 fabd c413 803d
000000a0: 8e53 953b c704 51bd abb2 583c 83a0 7cbd
000000b0: b31d 0bbd b81e 173c dbf3 69bc 5913 8b3d
000000c0: 3419 6f3c f52f 223d b6ea 83bd b8be 0f3d
000000d0: 58c0 ad3d fe1e 353c 4b1b 8d3d fb38 013d
000000e0: 2f76 6f3d 257d b3bd e47f c0b8 1a1b 43bd
000000f0: 24e3 c53c 09a3 14bd 2f10 cd3c 8efb 1fbe
00000100: b39e 433e c946 2fbe da59 eabc 1856 843d
00000110: cabb 1f3c 6618 2a3d fd4d 81bb 9676 4bbd
00000120: daa5 503e 74f4 043d f455 92bd 3691 a23b
00000130: 5bfa eb3d c58a 94bd 99e2 10be 4ac9 fabd
00000140: 4557 e4bd 9e25 58bd d8a3 b2bd cd76 a93d
00000150: bd92 88bd 2ac6 943d cf94 333c a287 d53d
00000160: 15e5 713c 69e9 b6bd 0148 82bd aa00 debd
00000170: 288f f63c d9b5 1bbd 6048 adbd a009 2b3d
00000180: ef1b 523d afa5 013e b123 9cbd 87b7 103d
00000190: 2c5f 5f3d 6d48 4e3d d598 bdbd 16a1 9abd
000001a0: ab9c e9bd ec02 87bd 0760 03be 06b9 1abe
000001b0: 8cf2 c9bd 88e3 62bc faad 56bd a0de df3c
000001c0: 5d19 f1bd 9136 b6bc 4c5f 803d d64d b93c
000001d0: 4307 ba3d 8e48 bebd e874 693e f8a9 c8bd
000001e0: bbd6 813d 6a62 c4bc 6981 7abd 1391 2c3c
000001f0: a21b 99bd 5a33 0f3e bb0a 47bd 5bf6 2b3d
00000200: 89ff df3d dae6 4cbd 13d0 b2bc 28c1 60bd
00000210: 5ae0 0d3d 164d 073d 3ec3 1fbc 6700 b9bd
00000220: 3fc4 653d 7b16 ca3c 315c 93bd a636 a7bd
00000230: ed42 1b3c 3aa7 ecbd f204 22bd 5690 44be
00000240: d47b a93d 0c32 9abd cb19 85bd 090c 74bd
00000250: ac19 8d3d d40a 683d cd9e b63c 53f5 833d
00000260: 2cd9 e2bd 3b8f 8c3d 33fd a53c 0536 273d
00000270: ff2a a5bc b609 203d 4439 86bd 40bb 67bd
00000280: bb67 bd3d 8c98 08bd cc1b acbd c496 fabd
00000290: d3f7 aabd 8c6b b03d 73c1 03bc 0403 aabd
000002a0: 5535 cdbd 78b6 6bbe 5fef 233c 87da 8a3a
000002b0: a345 23be 8e61 cabd 1c02 6fbd b8fe 933c
000002c0: 9e47 febd f65a 49bd cc56 373d 1a0d 88bc
000002d0: 8d8e 463d 45a1 4dbd 2b5d ec3d 064e 09be
000002e0: 2321 563d bf3f c0bd ad60 46bc b9b1 923d
000002f0: a2e1 bf3d 56ee c13d e238 aebd 76d4 33bd
00000300: 9dac 8e3d bb34 1a3d 75cd 7bbd 5894 9dbd
00000310: 9b78 a03d 3f0e e6bd e288 d23d 1dfe dcbd
00000320: 8c0d 01be 91f8 b8bd 890a 3d3d 48d3 11be
00000330: ba1f c43d 6186 87bc 505b 45bd f92f 22be
00000340: 877b c7bd b5af debd df2a 663d 2db4 abbc
00000350: 7487 db39 f13f a9bd 4c26 d03c 5c68 bb3d
00000360: 0504 f9bc 9384 e2bd 3e0a bbbd fd90 893d
00000370: 0724 cfbd ef61 803d 6624 1fbd 60de bfbd
00000380: 722a 3bbd cbfa 483d eee9 b43d d2ff 9ebd
00000390: 2ca8 64bc 057c 113d 3f86 b33d b3a0 0d3d
000003a0: c40c 8ebd 6478 94bc 961a ac3d 801f 5c3d
000003b0: 810f 9abd 5153 dfbc 4d64 453d 224b 363d
000003c0: 81dc 9f3b c72d bcbc 7832 40bd f877 633c
000003d0: 4ee5 8a3c f6e4 7e3d c2c0 d03c f301 b53d
000003e0: 07be 15bd c7ca b0bc ecdc 82bc ba5d 563d
000003f0: ea6b 303d eb01 233d 41a4 09bd a3c6 d5bc
0.18733615 -0.12376665 -0.111285396 -0.11054303 -0.015550589 -0.051425446 0.0597841 -0.051874213
0.21525463 0.07340052 0.031625237 0.01606752 -0.070177 -0.020713773 -0.059211664 -0.09232222
-0.065824665 -0.09774622 -0.06741301 -0.060437728 -0.045578465 -0.046447825 0.02978782 0.0363385
0.021015871 0.0692654 0.01924527 -0.08205355 -0.16259979 -0.0544878 0.083765894 -0.05947229
-0.07696962 0.12110339 0.0080362875 -0.1083856 -0.04790202 0.07079119 -0.12252841 0.0625377
0.0045570796 -0.051029947 0.0132261915 -0.061676513 -0.03396387 0.0092236325 -0.014279331 0.067908
0.014593411 0.039596517 -0.06441252 0.035093993 0.08483952 0.011054752 0.06889971 0.03154848
0.058462318 -0.08764104 -9.179095e-05 -0.047633268 0.02415616 -0.036288295 0.025032131 -0.15623304
0.19103508 -0.17116846 -0.028607298 0.064617336 0.009749362 0.041527174 -0.0039460645 -0.04967364
0.20375767 0.03245969 -0.071453005 0.004961158 0.11522361 -0.07253031 -0.1414894 -0.12245424
-0.11149458 -0.05277025 -0.08722657 0.082746126 -0.06668613 0.07264359 0.010960772 0.104262605
0.01476409 -0.08931238 -0.0636139 -0.108399704 0.03009756 -0.03801522 -0.0846107 0.041757226
0.05129617 0.1266086 -0.07623995 0.035331275 0.054534122 0.05036204 -0.09257666 -0.07550256
-0.11406835 -0.06592354 -0.128296 -0.15109643 -0.09860715 -0.013848193 -0.05241201 0.027327836
-0.11772416 -0.022242816 0.062681764 0.022620123 0.09083416 -0.092911825 0.22798502 -0.09798044
0.06339785 -0.023972709 -0.06115857 0.010532635 -0.07475974 0.13984433 -0.048594218 0.04198299
0.10937411 -0.050024845 -0.021827733 -0.05487171 0.034637786 0.0330325 -0.009751139 -0.0903328
0.056095358 0.024668923 -0.071953185 -0.0816472 0.009476406 -0.115553334 -0.039555497 -0.19195685
0.082755715 -0.07529077 -0.0649906 -0.05958179 0.06889662 0.05665095 0.022292519 0.06443276
-0.110765785 0.068632565 0.020262336 0.040823 -0.020162104 0.03907176 -0.06553891 -0.05657506
0.09248301 -0.033348605 -0.08403739 -0.122357875 -0.0834805 0.08614263 -0.008041727 -0.083013564
-0.10019938 -0.23018825 0.010005801 0.0010593691 -0.15944533 -0.09881888 -0.05835162 0.018065795
-0.12416004 -0.049159013 0.04476051 -0.01660781 0.04847579 -0.050202627 0.11541208 -0.1340867
0.052277695 -0.093871586 -0.01210801 0.07162804 0.09369208 0.09469287 -0.08506943 -0.04390379
0.06966517 0.037647944 -0.061475236 -0.0769431 0.07835504 -0.11233186 0.102800146 -0.10790656
-0.12602824 -0.09031785 0.046152625 -0.14240754 0.09576364 -0.016543569 -0.048182786 -0.15838613
-0.09740358 -0.10873357 0.05619323 -0.020959938 0.00041871856 -0.08264149 0.025408886 0.09150764
-0.030397424 -0.11060443 -0.09132813 0.067171074 -0.101142935 0.06268679 -0.03885307 -0.093685865
-0.045694776 0.0490673 0.08833681 -0.077636376 -0.013956111 0.035518665 0.0876584 0.034577083
-0.069360286 -0.018123813 0.08403508 0.05374098 -0.075224884 -0.027261408 0.048191357 0.044505246
0.004878581 -0.022971047 -0.04692313 0.013883583 0.016955044 0.062230073 0.02548254 0.088382624
-0.036558177 -0.021581067 -0.015974484 0.05233548 0.043071665 0.03979675 -0.03360391 -0.026095694

sequential_5/conv1d_23/Conv1D f4 [128, 1, 3, 128]
00000000: 1173 573e 2aa2 28bd c3e5 8abd d747 543e
00000010: 651b 513c f337 043e ccb1 0abf 1d9a 9bbd
00000020: 450e 8dbd 67c0 fe3c a369 0e3d 276f 7c3e
00000030: e049 08bc 1646 263d 6e87 22bc 47a7 2e3c
00000040: 9055 eebc 65b6 873d a11a 09bd f845 1b3d
00000050: 9c9d 013e a12c 4e3d f2a8 f53c a486 993d
00000060: bbf8 293c f383 3c3e ae8e b1bd 9986 483d
00000070: 2e85 a2bd 345f b63c 315f 1bbd 4dd2 5c3d
00000080: 600d 97bd 943a b2bc 9c25 433d 2474 b8bd
00000090: d420 0ebd 3604 083c bff9 82be cf33 b93d
000000a0: 8def 83bd ac7b 753d c739 063d 1821 173e
000000b0: ed73 873e 11f5 c3bd 9139 f8bc 9673 503d
000000c0: f067 d03d db5a 9f3d ede3 c53d a05e c33b
000000d0: 9cec b33d 9c21 08ba ab0c d73d 611d f63c
000000e0: 3244 263e b7e3 023e 83d4 e03b 62c4 82bc
000000f0: 6e00 63bd 5b2e 2dbd 38bc c7bd e886 073e
00000100: 1366 f9bc 3145 5a3d b148 84bd 4a55 2dbd
00000110: 2875 3bbe a081 4ebc 963d 933c 1c7d e43c
00000120: a811 183d 75d2 3cbd 4a3a f93b 0d5c 93bc
00000130: a124 8e3d 11c9 60be df68 573c 1a9a 99bd
00000140: ac88 833d b828 5ebc 04f2 873d dbb5 ba3c
00000150: 264e c13d 24c0 8b3d ea76 6abd 3619 fbbc
00000160: a893 00bd 71f8 753d e8ed aebc 8039 8ebd
00000170: 54ce 37bd 77a5 9ebc c3f1 f5bd d315 7f3c
00000180: a442 41be 6683 9abd 6e30 07bd 862a 323d
00000190: bb59 953c f098 bebc a7ef 023b acae a03c
000001a0: e308 1c3e fa0c 29bf d644 603d adec 963d
000001b0: 2468 22bc af32 013c e0b5 8ebd b829 243e
000001c0: 263e 85bc 8259 233e fdca f33c de7e 70bd
000001d0: 809a 9dbc 85df 923d 16e6 263c 90da e33d
000001e0: ce4b 97bd 6e89 0c3e 9129 4b3d 3a6c 93bc
000001f0: b3c6 5b3d 43a2 843d 82cb eabc f86c 9dbc
00000200: a0bf 173e 0cb4 4cbd d4a0 77bc baca d53d
00000210: ebce f83d 8044 973d fa71 95bf 0cf1 debc
00000220: 44fb b1bd a374 123e 63bf 3abd 5239 fa3d
00000230: e05d 8b3d 098f 3fbc 1d64 01bd c138 913b
00000240: e762 7dbd f69a 14bc 2d75 1fbc da9d 453d
00000250: 6528 f13d 2220 a83d 4129 903d c80e 583d
00000260: 2c9a d53d dcfb efbd c662 0dbd 089f ddbb
00000270: 8805 a6bc 9b8d acbc 4b9e c1bc f995 0c3e
00000280: d57f 28be 5272 bf3c 936c b23d 46c3 963d
00000290: 4003 ea3c 989a 9fbc 46c9 99be 2921 66ba
000002a0: 0962 aebd c748 d8bd 0644 fc3c a377 163e
000002b0: 68ce 3b3e eb9d 29be 1956 cd3c 49bb 9e3d
000002c0: bd1c d53d e40b 863c 6493 c13d 55fa 573d
000002d0: c976 1a3b c4ee 0a3e 9729 c93d aae5 ce3c
000002e0: f632 1c3e 6d72 c23d 0fc6 0e3d a503 b6bc
000002f0: 4427 0bbe 937b 6c3c da56 e0bc 70e3 e4bc
00000300: b6dd bcbd d641 a6bd fbaa 1ebc 8d7d 35bd
00000310: 6b5a 1abe 5785 e13b b305 48bd 1e5e 963d
00000320: 8dd9 9c3d 088d 42bd d75f cbb9 2846 a7bc
00000330: 5d9d d23c 347c 05be fbd2 8ebd 663e 47bc
00000340: b1f6 993d 1696 92bd c1f3 2f3d 57f4 c9bd
00000350: 7173 ecbc acde 993d 18cc 85bd e0ba 913d
00000360: 12c4 433c 4acc 0b3d 37eb 8abd 37ad 823c
00000370: 236e 34bd e39b 343d c477 a7bc 5cf7 62bd
00000380: e602 83be 260a 35bd dbd1 dcbd 3a27 4e3d
00000390: 94e4 aebd 0f7e d43c 01ca 0a3a bdd9 85bd
000003a0: 9b78 c43d 03f2 86bf e0e1 a83d 1926 90bd
000003b0: 8556 973c adb2 c63d bd84 4ebd 9182 b1bd
000003c0: e20d 803d d5fc a93d bf42 e83c 7415 9cbc
000003d0: b3d6 91bc 4017 d4bd c7eb 09bd e119 aabd
000003e0: 36dc e03c 5bae 833e 25f2 92bd 3dc8 debc
000003f0: 9ccd 80bc e3d7 e13b 249c c4bc b115 ab3d
0.21039988 -0.041170277 -0.06782105 0.2073053 0.012762879 0.12911968 -0.54177547 -0.07597754
-0.06887487 0.031097604 0.03476871 0.24651776 -0.008318394 0.040594183 -0.009919984 0.010659999
-0.029093534 0.06626586 -0.03347266 0.037908524 0.1265778 0.05033553 0.029987786 0.07496384
0.010374243 0.1840971 -0.08669792 0.048956487 -0.07935558 0.022262193 -0.03793258 0.053911496
-0.07375598 -0.021756448 0.04764329 -0.09006527 -0.034699276 0.008301785 -0.25581166 0.09043085
-0.06442175 0.059932396 0.032769945 0.14758718 0.26455632 -0.09568227 -0.030300887 0.05089148
0.101760745 0.07781001 0.09662614 0.005962208 0.08785364 -0.00051929965 0.10500463 0.030043306
0.16236952 0.12782179 0.006861271 -0.015962783 -0.05542033 -0.042280536 -0.09752697 0.13235056
-0.03044418 0.053288642 -0.06459177 -0.042317666 -0.1830641 -0.012604147 0.017973702 0.027891688
0.037126213 -0.046099145 0.0076058256 -0.01798823 0.0694058 -0.21951701 0.013147562 -0.07500096
0.064225525 -0.013559513 0.06637958 0.022791794 0.09438734 0.06823757 -0.05724231 -0.03065167
-0.031390816 0.060051385 -0.021353677 -0.06944561 -0.044874504 -0.01936601 -0.12009003 0.015569168
-0.18873078 -0.075445935 -0.03300517 0.043497585 0.018231263 -0.023266286 0.001997927 0.01961454
0.15237765 -0.66035426 0.054753147 0.07369361 -0.009912524 0.007885619 -0.06968284 0.1603154
-0.016264986 0.15952113 0.029759878 -0.05871474 -0.01923871 0.07171539 0.010186693 0.11125672
-0.073875055 0.137243 0.049600188 -0.017995942 0.05365629 0.064762615 -0.028661493 -0.019217
0.14819193 -0.049976394 -0.015114028 0.10439058 0.121488415 0.07386112 -1.1675408 -0.02721455
-0.08690503 0.14302306 -0.045592677 0.12217964 0.068050146 -0.011691817 -0.031589616 0.0044318144
-0.0618619 -0.009070149 -0.009732527 0.048246242 0.11775283 0.08209254 0.070391186 0.05274847
0.104297966 -0.1171796 -0.034518026 -0.006763343 -0.02026631 -0.021063616 -0.02363505 0.13729085
-0.16455014 0.023369942 0.08712115 0.07361464 0.028566003 -0.019482896 -0.30036372 -0.0008778745
-0.085147925 -0.10560756 0.030794155 0.14694075 0.18340456 -0.16564147 0.025065469 0.077505656
0.10405872 0.016363092 0.09451941 0.05272897 0.0023569337 0.13567644 0.09822386 0.025255997
0.15253815 0.09494481 0.034856852 -0.022218535 -0.13589197 0.014433759 -0.027385164 -0.027940482
-0.092219755 -0.08118026 -0.00968432 -0.044309188 -0.15073554 0.0068823504 -0.04883356 0.0734217
0.07658682 -0.04749778 -0.00038790583 -0.020419195 0.025709802 -0.13035661 -0.06973835 -0.012160873
0.07517756 -0.07157533 0.04295707 -0.09861057 -0.02886364 0.075131744 -0.065330684 0.07115722
0.011948602 0.034130372 -0.06783145 0.015951736 -0.044050347 0.044093978 -0.02044285 -0.05541168
-0.2558815 -0.04419913 -0.10782214 0.050330378 -0.085396916 0.025939016 0.0005294383 -0.06535671
0.09593316 -1.0542606 0.08246207 -0.070385166 0.018473873 0.097020485 -0.050419558 -0.08667482
0.06252648 0.08300177 0.02835214 -0.019053198 -0.017802572 -0.10355997 -0.03367212 -0.08305717
0.027448755 0.2571896 -0.07175092 -0.02719509 -0.015723042 0.006892191 -0.024000235 0.08353747

sequential_5/dense_11/BiasAdd/ReadVariableOp f4 [4]
00000000: a917 0cbe f944 89be bf67 bc3d 294c 603e
-0.136809 -0.26810434 0.091994755 0.21904053

sequential_5/dense_10/BiasAdd/ReadVariableOp f4 [64]
00000000: 79df ecbd 6510 9c3e dca3 473e dda7 59be
00000010: 22a5 0f3f e448 73be 2589 e53e 579a 29bd
00000020: 23ed 0f3e 5438 883e 2ffa e8bd f163 80be
00000030: a947 343c 6ef2 f8be 5e6b dabe 76ee 32be
00000040: 7163 d8be e586 a73e eb8a 463e db14 52be
00000050: 0077 c0bd cc00 f03d fe75 bf3d 214d dcbd
00000060: fe16 09be d3ff 0e3d 82e3 643b 0f18 0fbe
00000070: 9933 cb3e e2f5 703c 71df 323e 53e7 473d
00000080: d3c9 98be cfd8 ddbe 141b 9ebe 1662 023f
00000090: 1e8c b53e 3022 83be b6aa 80be 1886 46bc
000000a0: a767 b33d 313d 573e 777c 30be 4ede b13e
000000b0: aa69 b3bd e3c8 823d 66e0 313d c81c 2bbe
000000c0: e86a 163e 6cc8 9ebe 1185 3dbe bd02 f8bc
000000d0: e263 7abe d3f5 cbbe f1d9 b73d 2bda 0ebe
000000e0: cfef 16be a1ac 37be 95fc 453e d166 3d3e
000000f0: 0db4 90be 4f10 60be 9f23 0bbe ea00 b9be
-0.115660615 0.30481258 0.19496101 -0.21255441 0.5611135 -0.23758274 0.44831195 -0.041406956
0.14055304 0.26605475 -0.11375844 -0.2507625 0.011003413 -0.4862246 -0.4266004 -0.17473778
-0.42263368 0.32720104 0.1938893 -0.20515768 -0.093976974 0.11718902 0.09348677 -0.10756899
-0.13387677 0.03491194 0.0034925644 -0.13974021 0.39687803 0.0147070605 0.17468049 0.048804592
-0.2984148 -0.43329474 -0.30880034 0.5093092 0.35458463 -0.2561202 -0.25130242 -0.012116931
0.087600045 0.21019436 -0.1723498 0.34739918 -0.08760388 0.06385972 0.043426894 -0.16710198
0.14689219 -0.31012285 -0.18507792 -0.030274743 -0.24452165 -0.39835986 0.08977116 -0.13950412
-0.14739917 -0.17936946 0.19334634 0.18496253 -0.28262368 -0.21881221 -0.13587807 -0.3613351

sequential_5/dense_10/MatMul f4 [64, 512]
00000000: 2243 a23e 7aa5 613b f78f f53d 3fcf 8c3d
00000010: 3f0e 0dbe 4512 0d3e f18a 913d 610d e63d
00000020: 4b5e cbbd ac7c b93d d3bf a4bd b605 873d
00000030: 0cd9 d93e 2ea4 10be 4355 71bc 9c28 cbbc
00000040: a1dc 933d 75d1 74be 023e ae3e 739f febd
00000050: 0537 b03d 90ae a93c 16ea af3c 514f 39bc
00000060: a831 03bd 03d5 d03d 1dda 80bd 36d0 15be
00000070: c41f a43d 286f 35bc 1076 f43c bc22 f6bc
00000080: b0a6 15bd eb33 babd 51c8 02be cc9b 08bd
00000090: e6a8 463e f01e 88bd ae46 d73e 7d7d c6bd
000000a0: 82f4 69be 93b8 40be fc2a cc3d 0a09 82bd
000000b0: 8b7a 9b3d fdbf e93e 9925 893e 6da7 02be
000000c0: 114e b73d 38a9 bb3d 311d e33e 44df ce3d
000000d0: 595d cc3d 356d 143e 1fb8 9bbd 1045 bc3d
000000e0: a33f 86bc eb72 c23d 3e8e 79be bd41 cf3c
000000f0: 0ec1 37bd 74ac f33d b937 d0bc 347d 7bbd
00000100: e932 343d 5717 06bd 695c 253d d940 873c
00000110: 07ad 28bd aae3 6e3c e8d2 6ebd cbef 033e
00000120: 1f13 9cbe ea68 983d 6261 40bd 69f8 8e3d
00000130: c2f7 ad3e d9a0 a63e 59aa c13c 41a9 27be
00000140: 78bc 6b3d ea5f c1b9 afab 45bd b08b 8abd
00000150: 422a 6c3d c8b3 6cbd 927d 933d 89c0 063d
00000160: ed39 88be a714 d23d f324 183e 7851 a93d
00000170: 6801 a7bd ada3 b2bd 1c89 3fbe 0fa0 463d
00000180: b6bd 0a3f 5c31 e13e 9950 79be d664 103f
00000190: 2b93 833d e298 043c 05d9 ca3e 4e70 2d3e
000001a0: 24ac 543b c048 223e a1b9 c8bd 1fb5 ddbd
000001b0: 7a27 823d c1c0 53bd 9024 03be 2554 c13b
000001c0: b1a7 96bd 07dc e43d 4b59 553f 2c0e 4cbe
000001d0: ec47 723e 3aeb ffbd e3bd b63e fa86 193d
000001e0: 02cb 4cbe ba51 9dbd cdff 3b3d 4e49 e83d
000001f0: b47b 95be 7826 b5bc fac8 023f 9a87 2b3e
00000200: 2889 5e3e 629d b0bd 89d6 56bd f8aa 7cbb
00000210: 33d6 90bd 2b85 3ebd 561e fcbc 34cf 7ebb
00000220: 25c9 8f3d c64b 9d3d dcb5 8bbd f304 09bd
00000230: 1a4a 8c3e 3bdf b2bd 4eda 863c 41f8 9dbe
00000240: 733b 233e 4e5c 90be 2970 7c3e c6c7 4ebe
00000250: 87e0 a93c 96ce 8bbd 4f8e 4ebe 8cb8 4f3c
00000260: 50f0 58bd 6e06 f9b9 1d01 b7bd 821b ab3d
00000270: 6a6b 883d a38c 40be 4b63 83bd 163f 18bd
00000280: 3ea4 b73a c353 01be 8667 9c3c ab29 9ebd
00000290: edba 85bd 5e58 1c3e 3f87 963e 8eea 7d3c
000002a0: 5507 babd b370 8fbd 2217 093e 3349 813d
000002b0: 0376 b63c 6744 403e daae e43d 96db 2abe
000002c0: 2b74 34bd b56a 1f3d 2498 993c 11bd 86bd
000002d0: e21d 97bd edae bdb9 f2c4 debb 618c b5bd
000002e0: 81c7 4f3d 5325 a6bd e0a2 24be b2a2 1cbd
000002f0: 163e c5bc f61b 593e 08f4 a3bd da58 893d
00000300: 9cdc 29bd 79bc adbe fe10 9cbd 4a9f 81bc
00000310: 9891 823d 10cb 37bd 6316 d53c 2c06 ce3c
00000320: 850a b6be db0f 38bc 29a2 37bb 6d31 5d3c
00000330: 6137 b43e fce5 403f 210d 2f3b 748d d8be
00000340: 6d5d 2ebd 781d 02bd df18 a73c 6f62 773d
00000350: 224e e03d 6353 c53d 700c c4bd a821 a03c
00000360: 6343 e0be 3877 58bc 5866 7b3d 15a8 023d
00000370: fdf6 0f3d b5ee 88bd 7d74 ffbd e4dc aabd
00000380: 45c2 3e3e f8f3 673e 3c06 85be aa31 a93d
00000390: 9995 5abd 8c3d 34bd b430 3f3e 1bb4 1ebe
000003a0: 9c3e a3bb 59ce 04be c202 27be 998f c9bc
000003b0: a631 22bb 149e 7f3e 6b8d 2c3e 266f b33d
000003c0: f896 733d aff9 bb3d b857 c53e bdac 0dbe
000003d0: 9529 043d 54f0 d2be 2280 aa3e 9e4c 9fbd
000003e0: 8334 c2bd 790e e9bc ef8f f33b 64d1 883e
000003f0: 6ca2 1cbe 8dac 943d f84c 893e 8b57 9bbd
0.31691843 0.0034430907 0.1199035 0.068754666 -0.13774966 0.137765 0.07106579 0.112330206
-0.09930094 0.090569824 -0.080444 0.06592886 0.42548406 -0.1412513 -0.014729801 -0.024799637
0.07219816 -0.23908027 0.34031683 -0.12432756 0.08604244 0.02071312 0.021473926 -0.011310414
-0.032029778 0.10196879 -0.06291602 -0.14630207 0.08013871 -0.011073865 0.029841453 -0.03004586
-0.03653592 -0.09091934 -0.12771727 -0.033351704 0.19400367 -0.06646526 0.42046112 -0.09691904
-0.22847179 -0.1882041 0.09969136 -0.0634938 0.075917326 0.45654288 0.26786497 -0.1275918
0.08950437 0.09163135 0.4435821 0.10101178 0.09978742 0.14494784 -0.07603478 0.0919286
-0.016387766 0.09494575 -0.24370667 0.025299901 -0.044861846 0.11898127 -0.025417196 -0.0613987
0.043993864 -0.032737102 0.040371332 0.016510414 -0.041180637 0.0145806465 -0.058306605 0.12884443
-0.30483338 0.07441886 -0.04696787 0.06980974 0.33978087 0.32544592 0.023640798 -0.16373159
0.057552785 -0.0003688329 -0.048259433 -0.067649245 0.057657488 -0.05778864 0.07201685 0.03289846
-0.26606694 0.10257845 0.14857845 0.08267492 -0.08154565 -0.08722625 -0.18704647 0.048492488
0.54195726 0.4398297 -0.24347152 0.56403863 0.064245544 0.008093091 0.39618698 0.16937372
0.0032451237 0.15848064 -0.09801031 -0.10825562 0.06355186 -0.051697496 -0.12806916 0.0058999234
-0.07356203 0.111747794 0.83339375 -0.19927281 0.23660249 -0.12496038 0.35691747 0.03748224
-0.19999316 -0.07681604 0.045898248 0.11342107 -0.2919594 -0.02211307 0.51087916 0.16750947
0.21732008 -0.086237684 -0.05245069 -0.0038554054 -0.07072105 -0.046513718 -0.030776184 -0.0038880827
0.07020787 0.07680468 -0.06821796 -0.033451986 0.27400285 -0.08733984 0.016461518 -0.30853465
0.15940647 -0.28195423 0.2465216 -0.20193395 0.020736946 -0.068265125 -0.20171474 0.012678277
-0.052963555 -0.0004749777 -0.08935759 0.08354856 0.066611126 -0.18803649 -0.06415423 -0.03716954
0.001401074 -0.12629609 0.019092333 -0.07722791 -0.06529794 0.15268084 0.2940006 0.015497817
-0.0908343 -0.070039175 0.1338773 0.0631279 0.02227307 0.18776093 0.11166163 -0.16685328
-0.0440561 0.038920123 0.018749304 -0.0657903 -0.073787466 -0.0003617922 -0.00679838 -0.08864666
0.05072737 -0.08112588 -0.16077757 -0.038241096 -0.024077456 0.21202073 -0.0800553 0.067064
-0.041470155 -0.33932856 -0.076204285 -0.015823025 0.06375426 -0.04487139 0.026011651 0.025149427
-0.355549 -0.011234249 -0.002802024 0.013500554 0.351985 0.7535093 0.0026710706 -0.4229542
-0.042569567 -0.031766385 0.020397602 0.060396608 0.10952403 0.096350454 -0.09572685 0.019547299
-0.43801412 -0.013212018 0.0613769 0.031898577 0.035147656 -0.06686155 -0.1247339 -0.08342913
0.18628795 0.2265166 -0.2598132 0.08261426 -0.053365324 -0.04400401 0.18670923 -0.15498392
-0.004981829 -0.1296934 -0.16309646 -0.024604606 -0.002474883 0.24962646 0.16850822 0.08761434
0.059470147 0.09178483 0.38543487 -0.13835426 0.03226622 -0.4119898 0.33300883 -0.077782854
-0.09482672 -0.028449284 0.0074329297 0.26722252 -0.15296334 0.07259474 0.26816535 -0.07585057

sequential_5/dense_11/MatMul f4 [4, 64]
00000000: bd14 f5be adb2 65bf 31e4 193f 0d80 c33b
00000010: 8290 ac3d 8c4d a7bd d2cf a1bd 2378 42bf
00000020: 1816 9bbf c695 c13e f75e e1bd 080c 133e
00000030: a35a 8e3e 64e0 1ebf b3da 8ebe 5f34 72be
00000040: ed8a 6bbe b5a1 bbbe dd61 7b3e daef 5fbe
00000050: 7763 e0be 734f 91bd 9a89 81bf 5a43 733e
00000060: e470 8b3b 99d9 bdbf 9a8f 973d 532a 76bd
00000070: c7f2 28bf 9017 f4be 6c2c 473f 8680 1ebf
00000080: aeae 10be 25d5 09bf a86f d5be 7f9a fc3d
00000090: ad42 84bd 19a9 0f3e 356e fabe f3e8 60be
000000a0: 9099 1a3f cc3f 9b3e cb74 e33c 4ef0 c63e
000000b0: 3d49 1c3d 80a3 d0bf 5a26 92bf dfcf d13d
000000c0: 537f 233f 24b8 d3bd 74d1 b9bf 3d32 1f3d
000000d0: 4796 b2be d6a4 06be 005e 873e 9a08 543e
000000e0: 524d d73d 69c8 0fbf 423e 913e 59aa a2bf
000000f0: 1d0a 01be 8a60 023e c455 ddbe b8b2 fabc
00000100: b886 cd3d a809 6fbe d1f2 98bf f41d 5bbd
00000110: f45b 75bf 5bcf 83be 0d27 44bf a22e c03d
00000120: 83f5 853d b10c bbbf 38f6 0abe 12a2 1c3e
00000130: 4147 67bf 8822 84be d274 0ebe db67 673d
00000140: c73f 20be d5b8 28be d33d e6bd 2d89 61be
00000150: 43d6 2e3e 0aea 28be 4212 e13d 5c1b df3d
00000160: 39b1 91be 07e4 e03c 935f c23d 57db 97bd
00000170: d782 65be 16bb dbbd f201 9abf b6bc 10be
00000180: 6bda 3539 c470 5abe 11f7 33be e910 3cbf
00000190: 359d 07bf 7bbf 50be 6f20 e9bd 3840 24bb
000001a0: bb11 9abf c499 febe 8708 453d 761e 07bf
000001b0: d16e 77be a4c0 073e 26dd e23a 0dd4 3cbe
000001c0: 76c8 a5bf 9f74 01bd 02a1 243d 45d0 033e
000001d0: 9633 65be 1ed7 623e a8ff 1abb 8cbf 81be
000001e0: 2c4f a23c ef87 3ebd aa18 87be 3e53 363e
000001f0: d680 b2bd 5c9e 15bc 67f1 933e 54d7 91bd
00000200: 6485 ddbe fb6b 233d 1ac7 c33d cd57 6abe
00000210: 27f5 153f 373f 0fbd 2e20 b13c ff8c debe
00000220: a699 533e 98cc 6c3d 8a6b 593e 8f6d 21bf
00000230: aa4d 153d 123b 4abd ee38 b8bd d9bb 86be
00000240: 39d6 1c3e 072c 07be f37a ebbe 095c 33be
00000250: 80fe dcbe 8305 f8be 69b2 17bc 7578 4dbd
00000260: edc7 51be 928b a0bd ef33 b4be 54f1 c8bd
00000270: b418 3d3e 6e58 e9be 80a1 933d 1fd9 1fbf
00000280: 60c9 19be 4a07 ea3d 1208 0ebe d150 bb3e
00000290: 3e30 cc3d 1c07 6d3c d338 7e3e 8442 22bf
000002a0: 81fa 00be 197c 91be 81a9 29bd 8ab0 72be
000002b0: e90c 34bf bcbe bebc 04de 07bc 25b7 48be
000002c0: 0691 4ebe a055 8d3d 2849 d6bb cbdb 63bd
000002d0: 5a5f f83d 06f2 f13b c086 10bf f6d0 7bbe
000002e0: 99ab 22bc 4367 073d 5680 e6be 6507 3f3e
000002f0: de82 9f3d 340b 02be 8a00 e4be 82e3 ef3d
00000300: 5dc8 2d3e 4b06 39bf ddcf 76be 78b4 e1be
00000310: 6f1e b7bd 1ac4 99bd de4e acbd d762 303d
00000320: 3e15 0d3e 7339 e3be 3ba1 6ebe d828 41bf
00000330: b588 32be aec5 2dbe 483c f53c 7ee7 9fbe
00000340: d3b9 4fbe f7df cbbe 689e 3e3e 89b9 41be
00000350: 2ba6 773e 6de3 27be 2714 203e fd72 83bd
00000360: 4cd5 69be 3c3b 9c3c 127e 003e 3936 46be
00000370: a2fe 11bf bb7e adbe 4248 b3be d660 31be
00000380: 3683 05be 6a9a 58bd c557 303d 353a 9a3d
00000390: a26e c0bc dfe6 2f3e 9a78 3dbe e0b1 303d
000003a0: 4d8e 91be 2b3f bf3e 150e 0d3d 1255 ca3e
000003b0: 9536 11bf a99b 0c3e d82e 7a3d 1ce1 5bbe
000003c0: c649 cabe cbf5 32be 8da2 0a3e e51a 1c3e
000003d0: 5bbd eebd 37ee 6a3d 576c 3e3e cb95 58be
000003e0: a985 893e 80c0 05bd 07f6 fb3d d6e4 6fbe
000003f0: 0e04 e2be 1d0d 8d3d 414b c43e e9ad b0be
-0.47867385 -0.8972576 0.6011382 0.0059661926 0.08426 -0.08169088 -0.07900967 -0.75964564
-1.2116117 0.3780958 -0.11004441 0.14360058 0.27803525 -0.6206114 -0.2790123 -0.2365279
-0.23002215 -0.3664681 0.2454905 -0.2186884 -0.43825886 -0.07095232 -1.0120118 0.23756161
0.004255401 -1.483203 0.07400437 -0.060098957 -0.6599545 -0.47674227 0.7780216 -0.6191486
-0.14129135 -0.5384086 -0.4168675 0.12334155 -0.0645803 0.1402935 -0.48912206 -0.21963863
0.6039057 0.3032211 0.027765652 0.38855213 0.038155783 -1.6299896 -1.1417954 0.102447264
0.63866156 -0.103378564 -1.4517045 0.03886627 -0.34880278 -0.13148817 0.26438904 0.20706406
0.105127946 -0.56165177 0.2836781 -1.2708236 -0.12601514 0.12732139 -0.43229496 -0.030602798
0.10035461 -0.23343527 -1.1949102 -0.053495362 -0.95843434 -0.25744137 -0.76622087 0.093838945
0.06540968 -1.4613248 -0.13570487 0.152962 -0.903431 -0.25807595 -0.13911751 0.05649553
-0.15649329 -0.16476758 -0.11242261 -0.22024985 0.17073922 -0.16495529 0.109898105 0.1089389
-0.28455523 0.027452482 0.094908856 -0.07414883 -0.22413193 -0.10729043 -1.2031844 -0.14134488
0.00017342872 -0.21332079 -0.17574717 -0.734633 -0.52974254 -0.20385544 -0.11383139 -0.0025062691
-1.2036661 -0.4972669 0.048103835 -0.52780855 -0.24163367 0.1325708 0.0017308339 -0.18440266
-1.2951801 -0.03160536 0.04019261 0.12872417 -0.2238296 0.22152373 -0.0023650918 -0.2534145
0.019813143 -0.046516355 -0.26386005 0.17805192 -0.0871598 -0.009131994 0.28895113 -0.07121149
-0.4326583 0.0398979 0.0955946 -0.22885056 0.585772 -0.034972396 0.02162179 -0.43466946
0.20664081 0.057812303 0.21232429 -0.630578 0.03645102 -0.04937274 -0.089952335 -0.2631519
0.15316094 -0.13200389 -0.4599224 -0.17515577 -0.43162918 -0.48441705 -0.009258845 -0.050163705
-0.20486422 -0.07839121 -0.35195872 -0.09811655 0.18466455 -0.4557528 0.07208538 -0.62440675
-0.15018225 0.114271715 -0.13870266 0.36585096 0.09970139 0.014467027 0.24826364 -0.63382745
-0.1259556 -0.28414991 -0.041421417 -0.23700157 -0.703322 -0.023284309 -0.008292679 -0.19601114
-0.2017251 0.06901097 -0.0065394826 -0.055629533 0.12127562 0.007383588 -0.5645561 -0.24591431
-0.009928607 0.033057462 -0.45019788 0.18655165 0.07788633 -0.12699586 -0.4453166 0.117133155
0.16970964 -0.7227523 -0.24102731 -0.44083 -0.089413516 -0.075081065 -0.0841348 0.04306301
0.13777635 -0.44379768 -0.23303692 -0.7545295 -0.17434962 -0.1696994 0.02993597 -0.31231302
-0.2028573 -0.3981931 0.18615115 -0.18918432 0.24184482 -0.1639535 0.15632688 -0.06418417
-0.22835273 0.019071214 0.12548092 -0.19356622 -0.57029164 -0.3388575 -0.35016066 -0.17322096
-0.13038334 -0.052881636 0.043052454 0.07530633 -0.023490254 0.17177914 -0.18503037 0.043138385
-0.2842888 0.3735288 0.034437258 0.39518028 -0.5672391 0.13731255 0.06107983 -0.21472591
-0.3950941 -0.17476575 0.1353857 0.15244634 -0.116572104 0.057356086 0.18596016 -0.21150891
0.26859787 -0.032654285 0.12302785 -0.23427138 -0.44143718 0.06887267 0.38338664 -0.34507683
