models/demo_models/lying_down_left_model.tflite (tflite, 463492 bytes, 12 tensors)

sequential_2/conv1d_8/BiasAdd/ReadVariableOp f4 [32]
00000000: 71cc 7cbd 55de 82bd 8431 22be 558a 3dbe
00000010: f8aa 22be 1c3b 82be 4123 f6bd fa9a ffbd
00000020: 809e febd 0340 29be 4a18 2ebc 4638 983d
00000030: a609 48bd 3b71 e43c d070 54bd e849 8d3e
00000040: e5a4 693d c3b6 11be ff95 42bd 360b f9bc
00000050: 8846 70be 9494 3fbc 4e0e b7bd 18fe 253d
00000060: f2b4 223d 360b 4bbd 104e 11be 3393 e43d
00000070: 97c8 cebd 4a3c bdbd 9062 bdbd 9048 f8bb
-0.061718408 -0.06390063 -0.15839201 -0.185098 -0.15885532 -0.25435722 -0.12018443 -0.12480731
-0.12432575 -0.16528325 -0.010625908 0.07432608 -0.048837326 0.027886024 -0.0518654 0.27595448
0.05704202 -0.14229874 -0.04750633 -0.030400854 -0.23464406 -0.011693139 -0.08938275 0.040525526
0.039723344 -0.04957124 -0.14189935 0.111608885 -0.10096853 -0.09240015 -0.09247315 -0.0075770095

sequential_2/conv1d_9/BiasAdd/ReadVariableOp f4 [64]
00000000: d54f 77be fc5b 35be 2e6b 01be 50c3 7ebe
00000010: 5514 45be 8609 06be 3150 2abe 97ca 2fbe
00000020: c579 c4bd 99fa 9ebd abc1 6bbe 2e02 51bd
00000030: 6f17 f0bd bdd5 abbd e0bb c9bd 9e1b 02bd
00000040: 03ca 95bd 3c48 a4be 55ab 79bd d038 c9bd
00000050: bf78 78bd 841b 373d efdf 0fbe a7c0 a5bd
00000060: f503 08bd 8422 3bbe d4e0 7fbe ef74 4abe
00000070: f200 a5bc 835e 0abe f843 3bbe 7023 5dbd
00000080: 2bf5 76be 27a0 31bd f2df aabd cc8e dd3c
00000090: 5320 863d 6f32 34be f7de 56be 7628 91bd
000000a0: f097 96bd ac34 903a 5a83 c0bd dc24 a9bd
000000b0: e956 acbe 18f8 07be 7316 52bd 8f8f bdbd
000000c0: c7c5 90bd c4ee 09be 7736 abbd 2365 93bd
000000d0: 7c00 993d 8a45 7cbe 7810 bcbd a23a 0abe
000000e0: 4bef e9bd 0886 213e 931a bbbd b732 fcbd
000000f0: 2730 e3bd 09e8 1fbe 7005 c7bd e54a 573d
-0.24151547 -0.1771087 -0.12638542 -0.24879193 -0.19246037 -0.1308957 -0.16632153 -0.17167126
-0.09593538 -0.077626415 -0.23023097 -0.05102747 -0.117232196 -0.08390377 -0.098502874 -0.03176462
-0.07313921 -0.3208636 -0.06095441 -0.09825289 -0.060662027 0.044703975 -0.14050268 -0.08093386
-0.0332069 -0.18274885 -0.24988109 -0.19771169 -0.020142052 -0.13512616 -0.18287647 -0.053988874
-0.24116962 -0.043365624 -0.083434954 0.02704563 0.06549134 -0.17597364 -0.20983492 -0.070877954
-0.073531985 0.0011002026 -0.09400053 -0.082589835 -0.33660057 -0.13278234 -0.05129094 -0.09255897
-0.07068973 -0.13469988 -0.08359998 -0.07197025 0.074707955 -0.24635902 -0.09182829 -0.13498929
-0.11422595 0.15773785 -0.09135928 -0.123143606 -0.11093169 -0.15615858 -0.09717834 0.05256166

sequential_2/conv1d_10/BiasAdd/ReadVariableOp f4 [128]
00000000: 18bd dfbd 10ca bdbd 5db9 09be 0d4d 6abd
00000010: 518e 0fbd 62a0 76bd 660d 5abd 210a 4cbe
00000020: f323 73be 1c8b d8bc 5f6a 85be 7401 a1be
00000030: 388a e2bd 2aaa 78be 196c c7bd 3942 043c
00000040: 615f b2bc eff6 5abd 9105 94bd 5810 af3d
00000050: a896 dcbe 6b01 cbbe 6c2a 91be f066 67be
00000060: 61ac 27be f265 0abe 8efb 59be fa28 1abe
00000070: a9b5 fabd 6778 adbe 32ba fcbe 8f6c e8bd
00000080: 0645 91be aa36 b0bd d215 c6be a3e7 eebd
00000090: 4032 ca3d 5d5d dcbd 83c3 8ebd bf0e 57be
000000a0: 809f 0fbe 9572 6abe e609 4bbe 1059 afbd
000000b0: 99dd a9be 1406 31be 13df 61be d875 41be
000000c0: d659 9ebd 52aa 4dbe 41fc 68be 921d 0dbe
000000d0: 43cf d9bd bb62 e3bd 108e febd fe14 c0be
000000e0: 4ee7 d5bd 2840 01be 0f9e 69be ad2c f7bd
000000f0: 514b 88be 6073 7dbe 2052 f4bd b7fc b4be
00000100: 2c51 f2bd 41b9 be3d 8e78 1bbd 2ab9 c6bc
00000110: 12d5 05bd 6027 c1bc 9c32 66be 10d2 b4be
00000120: 7d26 1e3d c558 a23d ed1c 7bbe cc05 00be
00000130: 1e64 76bd a1a2 33be a74f 49be 59e6 4fbd
00000140: b948 4cbc 6fb0 77be 9237 bb3b 8051 6ebe
00000150: 0014 2abe 2aa9 88bd c0bd bdbd a54e 62be
00000160: eccf 8cbd 1117 bfbe 82a5 40bd 8bb0 44be
00000170: f1ce 6dbd 6330 c5bc 6153 cebe 1ff1 e7bd
00000180: 9d1c 32be 3957 37b9 6db7 1fbe 6af1 0cbe
00000190: 7975 1fbe 0b1c b7bd d90d c8bd 46d0 02be
000001a0: 5e93 d7bd a781 50be 7cbd c0bd 43f9 61bc
000001b0: 399c c2bd 5dea 88bd a32b 21be 5820 66be
000001c0: 09f3 abbe 7074 3fbe 6cf8 59be 4e36 f3bd
000001d0: 4378 b7bd c2c8 f5bd 2168 8abe 3641 7ebe
000001e0: 9c86 4bbe c8c1 3abe 8c1d eabd a3ce 38be
000001f0: 4ceb bfbd 94b6 8dbe 98da f7bc d714 28be
-0.10924739 -0.09267056 -0.13449617 -0.057202388 -0.035047833 -0.060211547 -0.053235434 -0.19925739
-0.23744182 -0.02643352 -0.26057717 -0.3144642 -0.110615194 -0.24283662 -0.09737415 0.008072429
-0.021773996 -0.05345815 -0.07227624 0.08548039 -0.43083692 -0.3964952 -0.28352678 -0.22597861
-0.16374351 -0.13515452 -0.21287367 -0.15054694 -0.1224168 -0.33880922 -0.49360806 -0.11348831
-0.28372973 -0.08604176 -0.38688523 -0.11665275 0.09872866 -0.10759995 -0.06970885 -0.21001719
-0.14025688 -0.22895272 -0.19827995 -0.08561909 -0.33176878 -0.17287475 -0.22057752 -0.1889261
-0.077319786 -0.20084503 -0.22752477 -0.13780811 -0.10635235 -0.11102816 -0.1242944 -0.37516016
-0.104445085 -0.1262213 -0.22814201 -0.12069068 -0.26619962 -0.24751043 -0.119297266 -0.35349056
-0.118318886 0.09312678 -0.037956767 -0.024258215 -0.032673903 -0.023578346 -0.22480243 -0.35316515
0.038610924 0.07927088 -0.24522753 -0.12502211 -0.060154073 -0.17542507 -0.19659291 -0.050756786
-0.01246851 -0.24188398 0.0057134116 -0.23273277 -0.16609192 -0.066728905 -0.092647076 -0.22100313
-0.068755955 -0.37322286 -0.04703284 -0.19207971 -0.058058683 -0.024070924 -0.40297988 -0.11325287
-0.17393728 -0.00017484733 -0.15597315 -0.13763967 -0.15572156 -0.08940896 -0.09768266 -0.12774763
-0.10526155 -0.20361958 -0.09411141 -0.013792339 -0.09502453 -0.06685326 -0.15739302 -0.22473276
-0.3358386 -0.18696761 -0.21286172 -0.11875592 -0.08958485 -0.12001182 -0.2703257 -0.24829563
-0.19875568 -0.18237984 -0.11431417 -0.18047576 -0.09371051 -0.2767836 -0.0302556 -0.164142

sequential_2/conv1d_11/BiasAdd/ReadVariableOp f4 [128]
00000000: 58d8 bbbe 56af 76be b350 6f3d e01a a3bd
00000010: fdc5 64bd b2bf dcbd 8c34 a2bd e410 4cbe
00000020: 47f5 febe a24a 58be b284 32bd 5a8d 7ebe
00000030: 4819 47be 37d7 a9bd 01c0 56be 5aff 4bbe
00000040: ff10 24be f122 8cbe 6483 893d 59ac 6ebe
00000050: aacc 7fbe 5ca9 5bbe ca18 36be e443 b4be
00000060: fab6 e1be be76 44bd d669 bfbe 4965 f23d
00000070: 4af3 bebc 515f 08bf 3f9f d5bd 356c 37be
00000080: 6b31 9bbd 5211 93be bcd8 473e 403c 43be
00000090: 9904 b1bd b104 e43d 8406 7d3c 4c53 61be
000000a0: cbbd cabd 4db3 76bd 5e62 423e 9015 89bd
000000b0: d434 0abe 737c 4abe 3ae9 a9be 1fca ae3c
000000c0: 375d 1abe 2b5b a3bd 243b b2be 5101 d7be
000000d0: 5bcb d8be ed9a a7bd 853c 8ebe a2f6 82be
000000e0: 5277 27be d212 0cbe a9f4 2b3e e4b8 233c
000000f0: 52bb 47bc ee85 14bc c477 cfbd bb58 0fbd
00000100: 00a5 08bd a153 71bd 55f9 a7be 4bfc f9bd
00000110: 7744 213e 3ece 21be a9be 063e 30d6 dabd
00000120: 6175 52be 2c36 36be 8e43 183e cd32 a9bd
00000130: 958b 673b 06a7 553d 477a bdbc a189 49be
00000140: c23b dbbd d136 b6be 28cc 43be bd46 22be
00000150: fb8e c2bd fcdb 4ebe cd47 3dbe 62f8 da3d
00000160: e3fa 43bd a4c5 eabd 8ed8 c6bd 0deb a9bd
00000170: 8919 fdbd d331 b5bd ae80 0abe 861c 3bbd
00000180: 9e72 2dbe b9a6 31bc 86f7 39bd 2ca1 28be
00000190: a448 30be dd95 9cbe 774e bcbd 53d7 b3bd
000001a0: 8639 b9be 0ec3 3bbe 0e79 cdbd 6d67 b2bd
000001b0: e15a 41bd fc21 00bd de2e eb3c eba7 b93d
000001c0: 9066 c0bd 36cd bdbd b57c 003d ca2d 10be
000001d0: 63b0 8abe fca7 86bd 4d7d 04be 1c66 1abe
000001e0: 8882 683c b24c c3bd 2e18 993a e643 e5bd
000001f0: 9df6 8cbe 8682 c6be 41e1 d5bd 406a 76be
-0.36688495 -0.24090323 0.05842657 -0.079641104 -0.05585288 -0.107787505 -0.07920179 -0.19928318
-0.49796507 -0.2112222 -0.04358358 -0.24858609 -0.19443238 -0.08293002 -0.20971681 -0.19921628
-0.16022108 -0.27370408 0.06714514 -0.23307933 -0.24980417 -0.21451324 -0.17782894 -0.35208046
-0.44084913 -0.047964804 -0.37385434 0.11835725 -0.023309369 -0.5327044 -0.104307644 -0.17912371
-0.07577785 -0.28724152 0.19516271 -0.19065952 -0.08643455 0.11133707 0.015443448 -0.22004431
-0.098994814 -0.06022959 0.18982837 -0.06693566 -0.13496715 -0.19774036 -0.3318575 0.021336613
-0.15074621 -0.07976373 -0.34810746 -0.41993192 -0.42342648 -0.081838466 -0.27780548 -0.2557879
-0.16354111 -0.13679054 0.16792549 0.009992812 -0.012190657 -0.009065134 -0.10130265 -0.03499673
-0.03336048 -0.058917645 -0.32807413 -0.12206324 0.15748774 -0.15801331 0.13158669 -0.10685384
-0.20552589 -0.17794102 0.1486952 -0.082616426 0.0035331 0.05216124 -0.023129595 -0.19681408
-0.10704757 -0.35588697 -0.19120848 -0.15847297 -0.094999276 -0.20201105 -0.18484421 0.106919065
-0.047846686 -0.11463478 -0.09709273 -0.082967855 -0.12358386 -0.08847394 -0.1352565 -0.0456815
-0.16938254 -0.010842972 -0.045402072 -0.16467732 -0.1721521 -0.30583087 -0.091946535 -0.08781304
-0.361767 -0.18336126 -0.10032855 -0.08711133 -0.04720581 -0.03128241 0.028708871 0.09065231
-0.09394562 -0.092676565 0.03136893 -0.14079967 -0.27087697 -0.06575009 -0.12938423 -0.15078014
0.014191277 -0.09536113 0.001168018 -0.11194591 -0.275319 -0.38771456 -0.104433544 -0.24063969

sequential_2/conv1d_8/Conv1D f4 [32, 1, 3, 3]
00000000: 29dc c73e 1e73 b4be dab0 3f3d df25 ab3e
00000010: ba00 edbe 6b6b 3e3e 7995 b63e fcfb cebd
00000020: 118a 26be 4e9e 28bd 516f 583d d0d9 fb3d
00000030: e55b d43d 21ad 67bd 757a 223e ca03 fb3d
00000040: 97eb 29be d4d6 81bd 9477 573e b725 c0be
00000050: 8c9c 683e ffd7 c0bd ba0f 23be 11be 76be
00000060: 128d 673e c7c6 6abd 2fed be3e 490a 98bd
00000070: 03bc 08bf 7da9 e43c aeee a13e 9036 23bf
00000080: 04bc 34be b6ef bf3e 124e 1bbf ab69 3abe
00000090: 4e92 b5bb fe15 883e 3186 903e d832 77bd
000000a0: 7d5d 543e 69fd 723e a90a 6a3e 24a1 933e
000000b0: 95cf 883d 3aa5 6bbd 5a5f 8ebe 5936 903e
000000c0: cb48 2e3e 864d dfbe e427 093e 180d db3c
000000d0: 340c acbe 1e9b 163e 8256 a73d 1354 d63c
000000e0: 53e0 133e e4d7 953e 64d8 be3e 4565 70bd
000000f0: b99e 133e 3202 263e ca9d bdbd f755 6a3e
00000100: d1df c5be ddcc 14be 1fab 0ebe 8e50 c1be
00000110: 0e56 dd3d 5421 483e c624 94be a0f9 223f
00000120: 49b4 943e 9773 9cba 5841 053e 8465 023e
00000130: ddce 09bf 6389 bd3e 123d 6cbe 5b65 1dbf
00000140: 4362 1b3d cd05 823e 03ba 4fbd 4c7f ca3d
00000150: 31a7 abbc db41 9dbe c2a9 c3bb 4c3b 353e
00000160: f1f4 81be 9dee 533e 7163 6f3e 0eae 40bd
00000170: 65ed 153e 0bbc c9bd 1e18 413e fae4 a8bd
00000180: b0f8 8b3d 7659 35be b830 c93d d182 4dbd
00000190: 418d e23e 458c 973e 5ee7 cc3d ef3e 943e
000001a0: 7f73 c43e f08b ed3d 9228 0a3f 748e ab3e
000001b0: 2944 733d fda4 c03e b6b1 1f3d 42b7 63bb
000001c0: 9220 663e 15f0 c03e a6fb 71bd 69a9 c43e
000001d0: 345a ae3e ba0c a1bc cb3b 073f bd75 733e
000001e0: af3b 3cbe 3644 f43d 8793 5b3d 3cee 073e
000001f0: e4b5 0c3f 717f a03d 0b10 87bd 563e 8bbf
00000200: 8aff 3c3e e412 8abe 183d 51bf df80 963e
00000210: bb66 7cbe bf03 16bf 2b2e bf3e a285 06bf
00000220: 362c afbe eaa5 bc3e f390 61bf fe64 10bf
00000230: 16d7 3a3f ab13 c8be 024c 5abf 38c5 be3e
00000240: 3a8d 053f bea9 f3be f17c a6bd de8f 083f
00000250: a7c5 03bf 7c03 2ebe 0922 0d3f 6241 3abf
00000260: c8fa 6f3d 0928 883c 68e7 33be 5b72 003f
00000270: c4eb 09bc 21a4 953e c748 32be b8cd 11be
00000280: 1d76 98bd 6ed2 4bbc 89b3 4abe 02e6 16be
00000290: fba8 293e 01be 423e 5dbc 4ebd 75d9 12be
000002a0: 206d 153e 81db 4b3e 8a47 f23d 92ab dc3e
000002b0: bd77 b5bd 74ce e1bc aeda 123f 762f 99bc
000002c0: c244 1a3e fe2c 083f 0655 15be 202d 17be
000002d0: b65d 5bbd c3ef 183e 64d9 a0bb 46bc 87bd
000002e0: 92b6 f43d bc47 153e a800 d93d 82f0 613e
000002f0: e0d0 603e 7e99 353e 601e 583e 1c46 a93d
00000300: 2629 0e3e 1a34 453e 5903 503d e4ae 603e
00000310: 9509 453e c0cb cd3c cffa 4d3d ca29 c5bd
00000320: 47ee 803d fe6f 36bd e8d8 c63d cb84 abbc
00000330: 2dcb 363e bf0a 013e 6f17 4b3e 4d1a 893e
00000340: a0a8 533e b1de 7fbe 0614 073f b08b 2e3f
00000350: 47e2 5fbd c60a 8abd 3b28 9f3f 3e71 21be
00000360: 7e6d 5fbe eb4e 2e3f 3655 e33d 1ba4 bbbd
00000370: 8f56 283f 46fa ef3d 3c51 07bd ae81 2c3f
00000380: 3366 573e c38e 56bd b455 d63e 7861 933e
00000390: c05e d63d 75c7 be3e 9f40 2c3e 107e a3bb
000003a0: 6686 b63e a7b7 ac3e ff2d 803e 06e1 e83d
000003b0: 4bea 05bd e1e6 ec3e 2df8 5dbe 2d0c 01be
000003c0: 32e5 c63e 4216 abbb 5df9 8e3d bea2 f83d
000003d0: e529 a53e df30 073f f085 6bbe 156f d33e
000003e0: 2776 e93e f0c5 7bbd 5563 0a3f a154 573c
000003f0: 027a 4b3e a24b 3d3d 146c 6b3d e25d c03b
0.39035156 -0.35244077 0.04679952 0.3342733 -0.46289617 0.18595664 0.35660914 -0.10106656
-0.16263606 -0.041166596 0.052840535 0.12297404 0.1036909 -0.056561593 0.15867026 0.12256582
-0.16593777 -0.06339803 0.21041709 -0.37528774 0.22715968 -0.09416198 -0.15923968 -0.24095942
0.22612408 -0.057318475 0.37290332 -0.07423837 -0.53411883 0.02791285 0.3162741 -0.6375513
-0.17649847 0.37487572 -0.60666 -0.18204372 -0.0055411225 0.2657928 0.2822738 -0.060351223
0.20738788 0.23729481 0.22855629 0.28833878 0.06680218 -0.05753062 -0.27807122 0.28166464
0.17019956 -0.43613833 0.13394123 0.026739642 -0.3360306 0.1470761 0.08170797 0.026163137
0.14441042 0.29266274 0.37274468 -0.05869033 0.14416017 0.16211775 -0.092586115 0.22884355
-0.3864732 -0.14531274 -0.13932465 -0.3775677 0.10807429 0.19543964 -0.28934306 0.6366215
0.29043797 -0.0011936304 0.13013208 0.12734038 -0.53831273 0.3701888 -0.23070171 -0.6148278
0.037935507 0.2539505 -0.050714504 0.09887561 -0.020953747 -0.30714306 -0.0059711644 0.17698401
-0.25382188 0.20696492 0.23377778 -0.04704099 0.1464134 -0.098503195 0.18856856 -0.08246799
0.06834543 -0.17709908 0.098237455 -0.050173584 0.44248393 0.29599205 0.10005067 0.28954265
0.38369367 0.115989566 0.53968155 0.3350712 0.059391174 0.37625876 0.038987838 -0.0034746681
0.22473362 0.37683168 -0.05907788 0.384105 0.34053195 -0.019659389 0.5282561 0.23775382
-0.18382142 0.11927073 0.05360749 0.13274473 0.54965043 0.078368075 -0.06594857 -1.0878398
0.18456855 -0.26967537 -0.81733847 0.29395196 -0.24648564 -0.58599466 0.3733991 -0.5254766
-0.34213418 0.36845332 -0.881118 -0.564041 0.72984445 -0.39077505 -0.8527223 0.3725984
0.5216862 -0.4759044 -0.081292994 0.53344524 -0.5147347 -0.16993517 0.5513006 -0.72756016
0.058588773 0.016620653 -0.17568743 0.5017449 -0.008418027 0.29226783 -0.17410575 -0.14238632
-0.07444403 -0.012440307 -0.1979505 -0.14736179 0.16568367 0.19017793 -0.050472606 -0.14340766
0.14592409 0.19907953 0.11830051 0.43099648 -0.08860729 -0.027564265 0.5736493 -0.018699389
0.15065292 0.5319365 -0.14583215 -0.14763308 -0.053556167 0.14935212 -0.0049087275 -0.06627707
0.11948885 0.14578146 0.10595828 0.22064403 0.2195468 0.17734334 0.21105337 0.082653254
0.13882884 0.19258156 0.050784443 0.21941715 0.19241937 0.02512157 0.050288018 -0.09627111
0.06295448 -0.044540398 0.0970934 -0.020937344 0.17850943 0.12601756 0.19833158 0.26777878
0.20669794 -0.24987294 0.5276493 0.68181896 -0.054659154 -0.06740336 1.2434152 -0.15765855
-0.21819112 0.6808917 0.11100237 -0.0916216 0.6575708 0.11717658 -0.033036456 0.67385375
0.2103508 -0.052382242 0.4186226 0.287853 0.10467291 0.3726155 0.16821526 -0.004989393
0.35649413 0.33733866 0.25035092 0.11371045 -0.032694142 0.46269897 -0.21676703 -0.12602301
0.38846737 -0.005221159 0.06981156 0.121404156 0.32258525 0.52808946 -0.23000312 0.41295686
0.45597956 -0.061468065 0.5405782 0.013142736 0.19870761 0.046214707 0.05747612 0.0058705667

sequential_2/conv1d_9/Conv1D f4 [64, 1, 3, 32]
00000000: ad2e 1cbe dce9 ebbc 0be2 033d 2ff4 a93e
00000010: a717 fc3d 6ea2 2fbe dedc 35be 7a60 e03d
00000020: aa03 c23d d108 5bbd 4e0d ff3c ebf4 893e
00000030: 36de 203e f040 133e 8273 33bd 74b7 4dbe
00000040: dfbb 10bf 3e06 4f3e 0f17 38bd db63 c9be
00000050: 9db1 3dbe ef62 a0be bc38 66bd f3fa 37be
00000060: d8d4 203b affa a53e a7d1 7a3e 2abf ba3e
00000070: 724c dcbc 1edc 3abe 2f40 4cbd 1e43 733d
00000080: f325 50be f88e aabd a1aa eb3d 7db1 723e
00000090: 3c94 6e3e f8ef 77be 6f98 f5bd 3c97 043e
000000a0: 191c 0c3d 1048 96bd d925 043e 52fc 813e
000000b0: fe2d 7e3e 8759 b93d 7cbc 55be 43ac 2bbe
000000c0: 949f 0ebf b04a 48bd 6590 c23d 9459 60be
000000d0: 5f8b aaba 4c9d 7cbe 69fa 803d cfb8 9bbe
000000e0: 2522 963d eb24 9d3e c091 d53d bb1a 823e
000000f0: 701f fbbd fb45 8d3d 2c75 32be a451 6bbe
00000100: 0018 4dbe 99fb 553b fc81 82bb 2b20 333e
00000110: f65e 213e 94e1 11be 0f87 d5bd cf05 323e
00000120: 290e d0bd d315 f4b7 092a d1bd bc3f 1d3e
00000130: 852c d43c 7c9e e53d 625a 0fbe b0eb b5bd
00000140: fa23 01bf 1a9f 593e 4c23 09be 5344 adbe
00000150: f8da 30be 2e1a 62be 5018 62bd 9867 a5be
00000160: 75b0 d93d 3394 8a3e 4131 313e d371 573e
00000170: 8f6a f0bd 9858 eebd 4cdd 4ebe a4d0 17be
00000180: 2632 9dbd 13c5 a8bd 003f acbd 05d2 c5bd
00000190: d3a4 0f3e f3f9 45be 187a b7bd c00a 03be
000001a0: d409 b03d 77ac 8a3d d285 cd3d c6f3 813d
000001b0: 844d 383d a34d e93d 897f 4ebe 3300 5dbe
000001c0: 2a99 043e 2829 91be 5f1f 0e3e 97a7 2bbe
000001d0: 5787 f8bd dcdc 1cbe d0eb 9fbd 4782 c3be
000001e0: dc07 d63d 05d7 1d3e f3a2 31be 8b8e 1b3e
000001f0: 90f7 50be 6d52 263d 9fab 143d 4772 5dbd
00000200: 7632 273e f934 89bd 7fdb 04bd b63a c33c
00000210: 2348 68bd 1f53 f0bd 00f7 6bbc 6f30 6ebd
00000220: 2bd3 f83c f130 44bd 5ccb eabd a9ef 843d
00000230: 4c0d 823d aeb2 1bbc 0c69 9bbc d053 46be
00000240: db39 2abc 0906 bbbd fd14 0e3e a2e6 6bbe
00000250: df2a 56be c331 55bd 97de 6b3d c36b aabe
00000260: a6fd c53d 1f2a e53d 0294 67bd b37f c83b
00000270: be1b 23be 187d c8bc 6d6c 973d 581f 8dbd
00000280: 6385 84bd 0633 923d e331 633d 3c37 a6bb
00000290: 00eb 323e 9871 10bd 281e 27bd 314e 7abd
000002a0: d96e 4c3d 2ee3 9a3c 78c3 64bc 47f7 413e
000002b0: aa84 fb3d a8fc be3d eecb d4bd 6dcf 98be
000002c0: 5fa5 10be 7945 63be 731d 29bd 5bf6 49be
000002d0: fad4 92bd adda 4ebe 60f6 36bd 6e9c 81be
000002e0: 9000 883d 1f46 5ebd 6388 40be fe6f c03d
000002f0: 7cc5 23be 4bef 20be 84df 13be 415f 263d
00000300: b05a ff3d fafb 0fbe adb1 22be ecff 183d
00000310: a53e f3bd a7af c7bd 4558 87be d4eb 7bbe
00000320: be2b 3bbe 6689 023d 2634 833a a0d6 be3a
00000330: 7e64 bbbd 4204 073d 2241 e2bc 381e 3cbe
00000340: 7fa2 0a3e 2338 3fbd 6389 a03c 05a1 8e3d
00000350: 0224 dcbd 8097 b2bc e996 6ebb 473a 4bbe
00000360: 5c34 8e3d 9a52 13be 9c09 743d 31d7 56be
00000370: ecd0 e4bd 282a 25bd 02a4 7bbd 82d8 923d
00000380: 7e1f 18be 927e d1bc 9575 b8be f1c9 523e
00000390: 0d60 28be 962e 673d 2442 4ebe 2b79 6abe
000003a0: 0e6f c3bd a157 b8bd 0149 05be 4760 d0bd
000003b0: b342 88bd 8c0b 8dbb 2e9e 21bd c75b cebd
000003c0: a73b ae3e a49b 47bd b13e fc3d 321a 04be
000003d0: 3e97 43be b991 e93d d546 8e3d 03a4 b9be
000003e0: 6152 6dbd b8fd 18be 53ce 053e 98a6 50be
000003f0: 9790 02be 0972 773d 8faa b2bd 57c2 1a3e
-0.1525218 -0.028798036 0.032197993 0.3319411 0.12309199 -0.17151806 -0.17760035 0.109559014
0.09473355 -0.053475205 0.031134274 0.2694467 0.15709767 0.1438024 -0.04381133 -0.20089513
-0.5653667 0.20217225 -0.044943865 -0.39333996 -0.18524785 -0.3132548 -0.05620645 -0.17966823
0.0024540927 0.3241782 0.24494039 0.36473972 -0.02689192 -0.1824803 -0.049865898 0.05939018
-0.20326976 -0.083280504 0.11507154 0.23700519 0.23298734 -0.24212635 -0.11991965 0.12948316
0.034206484 -0.073379636 0.12905063 0.25387818 0.24822232 0.09050279 -0.20872682 -0.16764931
-0.55712247 -0.048899353 0.09500197 -0.21909171 -0.0013011507 -0.24669379 0.06297762 -0.30414435
0.07330731 0.3069223 0.1042819 0.2541102 -0.122618556 0.06898113 -0.1742751 -0.22980362
-0.20028687 0.0032651185 -0.0039827805 0.1749274 0.15758881 -0.14246207 -0.10426151 0.17385028
-0.10158951 -2.909723e-05 -0.10213096 0.15356344 0.025900135 0.11211869 -0.13999322 -0.088828444
-0.5044552 0.21252099 -0.13392371 -0.3384119 -0.1727103 -0.220803 -0.055198967 -0.32305598
0.1062936 0.27066192 0.17303945 0.21039514 -0.117390744 -0.11637992 -0.20201606 -0.14825684
-0.07675581 -0.08240714 -0.08410454 -0.09659199 0.14027719 -0.1933363 -0.089588344 -0.1279707
0.085956246 0.06771176 0.1003529 0.06345324 0.0449958 0.11391761 -0.20165838 -0.21582107
0.12949052 -0.28351712 0.13879155 -0.16763149 -0.12135189 -0.15318626 -0.078086495 -0.3818533
0.10450718 0.15414055 -0.17347316 0.15191095 -0.20406938 0.04060595 0.036296483 -0.05406406
0.16327843 -0.06699557 -0.03243589 0.023831706 -0.05670942 -0.11734604 -0.014402151 -0.05815166
0.03037413 -0.047898237 -0.11464569 0.06491024 0.063501924 -0.00950305 -0.018970989 -0.1936791
-0.01038977 -0.091320105 0.13875194 -0.23037198 -0.20914792 -0.05204941 0.057585325 -0.3328534
0.0966752 0.111896746 -0.056537636 0.0061187386 -0.15928552 -0.024473712 0.073937275 -0.06890744
-0.06470754 0.07138638 0.055467498 -0.0050725024 0.17472458 -0.03526458 -0.040800244 -0.061109725
0.0499104 0.018907156 -0.013962619 0.18941985 0.12281163 0.09325534 -0.10390459 -0.29845753
-0.14125584 -0.2219447 -0.04128785 -0.19722883 -0.07169528 -0.20200606 -0.044668555 -0.2531466
0.06640732 -0.05426609 -0.18802027 0.09396361 -0.15993303 -0.15716283 -0.14440733 0.040618185
0.12468469 -0.14060965 -0.1588809 0.03735344 -0.11877183 -0.097503 -0.26434532 -0.2460168
-0.18278405 0.031869315 0.0010010048 0.0014559813 -0.09150027 0.032963045 -0.027618948 -0.18370903
0.1353855 -0.046684396 0.019596761 0.06964306 -0.107490554 -0.021800756 -0.0036405867 -0.1984645
0.069435805 -0.14386979 0.059579477 -0.20980527 -0.11172661 -0.040323406 -0.061435707 0.07170202
-0.14855763 -0.025573049 -0.36027208 0.20584847 -0.1644289 0.056440912 -0.20142418 -0.22897784
-0.095426664 -0.09001089 -0.1301613 -0.101746134 -0.06653347 -0.004304355 -0.039457493 -0.10076099
0.34029886 -0.048732415 0.12316645 -0.12900618 -0.19100663 0.114047475 0.06947104 -0.36257944
-0.05793989 -0.14940536 0.13066988 -0.2037605 -0.12750469 0.060411487 -0.08723938 0.15113197

sequential_2/conv1d_10/Conv1D f4 [128, 1, 3, 64]
00000000: f382 343d 9072 bfbd 9802 95bd b995 a0bc
00000010: cc84 fabd 432e 23bd e86f 70bc 7845 db3a
00000020: 5377 55bd f3ec 97bd 428e 21bd 1b58 8dbd
00000030: 2661 b33d d372 b6bd 4c03 443d c7a8 d53b
00000040: c967 cdbd 8d63 b5bd 26fd 903c f7df 25bd
00000050: eb60 3dbd 3b9a c0bd 494c a93d 7cbc 29bd
00000060: 8eaf 833d 1248 bcbd 64b0 39bc 9114 babc
00000070: 4088 f93b 896b af3d 221b 913c e781 b7bd
00000080: 4fb8 57bd 471e 8bbd 06cf 363d 8940 5dbd
00000090: db3e b93c f223 8bbc aa4a cbbd d8c0 393d
000000a0: fbad 55bd de92 e5bd a365 bdbd 3004 89bc
000000b0: 5a6a 8e3d 6309 c1bd ad64 a4bd 0883 86bb
000000c0: 1426 16bd 2110 5bbd 031d 1dbd f226 ff3b
000000d0: faed fc3c 8691 8abb fad7 d33b e8b1 8dbd
000000e0: 8613 c7bb bcdc 02bd d0bc 97bb 41b7 363b
000000f0: e372 a2bb 5c9c 973b e109 26bb dc2a adbd
00000100: 2ae0 663c 36a1 2b3d 7485 6ebc 713d acbd
00000110: 66e4 1d3d 5a12 f5b9 5c82 bebc 0484 17bd
00000120: 825b cf3c 4069 493c a98f afbc 089e ed3c
00000130: 0eb5 b73d 9a88 c03d 5a6b 953c 6cb4 38bd
00000140: f532 8abd cd0e 3ebd 76a2 263c f54b d53d
00000150: ffc9 1f3c d46d 3c3d 41bd df3c 0476 863b
00000160: a988 10bc da0a 61bd 9676 4a3d b9bc a5bd
00000170: b8b7 573d 70ad 843d 31e3 7a3d 3c23 1cbb
00000180: 6149 72bd 0e35 ad3d 8e07 223c 2759 b0bd
00000190: c178 81bd fcad fd3c 554c 56bd f735 af3d
000001a0: ec2f a4bc 7c17 293d cf50 923d 30b2 493d
000001b0: 5087 e4bd 601a ac3d f428 e3bb a071 f53b
000001c0: 74ae 653c c10e 4e3d 6aaa 82bd 98c0 c1bd
000001d0: 0ef5 563d 7dd0 ed3c 95fe 55bd 3d07 26bc
000001e0: e507 83bd 41bc c9bd 0069 1dbb 67e4 9a3d
000001f0: 155c 843d 0fe1 acbd 1945 92bd 973c d3bd
00000200: d745 063d 75f6 f2bc ca6b c5bb 991e 07be
00000210: 9d7d 00be 79c1 1dbd e0de 593b bfc0 46bd
00000220: 0a4f 923d 8243 c13d 0b81 b0bd 6438 febc
00000230: 414d ecbb eeca 51bd bd44 4b3d 84a2 39bd
00000240: ccdc 6ebd a909 87bd d574 ae3d 7bbf 343c
00000250: c1f0 963c cfba 983d f4ba 34bd 6e81 51ba
00000260: a849 bcba 95a3 a8bc 30f8 92bd 21b9 423d
00000270: 2097 b93b 232d 023d 4f0f 21bc eef6 e5bc
00000280: a2ad 46bd fc0a 7bbd 6909 833d 93b2 a4bc
00000290: 8ac6 c1bd ebe5 5fbd ca3c aa3d 86a1 31bd
000002a0: ecab 4c3d 3be4 313c c5db ce3c d732 34bc
000002b0: ae2c 84bd 7200 89bb 6e08 30bd 05b3 0f3c
000002c0: 9af9 f4bc d0de 0ebd 3383 a2bd a4b3 363d
000002d0: dfba 793c 1423 043d 1883 b1bd b3a5 b93d
000002e0: 23a4 c7bd ccd5 e83c be7f c0bd 123d ac3d
000002f0: cc52 d7bd e641 b1bd c96e 80bd 35ee debd
00000300: 135c 683d 2f10 32bd 4135 cebb ac7a a83c
00000310: ab1e b4bd a0ad e7bd 8692 2e3b d8d9 803d
00000320: 1129 263d a021 d73c 0047 16bd a884 9a3d
00000330: 02eb 74bd 4d9f 183d cfae 593c 4373 b73c
00000340: 8206 6ebc a34e 4abb 6f3f 07bc e079 babb
00000350: 1bff 46bc 4249 41bd e208 d23c 9802 87bd
00000360: 5d4d 74bd 4406 523d 2b22 403d 0538 0fbe
00000370: 6020 5cbd 1177 ec3c 4f63 e2bd 66f7 063d
00000380: 2bab c0bd 509c 3bbd 063f c73c 7eb7 803d
00000390: ad49 42bd 9f55 a4bd 64e3 6fbd 20cf 7f3b
000003a0: 4015 903d 6c35 7fbd 6ee2 c03a 1405 25bc
000003b0: a7a7 9d3c ec3e d83c e0a1 463d e1a3 debd
000003c0: f433 d9bd 5f9b f9bb b963 34bd ec3b 13bc
000003d0: 433a f6bc 98e1 973c 937f 9e3a 7497 893d
000003e0: 6e15 aa3d c0af af3b 2be9 92bd ff72 f13d
000003f0: 7598 adbd 92c8 dbbd 3f56 b2bd e611 493d
0.044070195 -0.09348023 -0.07275885 -0.019602643 -0.1223236 -0.03983904 -0.014675118 0.0016729077
-0.05211575 -0.07418241 -0.03944231 -0.069015704 0.08758764 -0.0890862 0.047854707 0.006520364
-0.10029561 -0.088568784 0.017698836 -0.040496793 -0.046235006 -0.09404417 0.08266503 -0.04143952
0.06429969 -0.09193434 -0.011333559 -0.022714885 0.007615119 0.085654326 0.017713133 -0.08960324
-0.052666005 -0.06792884 0.044631027 -0.054016624 0.02261298 -0.016984913 -0.099263504 0.045349926
-0.052167874 -0.11209653 -0.09247901 -0.01672563 0.06953879 -0.094256185 -0.08027015 -0.0041049756
-0.036657408 -0.05348218 -0.038357746 0.007786625 0.030875195 -0.0042287735 0.0064649554 -0.069186985
-0.0060753254 -0.03194879 -0.0046306625 0.0027880224 -0.004957543 0.004626794 -0.0025335478 -0.084554404
0.014091531 0.04190179 -0.014558185 -0.084101565 0.038547896 -0.00046743714 -0.02325552 -0.036991134
0.025312189 0.01229316 -0.021430807 0.02900602 0.0897008 0.09401055 0.018239666 -0.04509394
-0.067480005 -0.046400834 0.01017057 0.10414878 0.009752749 0.046003178 0.027311923 0.004103424
-0.008821645 -0.05494199 0.0494295 -0.080926366 0.052665442 0.06478393 0.061251823 -0.0023824712
-0.05915201 0.08457385 0.0098894965 -0.086107545 -0.0632186 0.030966751 -0.05231889 0.08555215
-0.020042382 0.041282162 0.07144319 0.0492422 -0.11158621 0.08403468 -0.006932372 0.007490352
0.014018644 0.05030704 -0.0638016 -0.094605625 0.052479796 0.029030079 -0.05224474 -0.010133562
-0.0639799 -0.0985036 -0.0024018884 0.075630955 0.06462876 -0.08441364 -0.071420856 -0.10314291
0.03278145 -0.029658535 -0.0060248123 -0.13195266 -0.12547918 -0.038514588 0.0033244416 -0.04852366
0.07143982 0.09436704 -0.08618363 -0.031032749 -0.007211358 -0.05121892 0.0496261 -0.045321003
-0.058316037 -0.065936394 0.08518378 0.011031981 0.018425347 0.07457506 -0.044123605 -0.0007992004
-0.0014365213 -0.020585814 -0.07176244 0.047539834 0.0056637675 0.031781327 -0.00983031 -0.028071847
-0.048505433 -0.061289772 0.06398279 -0.020104682 -0.094616964 -0.054662626 0.08312376 -0.04336693
0.049968645 0.010857637 0.025251279 -0.010998449 -0.064538345 -0.0041809613 -0.04297679 0.008770709
-0.029904176 -0.03488046 -0.079351805 0.044604912 0.015242307 0.032260016 -0.08667582 0.09064808
-0.097481035 0.028422259 -0.09399365 0.08410086 -0.10513839 -0.08655147 -0.062711306 -0.10885278
0.056728434 -0.043472465 -0.0062929695 0.020566307 -0.08794912 -0.11312413 0.0026637628 0.062915504
0.040566508 0.02626115 -0.036688805 0.075448334 -0.059794433 0.037261296 0.0132863065 0.022393828
-0.014527919 -0.0030869625 -0.00825487 -0.005690798 -0.012145783 -0.047189005 0.025639001 -0.065922916
-0.059644092 0.051275507 0.046907585 -0.13986214 -0.053741813 0.028865369 -0.11054098 0.03295078
-0.09407648 -0.045803368 0.024322044 0.06284998 -0.047433544 -0.080241434 -0.058566466 0.0039033368
0.07035303 -0.062306806 0.0014715919 -0.0100720115 0.019244982 0.026397191 0.04849422 -0.10871101
-0.106056124 -0.0076173986 -0.044040415 -0.008986454 -0.030057078 0.018540189 0.0012092463 0.067183405
0.08304869 0.005361527 -0.071733795 0.11789512 -0.084763445 -0.10731615 -0.087078564 0.049089335

sequential_2/conv1d_11/Conv1D f4 [128, 1, 3, 128]
00000000: ff24 a1bb a34f 683c dff3 10bd 066a af3e
00000010: 85b2 423d 4723 4e3d 1832 6b3d 840a 14bd
00000020: e4a4 c7bd 191f e0bc 0f61 84bd a2cc cd3d
00000030: 0319 94bd cd32 b7bd 12da b83d d9e0 813e
00000040: 17d7 2cbd 36d0 623d 3335 c0bd acde cb3c
00000050: 5e31 02bd 841f bdbd 75c1 8cbd d258 fcbc
00000060: 46fb 103c 4f34 18bd 50e6 0a3e e3f0 22bd
00000070: 3a7e eb3c b554 d73d f749 80bd a948 2bbc
00000080: 04e8 92bd f34d 1e3d a2bb a2be 32fa 65bd
00000090: 2263 69be 9784 b13d 7570 83bd 52bf bb3d
000000a0: d930 cdbb 6e75 d73d e855 c93d 70cc a2bd
000000b0: ac20 243d e097 723d ec64 b13d 9233 07be
000000c0: 6bb7 69bd 5f80 c8bd 7107 743e 7366 07bd
000000d0: 0ca2 9abd e50f e23d 1826 cabd d250 35be
000000e0: d278 04bd 6656 163d 5ee6 233e 0bf3 80bd
000000f0: 594b 853c 5520 16bd fb6a 07bd dd6f eabd
00000100: 07fd 423d 154e 863e 6453 ed3d 822f 193e
00000110: 00e2 f9bb c987 933e 84e3 e83d 1008 85be
00000120: 4046 b8bd 4dc4 9dbe 23ab 113d 6f40 81bd
00000130: 5f9f 963d 218d 4d3e ef66 0b3e 9eca aa3d
00000140: 570c cbbd eae8 87bc e2e0 443e 3771 37bc
00000150: 8b7b 77bd 0340 7cbd 4292 5fbc 4f26 613e
00000160: 6fc7 05bd 9fc1 243e 6cd0 46bc bc0d 13be
00000170: 4cb5 9bbe abb4 b93d 1f0e 893e cef6 0a3d
00000180: 1914 6a3d c4bd 7c3e 1bc9 bb3d a546 933d
00000190: de69 dcbd 8dc6 a8bd 374b dc3c 2d1c d83d
000001a0: dd64 49bd 4643 083d 2fbf a23d 35ad b7bd
000001b0: 8ddc 3dbd 6324 7abd b151 973c 6d62 e83e
000001c0: 83a3 92bc 20de bd3d 9053 423e 100c 9cbd
000001d0: 8f48 c43c 8a66 233d db37 2dbe 1965 ba3d
000001e0: 2deb 8ebe f60f 39bc 2c0e 35bd c2e9 94bd
000001f0: d052 ccbb 6ee5 ddbd 4f73 c63d 1204 b0bd
00000200: 1f32 1c3d f4b5 9bbd 9f85 003c 9cb5 e93e
00000210: c9c9 4c3d 9c3a 293d 738e 403d 6787 e8ba
00000220: c348 12be f515 e03c b0bf 1abd 3793 0f3e
00000230: 5f9d 90bd ab25 92bc 0987 853d 70f1 ec3d
00000240: dbd8 88ba e36b 30bc 3edc 9c3d e294 863e
00000250: 24b7 ef3c 7519 923c 2bca ccbc ebc4 843d
00000260: 8dec 7dbc f261 1abe 37c5 deba 4ed1 47bd
00000270: bced eebc aba4 eb3d 821d aa3d b5fa 15bd
00000280: 4ef3 bc3b f110 403d 883c bbbd f02f 823c
00000290: 62e4 a2be a0b4 363c 5009 81bd 7fa1 d33b
000002a0: 9663 24bd dd3d 173e c566 523d 0878 f83c
000002b0: 08cf 1f3e 32ac 9ebd 7187 b93d f634 ac3c
000002c0: 9750 8f3d 46a2 cb3b d890 a33e 132f 56bd
000002d0: 5118 c7bd 6eaa 303d 27b0 dd3c 134c 9bbe
000002e0: 6300 c53d f690 103e 3cae d13d a2d9 d13d
000002f0: d5e2 2a3d 9fcc 03bd ee10 4d3c 033f c73d
00000300: 6447 893d e0c5 d6bb 5175 a73d 15c4 8b3d
00000310: 7d5e 953d 988a ce3e f418 a93d b81c d4bd
00000320: 3d08 913c b8aa 06be 7011 00bd 6ef3 2f3e
00000330: c89f 1bbd 969a 303e e79f c53d bfd5 253e
00000340: 4bcb 67bd d493 043d f9e7 883e 32f4 1abe
00000350: c39f a03d 93cf 6dbd 9edc 193d e0e0 bd3e
00000360: e4aa 34bd 5e75 123e 3571 293e 6cd3 d6bc
00000370: 86b0 033e 802d c3bd d039 3f3e 4118 fbbc
00000380: 9e0c 01bd 897c c43d f2ab 9d3d fdc5 473a
00000390: a90d 33be 48b4 883d c8aa 6dbd cccd f73d
000003a0: ce2f b53c dc38 49bc e69b 8b3d 7be9 003e
000003b0: 5ab8 1b3e 3311 d4bd 122f 44bc 1e0e e63e
000003c0: 0d7a 1b3e d942 e73d 2966 913d d256 59bc
000003d0: 0b80 d4bd 5830 75bd 67ac 1cbe d110 6b3e
000003e0: e9f7 22bd a597 823e 1b30 743d ee2d f8bb
000003f0: ee3a a63d 15f6 81bd 2dc4 463e ccd5 993d
-0.0049177404 0.014179143 -0.035388824 0.34260577 0.04753353 0.05032661 0.05742082 -0.03614284
-0.09748247 -0.027358579 -0.06463825 0.10048796 -0.07231333 -0.08945236 0.090259686 0.25366858
-0.042197313 0.055374347 -0.09385147 0.024886452 -0.03178536 -0.09234527 -0.068728365 -0.030804072
0.008848971 -0.03715926 0.1356442 -0.03978051 0.028746713 0.105142035 -0.06264108 -0.010454335
-0.0717316 0.038648557 -0.31783777 -0.056146808 -0.22791722 0.08667868 -0.06417934 0.09167351
-0.0062619266 0.10520445 0.098308384 -0.079491496 0.04007022 0.05922687 0.086618274 -0.13203266
-0.057059687 -0.0979011 0.23830964 -0.033056688 -0.07550439 0.11038188 -0.09870547 -0.17706612
-0.032341786 0.03670349 0.16005847 -0.06296357 0.01627128 -0.036651928 -0.03306101 -0.114471175
0.047604587 0.26231447 0.11588171 0.14959529 -0.0076258183 0.28814533 0.1137152 -0.25982714
-0.08997774 -0.30813828 0.0355636 -0.06311118 0.073546164 0.20073368 0.13613485 0.083394274
-0.09914463 -0.016590554 0.19226411 -0.011196426 -0.060420554 -0.061584484 -0.01364571 0.2198727
-0.032660898 0.16089486 -0.012134653 -0.14360708 -0.30411756 0.09067663 0.26768586 0.033926778
0.057148073 0.24681765 0.09169217 0.07191209 -0.1076238 -0.082409956 0.026891334 0.10552249
-0.049168456 0.033267282 0.079466216 -0.089685835 -0.04635291 -0.061069857 0.01847157 0.45387593
-0.017900234 0.092708826 0.18977189 -0.07619488 0.02396038 0.03989271 -0.16915838 0.09101314
-0.279138 -0.011295309 -0.04420297 -0.07271148 -0.006235458 -0.10834776 0.09689962 -0.08594526
0.038133737 -0.07603064 0.007844358 0.4564637 0.049997125 0.04131566 0.04701085 -0.0017740548
-0.14285569 0.02735422 -0.037780464 0.14021002 -0.07061266 -0.017840227 0.065198965 0.11569488
-0.0010440605 -0.01076791 0.07659195 0.26285464 0.029262133 0.017834404 -0.024998745 0.064828716
-0.015498293 -0.15076426 -0.001699603 -0.048783593 -0.029166095 0.11506017 0.083064094 -0.036616046
0.005766309 0.046891157 -0.09142405 0.015891999 -0.31814867 0.011151463 -0.06300604 0.006458461
-0.040134035 0.14769693 0.05136754 0.030330673 0.1560632 -0.077476874 0.090590365 0.021021347
0.06997793 0.006214413 0.31946445 -0.052290987 -0.09721435 0.043131284 0.027061535 -0.30331478
0.096192144 0.14117798 0.10238311 0.10246588 0.04172023 -0.032177564 0.012516243 0.097288154
0.0670307 -0.0065543503 0.08176673 0.06824509 0.07293413 0.40340114 0.082567126 -0.1035704
0.017704124 -0.13151062 -0.03126663 0.17182705 -0.037994176 0.1724647 0.096496396 0.16194819
-0.05659036 0.032367542 0.2673948 -0.15132216 0.07842972 -0.058059286 0.037563913 0.37085629
-0.044108286 0.14302585 0.16547091 -0.02622386 0.12860307 -0.09530163 0.18674397 -0.030651214
-0.031506173 0.09594066 0.076988116 0.000762075 -0.1748568 0.06675011 -0.058024198 0.120997995
0.022117522 -0.012281623 0.06816845 0.12589066 0.15207043 -0.10354843 -0.011974113 0.44932646
0.15183277 0.11292047 0.07099564 -0.0132653285 -0.10375985 -0.059860557 -0.15300141 0.22955634
-0.039787207 0.2550632 0.05961619 -0.0075738346 0.08116709 -0.063457645 0.19410773 0.07511482

sequential_2/dense_5/BiasAdd/ReadVariableOp f4 [4]
00000000: c375 45be 2637 19be a454 babd d8a2 9f3e
-0.19283204 -0.14962444 -0.09098175 0.31178927

sequential_2/dense_4/BiasAdd/ReadVariableOp f4 [64]
00000000: 0e2f 4e3d c3d3 893e d375 863d 9f10 83bc
00000010: 0523 87be 9c1c bebe 519f 943e def6 0d3f
00000020: e8c5 a2be 378d ee3e 4c9c 363e f966 d8bd
00000030: 4a98 543f 0cdf 8b3c 1aba 86bd 9859 ba3e
00000040: 5362 35be 73ca 93be 0457 c33d 4d8a 003f
00000050: 6f9a 9f3e 1fd7 26be 345c 19bf 103d 3c3e
00000060: 1791 123f 7017 a03e f78a 2abe 733b 3e3f
00000070: 7531 e03e 051b bebe 98dd f4be 1a0f 0d3e
00000080: 7f71 e33d dbb1 383d ac16 f5be a35d e3bd
00000090: 5b89 093e 1f9d a53e 32bf 113f 1c75 4dbe
000000a0: 8665 1fbe 7217 b7be 3c53 45bd d91a d33d
000000b0: 57d3 37be 53c0 6c3e 4ae9 bd3e da3c bd3e
000000c0: e89d f83d 4de2 af3e a762 473e ead4 29be
000000d0: a2a2 b2be 2397 88bd fbd2 8b3d 0fc8 763d
000000e0: 884d b53a 649e 0cbe b74b c23e aa0f 213d
000000f0: eb5e fe3e fb68 333f 56f5 cd3e 020d b53e
0.050337844 0.26919374 0.06565442 -0.015999136 -0.26393905 -0.37131202 0.290278 0.55454814
-0.31791615 0.46592113 0.1783306 -0.105665155 0.83044875 0.01707413 -0.06578465 0.3639648
-0.17713289 -0.28865394 0.09538081 0.5021103 0.3117251 -0.16293 -0.59906316 0.18382668
0.5725264 0.3126788 -0.16654573 0.7430946 0.43787733 -0.3712999 -0.47825313 0.13775292
0.11105632 0.04509149 -0.4786886 -0.11101844 0.13431303 0.32346436 0.56932366 -0.20064205
-0.15566072 -0.35760075 -0.04817508 0.10307855 -0.17951714 0.23120241 0.37092048 0.3696049
0.12139493 0.3435234 0.19471227 -0.16585127 -0.34889704 -0.06669452 0.06827351 0.060249384
0.001383231 -0.13732296 0.3794839 0.03932158 0.49681792 0.7008206 0.4022624 0.35361487

sequential_2/dense_4/MatMul f4 [64, 512]
00000000: 83b3 4e3e 584f 1c3e bc94 ce3b db37 c53d
00000010: ba76 7cbc e092 2abd b5ce 00be 1308 963e
00000020: 91d9 113e 3153 11be 9ef0 0e3e 897b 1e3d
00000030: 3ea0 163e 8eed ab3e 6b94 56be 3732 b43d
00000040: a7d0 0c3d 40c4 01be 5fcd 233d 2376 5fbd
00000050: 4151 f63d 10ca 433d 26e9 e23e 27a9 cbbe
00000060: a1ea bbbd 5df0 82be 1137 d73d 172f 1e3d
00000070: 34ba f03e 3031 0f3e f610 a3bb 0322 4d3e
00000080: e6cd d13d 37c7 76bc 688e 0f3d 9efc 48bd
00000090: 8052 93bd 653d 6e3e 1e72 57bd 601d 4b3d
000000a0: c115 a73d 2e6a 08bd 6d02 3e3e b795 963e
000000b0: b68a 813e b743 c53d d1c7 db3c bad8 993e
000000c0: b344 b6bd 6fe6 b03e 4e2c 0b3f e040 c4bd
000000d0: c715 2fbe 24f8 5e3d 7716 323d a70a 633d
000000e0: 52d7 c13c da10 a93e 1718 bd3e bb47 f53e
000000f0: 98ca 60bd ca9e 0b3e d378 1e3d 3319 70be
00000100: c641 1d3d 5535 ae3d 7bd2 b03e 930d a43c
00000110: 9696 41bc bf86 3a3b 0eef c43e 19ef fe3e
00000120: 3daa 8c3d d4dc 1d3e c6d3 353e f377 563e
00000130: f764 ee3d 723a 9e3c addd bf3d 9bfc 01bd
00000140: b980 a23e fb53 80be da39 693e aff1 bebd
00000150: 6773 76bd b19f e63c 05e4 fe3d 6ca2 fd3d
00000160: 0217 ad3d ea11 a9bc 4e81 f3bd 6bff ef3c
00000170: 15fb b03d fa09 d13d dc85 f6bc 9c3c a23d
00000180: 9822 0bbd 1f14 ca3c e1ce d73e fb16 043e
00000190: 51ac 05bd ebb4 14be efa4 053e 3e8a e2bd
000001a0: 0502 3abe f2e9 a3bc 0fde a73e 8a52 f7bd
000001b0: cbd1 833d 4e68 fabd db4f ec3e 794f 0cbe
000001c0: 31de d53c 807e 693e 12f2 273d 78c0 8d3e
000001d0: 915b e53c e5df 3c3e 5185 edbc 6454 1c3d
000001e0: 9374 433e debb 8d3c 4bfb 883e b047 65bd
000001f0: fba9 6f3e 62a7 f9bd 9f6e 3e3e 6c62 05be
00000200: 9220 203e 4d78 04bc 23f8 833e 2783 713b
00000210: 4773 b83d 4324 7ebd 1f23 4dbd 0ea2 793c
00000220: 25c9 263e d68b 693c 2669 a03e 2261 8ebd
00000230: 80b4 873e 7bde 4f3e a3aa 243e 2a74 81bd
00000240: 1950 d13c b839 19be 6bff 4abe ee8b c8bd
00000250: 949f a23d 7bf3 84bc e85c 923e e6f1 06be
00000260: db5a b6bd 82e2 38be f989 883e 74d5 ab3d
00000270: dc78 0b3f 405d 273e 1bfc 19be 3645 3fbd
00000280: 709c 263e f795 993e ccb9 0d3e 9e9a f93d
00000290: 9248 41be c42c 1f3c 71a2 6fbe 6621 3f3d
000002a0: a480 b3bc cce7 043e 645f 193e 81e7 6e3e
000002b0: 1a51 0b3c 2f61 a93e a7f7 ea3d 8980 c33e
000002c0: c6db 813d 7826 b33e aad9 e43e c496 75bd
000002d0: a75b 23bd 1cc4 61bc cd5e ff3c a801 85bd
000002e0: 2d34 903e b498 983e 9490 793e a766 bc3e
000002f0: 4999 c13c f64b 0f3b 1b36 5dbd 4c36 74be
00000300: c645 373e 9cf7 eb3d 380d 87be ef43 d53c
00000310: 8166 3bbc d9fd cebe 6019 cc3e a62b 033f
00000320: 32d0 03bd 3163 6f3e d0a8 823e 579e ad3c
00000330: 0a0f 9dbd 71b3 923e 0301 16bd 8b3b ec3d
00000340: c0a3 ad3d fc68 55be 9223 a73c ddad 15bd
00000350: 8fb7 843d 461d 453e 2538 293d 06da ae3e
00000360: 4acd 963d 31ea 6ebd 56d1 0139 8879 c83c
00000370: 12d3 693d 8449 a03c 7c61 abbc 4e0a ce3d
00000380: 5500 6cbe eeae e6bd 85b1 ce3e 5cdb dd3d
00000390: 9209 513d 6dfd 67be 177d 823e 1ba9 62bd
000003a0: 9e8a 2e3e 8915 cbbd 110b b23e e6e5 c0bd
000003b0: 3ace 3bbd f82d bc3d 9aa7 a33e 5513 e5bd
000003c0: e16b 0fbc a567 b03d a9f3 ae3d c000 493e
000003d0: 4dc4 8fbd 6065 08bd e80b 8aba 3fe5 c13a
000003e0: 10c0 b73c 4f14 da3d d823 3a3e 2153 6ebc
000003f0: 7115 b0bd 15bc 653e 2e47 2cbd 9cf6 38be
0.20185666 0.15264642 0.0063043516 0.09629794 -0.015409166 -0.041643977 -0.12578852 0.29303035
0.14243151 -0.14191891 0.13958976 0.03869203 0.14709565 0.33579677 -0.20955054 0.0879864
0.034378674 -0.1267252 0.03999078 -0.054556023 0.12027217 0.047800124 0.44318503 -0.3977749
-0.09175611 -0.25574008 0.1050855 0.038619127 0.47017062 0.13983607 -0.004976387 0.20032506
0.1024435 -0.015062145 0.03504792 -0.04906904 -0.0719347 0.23265608 -0.052599065 0.04958856
0.08158446 -0.033304386 0.18555613 0.29411098 0.2530114 0.09632056 0.026828678 0.30048162
-0.08899822 0.34550807 0.5436448 -0.095826864 -0.17098151 0.054435864 0.043478455 0.05543008
0.023662243 0.3302067 0.36932442 0.47906289 -0.05488071 0.13634792 0.038689446 -0.23447113
0.038392805 0.08506266 0.34535584 0.020026004 -0.011815688 0.0028461663 0.38463634 0.49791792
0.06868408 0.1541627 0.17756566 0.20944194 0.11640351 0.019314978 0.09368453 -0.031735044
0.31738833 -0.25064072 0.22775975 -0.09323441 -0.06016865 0.028152319 0.12445835 0.12384495
0.08451654 -0.020638425 -0.11889897 0.029296597 0.0864164 0.10206981 -0.030093126 0.079217166
-0.033968538 0.024667798 0.42150024 0.12899391 -0.032635037 -0.1452214 0.13051198 -0.11061524
-0.18164833 -0.020009015 0.32786605 -0.1207629 0.06436499 -0.12226926 0.46154675 -0.13702191
0.026106926 0.22802162 0.04100234 0.27685905 0.027997764 0.18444784 -0.028994234 0.03816642
0.19087438 0.017301496 0.2675422 -0.05597657 0.23404686 -0.12190129 0.18596886 -0.13025826
0.15637425 -0.008085323 0.2577525 0.0036851855 0.090063624 -0.0620463 -0.050082322 0.015236391
0.16287668 0.014254531 0.31330222 -0.0695212 0.26504898 0.20299713 0.16080718 -0.06320985
0.025550889 -0.14963424 -0.19823997 -0.097923145 0.07940593 -0.016229382 0.28586507 -0.13178214
-0.08904048 -0.18055156 0.26667765 0.08390322 0.5448129 0.16344166 -0.15037577 -0.046696864
0.16270614 0.29997227 0.13840407 0.12187694 -0.1887534 0.009715263 -0.2340181 0.04666271
-0.021911927 0.12979048 0.14977795 0.23330499 0.008503223 0.33081958 0.11473017 0.38184002
0.063407466 0.34990287 0.44697315 -0.059958234 -0.03988233 -0.013779666 0.031173134 -0.064944565
0.28164807 0.29804003 0.24371558 0.36797068 0.023632662 0.0021865345 -0.054006677 -0.23848838
0.1789771 0.11521837 -0.26377273 0.02603337 -0.011438013 -0.40428045 0.3986311 0.5123848
-0.032180972 0.23377682 0.2551942 0.021193666 -0.07668884 0.28652528 -0.03662206 0.115347944
0.084784985 -0.2084083 0.020402703 -0.036542762 0.064803235 0.19249448 0.04131331 0.34150714
0.073633745 -0.05832881 0.00012380382 0.024472013 0.057086058 0.019566305 -0.020920508 0.10060559
-0.23047002 -0.11263834 0.40369812 0.10832855 0.051034518 -0.22655268 0.2548606 -0.055337053
0.17045066 -0.09916217 0.34774068 -0.0941885 -0.04585097 0.09188455 0.31963807 -0.11185328
-0.008753748 0.086135186 0.08542568 0.19629192 -0.07019863 -0.033299804 -0.0010532113 0.0014793052
0.02243045 0.10648405 0.18177736 -0.014546187 -0.085978396 0.22435029 -0.04206007 -0.18062824

sequential_2/dense_5/MatMul f4 [4, 64]
00000000: d1f9 19bf 8e38 403e f1ff b4be ed1a 1a3e
00000010: 666f 193d 18b2 a3be 576f 0f3f c393 373e
00000020: 738f 97be bec2 72bd 4edf 08bc 704b abbd
00000030: 29b3 993e 022e 103d 12c8 823d 1728 08be
00000040: afc3 74be 56a7 38be 04be 3c3e 25a3 e8bc
00000050: d524 8a3e 9906 d9bd b0a7 923d f22e c1be
00000060: fe96 a2bc abcf ec3e a187 89bc fdc3 833e
00000070: 498f df3e f612 533d d5d6 d5bd 4591 85bf
00000080: 84bb f6bd 4dcf bfbe 951d d33d d2e3 53be
00000090: 1d76 93be 6b30 d13e 50ab 463e 30ec 80be
000000a0: b505 3ebe 688a 76bd a527 18be 006c cebe
000000b0: e16d 963d 47d7 edbd 78c8 ea3c ea27 76be
000000c0: 63ed 22bf 4916 523e 1ae2 2abf 811a 16be
000000d0: 9e88 e2be 77de 893c bad7 953c 231d 6abc
000000e0: 327a 9fbe 129b fbbd bc9c 913e 23d0 54bd
000000f0: 7a05 b73e dfc1 4c3e 59d3 1b3f c89c 183e
00000100: 3861 8b3e 5c19 03bf 0a4c 2d3e d770 c3bc
00000110: 9365 343d edf2 63be af7e b0be 0691 07bf
00000120: 66a0 20be b705 07bf 483e 98be c063 a33c
00000130: 9805 21bf 207c e73c d453 253c 7012 1cbf
00000140: b8f4 1b3e cba1 b43d f644 d7be 0c65 4bbf
00000150: 1e49 d4be 237a 9abe 019b 5e3e 757c e0be
00000160: 0f7c f6be 0ba9 09bf fa96 80be a404 34bf
00000170: 8c57 40bf 09db 483e 3b03 b93c 8d1e 0e3e
00000180: 0524 62be 659c b8bd eafb 393e 2000 97be
00000190: bf85 ac3d 0322 3bbf 34da fbbe 69da 8a3d
000001a0: 4b01 51be b27b 743d e1f3 713e eb5b 4ebd
000001b0: c6f9 c13d aeb1 e9be 9052 ccbe 449a c5be
000001c0: 1a32 7d3e 3490 113e a047 adbd 9f68 0c3d
000001d0: 5251 8dbd b1d3 813e 7a3d d73d fffe 443e
000001e0: bf96 8abd 99e1 a0bd acb8 8abf 130d 333d
000001f0: b358 86bf f4a8 82bf f04e a1bf 3cb1 f1be
00000200: 6626 453e 9420 e8be d4e5 3e3e 86c2 89be
00000210: 84c7 db3c 29a1 b5bd f246 0bbf 9598 1fbf
00000220: 3ac5 1b3e 3bc2 883e fbf5 fb3e d1c7 3d3c
00000230: 15a2 b5be 323f 76be cbb7 0abf 4b7f ae3d
00000240: a281 9fbb cef8 1cbd 07cc 853e 2a0a 363b
00000250: b1c8 763e 3c52 c3bd 58bb 77bd fc6c c43e
00000260: f06b c73d d2d6 c33d 02db c8ba 2ae7 11be
00000270: 93e7 bbbe 9ad0 a6bd 3328 70be 703b cc3d
00000280: 9d3d 3fbd 4a32 21bd 90b2 52be 1bbe 5c3e
00000290: d57e 143e 38e2 bbbe 115e 9dbd 9f02 0bbf
000002a0: 76d2 873c de06 71be a2d6 15be de18 7639
000002b0: b259 efbc 619e 9e3e a692 e43d e7a6 723e
000002c0: c36b 383e 042b c2be 6451 0c3f 7384 853d
000002d0: 0114 183e f6c6 0cbe 256d 03be cc31 b83d
000002e0: 2879 7c3d 875b 04be fb59 17bf 2b13 9abe
000002f0: 7e26 f4be 8786 f4bd dfe6 78bf 10c9 3a3e
00000300: a84a 6b3e ebac 853e fb6d c13d 935e 793e
00000310: 6022 7d3a 28f1 6d3d 893a 9bbd c95d 173e
00000320: a270 f63d a08a eebc ac4a 83be 0ea4 6cbe
00000330: dfa8 883e 053d 12be be0b 8b3d f68d d5bd
00000340: ffce 2ebe 96a3 5bbd 6f6a 0b3e b409 923c
00000350: ddba 57bf eddc 49be fca7 46bd 51a8 a0be
00000360: 33f2 3d3e c455 60bf ef5b 173d 0fa4 643e
00000370: 3c05 023e f0f5 be3d 65ae 38be 4570 db3d
00000380: 3814 d7be 6600 0ebe 0c75 203d 88be bebe
00000390: 958e bf3d ff44 4e3d 341d 303d ca00 bc3d
000003a0: cafa 93be f7b1 963d 7045 a9be a6d4 5d3e
000003b0: 9e74 853d 2a50 c7bd fe04 423e 6016 76b9
000003c0: bb1e 013e a6ea 043e bf0b e7be e3d8 eb3c
000003d0: 0feb 8ebe 21de f83d ba97 373d 1b22 263e
000003e0: a007 10be f14e 313d 48ee 9cbe 6509 c23d
000003f0: c777 0c3d 79fa 5b3e 3f13 9ebe a68d 2a3e
-0.60146815 0.18771574 -0.35351518 0.15049334 0.037459753 -0.31971812 0.56029266 0.1792746
-0.2960163 -0.059267752 -0.008354021 -0.08363998 0.300195 0.035200126 0.06385817 -0.13296543
-0.23902772 -0.18032584 0.1843186 -0.028398106 0.26981226 -0.105969615 0.0716089 -0.3773113
-0.01984739 0.46252188 -0.016788306 0.25735465 0.43664005 0.051531754 -0.104413666 -1.0434958
-0.120474845 -0.37462845 0.10308377 -0.20692375 -0.2880105 0.40857252 0.19401288 -0.25180197
-0.18556865 -0.06019059 -0.14858873 -0.40316772 0.073451765 -0.116133265 0.028660044 -0.24038664
-0.63643473 0.20516314 -0.66751254 -0.14658548 -0.44244856 0.016829712 0.018291343 -0.014289173
-0.31147915 -0.12285437 0.2843989 -0.051956307 0.35746366 0.19995831 0.60869366 0.14903557
0.2722261 -0.5121057 0.16923538 -0.023857517 0.04404218 -0.22260638 -0.34471652 -0.52955663
-0.15686187 -0.52743095 -0.29735017 0.019945025 -0.6289916 0.02825743 0.010090787 -0.60965633
0.15230072 0.08819922 -0.420448 -0.7945106 -0.41462034 -0.30171308 0.21738817 -0.43844953
-0.48141524 -0.53773564 -0.25115186 -0.7031958 -0.75133586 0.19614805 0.022584548 0.13878842
-0.22084053 -0.09014205 0.18162504 -0.29492283 0.084239475 -0.7309877 -0.49189913 0.0677994
-0.2041065 0.059688278 0.23628189 -0.05038063 0.094714686 -0.4564337 -0.3990674 -0.38594258
0.24726143 0.14215165 -0.08460927 0.034279462 -0.06900276 0.2535682 0.105097726 0.19237898
-0.06767034 -0.07855529 -1.0837607 0.04371364 -1.0495819 -1.020781 -1.2602215 -0.47205532
0.19252929 -0.45337355 0.1864236 -0.26906222 0.026828535 -0.088686295 -0.5440513 -0.62342197
0.15211955 0.26710686 0.49211106 0.0115832845 -0.3547522 -0.24047545 -0.54186696 0.08520373
-0.0048677484 -0.038323216 0.26132223 0.0027777054 0.24099995 -0.09537169 -0.0604814 0.38364398
0.09737384 0.09562458 -0.0015324058 -0.14248338 -0.36700115 -0.08145256 -0.23452835 0.09972274
-0.04668962 -0.0393546 -0.20575929 0.21556894 0.14501508 -0.3669603 -0.07683957 -0.54300874
0.016579848 -0.23537776 -0.14632657 0.00023469652 -0.029217575 0.3098021 0.111607835 0.2369648
0.18009858 -0.37923443 0.5481169 0.06519403 0.14851381 -0.13747773 -0.12834604 0.08993873
0.06163898 -0.1292554 -0.59121674 -0.3009275 -0.47685617 -0.119397216 -0.9722728 0.18240762
0.22977698 0.26108488 0.09444805 0.24352483 0.00096563064 0.058091313 -0.07579524 0.1478187
0.12033202 -0.029118836 -0.25642908 -0.23109457 0.26691338 -0.1428109 0.06789349 -0.104274675
-0.1707115 -0.053622805 0.1361482 0.017826892 -0.84269506 -0.19713183 -0.048500046 -0.31378415
0.18549423 -0.8763087 0.03695291 0.22328208 0.1269731 0.093242526 -0.18035276 0.10714773
-0.42007613 -0.1386734 0.039174125 -0.3725474 0.09353367 0.05035877 0.0429966 0.09179838
-0.28902274 0.07358163 -0.3306079 0.2166315 0.065163836 -0.09732087 0.18947217 -0.00023468724
0.12609379 0.12980136 -0.4512615 0.028789943 -0.2791371 0.12151743 0.044822432 0.16223948
-0.14065409 0.043288175 -0.30650544 0.09474448 0.034293916 0.21482266 -0.3087406 0.16655597
