models/demo_models/moving_classifier.tflite (tflite, 461684 bytes, 10 tensors)

sequential_2/conv1d_6/BiasAdd/ReadVariableOp f4 [32]
00000000: 49e7 31be 0607 5abb 7c0b 57b9 90f2 f2bc
00000010: 39d2 06be 6a3b 033e f795 d4bd 9b9e bd3d
00000020: 97d2 9ebd f6a8 3dbe 8fe4 9cbe 5e92 f3bd
00000030: a0f0 e13d 4cae f3be 86e0 eebe 1c37 10be
00000040: 2499 873e 53a1 24bd e737 b53b 470b 05bd
00000050: bace 20be c290 503e 95ee 82bd 0d86 863d
00000060: 33df dbbd 5b43 8d3e d41e 5c3e 1403 593e
00000070: ec2c 0b3e 3fdd 6c3d e7ab 4fbe c947 b8bd
-0.17373385 -0.0033268346 -0.00020508276 -0.029656678 -0.13166131 0.12815633 -0.10380166 0.09258767
-0.077550106 -0.18521485 -0.30643126 -0.11893152 0.11032224 -0.47593915 -0.46655673 -0.14083523
0.26484025 -0.040192913 0.0055303457 -0.032481458 -0.1570386 0.2036772 -0.06393162 0.06568537
-0.10735931 0.2759045 0.21496135 0.2119258 0.13591355 0.057828184 -0.2028042 -0.08998067

sequential_2/conv1d_7/BiasAdd/ReadVariableOp f4 [64]
00000000: 9e27 69be ea3f e1bc 8087 3abb e239 c1bd
00000010: 2a78 f2bb 4bf7 8bbe aaaa 36bd 3748 debd
00000020: 52fb 22be 55b8 d8bd f026 36be 8f6d a53d
00000030: 0a7c f83c 6d7c 39be 86e5 593e 0ae8 923d
00000040: a3d7 0fbe 7982 31bc 14ae 903d 0be4 20be
00000050: 7a00 833d ef3e 843b bd9c 9abe 7ad4 1b3e
00000060: da66 93be cba9 8cbe f32e 3bbe 928b 81be
00000070: e098 393e 1e01 9abe a354 50be cb0f 45be
00000080: 0dfd 3e3d 7b90 c2be 893c 903d bdd0 63be
00000090: 9766 3fbe 3c3a c23d 5ac8 8fbe ee17 33be
000000a0: 22c2 01be 2e1b e6bd 91ef dcbd b562 f33d
000000b0: 00ef d9bb 2c66 6dbe 906c 98bd 914f 75bd
000000c0: 7c09 45bd 0a71 b8bc 83d3 a5be a569 8d3d
000000d0: 5e09 84be 9ec8 d2bd 3ddb 6dbe 9d2c e7bd
000000e0: 90fc 9dbd a148 56be 6981 8dbd dcae 6ebd
000000f0: 8484 b53b 44c4 c4be 3aa7 aabd 9096 dbbd
-0.22769019 -0.027496297 -0.0028462112 -0.094348684 -0.0073995786 -0.27337107 -0.04459635 -0.10853618
-0.15916184 -0.105820335 -0.17788291 0.08077537 0.030332584 -0.18113871 0.21278962 0.07173164
-0.14047103 -0.01083433 0.07064453 -0.15711991 0.06396575 0.0040358226 -0.30197707 0.15217772
-0.28789407 -0.27473292 -0.18279628 -0.25301796 0.18124723 -0.30078977 -0.20344786 -0.19244306
0.046628047 -0.38000855 0.07042796 -0.22247596 -0.18691479 0.094837636 -0.28082544 -0.17489597
-0.12671712 -0.11235653 -0.10787881 0.11884061 -0.0066508055 -0.23183507 -0.07442582 -0.059890334
-0.048104748 -0.022514839 -0.32387933 0.06904916 -0.25788397 -0.10292171 -0.23228164 -0.11287806
-0.07714188 -0.20926143 -0.06909449 -0.058272228 0.0055394787 -0.3843099 -0.08332677 -0.10722077

sequential_2/conv1d_8/BiasAdd/ReadVariableOp f4 [128]
00000000: b4f2 4f3d 1f3e 43be 4820 bfbe f176 8dbe
00000010: 9b47 c9bc b1ba 263e 39dd cbbe fea5 63bd
00000020: 363c bfbe 499c 34be 20bc 9c3d 602d 023d
00000030: 3940 56bd a429 53be 2ecf 60be 5375 c2bd
00000040: cf67 a7be 3c6c 0bbe c989 f73d deea 78be
00000050: 56f1 f6bd bb70 323d 2d4d 82bd 87ae c5be
00000060: 0151 20be 094d 8cbc d837 5ebc 6db2 5bbc
00000070: c936 97be 24b4 fbbe 3a45 843b 3a4c 943c
00000080: 3e24 0bbf d11d cbbd 119b 1bbb f2f1 a5be
00000090: e7f4 d9bd 318b 4cbe 508b 58be a5d1 67bd
000000a0: 684a f4bd e540 943e 2934 e03d 97f3 12be
000000b0: de56 91bc 5838 b7bd 1b05 e03d bf90 edbd
000000c0: 3c35 6fbe 7282 31be e6bb a2be c005 39be
000000d0: b11b 66be 0181 9abe 2ef4 9dbe 5493 073d
000000e0: 91d5 8abd 8157 62bd 1c3c fc3d 17e1 813c
000000f0: 6132 233d b062 57be 1633 7dbd 1fb5 3f3e
00000100: 68f6 95be eb67 05bf ba45 cd3d b32d 1cbe
00000110: e0e2 81bd c05e 043d 0ab5 94be c265 7cbd
00000120: a325 ea3d f56f 23bd 2355 78be a814 94be
00000130: ebdc e13c c927 30be 0bb2 173e ed77 07bd
00000140: a311 25be 5b37 73be eab6 9c3d 8112 26be
00000150: b674 0a3e 0a37 943d 8d5b 9bbc 5327 893e
00000160: 659e 2b3c f5be 10be db2b 26be f21b 41be
00000170: 0db0 55be 4df7 3ebd 05ad 98be 06b8 80be
00000180: d97b 2cbe ad2c 863d bc51 1bbd f59c 27be
00000190: ca39 84bd b730 a4bd d659 d0bd d3c6 b5be
000001a0: 976d 69be a1e9 25be 9266 f73d 56fd a7be
000001b0: 0a04 87bd 563b bdbe 825e e1bd 549c 22bb
000001c0: 752d 04be 1664 78be ee12 c6bd 7709 8b3c
000001d0: acbc ac3d 61fa 0cbe 2501 a6bd 6526 8abe
000001e0: 0e47 9dbd 6bea 5f3e 70e2 91be 5468 8bbd
000001f0: 87a8 ff3c 870b e8be 3591 6dbe 29ce 313e
0.05076857 -0.19066666 -0.37329316 -0.27629808 -0.024570277 0.16282155 -0.39817217 -0.055578224
-0.37350625 -0.17637743 0.076530695 0.031781554 -0.05230734 -0.20621353 -0.21954033 -0.09495034
-0.32696387 -0.13615507 0.12086827 -0.24308345 -0.1205775 0.04356454 -0.06362376 -0.38609716
-0.156559 -0.017126577 -0.013563119 -0.013409239 -0.29533985 -0.49160874 0.0040365728 0.018102754
-0.54352176 -0.099177964 -0.002374355 -0.32411152 -0.106424145 -0.19974972 -0.21146894 -0.056596417
-0.11928254 0.2895576 0.10947449 -0.14350735 -0.017741617 -0.089462936 0.10938474 -0.11599874
-0.23360151 -0.17334917 -0.3178398 -0.180686 -0.22471501 -0.30176547 -0.30850357 0.033099487
-0.06779016 -0.05525923 0.123161525 0.015854402 0.039842967 -0.2103374 -0.061816297 0.18721436
-0.29289556 -0.5211169 0.10023065 -0.15251808 -0.06342101 0.032316923 -0.29044372 -0.06162048
0.1143296 -0.039901692 -0.24251227 -0.2892201 0.027571162 -0.17202677 0.14814012 -0.033073355
-0.16120009 -0.23751585 0.076520756 -0.16217996 0.13521084 0.0723706 -0.018964553 0.26787814
0.010474776 -0.14135344 -0.16227667 -0.18858317 -0.2086794 -0.046622563 -0.29819503 -0.251404
-0.16844119 0.0655149 -0.037919745 -0.16368468 -0.06456335 -0.08017104 -0.10173385 -0.35503253
-0.22795711 -0.16202404 0.120801106 -0.32810467 -0.06592567 -0.36959332 -0.11004354 -0.0024812417
-0.12907965 -0.2425693 -0.09671579 0.016972287 0.08434424 -0.13767387 -0.08105687 -0.26982418
-0.07679568 0.21866767 -0.2849307 -0.068070084 0.03120829 -0.45321295 -0.23199923 0.173638

sequential_2/conv1d_6/Conv1D f4 [32, 1, 3, 3]
00000000: cd51 243d b165 98be a609 7d3e ec70 ab3e
00000010: 428b 2ebe 1cdf e0bc 79b3 8fbe e971 bf3e
00000020: be23 c3be c7d0 f9be d53d 86be 79a4 a1be
00000030: 9c88 01bf 2826 583e 0eca 52be 1e99 10bf
00000040: 94d9 843e a849 31bc a568 8b3e 1546 723e
00000050: f87e b4bc 3542 1e3f 5a60 19be 422a a3bc
00000060: 93b5 92bf 0aae 993d c308 b4bd 5d80 723e
00000070: 35f1 d23e 6958 163d d2b7 d43e c550 c73e
00000080: 7fa5 b53d a275 e83d a578 483e 0f19 3cbf
00000090: 0acb 82be 0b25 823e 5cf2 e1be 1395 68bc
000000a0: 5dab 04be ba0c 8cbe 153f cf3e 87d6 5abe
000000b0: 328a 163f 67fa 8ebe 03a4 f43e ada9 77be
000000c0: 111e 11bf a83d ff3e 17a4 9bbe 06e5 61bf
000000d0: d716 ca3e a5e4 aebd 4198 cf3e 4f8c 3ebe
000000e0: 768e 3c3e c332 563e 6287 793d 1057 04be
000000f0: 6df3 133f 9bd6 9c3d 9678 0ebe 98d6 df3e
00000100: 5978 82bd 9d39 8d3e 755b bf3e d768 a03e
00000110: 0671 733c 4097 f53e a6d1 c43e f028 f0be
00000120: 7fc4 a3bd 0a48 073e 439f f7be 0836 f5bd
00000130: 917b 48be 83fe bdbe f17d a3bc 2ae5 96bc
00000140: d2fc 243f 6c17 843e 736e af3e 5daa 633e
00000150: be2a 503e 674d 7bbe 2855 84be d06f 0d3e
00000160: bb30 aabe 619c 983d c890 d6be b396 2e3e
00000170: 0aad 90be 3ccc 95be bd6d 4ebc 905e 003e
00000180: 250c edbe 9595 cbbe 3578 213e 3c45 263d
00000190: 52b4 813d 9280 0dbf 7bad eabb c106 34be
000001a0: b2d9 19bf 6550 7c3c 0403 4abe 582f 2bbf
000001b0: 6c7b c8be 0f7a bc3e 3592 ecbc 21b1 3cbd
000001c0: 83f3 623e 2db0 aabe 3b4f ad3e 5b9d 80be
000001d0: bbe8 963e 0d0b 57bd 6257 8ebd ea94 33be
000001e0: 6b26 fdbd e8a3 aabe f4a2 183d 52a5 e03d
000001f0: f0b6 56be 8939 1f3e 0c9d bb3d 6b3f d5be
00000200: fce3 d1bb b8da 063d e98b c1bd 2779 09be
00000210: 32eb 17be 8b1d 31be eed3 24bd c423 73bf
00000220: 04b3 8c3d e4b6 863e e45e 883e 8c25 99be
00000230: 4ab6 123f bce2 0d3f 9dc5 a93e 4d2a 68bf
00000240: 3c47 a0be 7230 bebe 3e10 cf3d d205 8dbe
00000250: bd0a 033e 8039 5dbe f8ac f4bd 5616 f23e
00000260: 97b1 0bbf d48c 273e 024f c63e fa15 0e3f
00000270: a793 6dbd c598 63be f0ed f73e 6b94 723e
00000280: dbfb 4abc 6e54 943e a3cd 38be 7b69 9c3e
00000290: df79 9fbe 7f56 b3be 50c3 bc3e 9dc5 26be
000002a0: eaae b7be 9ecf d1bd 9dc2 acbe 9c46 a9be
000002b0: 6566 d6be 0f48 fabe d7b3 f63d 055c 0dbe
000002c0: db71 1bbe bb6c b73d 289f 023f 0eb2 363f
000002d0: 51b0 313e aab3 f33d 2b93 b33e 403b 0cbf
000002e0: 2e0f 7c3e 9c94 0a3f a3da d53e 4e3e 95bd
000002f0: 6509 0fbf 2ef5 dfbd 5b02 90bd 981f e3be
00000300: 3f77 7e3e 02d7 743e a7d8 90be 5e52 803e
00000310: c134 663e 43f2 4abe 4db7 9a3e 8d55 10be
00000320: a2ed 433d f83a 8fbe a8de 163d 438d 173f
00000330: b23d 1dbe 90a6 583d 6af3 503f da80 e93e
00000340: d006 0abe b7d5 dcbe bd62 b63d 1125 9c3e
00000350: 3bb8 ccbe 4065 b337 4952 663e 8fdd 15bf
00000360: 648b e2bd 26fe dd3e 41f2 593f 5055 4fbe
00000370: 7d03 5cbe ba89 77be 89da 993e 4fe1 95be
00000380: aac6 34bf a628 f23e 10a0 083f bb06 6ebc
00000390: f465 173d aae1 2b3f 94ee 4a3e 07f2 043d
000003a0: 963a 313f 8d9b 943e e950 bd3e 448a 54be
000003b0: 1247 b93e 3da4 28bf 27df aebc 6c1e 0c3e
000003c0: 579f a03e 7bb8 f03e 8891 babe ce51 95be
000003d0: 264a d9bd cae8 073f 49cb 90be 5e21 fa3e
000003e0: 73aa b33e 5a63 5abe d993 f03e bed9 e43e
000003f0: 7099 d13e 71df bc3e b178 863e 919d 7abe
0.040117074 -0.29765084 0.24710712 0.3348459 -0.1704531 -0.027450137 -0.28066614 0.37391594
-0.38113207 -0.48792097 -0.2621905 -0.31570795 -0.50599074 0.21108305 -0.2058489 -0.5648364
0.2594725 -0.010820784 0.27228275 0.23659547 -0.0220332 0.61819774 -0.14978161 -0.019917611
-1.1461662 0.075038984 -0.08790734 0.23681779 0.4119965 0.03670541 0.41546494 0.3892881
0.088694565 0.11350562 0.19577272 -0.73475736 -0.25545532 0.25418887 -0.44130218 -0.014195698
-0.12955995 -0.2735346 0.40477815 -0.21370898 0.5880462 -0.27925417 0.4778138 -0.2418582
-0.566865 0.49851727 -0.30398628 -0.8824009 0.3947055 -0.08539704 0.40545848 -0.18608211
0.1841372 0.20917802 0.060920127 -0.12923837 0.57793313 0.0765812 -0.13913187 0.4371841
-0.06370611 0.27583018 0.37374464 0.31329986 0.01485849 0.47966957 0.384412 -0.46906233
-0.07996463 0.13211074 -0.48363695 -0.11973196 -0.19578387 -0.3710824 -0.019957514 -0.01841982
0.64448273 0.2579912 0.34263954 0.22232957 0.20328805 -0.24541245 -0.2584622 0.13812184
-0.33240303 0.07451702 -0.41907334 0.17049675 -0.28257018 -0.2925738 -0.012599406 0.12536073
-0.46298328 -0.3976256 0.15768512 0.04059337 0.063332215 -0.5527431 -0.0071617938 -0.17580701
-0.600978 0.015400027 -0.19727713 -0.66869116 -0.39156663 0.36811873 -0.02887831 -0.04606736
0.22163205 -0.33337536 0.3384951 -0.25120053 0.29474434 -0.052500773 -0.06950261 -0.17537275
-0.12360843 -0.33328176 0.03726478 0.10969032 -0.20968223 0.15549292 0.09160814 -0.41649947
-0.0064053517 0.03292343 -0.09450514 -0.13425122 -0.14835814 -0.17296426 -0.040241174 -0.9497645
0.06870082 0.2631141 0.26634896 -0.29911458 0.573094 0.55424094 0.3315858 -0.90689546
-0.31304348 -0.37146336 0.1011052 -0.27543503 0.12797065 -0.21603966 -0.11947054 0.47282666
-0.54567856 0.16362315 0.38732153 0.55502284 -0.05800214 -0.22226246 0.4842372 0.2368943
-0.012389149 0.28970665 -0.18047194 0.30549225 -0.31147668 -0.3502693 0.36867762 -0.16286321
-0.35875636 -0.10244678 -0.33742228 -0.33061683 -0.41874996 -0.488831 0.120460205 -0.13804634
-0.15180151 0.089562856 0.51024103 0.7136544 0.17352416 0.118995026 0.35073218 -0.5477791
0.24615166 0.5413301 0.4176837 -0.07287274 -0.5587371 -0.10935436 -0.07031699 -0.44360042
0.24850176 0.23910144 -0.28290293 0.2506284 0.22481062 -0.19818978 0.30217972 -0.14095135
0.047834046 -0.27974677 0.036833435 0.59199923 -0.15355566 0.05289322 0.8162142 0.45606118
-0.13479161 -0.431318 0.089055516 0.3049703 -0.39984307 2.1385611e-05 0.22492327 -0.58541197
-0.11061743 0.43357962 0.85135275 -0.20247388 -0.21485706 -0.24173632 0.30049542 -0.2927346
-0.7061564 0.47296637 0.53369236 -0.014527972 0.036962464 0.6714121 0.19817573 0.032457378
0.6923002 0.29024926 0.36975792 -0.20755869 0.36187035 -0.6587561 -0.021346642 0.1368348
0.31371567 0.47015747 -0.36439157 -0.29163975 -0.10609846 0.5308958 -0.28280094 0.48853582
0.3509098 -0.21326962 0.469878 0.44697374 0.40937376 0.36889222 0.26263955 -0.2447417

sequential_2/conv1d_7/Conv1D f4 [64, 1, 3, 32]
00000000: aa26 8a3d a114 abbe a7ca c2be 3173 d03d
00000010: 8b5e 883e 7ace 25bf 1844 bcbc c385 553e
00000020: 731b 183e c025 12be b7a5 abbd 83a0 aabe
00000030: 91cf 593e ea02 02be 5cb2 6fbd a863 683e
00000040: a72a e4bd 56e3 1f3d 1057 6abe fd2e fa3d
00000050: 011c 63bd 20e8 d13d 7ebc e33d f72a a13e
00000060: a25f ffbe 6843 213e 0712 00be 2191 37be
00000070: 7088 19bf 6c0f 82be 7a64 18be a3d2 f9bd
00000080: 3006 babc da2b 79be 3754 3fbe 9cff f23e
00000090: 2dd4 bebe f832 973d 3ab3 9cbc e76e 6a3e
000000a0: aef0 a63d 8278 3dbf 5427 b3be 87ec a5be
000000b0: 7352 953d 6839 80be 4020 92be c3de 93be
000000c0: b28a 96bb 9ff6 743d 0331 eb3d b3c0 3abd
000000d0: dc26 8739 dfe8 233e aa65 7d3e 414e 153e
000000e0: 2674 a0be 458b 5c3e 8e8b c53d df60 2f3e
000000f0: 607d 66bd f183 003f fbcd 4a3e 124a ccbe
00000100: 6d9d f2bd 9300 143c e682 12be 0ddc ef3d
00000110: b08a 4a3e f97c 1fbb 7c10 c2be 74e8 cd3d
00000120: d2e6 7abc 25b2 063e 2094 343e b6e6 4ebe
00000130: 2314 b53e 0898 703e 9b50 c7bd 61f7 bcbd
00000140: ff96 a93d c949 2dbd 0c06 2f3e 2c82 18be
00000150: d41c 983d 14e8 053e 838b 67be 9ab2 d93d
00000160: 54f8 123d 814a 923d 3f63 a2bd 1205 373e
00000170: 0a55 0a3e ef44 b83e 0118 16be 38b5 1b3e
00000180: 75cf efbd 752a 0dbf 71e1 2cbf 1af3 a33d
00000190: 7d5c 8f3e 32c7 b8bd a240 993d 7c4c 91be
000001a0: 36c0 82bd 7449 7b3e 179d 0a3e e81b 7cbe
000001b0: 44f4 48be 6363 553e cf47 e73c db01 a9be
000001c0: d946 f3be 6b40 c83e 84b6 9bbc e71a 48be
000001d0: a62a e5be 15cd 8abe 06f7 db3d ce4a a9be
000001e0: 5908 40be 5b5a e7be f75b b8be f36f fb3c
000001f0: 6e3b 003e 7bde 97be 576e a0bd b0cd 0dbd
00000200: 14e9 4d3e 730a 3f3e 34f1 a5bd 92cd fabc
00000210: 67c4 debe d2d3 21be 89fd 9dbb 3912 2e3c
00000220: 71d8 04bf a06d 49be 09e1 25be 41f4 20bf
00000230: 876f 293e d2ec b8bd 849b 443e 1cb1 51bf
00000240: 40fb c43b 5962 dabd 1db0 a0be 33d1 543e
00000250: bdd8 debe 285f e1bd 693f 633e 4437 26bf
00000260: 72ad 1dbf 24d2 01be 85e0 2b3d 0fdb 9c3e
00000270: 0c09 20be c8d6 27be fc52 1bbc c4e2 8ebe
00000280: f07f a7be 27f2 a93e d591 be3c ae29 913e
00000290: 81cb 74be 44db 52be bb1b 9c3d d1c3 533e
000002a0: 0669 7dbe b753 80bd 8321 68be 43d3 73be
000002b0: 1718 393e 89b1 a2be d277 ebbe a0d3 d13e
000002c0: 81ca 043e 0b98 8ebd 5864 513c 3dd1 98be
000002d0: 6b26 ec3e dd98 14ba 4d13 50be ce67 1c3e
000002e0: f64e f23e 8193 a0be f80c d63e 6eab 433e
000002f0: 88be 96bb c384 74be 82f6 6dbc 9541 673d
00000300: 091c 4b3e 6f48 02be 467d b6be 35f7 e7bd
00000310: 6f70 febe 440f 5ebe 1a67 723e b16e 253d
00000320: 6ed9 1bbe 8ff4 323d 502e 45be c633 93bd
00000330: d841 a3be 3a57 13bd a40d 5abe 4fdd 363e
00000340: 78c4 b5be e1c6 523d 3f74 cebd b992 1fbf
00000350: a43d a1be 0138 483e dbc6 91ba 5d9b 593b
00000360: b00e fdbe 37a4 37be 6601 07bf 80d7 a0be
00000370: 48e1 68bd e4e6 ca3e 573a 06be 65c5 adbe
00000380: 126d 27be b230 023e 8f69 42bf 83f9 3a3d
00000390: 9f2e e5bc dc7f 9ebd 4a41 8fbc d99f c7bd
000003a0: c636 423e 246f 073e f099 163e 3dfb 25be
000003b0: 979b 103f d481 143e 8dfb 473e 5746 2cbf
000003c0: cfb7 8fbe 76f1 423d 7572 193d 9735 a23d
000003d0: 17b4 c2be 7113 153c 8676 65bd 3a5c 5c3e
000003e0: 0631 7abd 9adb aebe 42d2 0abf 6e2b a2bc
000003f0: 970a 28be e8da 143e 3c01 57be 9a1a 003e
0.06745656 -0.33414176 -0.38045236 0.10178221 0.2663463 -0.64768183 -0.022981688 0.20851807
0.14854221 -0.14272213 -0.08381217 -0.33325586 0.21270587 -0.12696424 -0.058519706 0.22694266
-0.11140948 0.039035164 -0.22884774 0.122159936 -0.05544663 0.102493525 0.111199364 0.31478092
-0.4987765 0.1574837 -0.12506877 -0.17926456 -0.5997381 -0.2540239 -0.14882079 -0.12198379
-0.022708029 -0.24333134 -0.18684469 0.4746064 -0.37271252 0.073827684 -0.01912843 0.22893868
0.08151375 -0.74012005 -0.34990942 -0.3240702 0.072911166 -0.25043797 -0.2854023 -0.2888089
-0.0045941705 0.05980551 0.114839576 -0.04559393 0.0002577816 0.16006802 0.24745813 0.14580633
-0.31338614 0.21537502 0.096457586 0.17126797 -0.05627191 0.50201327 0.19805138 -0.3990026
-0.11846433 0.00903334 -0.14307746 0.11711893 0.19779468 -0.0024335964 -0.37903202 0.100541025
-0.015313821 0.13153894 0.1763463 -0.20205197 0.35366926 0.23495495 -0.09732171 -0.09226871
0.08280753 -0.042306695 0.1709215 -0.14893407 0.074273735 0.13076812 -0.22611813 0.10629769
0.035881355 0.07143117 -0.07929086 0.17873028 0.13509002 0.35990092 -0.14657594 0.15205848
-0.11709491 -0.5514291 -0.67531496 0.08005352 0.2800025 -0.090223685 0.07483031 -0.28378665
-0.063843176 0.24539739 0.13536488 -0.2462002 -0.1962443 0.20838694 0.028232483 -0.33009228
-0.4751499 0.39111647 -0.019007929 -0.19541512 -0.447591 -0.2710959 0.10740475 -0.33064884
-0.18753184 -0.45186123 -0.36007664 0.03069303 0.1252267 -0.29661927 -0.07833546 -0.034619987
0.20108443 0.1865633 -0.081026465 -0.030615602 -0.43509218 -0.1580346 -0.0048214835 0.010624462
-0.51892763 -0.19670725 -0.16199125 -0.628727 0.1654645 -0.09029545 0.1919995 -0.8191087
0.0060113966 -0.106632896 -0.31384364 0.20782928 -0.43524733 -0.11004478 0.22192158 -0.6492808
-0.6159278 -0.12677819 0.041962165 0.30635878 -0.15628451 -0.16390526 -0.009480234 -0.27907383
-0.32714796 0.3319256 0.023262898 0.28352112 -0.23905756 -0.20591456 0.07622477 0.20680167
-0.24747095 -0.06265967 -0.22669034 -0.23811059 0.18075596 -0.31776074 -0.45989853 0.4098177
0.12967874 -0.06962594 0.0127802715 -0.29847136 0.4612306 -0.00056685304 -0.20319863 0.15273973
0.47325867 -0.31362537 0.4180677 0.19108364 -0.00460035 -0.2387877 -0.014524104 0.05645903
0.19834913 -0.12722944 -0.3564245 -0.11326448 -0.49695155 -0.21685511 0.23672143 0.040388767
-0.15219662 0.04369026 -0.19255948 -0.071876094 -0.31886172 -0.035971858 -0.21294266 0.1785786
-0.35501456 0.051459197 -0.10080766 -0.62333256 -0.3149234 0.19552614 -0.0011121886 0.0033204176
-0.49425268 -0.17933737 -0.5273651 -0.31414413 -0.05685547 0.3962928 -0.13108192 -0.33939663
-0.16350201 0.12713888 -0.7594232 0.04564811 -0.027976332 -0.07739231 -0.017487187 -0.097472854
0.18966207 0.1322599 0.1470716 -0.16209121 0.5648741 0.1450265 0.19529553 -0.6729483
-0.28069922 0.047593556 0.03746267 0.07920378 -0.38028023 0.0090988735 -0.056021236 0.21519557
-0.06108191 -0.34151918 -0.5422708 -0.0197961 -0.1641029 0.14536631 -0.20996565 0.12510148

sequential_2/conv1d_8/Conv1D f4 [128, 1, 3, 64]
00000000: c705 1fbd f2a2 d53e 96b9 fdbe 73d1 c2bd
00000010: 78c5 af3d cfbc dfbd 043b 193d d22e ad3e
00000020: 0c94 09be 0e0d 45be d75d e53d 9140 be3d
00000030: 1c70 61bf 2126 43bf 0207 d2be bb59 cbbe
00000040: 9626 223f 76ce d03d 9da8 a43d 3b52 913e
00000050: bd47 26be 5cf2 de3e a187 a43e 283a cb3e
00000060: 001f ac3e f8c3 c03c ad49 2ebc 30ca 5b3e
00000070: 4b1e 3dbe 9e7b c93e 60d6 d63e e617 6b3e
00000080: 5acd 16bf c7a2 09bf 17c3 023e 0b3e a8be
00000090: b7be f63d 9ece cebe 0206 bb3d 9f38 44bf
000000a0: 218f 713e c813 063f 97e9 e63d 665c 4a3e
000000b0: 46bc 713e 7aa3 08be 060e b2bd 2ba2 3abe
000000c0: d233 bb3e 56e0 87bd 94bd 733d be26 23be
000000d0: af55 24be e879 23be 71fb 97be d4cf 63be
000000e0: f53a 6c3d cf3a 05bd 03a5 47bf 871f a23d
000000f0: e6c1 29bd 4571 113e 7c45 9c3e bba5 84be
00000100: 3e0a 08bf 9ce0 a23e 7a2e 65be 98b8 c9be
00000110: 3345 73be 79fd 4cbe 5fb2 b43c 62e0 c03d
00000120: 8875 41be 87b3 eebc 2da5 a9bd a5b1 93bd
00000130: da91 82bc b049 21be 9eb4 05be a2a0 983e
00000140: ea03 1ebf eccb e8bc fb4f 82be c4a4 53bf
00000150: 0a53 25be db98 66bd ab95 4fbe 45c1 86be
00000160: f237 343e f0ba c6bd 7af6 573d a636 55be
00000170: fe06 5f3e b1d6 e6be 7568 ad3e 406f 433e
00000180: de0e 82bd f5af 3eb9 c710 85bd bc7d 8fbc
00000190: 6e14 a33b 5ef9 e13c 9ccc 423e a54f 813d
000001a0: 2a66 133e 16d9 283e e949 afbd 3924 e93b
000001b0: df89 a6be 379e 73bd c4c5 95bc 875d 1a3e
000001c0: 7658 05be a8bc 673d 78ee 793e 9939 00bf
000001d0: c189 273e 8c2a b4be 8981 d9be 0138 2fbf
000001e0: 05fd 6dbe 8b31 ffbd 042a 6bbf 0285 403d
000001f0: ac55 be3e a9cb f1bd e78a 1a3d fec6 2bbe
00000200: e3f2 dabe 8d64 28bf 0242 af3e b133 47bf
00000210: 1599 32be def0 be3e 42fd ff3d 5e2c fdbd
00000220: c6f2 a1be 3778 e0bc b810 9abb ad79 8d3e
00000230: 24d0 2f3e 8044 e63e 9afb 32be 680d 8ebd
00000240: 5c72 49bd 6d3f 3abe b2d3 cfbe e84b 033e
00000250: aac1 4dbf d262 fcbe 1402 babe 4600 cebe
00000260: b2d6 7abe 49f3 a1bd c745 8dbe 79e0 353d
00000270: da20 d53b 34a5 47be bde3 7b3e 0f03 81be
00000280: d80d 893e 9323 2c3f 3bf9 bbbc 3bd7 bbbc
00000290: b3fe 20be 3728 25be 6147 9ebd 2b1e fb3e
000002a0: 923b 013d 77f5 0cbf fd23 70be 5826 343e
000002b0: b9ae dd3d b324 89be c6a4 8f3d 9e0e 3f3e
000002c0: d8fa 92be ad1c 023f 40a9 883e b5a7 52be
000002d0: 9f71 e43e 65a6 753e cbe7 16bf b32a c0be
000002e0: 5e45 e7bd 540e 983e 3215 5cbe ed83 c7bb
000002f0: b25b a0be 3459 1dbe bb2c 2ebf 686c 203c
00000300: d3ee a4bd f239 ce3d ab51 35be f259 1dbc
00000310: 77a4 3dbc 69db 153c f458 c63d c0d8 dfbd
00000320: 32cc bc3d 02ee 4a3c 0139 583d f4ec 32bd
00000330: f244 3ebe bb5f 47be fea0 9ebe fa21 99bc
00000340: b759 203e 4cdd 18be b488 55be 0aa8 10be
00000350: e3ee 583e 1370 95bd b080 24be a222 babd
00000360: 4044 483d 11ab d7bd be94 e8bd 8702 23bd
00000370: 85c6 f03c bfb3 c73d 669c 1bbd 68fe 01be
00000380: 387a 04bd d31f d73b 9d79 fcbd 025a 2fbe
00000390: a186 4bbd 7521 39be 0999 96bd 9a77 32b7
000003a0: 0f09 74be 9a2b 143e a78d fbbd b3a9 07be
000003b0: 11d4 c4bd a1e1 2b3e 4ab5 ac3d 0070 853d
000003c0: bb17 44bd 6976 e8bd 14de 14be 6088 e5bd
000003d0: b534 0b3d 923c 733d a52c b6bd 8fda babd
000003e0: c1c9 52bd da26 26be 7e93 7ebd fc4d 2bbd
000003f0: 7b4f 31bd d3f5 653c ca45 b2bd 02ee bdbd
-0.03882387 0.4172588 -0.49555653 -0.095126055 0.08582586 -0.10924684 0.037409797 0.33824784
-0.13435382 -0.19243261 0.11199539 0.09289659 -0.8806169 -0.76230055 -0.41020972 -0.39716896
0.6334013 0.10195629 0.08039973 0.2838305 -0.16238303 0.4354428 0.32134727 0.39692807
0.336174 0.023530945 -0.010637683 0.21463847 -0.18468587 0.39352125 0.4196043 0.22958335
-0.5890709 -0.53764004 0.12769733 -0.32859835 0.12048095 -0.4039201 0.09132005 -0.76648897
0.23589756 0.52373934 0.112750225 0.1976181 0.23606977 -0.13343611 -0.08694081 -0.18225925
0.36562973 -0.066345856 0.059506968 -0.15932748 -0.1604831 -0.15964472 -0.29684022 -0.22247249
0.057673413 -0.032526787 -0.7798616 0.079161696 -0.04144468 0.14203365 0.30521762 -0.25907692
-0.5314063 0.31811988 -0.2238101 -0.39398646 -0.23756866 -0.20018567 0.02205771 0.094177976
-0.18892491 -0.02913834 -0.08283458 -0.072116174 -0.015938688 -0.15750766 -0.13057181 0.29810053
-0.6172472 -0.02841755 -0.25451645 -0.8267329 -0.16144958 -0.056298118 -0.20271938 -0.26319328
0.17599466 -0.09703624 0.052725293 -0.20821628 0.21780011 -0.45085672 0.33868757 0.19085407
-0.06350492 -0.00018185361 -0.06497341 -0.01751601 0.0049768006 0.027584728 0.19023365 0.06314019
0.14394441 0.16489062 -0.08559019 0.007114914 -0.32527062 -0.059477057 -0.018282779 0.1507474
-0.13022026 0.0565764 0.24407375 -0.5008789 0.16361143 -0.3518871 -0.4248164 -0.6844483
-0.2324105 -0.124606214 -0.91860986 0.047001846 0.37174737 -0.11806423 0.037730124 -0.16775128
-0.42763433 -0.6577843 0.34230047 -0.7781325 -0.17441209 0.37293142 0.12499477 -0.12361978
-0.31630534 -0.027401073 -0.0047017 0.27631894 0.17169243 0.44974136 -0.17478791 -0.06936151
-0.049181327 -0.18188258 -0.40591198 0.12821925 -0.8037363 -0.49294144 -0.3632971 -0.40234584
-0.24495962 -0.07907731 -0.27592298 0.044403527 0.0065041604 -0.19496614 0.24598594 -0.25197646
0.26768374 0.6724178 -0.02294599 -0.022929778 -0.1572216 -0.16128622 -0.07728458 0.49046454
0.03155095 -0.5506205 -0.23451228 0.17592752 0.10824341 -0.26785812 0.0701385 0.1865792
-0.28707004 0.50825006 0.26691628 -0.20571788 0.44617936 0.23989256 -0.5894744 -0.37532577
-0.112925276 0.29698431 -0.2149246 -0.006088725 -0.31319958 -0.1536606 -0.68037003 0.009791471
-0.080533646 0.10069646 -0.17706935 -0.009603964 -0.011574856 0.00914655 0.09684935 -0.10930014
0.09218635 0.012385847 0.05278874 -0.043683007 -0.18580988 -0.19470112 -0.30982202 -0.01869296
0.15659223 -0.14928168 -0.2085293 -0.14126602 0.21184878 -0.07296767 -0.16064715 -0.09088637
0.048893213 -0.10530675 -0.11356495 -0.039797332 0.029391536 0.09751081 -0.03799095 -0.12694705
-0.03234312 0.006565073 -0.123278834 -0.17124179 -0.04968894 -0.18079169 -0.07353408 -1.0637474e-05
-0.2383158 0.14469758 -0.122828774 -0.13248329 -0.09610761 0.1678529 0.08433016 0.06515503
-0.047874194 -0.1135071 -0.14537841 -0.11207652 0.033985812 0.059383936 -0.08895234 -0.09123718
-0.05146194 -0.16225758 -0.06215238 -0.04182242 -0.04328869 0.01403566 -0.087047175 -0.09273912

sequential_2/dense_5/BiasAdd/ReadVariableOp f4 [6]
00000000: 2df4 58be 0538 45be 9c4d 1abd 5713 853f
00000010: 2d90 4fbf da09 73be
-0.21186896 -0.19259651 -0.03767167 1.0396527 -0.8107937 -0.23734227

sequential_2/dense_4/BiasAdd/ReadVariableOp f4 [64]
00000000: 98e2 ff3e fed5 6ebf 0282 c0be c4a3 1d3f
00000010: 5177 3cbf ed43 4cbe 3e43 803f a06a 1cbf
00000020: 2bfa 1dbf 4c26 42be 8efb 09bf b1e9 51bf
00000030: 41f6 d93e cf18 29bf 5462 4ebf 4fb9 5e3f
00000040: c2ed 49bf 7a29 2cbf 21a4 85be 8266 9dbe
00000050: d60e f03d be1e 1abf 95de 5ebe 82bc df3e
00000060: aaed ea3e 0d63 25bf 4e9e 19bf f01e a83e
00000070: 7521 c7be df87 a63b bf3f 2dbf 5663 7ebd
00000080: 92be 15bf df4c 4bbf bbea debe 6cf6 c9be
00000090: 0982 0bbd b0c0 473e 3305 4ebf 2575 be3e
000000a0: b608 483e 747b 80be b413 0abf cc18 47bf
000000b0: d764 15bf 0bff 14bf bbb1 193e 711d 2bbb
000000c0: b3a4 ad3e e38c 2dbf 0f50 8f3f 2e0a 0b3f
000000d0: 7d4f f33e 1ca7 8b3f e686 913f 3811 60bf
000000e0: 21f2 56be 079a 8abf 373c eebe 7cb0 1cbf
000000f0: bfda 263e f94b febe 76a2 223f 7061 1bbe
0.49977565 -0.93295276 -0.37599188 0.6157801 -0.7361956 -0.19947787 1.0020521 -0.61100197
-0.6170985 -0.18959922 -0.53899467 -0.8199721 0.4257069 -0.6605348 -0.80618787 0.8700151
-0.78878415 -0.6725079 -0.26101783 -0.3074227 0.1172158 -0.6020316 -0.21764596 0.43698508
0.45884448 -0.64604264 -0.6000718 0.32836103 -0.38892713 0.005082115 -0.67675394 -0.062106453
-0.5849391 -0.7941417 -0.4353846 -0.39445817 -0.034059558 0.19507098 -0.80476683 0.3719875
0.19534573 -0.25094187 -0.53936315 -0.7777221 -0.58356994 -0.58201665 0.15009205 -0.0026110078
0.33914718 -0.677931 1.1196307 0.5431241 0.47521582 1.0910373 1.1369293 -0.87526274
-0.20990802 -1.0828255 -0.46530315 -0.61206794 0.16294383 -0.49667338 0.63529146 -0.15173888

sequential_2/dense_4/MatMul f4 [64, 1280]
00000000: 2691 a7be bced b73d f4af 70bd c206 063e
00000010: 52c2 51be 6ee6 a93d 7ca9 9e3d 83e8 39be
00000020: c953 37bf 338d 1bbd 67c8 973e 9e26 60be
00000030: 296f 193e a376 e93d dadb 653e 7f9f 2bbc
00000040: 25ca 92be 9c5b 18bd 048a 68bc 25f8 6fbf
00000050: f85c 9c3d 5240 9abb ddc0 9f3c f5c4 0ebe
00000060: e32d 94bd 60fe d4bc 1cee cd3d 9169 c2bd
00000070: d6a9 99be ba51 a03c c3ec 313d 4039 05be
00000080: 4dde b93d 7277 1c3f 5628 903d 7f64 3abd
00000090: 90af 10bb 365b 7b3e a4f1 cebc 35e4 18bd
000000a0: 0a12 b7bd 8978 b2bd a185 79be 3410 59be
000000b0: ad42 c7bd 7d11 903d 0f80 d4be 2e90 153e
000000c0: ae92 1f3e 719d 8b3d 2c99 ddbd d27c 09be
000000d0: 414b 9abd 4c0a 3fbe b08f a73d 3ff4 28bf
000000e0: 2fa6 babd 8b67 c2b8 23f0 4abd 822b 403d
000000f0: e996 f93e a6a0 d3be bcc9 c7be 9909 cb3d
00000100: a174 3bbe 16c1 d73c 5aa9 6e3e cd3b 07bc
00000110: 4051 963d 192e f33c 6568 c43d 1eb5 393e
00000120: fb34 c2be 1144 8d3e 7447 f5be 8d2e 4abe
00000130: c1ff 96bd 2635 c03d 62b4 adbe 1cf1 baba
00000140: 7c01 25be e837 cabd 3ba3 1c3e 6d40 123e
00000150: 0ce6 923e fbc6 b03e 2712 3d3e 1845 1d3d
00000160: af5e 05be 02d3 8c3e 90e4 d93d c5ec 70bd
00000170: 76ed 103e f35a e0be 3bdb eebd bcb9 63bd
00000180: 19c1 4cbe 26c4 e13d 3d96 953d 6942 06be
00000190: a2e5 12bd 5e89 10be 410f 48bc 6f12 8c3e
000001a0: 4230 e7be a0be f8bd e6d3 ea3e 7da1 c8be
000001b0: f2e9 203d 62b5 a73d 7475 353e c5d3 90bd
000001c0: f65e a83d e30f 0ebe bfff 2ebd 991a bc3e
000001d0: 67fe 93bd 6d39 273e f874 1e3d c268 07be
000001e0: 4d54 d4bb 4862 36bf f377 a3be 108f ef3d
000001f0: 6e65 ccbe b19d 6bbe 03f4 e9bd 8eec 95be
00000200: 42d3 cdbe a64e 233c 9c84 67bd 0167 7a3d
00000210: 7fd2 71be 49e3 32bf f41e 3cbe 7db0 aebc
00000220: 58fc 03bf 7a38 cf3d c75b 163e 0c35 ef3b
00000230: 0415 683e 066e c43c 5d50 303e 66b7 c93d
00000240: 4df0 dcbe d387 623e 8c96 e9be 3091 f5be
00000250: d659 2bbe 443a a03d 43f5 e2ba 1830 d3bd
00000260: c41d acbd bb22 b4be 8754 bd3e 9fe9 b13d
00000270: 1a8c 91be 89ad 583e 66b9 cb3e 6a90 c0be
00000280: d06a 873d 1dcb 4c3e e139 a33e 8b08 6c3e
00000290: 656e 453e 2fcb 9e3e e79a e33d b79c 36bd
000002a0: 987f 053e 6e7b 94bd 00b9 6c3e 4381 71be
000002b0: e0e9 653e 9210 033e 60a1 90be 1df4 1f3d
000002c0: b1cd fd3d 6aa0 943e e039 083d 4f9b 5b3e
000002d0: 68fc b53d f957 46be 8205 703e 401e 03bf
000002e0: a188 dd3d a55c 843d 2da1 513e 6418 ce3e
000002f0: 51de f93d 6074 f4be a0a2 cfbe bc5a ce3e
00000300: 84be 333e 0a3e 583e e031 f53e 0349 bcbd
00000310: ee26 a43e 93f8 1bbd 49ab c93d 5a04 1a3c
00000320: b53c b6be aff4 063e dba6 46be a1c9 a4bd
00000330: 123a a3be 8475 023e 5009 153e 5770 1dbe
00000340: 1145 3ebe 7792 2e3d 8a2f 633e 8811 333e
00000350: 1e96 603f cd5b b5bc 839d 2b3e c732 b0bd
00000360: 2f72 933d 17b0 4d3e 0bb6 033e 8478 3b3d
00000370: 3e58 1ebe 113f 813e 7fa7 60be cb5a 09be
00000380: 0b9a cfbd 8151 063d 8ebf 8a3d 3174 a23d
00000390: 35d0 493d 6f8e 453c 3fb3 e8bc 98d7 913d
000003a0: 206a 41be 2b49 06bd 2aa2 6e3e 6b14 7dbe
000003b0: 311d 2dbd e002 a83b 3faf 6a3e fa9f 58be
000003c0: a0fc 06be 7043 c7bd 8cf0 e13d ad4d ab3e
000003d0: 5659 953e a5e1 753e 6ea3 643d 98a3 0f3d
000003e0: 5254 9f3c edc9 15bf 1375 84be 9a9d 163e
000003f0: 1ab2 16be 2f24 9ebe cead 0cbf beb5 8bbe
-0.32727927 0.08980891 -0.058761552 0.13088515 -0.20484284 0.08295904 0.0774717 -0.18155102
-0.7161222 -0.037976455 0.29645082 -0.21889731 0.1498381 0.11399581 0.22447148 -0.010475039
-0.2866985 -0.03719674 -0.014193062 -0.93738014 0.0763492 -0.0047073746 0.019501144 -0.1394232
-0.07235315 -0.026000202 0.100551814 -0.094927914 -0.30012387 0.01957022 0.043438684 -0.1301012
0.09075604 0.6111976 0.070389435 -0.045505997 -0.00220773 0.24546513 -0.025261708 -0.03732701
-0.089389876 -0.087143965 -0.24367382 -0.21197587 -0.09729514 0.070345856 -0.4150395 0.14605781
0.15583298 0.06817139 -0.10820231 -0.13426521 -0.07533885 -0.18656272 0.08181703 -0.6599769
-0.09113728 -9.269927e-05 -0.04954542 0.046916492 0.48747948 -0.41333503 -0.390211 0.0991394
-0.18306209 0.026337188 0.2330679 -0.008254004 0.07339716 0.029685067 0.09590224 0.18135497
-0.37931046 0.27590993 -0.47906077 -0.1974432 -0.07373 0.09385137 -0.33926684 -0.001426253
-0.16113847 -0.098739445 0.15296642 0.14282389 0.28691137 0.3452681 0.18463956 0.03839597
-0.130244 0.27504736 0.10639298 -0.05881955 0.14153084 -0.4381939 -0.11662909 -0.055597052
-0.19995536 0.110237405 0.07304046 -0.13111271 -0.035863526 -0.14114901 -0.012210668 0.27357814
-0.45154005 -0.12145734 0.4586479 -0.39185706 0.039285608 0.08188893 0.17720586 -0.07071642
0.08221237 -0.13873248 -0.042724367 0.36739042 -0.07226258 0.163305 0.03868577 -0.13223556
-0.006479776 -0.71243715 -0.31927451 0.11697209 -0.39921135 -0.23009373 -0.11423495 -0.2928204
-0.4020024 0.009967482 -0.05652295 0.06113339 -0.23615454 -0.6987806 -0.18371183 -0.02132439
-0.5155692 0.10118194 0.14683448 0.007300025 0.22664267 0.023978245 0.17218156 0.098494336
-0.43152085 0.22122125 -0.4562267 -0.47962332 -0.16733488 0.07823613 -0.0017315525 -0.103119075
-0.08404115 -0.35182747 0.36978552 0.08687138 -0.28427202 0.21159948 0.39789885 -0.3761018
0.0661217 0.19999357 0.31880096 0.23050134 0.19280393 0.31014392 0.1111353 -0.04458305
0.13036954 -0.07250105 0.23117447 -0.23584466 0.22452497 0.1279929 -0.2824812 0.039051164
0.12392748 0.29028636 0.03325832 0.21445964 0.08886033 -0.19369496 0.23439601 -0.5121803
0.108170755 0.06462983 0.2047164 0.40252984 0.122006066 -0.47745037 -0.4055376 0.403036
0.17553145 0.21117416 0.47889614 -0.091936134 0.3206095 -0.038078856 0.09847123 0.009400452
-0.3559319 0.13179277 -0.19399588 -0.0804627 -0.31880242 0.12740141 0.14554334 -0.15374885
-0.18581034 0.04262015 0.22186103 0.17487156 0.8772906 -0.0221385 0.16759305 -0.08603435
0.07199513 0.20086704 0.12862413 0.04576923 -0.15463349 0.25243428 -0.21938895 -0.13413541
-0.10136803 0.032792572 0.067748174 0.07932318 0.049270827 0.012057885 -0.028405784 0.07121199
-0.1888814 -0.032784622 0.23304048 -0.2471482 -0.042264167 0.005127296 0.22918414 -0.21154776
-0.13182306 -0.097296596 0.11032209 0.334577 0.2916972 0.24011858 0.05581992 0.035068125
0.019449387 -0.5851124 -0.2587057 0.14708558 -0.14716378 -0.3088698 -0.54952705 -0.27287096

sequential_2/dense_5/MatMul f4 [6, 64]
00000000: 127a 6d3d 19fc f43d 8666 a1be 44b1 303e
00000010: cb36 25be 9978 4e3e 7229 023e 2161 93be
00000020: ab73 e7bd ac96 28bf 91ae 96bc c199 5dbe
00000030: c828 d4be f686 bdbe ab80 92be 32c3 073d
00000040: 2e1a 6f3d 20f3 d9be bb89 c7bd 3b97 abbe
00000050: 4dc1 2bbd 6a53 64be a72d 2c3e 58c0 65bf
00000060: ca62 a23e f3c5 98be 9cc7 973d 0518 823d
00000070: 99da 5c3e c7d1 0cbe 3a0d 033e e083 583d
00000080: c7c2 e5be 399b 443c a2c2 02bf f5b2 0f3e
00000090: 7931 b2bd 016c 32bf 77e3 7bbe 6fe9 743e
000000a0: 4c49 77be b976 9bbd 5af8 0e3d 5570 b9be
000000b0: b5c6 01bf 95fa ddbe ba60 0dbf 2a32 4abc
000000c0: 4a3f 86bf 0e8a 383e 1b5a 723d d5e5 ffbe
000000d0: baed 443e ab97 69bf e9b1 7abd 8ae4 783e
000000e0: bba6 e5be e400 4fbe bdc0 a33d c4e2 113e
000000f0: 1b47 49bb e0da 18bf 566e 95be f67c 2bbe
00000100: c35a 203e 71e2 60be ef6d d3bd db70 103e
00000110: 2943 0dbd cc19 883e 39f6 afbd a030 86be
00000120: 1bac edbe f31b 26be 8077 e5bd 3bc2 68be
00000130: 6232 a03d 50a7 c1bd 0bd0 a1bf b819 83be
00000140: 071b d738 2337 a1bc 4897 1abf 52ff 00be
00000150: 17c2 b9be ee59 b6be 3588 e2bd 8ae9 19bf
00000160: 698c 8d3e 573a 8ebd d71c c43d 56e3 38be
00000170: 5972 553e 5d3b b3be c606 0ebf 23c9 423d
00000180: d51d 7cbe 7244 b2bd a0d8 0fbf ef04 c93c
00000190: d3ea a03e 9436 43bd e5dc 80be 052f debe
000001a0: 2268 00bf 6df3 87be 9c73 1d3d 4570 c3be
000001b0: e630 593d 3c1b 673c 3b3c f5be cebf 813d
000001c0: dfbc adbf 27c7 153e 9ec5 ecbe 1695 b7be
000001d0: d636 8bbe a621 8dbf 6357 2abf 91fd 53be
000001e0: bc17 9cbe c70a 43be 3ef6 323c 3fea ee3d
000001f0: 7915 4e3e 8b35 233e 0dee 273e c06c b83a
00000200: 8617 ddbe 8052 5b3d 4e43 9ebe a47a 7abf
00000210: bd57 edbd 7c85 743e 982b 28bf d508 b8bd
00000220: a0ae bebe 74ce 06bf 0565 f7be 8c1a 4fbd
00000230: 2dba a23e 19c9 15bc 330a 20be 10b0 11bf
00000240: 6e20 b93d b125 e13c 9f24 94be 6791 8bbe
00000250: 7cf0 f0bd 0fdc 16be 2bda c13d c866 d8be
00000260: c0eb 9ebf 2b17 413d 421e e53d b408 71bd
00000270: a607 6bbe 341d f7be 591e b1be 5889 4a3e
00000280: 1d04 0bbc 519a f83d 073e c5be 4292 e43c
00000290: 514f 09bc aaff 473e af34 5ebd 98a4 07bf
000002a0: b122 2fbf 1f3f 80bd a2fe 943d 4f08 82be
000002b0: 5fab 8f3d 064c 83bd bdeb d3bd 5448 9ebe
000002c0: c847 d7be f79e a2be b7f0 c23d 1dd9 17bf
000002d0: f4f6 413e 92c3 04bf fd78 153d 05ca 1d3e
000002e0: ee4a 7cbe 5351 943c 6ddb f83b 5db4 a1be
000002f0: e820 acbe dc6b 2e3e 3dda abbd 8242 fcbd
00000300: c0c8 a4bc ffce 383c cb86 c0bd f977 0a3e
00000310: c5e8 0fbf d6a4 02be b1e9 243e 5008 bdbe
00000320: 7a89 e5be e7e9 fabd 89ac cfbe a2ce 77be
00000330: d4bb 813e 1e02 b2bd 6cab f2bd de5b 783e
00000340: 2e3e 08be c5a8 c03c af09 cf3c f9e2 cbbd
00000350: 88e0 97bd 7e2a 843d 379b bebe 1a1f f83c
00000360: 4004 33be d976 b13b 6f73 c8bd 6773 413e
00000370: 40d3 cabe 880c be3d be2c 7abe 102b 82be
00000380: 7cfb 9f3e 5e93 d33e 10dc 3abe e339 33bf
00000390: 4bfd 8dbe 29fb 063e 2c3b d6be c31d 443c
000003a0: 3b2a e73d dfb9 06bf c1df 6fbd 638c a4be
000003b0: 0182 1cbe 36b3 a4bc 54a4 6c3d 5abd cd3d
000003c0: fb72 3dbf 8ed0 1fbf a94b 383e 77d9 2d3e
000003d0: 75c3 2d3d 1daf cd3e 0b7e 473e e7d4 afbe
000003e0: 000f 3bbd 845c 3dbe edbe e2be 1f56 47bd
000003f0: 92aa 8e3d aeca b4bd be9b 953e 268c 533d
0.057977743 0.11962146 -0.31523532 0.17255121 -0.16134183 0.20163192 0.12711123 -0.2878504
-0.11301359 -0.6585491 -0.018393787 -0.21640684 -0.41437364 -0.3701703 -0.2861379 0.033145137
0.058374576 -0.42568302 -0.09743067 -0.33513817 -0.041932393 -0.22297445 0.1681429 -0.8974662
0.31715995 -0.29838523 0.07411119 0.063522376 0.21567763 -0.13751899 0.12798014 0.05286014
-0.44875166 0.011999899 -0.51078236 0.1403311 -0.087008424 -0.6969605 -0.2459849 0.23917173
-0.24149054 -0.07591004 0.034904815 -0.36218515 -0.5069383 -0.4335524 -0.5522572 -0.012341062
-1.0488064 0.18021414 0.059167963 -0.49980035 0.1923131 -0.9124705 -0.061204825 0.2430593
-0.44853768 -0.20215183 0.07995746 0.1424666 -0.0030712548 -0.59708977 -0.29185742 -0.16746888
0.15659623 -0.2196138 -0.103237025 0.14105551 -0.034487877 0.2658218 -0.08591885 -0.26208973
-0.4642037 -0.162216 -0.112044334 -0.22730343 0.0782211 -0.094557405 -1.2641615 -0.2560556
0.00010257033 -0.019679612 -0.60387087 -0.12597397 -0.3628089 -0.35615486 -0.11061136 -0.6012198
0.27646187 -0.06944721 0.09575813 -0.18055472 0.20844401 -0.35006228 -0.55479085 0.0475551
-0.24620755 -0.08704461 -0.5618992 0.024538485 0.31429157 -0.04765947 -0.2516853 -0.43395248
-0.50158894 -0.26552907 0.03844033 -0.38171592 0.05302515 0.014105614 -0.47897515 0.06335412
-1.3573264 0.14626752 -0.4624452 -0.3585593 -0.27190274 -1.1025894 -0.6653959 -0.20702197
-0.30486858 -0.1904708 0.0109229665 0.11665773 0.20125379 0.15938394 0.16399403 0.0014070496
-0.4318201 0.053545475 -0.30910724 -0.97843385 -0.115890004 0.23879045 -0.6569152 -0.089860596
-0.37242603 -0.5265877 -0.4831926 -0.050562426 0.31782666 -0.009142184 -0.1562889 -0.56909275
0.090393886 0.027483793 -0.2893419 -0.2725937 -0.11764619 -0.14732383 0.0946544 -0.42265916
-1.2415695 0.047141235 0.11187412 -0.05884619 -0.22952136 -0.48264468 -0.34593466 0.19778955
-0.008484867 0.121388085 -0.38523886 0.027901772 -0.008380727 0.19531122 -0.05424946 -0.52985525
-0.6841231 -0.062620394 0.0727513 -0.25396964 0.07015108 -0.06410985 -0.10347698 -0.30914557
-0.42046952 -0.31761906 0.09518569 -0.59315664 0.18941861 -0.51860917 0.036492337 0.15409096
-0.24637958 0.018105185 0.007594517 -0.3158292 -0.33618855 0.17033333 -0.08391235 -0.12317373
-0.020115256 0.01127982 -0.0940071 0.13522328 -0.56214553 -0.12758192 0.16104771 -0.36920404
-0.4483145 -0.122516446 -0.4056132 -0.24199918 0.25338614 -0.0869181 -0.118491024 0.24253795
-0.1330497 0.023517976 0.025273172 -0.09955401 -0.07415873 0.06453417 -0.37227795 0.030288268
-0.1748209 0.005415779 -0.09787642 0.18891679 -0.39614296 0.09279734 -0.2443113 -0.2542348
0.31246555 0.4132337 -0.1824801 -0.70010203 -0.2773231 0.13181747 -0.4184202 0.011969986
0.11287352 -0.52627367 -0.058562998 -0.32138357 -0.15283968 -0.020104986 0.057773903 0.100458816
-0.7400357 -0.62427604 0.17997612 0.16977488 0.04242273 0.40172663 0.19481675 -0.3434212
-0.045668602 -0.18492323 -0.4428629 -0.048666116 0.069661275 -0.088277206 0.29220384 0.051647328
