models/demo_models/sitting_or_standing_model.tflite (tflite, 463448 bytes, 12 tensors)

sequential_1/conv1d_4/BiasAdd/ReadVariableOp f4 [32]
000000 45 f3 b4 3b f1 b3 4d bd c9 c5 ba bd 40 01 91 be
       0.005522164 -0.050220434 -0.09119756 -0.28321266
000010 17 bd 69 be 10 09 cd 3d 98 ba ed bc 3a a3 42 bf
       -0.22826038 0.10011494 -0.029019639 -0.76030314
000020 c0 a5 01 bd 58 4a 66 bf e3 de 94 3d 65 3c 9b 3c
       -0.031652212 -0.8995719 0.07269075 0.018949697
000030 13 83 e3 3d 29 b8 09 3d d0 fe 43 be d5 42 f6 bc
       0.11108985 0.033622894 -0.19140172 -0.030061165
000040 dd 26 7f bd f3 d9 69 be e3 cf b8 be 96 ac 8e 3d
       -0.062292922 -0.22837047 -0.36096105 0.06966512
000050 7b d9 36 be f7 0d bb bd 36 e4 8f 3d e3 37 97 bd
       -0.178564 -0.09133523 0.0702595 -0.073837064
000060 bb eb 25 be 02 4b 8b bb 23 2e 36 be 4c 1e 54 be
       -0.16203205 -0.004250885 -0.17791037 -0.20714682
000070 78 87 49 bd 04 01 85 3d b3 a7 e8 bd c2 c4 17 be
       -0.04920146 0.06494334 -0.11360111 -0.14821151

sequential_1/conv1d_5/BiasAdd/ReadVariableOp f4 [64]
000000 b6 12 93 bc f8 13 f6 3c 9d 70 e7 bd 5c 77 96 bd
       -0.017953258 0.030038819 -0.11300776 -0.07346985
000010 96 ef 1d be b8 6c 04 be cb 5f b9 be 86 15 f3 bd
       -0.15423426 -0.12932098 -0.36205897 -0.1186934
000020 40 e4 76 be a0 ec 2d bd dd 36 97 be c2 50 21 be
       -0.24110508 -0.04246199 -0.29534045 -0.15753463
000030 4f 53 48 be 14 bb 48 be 22 79 0f bb 4e bb 9e be
       -0.1956303 -0.19602615 -0.002189227 -0.31002277
000040 06 ac 1f be 24 10 bc bd 3b c7 ab be b9 34 f6 bd
       -0.15592965 -0.09182766 -0.33550438 -0.12021775
000050 b1 c9 de bd 9d 96 00 bd 03 b2 62 be a5 4d da bd
       -0.10878313 -0.031393636 -0.22138219 -0.10659341
000060 f9 49 c1 bd 10 15 e8 bd 55 93 6d be 3a a1 d1 be
       -0.09437937 -0.11332142 -0.23200734 -0.4094332
000070 89 41 e1 bd e2 2d 4c bd ef 2d 20 bd 20 41 21 be
       -0.10998828 -0.049848445 -0.039106306 -0.157475
000080 a7 27 cf be 8d 9d 3e bd 85 9e 45 3d 25 10 a7 be
       -0.4045994 -0.04653697 0.04824688 -0.32629505
000090 e5 4c 40 be 26 84 11 be 25 c3 25 be fc c4 2c be
       -0.18779333 -0.14210567 -0.16187723 -0.16872019
0000a0 3f 14 3f be e1 28 58 be 0a 56 34 be b2 f6 2d be
       -0.18660067 -0.21109344 -0.17610946 -0.16988638
0000b0 43 34 13 be 01 22 ee bd 04 4d 0c be f6 2d 8d be
       -0.14375405 -0.116275795 -0.13701254 -0.27574128
0000c0 9c 0e 69 be 4b 3d 83 be e7 fd ca bd 8b be 4a bd
       -0.2275948 -0.256327 -0.09911709 -0.049498122
0000d0 fc 2b 8c be 32 69 e7 be 31 f5 0e be 65 7f 10 be
       -0.27377307 -0.45197445 -0.1396072 -0.14111097
0000e0 65 06 78 3e 4a 44 be be 15 14 a6 be b2 41 d2 bd
       0.2422119 -0.37161475 -0.32437196 -0.10266437
0000f0 10 69 0e be d9 c1 48 be cd 27 03 be 7a d5 11 bf
       -0.13907266 -0.19605197 -0.12808152 -0.56966364

sequential_1/conv1d_6/BiasAdd/ReadVariableOp f4 [128]
000000 c4 47 8e bd 56 17 3e be 20 9b fd be 72 b4 5e bc
       -0.06947282 -0.1856359 -0.49532413 -0.013592826
000010 eb 3b 00 be 2b c4 a8 bd 58 fc 25 bd bf 5c ba bd
       -0.12522857 -0.08240541 -0.040523857 -0.09099721
000020 34 00 d5 bd 2d 62 93 be f5 12 b6 bd 35 c9 90 bd
       -0.10400429 -0.2878584 -0.088903345 -0.07069627
000030 7e c9 00 bd c8 15 d9 bd 9b 70 cb bd cf ad 3d be
       -0.031442158 -0.105998576 -0.09933587 -0.18523334
000040 95 1e 6a be 6d 07 a9 bd f2 a1 b2 3c b0 87 40 be
       -0.22863229 -0.082533695 0.021805737 -0.1880176
000050 56 f2 1a bc b7 00 f6 bd 17 8d 97 bd 62 62 a0 bc
       -0.009457191 -0.12011855 -0.073999576 -0.019578163
000060 72 69 fe bc c5 f8 03 be be a6 45 bd 26 ef 14 be
       -0.03105614 -0.12887867 -0.04825472 -0.14544353
000070 31 51 03 be 71 9c e1 be 18 89 f9 bd 0b e6 1c be
       -0.12823941 -0.44064668 -0.12184352 -0.1532213
000080 ea a9 ae be 6b e5 92 3d e0 31 8d bd 67 00 f6 bd
       -0.3411401 0.07172664 -0.068942785 -0.120117955
000090 a0 9d 79 be d8 db ad bd 8f d5 42 be a6 cc f9 bc
       -0.24376535 -0.084891975 -0.19026779 -0.030493092
0000a0 1e ed 84 be b6 46 e4 bd f2 59 13 be 86 69 00 be
       -0.25962156 -0.111462995 -0.1438978 -0.12540254
0000b0 cd d2 0f be 39 01 40 be 27 5b a0 be a5 10 2e be
       -0.14045258 -0.18750466 -0.31319544 -0.16998537
0000c0 01 8a c4 bd ce c8 0c be f5 60 ac bd ee f2 de bd
       -0.09596635 -0.13748476 -0.084169306 -0.10886179
0000d0 3d d7 a6 be bc bb 6b be c9 7a 67 bd e2 22 9b bd
       -0.3258609 -0.23020834 -0.05651358 -0.07575013
0000e0 43 b7 c4 be f3 26 35 be 70 fe 1e be c0 4b b8 bd
       -0.38421068 -0.17690639 -0.15526748 -0.08998823
0000f0 fc fa cb bc dd f7 d3 bd 4f 98 37 be 6b 5f dc bd
       -0.024899952 -0.103500105 -0.17929195 -0.10760387
000100 11 c9 ba bd d6 db bf bd 6a f3 6f be 0a c9 92 bd
       -0.091203816 -0.09368102 -0.23432699 -0.071672514
000110 7e a9 d0 bd 38 b0 4a 3b 74 f7 9a bd fb b8 c4 be
       -0.10188578 0.0030927788 -0.07566729 -0.3842238
000120 f2 b6 c7 be 9d 1d 5f bd 56 ea 36 be 01 e0 6b be
       -0.39006764 -0.0544716 -0.1786283 -0.2303467
000130 f5 6b 7e be 08 5a 17 be 5a 5f 45 be d7 ee 5d bd
       -0.2484587 -0.14780438 -0.19274655 -0.054182854
000140 53 42 e9 bd ee 49 2b be fe 99 81 bd 72 74 7e bd
       -0.113896035 -0.1672742 -0.063282 -0.06212277
000150 9c 22 d4 bd 24 a2 75 be e4 62 20 be 0e 00 00 be
       -0.10358164 -0.23987633 -0.15662724 -0.12500021
000160 b6 f5 ed be 3b 54 be bc e1 b2 56 bd 36 47 94 bd
       -0.46476525 -0.023233524 -0.052416686 -0.07240145
000170 c4 fc 98 bd 3a e8 c0 be dd 19 77 bd bd 86 25 be
       -0.07470086 -0.37677175 -0.0603274 -0.1616468
000180 39 01 3f be ce 0d 10 be 71 6b 4b be ce f0 94 bd
       -0.1865281 -0.14067766 -0.19865204 -0.07272492
000190 90 d9 bd be 06 8c 46 be ca f7 2a be f6 fe cd bd
       -0.3708005 -0.19389352 -0.16696087 -0.100583956
0001a0 a9 c6 6e bd 84 ac 1b be c3 1b 44 bc 96 f9 eb bd
       -0.058294926 -0.15202528 -0.01196951 -0.11522214
0001b0 0f d6 b8 bd bb 0c 5a bd 9c c6 80 be 5e 35 1f be
       -0.090252034 -0.053234797 -0.25151527 -0.15547702
0001c0 c7 26 8c be 25 72 82 bd c4 30 82 bd 21 7f 6b be
       -0.27373335 -0.063694276 -0.063569576 -0.22997715
0001d0 58 76 af bd 8d a7 09 be 9c ca b3 bd 6c 8e 9e bd
       -0.08567494 -0.13442822 -0.08778879 -0.077420086
0001e0 2f 86 5e bd da 67 cc bd 3c 1b 55 bd a0 34 a4 bd
       -0.054327186 -0.099807456 -0.052027926 -0.0801785
0001f0 ed ff 17 be aa b1 8e be 17 9c 24 be ab c6 6a bd
       -0.14843722 -0.27869922 -0.16075169 -0.05731837

sequential_1/conv1d_7/BiasAdd/ReadVariableOp f4 [128]
000000 6c 29 06 be 17 a7 a1 bd f5 ca 2c bd 06 f6 46 bd
       -0.13101739 -0.07893198 -0.042185742 -0.04857447
000010 cf e7 22 be 5d af c2 3d d6 dc 28 bd fe 59 60 bd
       -0.1590874 0.09506104 -0.04122623 -0.054773323
000020 77 a7 c8 bd c2 c2 ae bd b0 cf fc bd 61 09 06 3e
       -0.097975664 -0.08533241 -0.12344301 0.13089515
000030 4d a0 2a bf 51 3f d9 bd cd 2e 85 bd 31 8b 49 be
       -0.6665085 -0.1060778 -0.06503067 -0.19682004
000040 cb 9a 18 bd e7 80 65 be 34 84 27 be 90 25 1f 3e
       -0.037256997 -0.22412454 -0.16359025 0.15541673
000050 c0 6e 6c bd e0 4e 8e be 24 22 ad bd 18 8e d2 bd
       -0.057722807 -0.27794552 -0.084537774 -0.102810085
000060 56 43 1b 3e 83 c3 76 bd e3 20 8f be 70 1b fe bd
       0.15162405 -0.06024505 -0.27954778 -0.12407577
000070 28 28 b9 bd 6a 4c 43 bd 1b 36 ac bd 77 f5 0c bc
       -0.09040862 -0.047680296 -0.08408757 -0.008603445
000080 44 89 d0 bd ff e9 05 be 72 78 e2 bd 8e 3b c8 bd
       -0.10182431 -0.13077544 -0.11058129 -0.09776984
000090 3c 0c c9 be d3 23 2c bd 2b 16 73 be a5 f9 1f bd
       -0.39267147 -0.042026352 -0.23738925 -0.03905644
0000a0 a4 b2 4c bd c3 2e be bc 22 02 45 be 4d b4 d4 3d
       -0.049975052 -0.023215657 -0.19239095 0.10385952
0000b0 b1 fe cd 3c 5f 67 b5 3d 8c f0 78 be 0d 48 da be
       0.02514586 0.08857607 -0.24310511 -0.42633095
0000c0 be 2a ca be 2f b9 16 be 1a d7 16 be ba 53 e6 bd
       -0.39485735 -0.1471908 -0.14730492 -0.11246438
0000d0 06 f6 70 be 37 4a 20 be 9e e6 4e bd 1b 97 47 be
       -0.2353135 -0.1565331 -0.050512902 -0.19491236
0000e0 07 eb 17 3e fb cb 4c be 1c ae 6d bd 3e f9 ea 3d
       0.1483575 -0.19999687 -0.05802737 0.114733204
0000f0 67 c3 37 3e 55 39 d0 bc 22 0b 97 be 85 90 4b be
       0.17945634 -0.025417963 -0.2950068 -0.19879349
000100 df 99 38 be cd 0e 7e bd 79 08 4a 3e f1 56 a7 3d
       -0.18027447 -0.062025834 0.19729795 0.0817088
000110 b7 c8 4d be 05 d0 78 be 86 0d 32 3e 03 b4 63 3c
       -0.20096098 -0.24298103 0.17387971 0.013897899
000120 42 53 8c bd f5 c7 3d be e2 8a 94 be f8 b5 86 be
       -0.06851818 -0.18533309 -0.2901221 -0.26310706
000130 cd d7 c0 bc 58 cb d0 bd 61 cd 1b 3e 72 6f 42 be
       -0.023540402 -0.10195035 0.15215065 -0.18987826
000140 da 18 02 3d f1 8a 1d be 9c 79 4c 3d 00 e5 f7 3d
       0.03176198 -0.15385033 0.049920663 0.12104225
000150 c9 9d 2d bd bf 3e 5f bd bc 4e 4a 3e 41 fe 8e bd
       -0.042386804 -0.0545032 0.19756597 -0.06982089
000160 22 9d 8c 3d 9e d1 c5 bd e2 8c 59 bd dc d5 22 3e
       0.06865908 -0.09659122 -0.053112872 0.15901893
000170 66 0a 89 bd 48 cd 0c 3e e5 39 a7 be 05 05 e4 bd
       -0.066914365 0.13750184 -0.32661358 -0.1113377
000180 36 56 92 bd 61 da 0d 3e 9f 61 25 bd 75 f1 ac 3b
       -0.0714535 0.13852836 -0.0403763 0.0052778074
000190 12 10 7f be 19 79 9d bd ed 51 86 be 5b 78 41 bd
       -0.24908474 -0.07689113 -0.2623438 -0.04723392
0001a0 4f b2 e6 3c f4 a8 78 be 0e 52 d6 bd 27 9a 6d be
       0.028161196 -0.242832 -0.104648694 -0.23203336
0001b0 9c 2c bc 3d 43 13 11 bd 83 87 88 bd 41 ae b8 bd
       0.09188196 -0.03541876 -0.06666472 -0.09017611
0001c0 a3 67 a3 bd f6 59 b8 bd d6 76 ba 3c 04 f7 ba 3d
       -0.079787515 -0.09001534 0.022761744 0.09129146
0001d0 a2 73 12 bd d5 e0 9a be 58 03 63 be ad a4 2c be
       -0.035754807 -0.30249658 -0.22169244 -0.16859694
0001e0 dd 5c ed bc 71 d2 10 be 63 2c 34 bd dc de 63 bd
       -0.028974945 -0.14142777 -0.043987643 -0.055632457
0001f0 49 9b da bd 11 75 07 3e 8c 4a e2 3d c6 15 af bd
       -0.106741495 0.13228251 0.11049375 -0.08549075

sequential_1/conv1d_4/Conv1D f4 [32, 1, 3, 3]
000000 88 de 81 bc 94 09 e2 be 9c 88 70 3f 80 96 2f bf
       -0.015853181 -0.44147933 0.9395845 -0.6858902
000010 ad d5 4f 3e 52 a8 0c 3f fb fe e9 3e 44 12 e8 3d
       0.20296355 0.54944336 0.45702347 0.11331609
000020 86 de 09 bf 71 d2 02 3e 0e bc 86 3e 37 68 5a 3e
       -0.5385517 0.1277559 0.2631535 0.21328817
000030 b5 8a 0b bd d3 4c 1a 3e 00 4d e7 bd a1 67 2c 3e
       -0.03406783 0.15068369 -0.112939835 0.16836406
000040 ff 2d c0 3e 7e 00 5b 3e 56 69 10 be 83 3a c1 3e
       0.37535092 0.21386907 -0.14102682 0.37739953
000050 62 c8 b3 bd 78 e6 c5 3d 06 f4 b3 3d 17 05 26 3c
       -0.08778454 0.09663099 0.08786778 0.010133049
000060 f3 14 01 bd 9f b4 38 3e 9a 73 04 3e 6b 94 9a be
       -0.03151412 0.18037651 0.12934723 -0.3019136
000070 0e 52 2c be 73 ae 8d be a1 48 23 bf 2e f4 d8 bd
       -0.16828176 -0.27672157 -0.637827 -0.105934486
000080 33 fc e8 be 29 5c fb 3d 9b 18 3e 3c c0 65 20 bf
       -0.45504913 0.122734375 0.011602546 -0.6265526
000090 e9 6e 41 3f d4 ab 67 3e c3 f4 e9 3e 92 ca 0a 3f
       0.7555986 0.22624141 0.4569455 0.5421535
0000a0 49 f2 83 3e 27 f7 fe 3e 35 2d 2b 3f 19 40 81 3d
       0.25770786 0.49797937 0.66865855 0.06311054
0000b0 a5 03 53 bb ef c4 c5 3d d6 98 1c 3e f6 83 2f bf
       -0.0032198217 0.09656703 0.15292677 -0.6856073
0000c0 ae 06 ff bd 46 88 37 bd ea 68 a7 3f 69 4d 18 3d
       -0.12452446 -0.044807695 1.3078892 0.0371832
0000d0 00 6f ce 3c 9e de 20 bf 6c 2f f0 3d 0d e2 c8 3e
       0.025199413 -0.62839687 0.11727795 0.39234963
0000e0 cd 94 ad 3c d5 2c 05 3e 78 34 46 3e 7a f4 78 3d
       0.021189118 0.13005383 0.19355953 0.060780026
0000f0 86 09 89 be 8e be 85 3e f0 a1 e1 3d a2 27 a6 3d
       -0.26765078 0.26121944 0.11017215 0.08113028
000100 c3 4a 1c bf b6 86 d3 3d 06 a3 0a bf 3f c5 b9 be
       -0.6105158 0.103284284 -0.54155004 -0.362833
000110 2a e9 4e 3e ee 18 11 bf f1 c8 20 3e 7e ec fa 3e
       0.20206133 -0.56678665 0.15701653 0.49008554
000120 e2 65 d4 3e cb 6f fd 3d 00 4d ff be 8f 7d 11 3c
       0.4148398 0.123748384 -0.49863434 0.008880033
000130 3e 54 42 3e ec fb 7a be 3c ad f8 be 0d 1e 38 b9
       0.18977448 -0.24510163 -0.48569667 -0.00017558802
000140 61 13 62 3f 69 f7 11 3e b3 37 94 be b1 a4 bc bd
       0.8831082 0.14254536 -0.28948745 -0.092111
000150 33 7e aa 3e 44 41 e2 be f4 c9 84 3e 18 aa 75 be
       0.33299407 -0.4419042 0.25935328 -0.23990667
000160 90 42 ac be 40 e8 39 3e ed be c2 3d d5 16 98 3e
       -0.33644533 0.18155003 0.095090725 0.2970492
000170 e6 3b cc be ec 27 c1 bd b0 e2 b5 3e 9a 3e 95 be
       -0.3988945 -0.094314426 0.3552451 -0.29149324
000180 17 98 24 3b 40 3e 9e 3e a3 83 0b bf 59 5f 96 3e
       0.0025115067 0.30906868 -0.54497737 0.2936962
000190 e8 86 dc be 22 e5 83 bf 86 18 66 3e 2c 0a da 3e
       -0.43071675 -1.0304301 0.22470292 0.42585886
0001a0 fd a0 3c 3f de 1e b7 be 26 e9 75 3d 3a a6 f9 3e
       0.7368315 -0.35765737 0.0600368 0.48759633
0001b0 5d 49 2e bf 0e f6 8a 3e 29 10 8c 3f 6f 5d 4d 3e
       -0.68080693 0.2714085 1.0942432 0.20055173
0001c0 dc 95 2c be 3c 2b 4c bf 28 78 f2 3e 24 07 41 bd
       -0.16854042 -0.7975347 0.47357297 -0.04712595
0001d0 d7 3c 8f be 19 ba e2 be d0 a7 0a 3f 8b 69 3c bd
       -0.27976105 -0.44282606 0.5416231 -0.04599909
0001e0 38 34 8b be 93 60 f6 3e 97 78 9a 3e 21 3d 38 3d
       -0.27188277 0.48120555 0.30170128 0.044980172
0001f0 3c 12 eb 3d 98 0b 8d 3e 29 17 a1 3f 23 dc 29 3e
       0.11478087 0.27547908 1.2585193 0.16587882
000200 9e 25 4c bf 86 3c 35 bf 24 dd 10 bd c8 4f 89 3e
       -0.797449 -0.70795476 -0.035367146 0.2681868
000210 7f 24 fe be 9e 0c 3f bd 4e 2a 0d 3f 1f 50 45 3f
       -0.4963722 -0.046642892 0.55142677 0.7707538
000220 b7 78 0f be 16 ea 53 3e 1a 4b 07 3f ba 26 13 3f
       -0.14010893 0.20694765 0.5284897 0.5748097
000230 c6 bf cd 3e ca 14 db be e3 ab 6a bc 37 50 c8 3e
       0.40185374 -0.42789298 -0.014323208 0.391237
000240 d0 4b 8c bd a9 b7 4e 3d 8b ad d9 be 10 96 92 bc
       -0.068503976 0.05046812 -0.42515215 -0.017893821
000250 46 3d be 3e 43 6f ab be 12 29 ef 3d 57 c6 9d 3d
       0.37156123 -0.33483323 0.116777554 0.07703846
000260 22 c4 3a be ee f6 23 be f8 1e 2b be 8a d7 4f bf
       -0.18238881 -0.16012165 -0.16711032 -0.8118826
000270 da b1 99 be ba ff 81 3e fc bd e6 be b9 b1 a6 be
       -0.30018502 0.25390416 -0.45066822 -0.32557467
000280 06 21 db 3e 8d d4 7e be 83 76 b9 3d 56 db 0b 3e
       0.42798632 -0.24885769 0.090558074 0.13657889
000290 bb f2 14 be 56 bb 2b bf 61 67 e7 bc 14 8e 91 be
       -0.1454572 -0.67082727 -0.028247537 -0.2842871
0002a0 98 01 19 3f b4 2c 12 bf 2a e2 c3 3e 2e 35 10 3e
       0.59768057 -0.5709946 0.38258487 0.14082786
0002b0 8d 9a a2 3e 6d 5b 1f bf 3a f0 40 3f e6 89 26 3e
       0.31758538 -0.6224888 0.75366557 0.16263542
0002c0 9d a0 17 be 73 da 76 bf 1e 16 fa be 9f 86 2a 3f
       -0.14807363 -0.9642708 -0.48845 0.66611665
0002d0 c4 cc 25 be 14 53 77 3e 02 fb d9 3d ac 99 46 be
       -0.16191393 0.24152786 0.10643579 -0.19394559
0002e0 ab f7 a0 3e 88 a2 02 bd ae 3a c3 bc e7 2d ed 3d
       0.31438956 -0.031893283 -0.023831692 0.11581021
0002f0 ff e3 b9 3c 5a 26 0d 3e 25 ac 8d bd 12 ad f0 bd
       0.022691725 0.13784161 -0.069175996 -0.117517605
000300 67 d7 8c bd df 32 59 3e fa 7f ff 3d 99 00 da 3c
       -0.06877022 0.21210812 0.124755815 0.026611613
000310 44 74 e8 3d da 59 97 3d 3a 05 fb 3c 2d 17 41 3e
       0.11350301 0.07390185 0.03064214 0.18856497
000320 0f 9d 4a bd e7 95 cf 3d 02 f1 b2 3e 33 56 b3 be
       -0.04946619 0.101360135 0.349495 -0.35026702
000330 8a 57 ee bd e5 f9 8d 3d df 9e 72 be d3 4c 4e bf
       -0.116377905 0.06932429 -0.23693417 -0.80585974
000340 a8 af 89 be cc 18 e8 be 7d 3b 98 bd 2b 9b d7 be
       -0.26891828 -0.4533142 -0.074332215 -0.4211057
000350 9c 5b 84 3e df 46 16 3f 1f 99 18 3f af 2d 42 be
       0.25851142 0.5870189 0.59608644 -0.1896274
000360 ab 25 d9 3e 92 7b ca 3d 72 af 63 3d 94 de 26 3f
       0.4241155 0.098868504 0.05558724 0.6518338
000370 9f 80 84 bd 63 0b 0a be 39 1e 03 3f f4 55 a1 3e
       -0.06469845 -0.13480906 0.5121799 0.3151089
000380 97 c1 4e bb 4d d4 31 3d f1 1c 64 3e c0 3c 82 bd
       -0.0031548494 0.043415356 0.22276665 -0.063592434
000390 21 06 08 3d e6 a2 c9 bd c7 c5 05 be ed de e9 bd
       0.03320897 -0.098455235 -0.13063727 -0.11419473
0003a0 85 eb 8f 3e cf af 24 bd f9 44 fa be e5 a7 a5 3e
       0.28109375 -0.040206727 -0.48880747 0.32354656
0003b0 e2 70 c0 3e 19 2e e4 be 21 79 b3 3e 1e 35 bf 3e
       0.37586123 -0.4456642 0.35053352 0.37345213
0003c0 e5 7b 1d bf 5c 53 43 be 93 c5 a9 3e 91 e6 6c be
       -0.61517173 -0.19074768 0.3315855 -0.23134829
0003d0 68 4a 8b 3e 52 c7 7a bd 69 c7 47 be 8c 55 a3 3a
       0.27205205 -0.061225243 -0.19509663 0.0012461408
0003e0 28 9a cf bd b1 22 95 3e e7 91 d6 3d 94 53 e1 3c
       -0.10136825 0.2912803 0.104770474 0.027505673
0003f0 e4 17 04 3c 79 ad 39 3e 4a 67 78 bd 4c 9a a0 3c
       0.008062337 0.18132581 -0.06064538 0.019604824

sequential_1/conv1d_5/Conv1D f4 [64, 1, 3, 32]
000000 a4 00 5a 3d 0c 38 73 bd df be fb bd 29 65 ff bd
       0.053223267 -0.059379622 -0.12292265 -0.12470467
000010 08 f6 b4 3d 03 44 ca bd ea e7 f9 bd 8c d9 87 bd
       0.08835989 -0.098762535 -0.12202437 -0.06633291
000020 26 14 40 bd 40 99 11 be 00 6d cc 3d f1 09 04 be
       -0.046894215 -0.14218616 0.099817276 -0.12894417
000030 c7 85 ad bd ee 8f e1 3d 0c 17 b1 3d ba 26 90 3c
       -0.08472782 0.110137805 0.08646974 0.017596591
000040 df fb b4 bd a9 b2 01 bd ce cd ca bc d8 2d 74 be
       -0.08837103 -0.031664524 -0.024756338 -0.23845613
000050 b2 9b db 3c c1 8f a3 3d d4 f2 65 bc 90 09 0a bd
       0.02680764 0.07986403 -0.0140349455 -0.033700526
000060 f9 e0 2e be e4 17 0b bd 98 56 c0 3d 78 6d 7a 3a
       -0.17078008 -0.03395833 0.093915164 0.0009553055
000070 5d 83 aa 3d 88 e6 01 be 95 cc 1d 3d 33 39 1a bd
       0.08325837 -0.12685597 0.038525183 -0.037652206
000080 99 f6 0b be 88 ae a6 3d cf 42 a3 3d f6 35 8e 3d
       -0.13668288 0.08138758 0.07971727 0.06943886
000090 07 b6 07 be 7f 4b 2e be 5a 8e bb bd 6b ac 8c bd
       -0.13253032 -0.17020987 -0.09158011 -0.068688236
0000a0 69 a0 25 bd d5 da b2 3d cd af 00 be ed 71 09 3c
       -0.040436182 0.08733145 -0.12567063 0.008388978
0000b0 e4 b2 13 be 46 b9 94 bd 93 2b be bc 1e f0 e6 bd
       -0.1442371 -0.072619006 -0.023214137 -0.112762675
0000c0 ee 8c 13 3d 11 cb 84 bd 7c 31 92 bc 1b d9 a0 be
       0.036023073 -0.06484044 -0.017845862 -0.31415638
0000d0 3b 0f 48 bd 99 80 20 3c 39 9a ec bd 32 ba d7 bd
       -0.04884265 0.009796285 -0.11552853 -0.10533561
0000e0 e3 10 79 3d 75 c0 f0 3d 6d 8f ef bd 52 b1 c4 bd
       0.06080712 0.11755458 -0.11697278 -0.09604134
0000f0 f9 78 0e be e2 46 8d be c7 c7 e3 3d 00 02 ca 3d
       -0.13913335 -0.27593142 0.11122089 0.09863663
000100 54 bf 11 be 2d 18 32 bd 9b 69 44 bd 61 2a 57 bd
       -0.14233142 -0.043480087 -0.047952276 -0.05253065
000110 0f 10 0f 3c a7 fc 98 bd 4f cd 11 3c fd f8 94 bc
       0.008731856 -0.074700646 0.008899047 -0.018185133
000120 85 6c 70 bd 17 d4 98 bc 34 c3 98 bd 45 d8 b7 3d
       -0.058697242 -0.01865582 -0.07459107 0.08976797
000130 90 1b b8 bd f6 40 bf 3b 4c 8f 82 3c c1 21 18 bd
       -0.08989632 0.0058366014 0.01593747 -0.037141565
000140 d3 b4 21 bd 07 6b f1 bd 9e 02 0e bc be cc 6d be
       -0.039479088 -0.11787992 -0.008667616 -0.23222634
000150 1f ec a7 bc 98 dc ba 3d 03 e8 ac bd 96 2a f2 bd
       -0.020498333 0.09124106 -0.0844269 -0.11824529
000160 1e e1 ce 3d 3e f4 9a 3d 8f 2e 06 be 6e 81 98 3d
       0.101015314 0.07566117 -0.13103698 0.07446562
000170 1b 98 39 bd fd 95 9f be d2 fe 98 3d 23 4d e8 3d
       -0.045311075 -0.3116912 0.07470478 0.11342838
000180 05 47 09 be 24 0e 1f 3e a5 94 34 3d fd a4 bf 3e
       -0.13405998 0.15532738 0.04408707 0.37430564
000190 79 fb e7 be e0 d3 90 be 13 2e c1 bc e7 2c c8 be
       -0.45309046 -0.28286648 -0.02358154 -0.39096758
0001a0 ec 59 83 bf 76 74 8b be 51 66 3d 3e bd 9c 12 bf
       -1.0261817 -0.2723729 0.18496062 -0.57270414
0001b0 a6 de 69 3d 56 30 9f 3d cf a1 4f bf 3e f5 a7 be
       0.0570971 0.07772891 -0.81106275 -0.32804292
0001c0 19 fe 9b 3b 8c 5b e4 3d 1d 32 d1 3d 44 f5 81 3d
       0.0047605154 0.11150274 0.102146365 0.06345609
0001d0 10 6b 01 bf ca a3 10 3d fb 62 ac bd fe 0f 9c bd
       -0.5055399 0.03531245 -0.084173165 -0.07620238
0001e0 8d 3d f7 bd 0f 08 41 3d 1a 33 af bf 7b 63 13 bc
       -0.12072287 0.047126826 -1.368747 -0.008995886
0001f0 2e 04 10 be f6 0e a1 3d 3b 31 0f 3b 12 8c b6 bb
       -0.14064094 0.07864182 0.0021849412 -0.005570897
000200 e6 9b a8 be df b9 93 bd 8b 06 b4 bd 4a cf 93 3e
       -0.3293144 -0.072131865 -0.087903105 0.28869087
000210 dd 47 d6 be 13 b7 c3 bd 47 45 6a 3d cb 62 f4 be
       -0.41851702 -0.09556403 0.057194974 -0.47731623
000220 ab 04 e3 be 91 ec 6d bd 89 9a 35 be c6 37 a3 bc
       -0.443395 -0.058086935 -0.17734732 -0.019924056
000230 c9 6a 01 be 79 ed c8 bd eb 65 9d be 65 b0 da be
       -0.12638392 -0.09810919 -0.3074182 -0.42712703
000240 29 9a a8 be 4b 5b a3 3e 1f e4 10 3e a8 08 df 3d
       -0.32930115 0.31905589 0.14149521 0.10890323
000250 1c 07 e6 be 51 62 24 3d 29 05 85 bd c2 f3 2f 3d
       -0.449273 0.040132824 -0.06495125 0.042957075
000260 a3 fe 33 3d db f6 4d be 9e 6e 8b bf 75 cd 27 3d
       0.043944012 -0.20113699 -1.0893133 0.040967423
000270 fd 18 0c be 60 f0 66 be 09 e5 dc 3c e0 7d d4 bd
       -0.13681407 -0.22552633 0.026964681 -0.10375571
000280 63 8e d5 be 9c 1c 51 3d e1 72 03 be 1a c6 d6 bc
       -0.41710195 0.051052675 -0.12836792 -0.026217509
000290 14 4f 67 be 5a ca ef 3d f0 34 e0 bc b5 4b 05 bf
       -0.2258876 0.117085174 -0.027368993 -0.52068645
0002a0 86 2b 82 bf 92 ae 7c 3e d8 e7 e4 be bb 9d d3 3e
       -1.0169532 0.24675968 -0.44708133 0.41331276
0002b0 af 74 62 be 22 f0 d0 bd a9 d5 b3 be 7c 6a a8 be
       -0.22114824 -0.10202052 -0.35123947 -0.3289374
0002c0 15 f8 18 be 29 aa 30 3e ce d8 17 3e e2 41 4b 3e
       -0.14938386 0.17252411 0.14828798 0.19849351
0002d0 ec 75 c3 be 52 06 11 bd b8 21 8b bd 6a 1c 36 3e
       -0.38175905 -0.03540642 -0.06793541 0.17784277
0002e0 5c fe 5f be 37 b3 01 be 2f 66 ad bf ed 92 0e 3e
       -0.21874374 -0.12666021 -1.3546809 0.13923235
0002f0 8b eb 55 3e 5f 26 d5 be 76 e8 44 be dd c4 a4 bd
       0.20890634 -0.41630837 -0.19229302 -0.08045361
000300 25 ed a6 3e 3f 79 27 3d 68 bd 59 3d 3e f6 17 3e
       0.32602802 0.040887114 0.053159148 0.14840028
000310 03 8f c3 3b b5 0d df 3b ee ae 92 bd b5 5f 2c bf
       0.005967976 0.006807054 -0.071622714 -0.6733354
000320 c8 c0 fe be dd 5c 87 bf 59 df a1 3e f6 0c ef bd
       -0.49756455 -1.0575215 0.31615713 -0.11672394
000330 bb 35 7b 3e 17 6d 9b 3d c2 82 2c bf 56 bd c0 be
       0.24532215 0.075891666 -0.6738702 -0.37644452
000340 6a ce 00 bd b7 4c 3a be 3c 02 49 3e 53 4c 8f 3e
       -0.03144685 -0.18193327 0.19629759 0.27987918
000350 1c 4a c9 bd a9 aa 9b bd 10 bc 12 3c fa 28 45 bd
       -0.09828588 -0.0760091 0.00895597 -0.04813478
000360 5e 26 b2 3e 9c c5 69 be 6f 2f 8e bd c4 21 e3 bd
       0.34794897 -0.22829288 -0.06942641 -0.11090425
000370 e9 6e 3a be 3e d5 7e 3e 43 8f 35 be b6 17 9c 3d
       -0.18206371 0.24886033 -0.17730431 0.0762171
000380 e7 18 cd 3c 48 d1 15 bd 3b cb fd bd 5e 1f 17 be
       0.025036288 -0.03657654 -0.12392279 -0.1475806
000390 68 5c 03 3e 6e 15 30 3e 6c 42 cb bd 07 9b a5 be
       0.12828219 0.17195675 -0.09924778 -0.3234484
0003a0 a5 ff 81 be 30 4d f0 bd 39 48 93 be f0 6a 2c 3f
       -0.25390354 -0.11733472 -0.2876604 0.67350674
0003b0 70 0d ea be aa 07 9d bd fa cf 51 3e 1e d3 91 bf
       -0.45713377 -0.076674774 0.20489493 -1.1392553
0003c0 97 0c f5 3d 14 fa 1f 3f 00 47 88 3e 43 65 62 3e
       0.11965292 0.62490964 0.2661667 0.22108941
0003d0 b7 0e 2e be e9 ba 38 3d ce 60 ee 3d 67 91 ce bc
       -0.16997801 0.045100126 0.11639558 -0.025215818
0003e0 c3 b6 d0 3c 11 b2 16 be c1 ab aa be f7 ad 1b be
       0.025477773 -0.14716364 -0.33334163 -0.15203081
0003f0 1b 13 e8 bc 58 10 80 3e 04 43 b3 be a6 02 bd bd
       -0.028329423 0.2501247 -0.35012066 -0.09229021

sequential_1/conv1d_6/Conv1D f4 [128, 1, 3, 64]
000000 8a cc bf 3c c8 fd ce bb ad 6e 2c 3d c7 3d 11 3d
       0.023412962 -0.006316874 0.042097736 0.035459306
000010 cb 72 db bc 80 c5 8f 3d 7c 60 c4 bc 71 9a c4 bd
       -0.026788136 0.07020092 -0.023971789 -0.0959977
000020 ee 5d 20 bc 5c c1 e3 3d 95 09 72 3d 99 e3 56 be
       -0.00978802 0.11120865 0.05909117 -0.20985259
000030 25 80 c2 3d 32 93 1b 3e cf 65 12 3e 1c a0 96 be
       0.09497098 0.1519287 0.1429665 -0.2941903
000040 7e bc a4 3a e6 2f 82 3d c6 22 18 be d6 0a 0f bd
       0.0012568382 0.06356792 -0.14857015 -0.034922443
000050 ca 3f 37 be d9 c1 bc bd 9e 5b bc 3d a0 fa dc bd
       -0.17895427 -0.09216661 0.09197162 -0.107899904
000060 bc 7b 30 3d 02 7c ec bc cc 44 d4 bd ce e9 4a be
       0.043086752 -0.028867725 -0.103646845 -0.19815752
000070 b2 f9 a7 bd 6b 33 79 3d c4 19 11 3d 33 4c ca bc
       -0.082019225 0.06084005 0.035424963 -0.024694538
000080 4a 66 92 3a e4 7d 44 3d d0 b2 aa bc b1 ea 40 be
       0.00111694 0.04797162 -0.020837218 -0.18839528
000090 5e 53 13 be 6c f7 a8 bc 75 65 18 be 6b 20 71 bb
       -0.14387271 -0.020625792 -0.14882453 -0.0036793004
0000a0 c6 73 1f bd cb 4f f2 bd 9f 7b d9 3d 56 52 93 bd
       -0.03892877 -0.118316256 0.10619282 -0.07193439
0000b0 6b 44 7d 3d 87 6a ce bd fd 9a d4 3d 10 21 0f bd
       0.061832827 -0.10078912 0.10381124 -0.03494364
0000c0 98 d9 0d bd 44 d8 da bd e5 5e 76 3d 3c d3 ef bd
       -0.03463134 -0.10685781 0.060149092 -0.11710212
0000d0 77 bd 3b bd 41 68 26 bd 52 81 ae bb 3d ea a1 bc
       -0.045834985 -0.040626768 -0.005325475 -0.019765014
0000e0 f6 cb 97 be a1 a9 a9 3d 03 64 09 be f2 3a a7 bd
       -0.29647797 0.08284307 -0.13417058 -0.0816554
0000f0 36 96 93 3d 71 21 17 be d0 e4 c9 bd 05 c7 be 3d
       0.07206385 -0.1475885 -0.09858096 0.09315304
000100 c0 62 96 bc d8 f0 1b 3e 09 f0 c5 3d 73 c5 3f 3e
       -0.018357635 0.15228593 0.09664924 0.18727665
000110 f0 27 67 bd 09 1c 71 3d 89 cb eb bd e6 8d 64 bc
       -0.05643457 0.058864627 -0.115134306 -0.013949847
000120 3e 17 04 be 2c 79 12 3e f9 6f 92 3a 60 3c d7 bd
       -0.12899491 0.14304036 0.0011172286 -0.105095625
000130 90 8a 8d bd 9a 94 91 bd 22 17 38 bd 2a 87 fa bd
       -0.06911194 -0.071084216 -0.044943936 -0.12232812
000140 e8 9c c4 bd dd 6b cb 3d d8 44 25 bc 9e cc 9d bd
       -0.0960024 0.09932683 -0.010087214 -0.07705043
000150 8a 07 17 bd 60 8b 23 bd 37 8f 10 bd 8e 38 9f bd
       -0.036872424 -0.03992784 -0.03529283 -0.07774459
000160 06 10 9d 3c 65 3f f2 bb 3e 50 04 bd 94 92 53 be
       0.01917268 -0.007392811 -0.032303087 -0.20661384
000170 c7 9a 2a 3c c8 60 1a bd b8 25 cb bd a2 ac bb bb
       0.010412878 -0.037689954 -0.09919304 -0.0057273665
000180 38 0f bb bc 14 a8 29 bd e3 27 b7 bd 8d 12 0c be
       -0.022834405 -0.041420057 -0.08943155 -0.13678952
000190 98 14 42 bd 18 aa ae 3d 63 d4 56 3d 37 cf 79 3c
       -0.04738292 0.085285366 0.05244864 0.015247158
0001a0 96 42 c0 bd 4b 03 1b be eb c5 56 bd 8b 96 06 bd
       -0.093877 -0.15137975 -0.052434843 -0.032858413
0001b0 7b bf 13 3c 86 e7 b8 bd 54 6e 0e 3c 92 40 38 be
       0.0090178205 -0.090285346 0.008693296 -0.17993382
0001c0 06 a5 df 3d 30 1e ba bc 33 33 b0 3c 99 05 1e bb
       0.109201476 -0.022719473 0.021508789 -0.0024112223
0001d0 8c 5c d1 3d d4 78 06 bd 9a 7d 60 3d 4c 41 30 bc
       0.1022273 -0.032830074 0.054807283 -0.0107577555
0001e0 b8 ba 0c be bd d1 16 bd 01 89 56 bd d7 9a a0 bc
       -0.13743103 -0.036821116 -0.05237675 -0.019605083
0001f0 09 ba 31 3d 20 ce aa 3d b6 6b 2c bd 13 b3 f7 3d
       0.043390308 0.083400965 -0.04209491 0.120947026
000200 5f 6b b6 bd b3 5a 15 3e 8a 99 75 bd a5 0a 51 3d
       -0.08907198 0.1458538 -0.05996088 0.051035542
000210 34 63 ac 3d bb 90 1a 3e 50 a7 0a bc 7e 6d a2 bd
       0.08417359 0.15094273 -0.008462742 -0.0793104
000220 ea 26 e9 bd f5 3b a2 3d 0f e9 2c be bf 82 42 3c
       -0.113843754 0.07921592 -0.1688578 0.011871993
000230 bc 8c bd bd 54 10 5f be fa 14 37 be 8d 7a d2 3d
       -0.092553586 -0.21783572 -0.17879096 0.10277281
000240 54 b2 2c be 2c 14 b3 bc b4 56 6e be 44 ae 1f 3d
       -0.16864902 -0.021860205 -0.23275262 0.038984552
000250 e2 60 e9 bd f8 19 5e 3b 70 af f0 bd f9 ab 1e 3c
       -0.11395432 0.003388999 -0.11752212 0.009684556
000260 ee 76 92 3c 83 fa 1c 3d fd 82 14 be 00 e0 83 be
       0.017878976 0.038324844 -0.14503093 -0.25756836
000270 cc 6f 67 3b 56 7b 42 3d 6d b1 46 bd 9b f3 08 be
       0.003531444 0.047480904 -0.04850905 -0.13374178
000280 63 93 aa bd 75 5f d6 3c 27 15 fd bd f2 80 42 be
       -0.08328893 0.026168564 -0.1235755 -0.18994501
000290 e7 d9 11 be d7 f9 4b bd 26 97 ba bd 00 b7 d7 bd
       -0.1424328 -0.049798813 -0.091108605 -0.10532951
0002a0 d3 c6 04 be 39 c1 19 3d b3 c6 83 3d 74 06 fc bd
       -0.1296647 0.037537787 0.06434383 -0.12305918
0002b0 e9 53 58 be 65 2b cb bd 70 d6 28 bd d7 c5 55 be
       -0.21125759 -0.09920386 -0.04122013 -0.20876251
0002c0 e4 90 2e bd 71 62 4b be fa fc ba bd 83 40 83 39
       -0.042618647 -0.19861771 -0.09130283 0.00025034332
0002d0 64 61 fa 3c 56 60 ae bd 74 ae c4 3a 5e 06 cb 3d
       0.030564018 -0.08514468 0.0015005604 0.09913324
0002e0 bd df 11 bc 6e 47 73 bd 70 9d cc bd ab 2e 1a 3e
       -0.008903441 -0.059394293 -0.09990966 0.15056865
0002f0 5e e8 c3 3c f6 7b 2f be 66 a4 26 3d bd 3e da bd
       0.023914512 -0.17137131 0.040684126 -0.10656498
000300 40 d5 af bd 19 23 64 3d d8 67 12 bd 0b 5b b7 bb
       -0.08585596 0.055697534 -0.035743564 -0.00559557
000310 2a 92 78 3c c6 a5 9b bd a2 22 1d bc dd a3 ff bc
       0.015171567 -0.07599978 -0.009590777 -0.031206066
000320 f6 c2 0f 3e f0 9c 95 bd 8b 59 01 be 9e 3a bc bd
       0.14039215 -0.07305324 -0.12631814 -0.09190868
000330 8d 8e 78 bc 29 08 f0 bd 69 c7 0b 3d 57 ba 2f 3d
       -0.0151707055 -0.117203064 0.03412572 0.042902317
000340 9d 72 c1 3b 87 14 5d bd 75 6f 53 3d f6 08 b8 3d
       0.0059035555 -0.053974655 0.051619966 0.08986084
000350 37 f6 ca 3d fd 05 4b bd 80 01 e4 bc 4e 5c e2 3c
       0.09910243 -0.049566258 -0.027832747 0.027631905
000360 a2 f0 d5 ba 54 68 f1 bd f7 e9 3a be 32 d1 9e 3d
       -0.0016322325 -0.11787477 -0.18253313 0.077547446
000370 a1 52 aa bd 04 c9 af 3d 40 a1 e0 bb ec c9 cd bc
       -0.083165415 0.085832626 -0.00685516 -0.025120698
000380 e2 10 05 3d 3f ec 69 bd f1 9d 0d be 39 1a c1 3d
       0.032486804 -0.057110067 -0.13829781 0.0942883
000390 14 59 07 be fb 76 84 3d d2 74 df bb cc f9 fb bc
       -0.13217574 0.06468006 -0.006819346 -0.03075876
0003a0 df a0 34 3e 63 fd 24 3e 99 96 b6 3c 20 35 a6 3d
       0.17639492 0.16112284 0.022288607 0.081156015
0003b0 d1 3b 22 be d4 4f 96 bd 6a 00 57 bd 2d 06 c5 bd
       -0.1584313 -0.07339445 -0.05249063 -0.096203186
0003c0 64 60 c1 bc ef c0 3f bd 41 69 42 bd ae 32 2e 3b
       -0.023605533 -0.046814855 -0.04746366 0.00265805
0003d0 1b bc 88 bd 5a ac 0d bc 3c 04 a3 3c 1e 97 24 3e
       -0.06676503 -0.008647049 0.01989948 0.16073272
0003e0 1e 49 71 bb e5 52 a8 3d 73 17 83 be b0 d6 07 bd
       -0.0036817263 0.08218936 -0.25603828 -0.033163726
0003f0 c0 71 cc bd 4a 45 46 bd ce 82 3f 3d 78 16 17 bc
       -0.099826336 -0.048405923 0.046755604 -0.009221666

sequential_1/conv1d_7/Conv1D f4 [128, 1, 3, 128]
000000 aa 2c 6d be f5 2f c6 3c b8 34 e9 3e e1 be 5f bd
       -0.23161569 0.02419279 0.45548034 -0.054625396
000010 66 0e 81 3d 2b 37 1d 3d b9 5a a8 be ec 49 99 3c
       0.063015744 0.03838269 -0.32881716 0.018712007
000020 32 5c a4 3c 91 df b9 bd a0 37 a9 bc 7f e9 ae 3c
       0.020063493 -0.09075845 -0.020656407 0.021351574
000030 8a be 84 be 9b 3f 01 3d 5e d4 9f bd f5 34 57 3d
       -0.2592662 0.0315548 -0.07804178 0.052540738
000040 ed 67 81 3c c1 25 52 3d b0 5b 5a be 83 64 d6 3d
       0.015796626 0.051305536 -0.21324039 0.1046839
000050 cb d4 69 bf e6 ad 38 3d d8 38 ec bc cf 9a 23 bf
       -0.9134032 0.045087717 -0.028835699 -0.63908094
000060 f0 e7 5b 3e d6 cc cd bd 22 b6 42 bb a3 86 f2 bd
       0.21475196 -0.10048835 -0.002971061 -0.11842086
000070 eb ce 6f bc 56 90 5f be d0 a7 43 3e 19 49 91 bd
       -0.014636735 -0.21832404 0.19106984 -0.070940204
000080 a9 56 7e 3e 05 15 46 be dc 15 85 be 8d 94 2b be
       0.24837746 -0.19343956 -0.2599324 -0.16755886
000090 44 bf d6 3c 78 e1 08 3d c3 7b 2e bd 43 b9 1a be
       0.02621425 0.03341815 -0.042598497 -0.15109734
0000a0 03 42 19 be dd 61 bc 3d 75 da 9d 3d d2 ab 1d bd
       -0.14966588 0.091983534 0.07707683 -0.03849394
0000b0 51 44 4c bd db 6d aa 3d 97 9a fa 3c 34 85 31 bd
       -0.04986984 0.083217345 0.030591292 -0.043339923
0000c0 fa da 38 bd 30 1e d4 3d a2 39 0d be 9d 9d 69 bd
       -0.045130707 0.1035732 -0.13791516 -0.057035077
0000d0 89 25 4b 3e f4 47 94 3e 1f 62 97 be 1c e1 4e 3b
       0.19838537 0.28961146 -0.29567048 0.003156728
0000e0 5a 86 05 3e 09 76 32 3d 09 7a 0b be bd 82 10 bd
       0.13039532 0.0435696 -0.13620771 -0.03528093
0000f0 f3 4f 1e be 31 1b d0 bc 54 db f7 3d b1 c6 8a bc
       -0.15460186 -0.02540359 0.121023804 -0.016940447
000100 b3 73 82 3e 58 8a 3c 3d c5 f7 14 3e 61 3c 0c 3f
       0.25478896 0.046030372 0.14547642 0.5477963
000110 75 e5 7d 3d c9 ee 3b be 9e 07 d1 bd f7 57 8a 3d
       0.061986405 -0.18352808 -0.10206531 0.06755059
000120 26 2c 34 3d e9 ae 91 3d 07 b2 56 bd 6c 10 40 bf
       0.043987416 0.071134396 -0.052415874 -0.7502506
000130 59 f1 3f be 60 39 40 3d d6 e1 d1 be bf 10 a4 be
       -0.1874441 0.046929717 -0.40992612 -0.32044026
000140 a4 64 a2 bc 7a 48 8a bc c5 89 e2 3d ed 96 8d 3d
       -0.01982338 -0.016880263 0.11061434 0.069135524
000150 bf f7 1c be dc 73 fc 3d 16 bc e4 3d 7c 2a 89 3d
       -0.15328883 0.12326786 0.11168687 0.066975564
000160 6b 60 dc bb 51 a0 15 bd 36 c4 28 3d 81 46 b6 3a
       -0.006725361 -0.036529843 0.041202746 0.001390651
000170 23 57 0c 3e 37 9a a9 3e 03 3a 5f 3d ba c5 1d bf
       0.13705115 0.3312547 0.054498684 -0.6162983
000180 72 3d ea 3e 57 ea 1e 3e e1 db 83 3e 92 3d 78 bd
       0.45750004 0.15519081 0.25753692 -0.060605593
000190 9e 5c 9f 3e 3f 98 e8 bc 03 96 79 3e 94 1b 3e 3d
       0.3112535 -0.02839291 0.24373631 0.04641302
0001a0 41 66 dc 3c c4 7d 00 bd cf 15 c7 bd 0f a2 44 bf
       0.026904227 -0.03136994 -0.097209565 -0.7680978
0001b0 7c 86 b1 bd 93 b5 d2 3d 5b 91 91 3e c9 3b c2 ba
       -0.08668229 0.10288539 0.2843121 -0.0014818843
0001c0 62 0a 62 bd 43 17 e0 bc cc 50 03 3d 2f e5 b4 bd
       -0.055185683 -0.027354842 0.032059476 -0.08832776
0001d0 68 c8 83 3d b6 6b ec 3e 77 1f 46 3d 1d e3 ad bd
       0.06434709 0.46175927 0.04836985 -0.08490584
0001e0 a4 9e a4 3d f0 67 38 3c fa e2 c6 bd 9d e1 34 bd
       0.08038071 0.011255249 -0.09711261 -0.044160474
0001f0 84 e3 44 bb 79 17 8e be aa 3e a0 3d 66 11 1f bd
       -0.0030042836 -0.27752283 0.07824452 -0.03883495
000200 d6 8e 34 bd 62 0b a2 bb 45 e5 00 bf 4f 80 45 bd
       -0.04408153 -0.0049452046 -0.5034984 -0.048218068
000210 bd 06 79 3c b2 f6 39 bd 3a 16 fc bd 29 d6 4e 3c
       0.01519936 -0.045401283 -0.12308927 0.012624302
000220 dc 40 15 bd 15 09 5d 3d 99 1c d0 bd e1 26 3e 3e
       -0.036438808 0.05396374 -0.101617046 0.18569519
000230 67 b7 f8 bd 8b 34 99 bc 28 c8 e7 3c b9 ef c0 3c
       -0.12144356 -0.018701812 0.028293684 0.023551809
000240 d6 41 27 bd a0 c8 cf 3c 0d bd 5a bf 87 ad 2c 3e
       -0.04083427 0.02536422 -0.8544472 0.1686307
000250 36 eb 30 3e 79 fd d1 3d 23 ad a1 bd 59 6d 62 3e
       0.17277226 0.10253424 -0.07894351 0.22112025
000260 fd db c2 bd 95 83 0f 3d 03 e7 74 3e fd aa 11 3c
       -0.09514616 0.035037596 0.23916249 0.008890864
000270 63 0e 35 bd 8a 01 e6 bd ed a1 2d bc f1 8c 1b bf
       -0.044203173 -0.11230762 -0.010597688 -0.60761935
000280 8b a8 cc 3e e0 95 5f 3e 0c 81 d7 bd 08 67 3b bd
       0.39972338 0.21834517 -0.105226606 -0.045752555
000290 59 cc 9a bd 24 e6 93 3d 25 9f d4 bd bf a3 a4 3e
       -0.075585075 0.0722163 -0.10381917 0.32156178
0002a0 2b f8 28 be 7a f6 8b 3d ba e5 da bc 1b 10 58 3d
       -0.16500919 0.06834121 -0.02672087 0.052749734
0002b0 5e 11 b7 bc 54 03 10 bd 4b 36 07 bf e8 08 a9 3c
       -0.022347149 -0.035159424 -0.5281722 0.02063413
0002c0 9b 7e c2 3c 29 e0 3d bc ea ca 19 bd d9 3a 03 be
       0.02374201 -0.0115890885 -0.03754703 -0.12815417
0002d0 78 9d 2a 3e 5b 65 8d 3e 2a be 8b 3c 5c 6f a3 3c
       0.16661632 0.2761639 0.01705845 0.019950561
0002e0 86 28 e7 bc 64 2a 1b be 1e e0 83 3e ef c6 1c bd
       -0.028217565 -0.1515289 0.25756925 -0.038275655
0002f0 93 fe 2b be 40 7a e7 bb 53 40 fa bc e1 20 8d 3d
       -0.16796331 -0.007064134 -0.03054825 0.06891037
000300 37 ca 53 be 56 89 96 bd 17 66 16 3e f6 0b 29 3f
       -0.20682608 -0.073504135 0.14687382 0.66033876
000310 cd 55 92 3d 65 96 b0 be 38 6c d2 3b 9f 90 aa 3d
       0.071452715 -0.34489742 0.006421592 0.083283655
000320 6c ad 7a bd a0 c3 05 bd 4b f7 1e 3c ee 11 c2 3b
       -0.061200544 -0.032657266 0.009702514 0.0059225475
000330 e3 51 6a bc f8 58 41 be 46 d7 17 3e 14 d9 02 3d
       -0.01430175 -0.18881595 0.14828214 0.031945303
000340 f0 75 86 bd a4 e9 c9 3d 46 18 bc 3d 1f 87 b4 3b
       -0.065654635 0.098590165 0.09184317 0.0055092718
000350 33 6e 97 be eb d4 86 3c 5a 76 e1 bc da 65 71 bd
       -0.29576263 0.01645895 -0.027522255 -0.058935024
000360 40 b5 dd bc a7 ca e3 bd f8 38 29 3d 02 22 e6 3d
       -0.027063966 -0.11122637 0.041314095 0.11236955
000370 0e e0 c6 bd db db 70 be e1 71 87 bc 8a 14 cb 3e
       -0.09710704 -0.23521368 -0.016533794 0.39664108
000380 92 0c 70 3e f8 46 89 3d db 47 f4 bd 20 3e 73 bd
       0.23442295 0.06702989 -0.11927768 -0.05938542
000390 10 37 3e 3e 3b 80 63 3d e5 d4 23 3e 6e bd 65 3d
       0.18575692 0.055542212 0.15999182 0.056088857
0003a0 aa 0e 42 3d f2 07 c7 3d 86 92 1d bd 89 ac 15 3c
       0.047377266 0.09718312 -0.038469814 0.009135374
0003b0 26 6a de bc 34 6a 52 3d 74 f5 d3 3d 61 3e c3 bd
       -0.027150225 0.051370814 0.10349551 -0.09533382
0003c0 b1 21 a5 bd 32 e7 38 bd a4 56 56 bd b7 93 49 be
       -0.08063067 -0.04514236 -0.05232872 -0.19685255
0003d0 bb fa da 3e 5d 57 49 bd c2 b0 34 bd 19 d8 92 3d
       0.42769417 -0.04915558 -0.044113882 0.071701236
0003e0 93 7d 28 bd 08 f4 fd bc c1 85 97 bd b9 4c 2a bd
       -0.041135382 -0.031000152 -0.073985584 -0.041577075
0003f0 0a 84 b8 3d 18 ec f6 be 62 f6 ab bc 06 19 aa 3c
       0.090095595 -0.48227 -0.020991508 0.020763885

sequential_1/dense_3/BiasAdd/ReadVariableOp f4 [4]
000000 2d 22 bf be 3c 3e 37 bf 3d 8d fe bd 22 92 3b 3f
       -0.37330762 -0.7157934 -0.12429283 0.73269856

sequential_1/dense_2/BiasAdd/ReadVariableOp f4 [64]
000000 49 52 00 bc 45 ef c5 3d b1 9c 15 3e 0f 8b 28 3e
       -0.007832118 0.09664778 0.14610554 0.16459297
000010 ef 73 ba be 77 8f 5c 3e ab 6d 65 3e 30 52 41 3e
       -0.36416575 0.21539102 0.22405116 0.18879008
000020 c5 af 1c bf 50 d5 77 be 74 c9 a6 be 0f e5 81 be
       -0.61205703 -0.24202466 -0.32575572 -0.2537007
000030 31 a8 c0 bd ce 0c 74 bd 80 b9 33 bf 6c 1a 15 bf
       -0.0940708 -0.059582524 -0.70204926 -0.5824344
000040 80 85 03 bf a2 62 c2 3e 8c 42 b0 be 0f de 00 3f
       -0.5137558 0.37965876 -0.3442577 0.50338835
000050 ad 2f 0d 3d 00 ac 79 3f 17 8a 81 3f 57 20 31 3e
       0.034469295 0.97528076 1.0120267 0.17297493
000060 26 88 1d 3e 53 3f c2 be a9 63 04 bf af 0d 39 3f
       0.15383968 -0.37938938 -0.5171457 0.72286505
000070 1d 0b 54 be e1 05 23 3f 76 a1 5c 3f 32 84 f8 3c
       -0.20707364 0.63680845 0.8618387 0.030336473
000080 1c 31 a0 3e bc 7c f6 be d3 66 9e be 63 d0 30 be
       0.31287467 -0.4814204 -0.30937824 -0.17266993
000090 fd d3 a8 be 90 83 aa 3e a6 20 0d 3f 86 3b 89 3e
       -0.32974234 0.333035 0.5512794 0.26803225
0000a0 32 3e 25 be d9 08 3b 3d 76 06 62 3c fc 3b ed be
       -0.16137007 0.045662735 0.013795486 -0.46334827
0000b0 fa df 34 bf a6 8c 41 bf 8b cb 09 3e aa 30 0b bf
       -0.7065426 -0.7560524 0.13456552 -0.5437113
0000c0 70 08 c1 3c ef cb ab be ec 8a ff be 68 49 eb bd
       0.023563594 -0.33554026 -0.49910676 -0.114886105
0000d0 c5 01 53 be 4c 97 3b bf d9 66 bf be 9b b2 4a 3e
       -0.20606144 -0.73277736 -0.37383154 0.19794695
0000e0 c2 0c bd 3e e4 c5 9e bd 17 cc 57 3f bf e6 2b be
       0.36923796 -0.077525884 0.8429579 -0.16787241
0000f0 83 c9 cb be d6 a4 a3 be ac dc 68 3f 34 02 80 3c
       -0.3980218 -0.31961697 0.9096172 0.01562605

sequential_1/dense_2/MatMul f4 [64, 512]
000000 87 25 af be 59 c9 00 bd f3 4c 90 be 0a 25 d7 3b
       -0.3420832 -0.03144202 -0.28183708 0.0065656947
000010 8d 7a 9a 3d f0 c5 76 3e fe 3f 99 3e 80 c1 56 3f
       0.07542906 0.24098945 0.29931635 0.8388901
000020 9c b9 15 bd df d3 46 3e 94 35 52 3a 0d d1 8d 3c
       -0.036553964 0.1941676 0.0008018848 0.017311597
000030 54 4d 9b be 7f 93 e8 3e 53 14 74 3c 98 60 c0 be
       -0.30332434 0.4542503 0.014897424 -0.37573695
000040 df b0 75 be a2 95 53 bf 5d 7e 8a be ae d8 0f 3f
       -0.23993252 -0.82650197 -0.27049533 0.5619
000050 46 8d bb bd 7f 02 c7 3d 77 5f 6f be 4e a0 44 bd
       -0.09157805 0.09717273 -0.2337626 -0.04800444
000060 33 a5 a4 bd c3 bc d4 be 1c dd d4 bd 5a 9c 84 3e
       -0.08039322 -0.41550264 -0.10393736 0.25900537
000070 53 67 89 3c ff aa 91 3e 08 26 c2 3d f3 75 54 bd
       0.016772902 0.28450772 0.0947991 -0.051870298
000080 c2 de 9b 3d 2d e1 ba bb 8b 74 15 be e9 95 97 bd
       0.07610847 -0.0057031126 -0.14595239 -0.0740164
000090 da e7 15 bd 66 5d c3 bd 91 06 6a 3e 49 5f c4 3e
       -0.036598064 -0.09539299 0.22854067 0.38353947
0000a0 48 ce 79 3d 43 01 f3 3d 4c 86 c3 bd e0 0f fa 3d
       0.06098774 0.11865475 -0.095470995 0.12210059
0000b0 9c c9 c5 bd c8 f6 c9 3e 10 f0 b4 bd 38 97 52 3e
       -0.096575946 0.39446092 -0.08834851 0.20565498
0000c0 e0 75 0d bf b4 e2 f7 3d 69 51 a0 be 1f 6c 04 3f
       -0.5525799 0.12103787 -0.3131211 0.5172748
0000d0 ca 3c 34 3e 25 e4 91 3c b2 96 46 bd 7f 83 be 3d
       0.17601314 0.017808983 -0.048483558 0.09302425
0000e0 57 fd 98 3d be 2f 98 be 81 1e 81 bc 69 08 60 be
       0.07470196 -0.29723924 -0.015761616 -0.21878208
0000f0 26 2f a1 3e 55 b1 e9 3d 41 35 8d be 72 d5 25 bd
       0.31481284 0.114107765 -0.27579692 -0.04048676
000100 72 22 43 be cc 9e e9 bd 53 d4 c9 bd 11 74 8c bd
       -0.19056109 -0.11407241 -0.09854951 -0.068580754
000110 5a bf b8 bc 07 fc cb be 1a 21 a5 3d 52 55 2b be
       -0.022552181 -0.3984072 0.08062954 -0.16731766
000120 8a 27 16 3e d8 47 54 be f3 63 eb be 92 c4 94 3e
       0.1466352 -0.20730531 -0.45974693 0.2905622
000130 46 40 31 3e 16 5d 0b 3f 3b 1d 03 3f 71 67 8a 3e
       0.17309675 0.5443891 0.5121648 0.27032045
000140 95 14 cd be 1b 8f 41 3d d7 16 95 3e b9 06 06 bd
       -0.40054765 0.047255617 0.29118988 -0.032721255
000150 ff 52 a2 be d0 38 0a bd 47 4b c8 bc d7 94 ba 3d
       -0.31703946 -0.033745587 -0.024449958 0.0911042
000160 0f 38 b3 3e 1a dd 36 3e 70 5a 9f 3e 87 e1 ac 3e
       0.35003707 0.17857781 0.31123686 0.33765814
000170 f4 c5 52 be b3 0c 46 be 46 47 67 3e d8 7b c2 3e
       -0.20583326 -0.19340782 0.22585782 0.3798511
000180 1e 01 5d 3d 1b 9f f2 3c c2 85 b4 3e c2 fd 9a 3e
       0.053956144 0.029616883 0.352583 0.30271727
000190 d3 85 62 3d a7 60 ea 3d 1a bc 5c 3c d0 17 da 3e
       0.055303406 0.11444216 0.013472581 0.42596292
0001a0 20 c4 24 3c 06 39 fa 3e a4 09 4b 3e 74 d6 2c 3e
       0.0100565255 0.4887163 0.19827896 0.16878682
0001b0 fe cf a2 bd a4 43 b4 3d b7 af 9f bd fe 3d a1 3d
       -0.079498276 0.08801964 -0.07797187 0.07873152
0001c0 0f 7d 55 bc a6 15 5f 3b 7c a2 99 3d 03 d1 26 3d
       -0.013030305 0.0034040003 0.075016946 0.040726673
0001d0 22 db d0 3e d8 da fb be 8d 90 d2 be e8 7c 36 3e
       0.40792185 -0.49190402 -0.41125908 0.17821085
0001e0 62 56 01 be f1 0e 94 3c cc e0 3e 3c 37 ca bc 3e
       -0.12630609 0.01807353 0.011650275 0.36873028
0001f0 b2 8e 34 be d3 18 02 be 02 3f 66 be 92 49 82 be
       -0.17632559 -0.12704782 -0.22484973 -0.25446755
000200 50 05 07 bf 56 52 f6 3c 94 44 c9 bd a7 2b 91 3d
       -0.5274248 0.030068558 -0.09827533 0.07088404
000210 7c f8 f8 bd 83 af 8c 3c 8f b7 d2 3d 22 ad 52 3e
       -0.1215677 0.017173534 0.10288917 0.20573857
000220 1e 20 97 bd b9 00 3b 3d ce d1 fa 3d 10 a4 08 bf
       -0.07379173 0.045654986 0.12247048 -0.5337534
000230 e1 d0 ad bd 8f f9 11 3f c3 6a dd bd 2d 6e 25 be
       -0.08487106 0.5702142 -0.10811379 -0.1615531
000240 d8 24 0d 3e 6f e7 45 3e e9 11 c8 3d 53 20 fd 3d
       0.13783586 0.19326566 0.09769041 0.12359681
000250 7f 03 e0 3d 81 0f 77 be 08 c6 30 be 5d 21 a3 bd
       0.10938167 -0.24127008 -0.17263043 -0.07965348
000260 06 dc b7 3e 2c 9f 12 3f 02 ff 2d be d2 0c c8 3d
       0.35910052 0.57274127 -0.16991809 0.0976807
000270 84 74 d9 be 0e a0 cb 3e 97 69 17 bd 04 25 84 bd
       -0.42471707 0.3977055 -0.036965933 -0.06452373
000280 ab ef 99 bd d0 ad ca bb 05 eb 0e bd d5 a4 36 bd
       -0.07516416 -0.006185271 -0.0348921 -0.04459079
000290 8c 43 d0 3e db d4 9c be 98 6b 11 be ba 1a 3a be
       0.40676534 -0.30631146 -0.142012 -0.18174258
0002a0 29 8e fd bd 41 4a 5d 3d b6 68 0e be 1d d3 e0 3e
       -0.123806305 0.054025892 -0.13907132 0.43911067
0002b0 35 60 36 3c 55 42 f7 3d 20 bc e1 3d 1f dd ff 3e
       0.011131336 0.12073199 0.1102221 0.4997339
0002c0 04 24 97 3e 92 09 83 3e 8c e1 fe 3d 1e 74 cb 3e
       0.29519665 0.2559324 0.124453634 0.39737028
0002d0 22 ae a2 bc f5 05 dc 3d a5 c9 92 be ad 3f 28 3d
       -0.019858424 0.10743324 -0.28669468 0.04107635
0002e0 57 39 9e bd 30 a0 6b 3e 1b 33 a3 3e 3f 45 7b be
       -0.077257805 0.23010325 0.31874928 -0.24538134
0002f0 d8 7c fc 3b 55 02 c6 3e 35 53 33 3c 62 4a fb bd
       0.007705312 0.38673654 0.010945131 -0.12270047
000300 11 0f 0e 3c 13 16 91 be 1b ba 83 bc 9a d2 0f 3d
       0.008670584 -0.28337154 -0.016079953 0.035112955
000310 e4 89 ab 3d 07 e1 ae be 12 ba 95 3d 9b d3 35 bd
       0.0837591 -0.34156057 0.07310881 -0.044391256
000320 94 8f 4c 3d d6 84 ad 3d eb f9 31 bf 18 30 6f 3e
       0.049941614 0.08472602 -0.6952197 0.2335819
000330 8a 23 48 3e a3 85 00 be 31 ee 0e be 89 87 a2 3d
       0.19544807 -0.12550978 -0.1395805 0.079360075
000340 5e 5d d0 3c cb c1 46 3e 4b 9d 84 3e 0b c5 18 3e
       0.025435146 0.19409864 0.25901255 0.14918916
000350 b1 ab f6 3b 73 73 6b bd b6 58 a0 be d2 ef bd bb
       0.0075277914 -0.057483148 -0.3131768 -0.005796411
000360 77 23 a4 3d 8e d2 5e 3e 5e c8 da 3e dc ae e2 be
       0.08014577 0.21760008 0.42730993 -0.44274032
000370 b5 92 01 bd 03 20 3d bc 89 a5 41 3e 04 c8 00 3f
       -0.03163405 -0.011543277 0.18910803 0.503052
000380 cf 96 3e bd 4a 52 23 be df a9 4c be 32 76 18 3e
       -0.04653054 -0.1594936 -0.19986676 0.14888838
000390 92 3d b4 3d 01 a1 73 bd 5f f5 67 3e 80 77 ff 3e
       0.08800806 -0.059479717 0.22652195 0.4989586
0003a0 f1 16 e0 bc 7d 69 2f 3e 3c dd 46 3f 7f 05 41 bd
       -0.02735469 0.17130084 0.77681327 -0.047124382
0003b0 25 33 fb bd e9 76 b7 3d cb a7 ef bc 67 88 a0 3d
       -0.122656144 0.08958227 -0.029254815 0.07838517
0003c0 66 d2 11 3d a9 2a f6 bd 7d a7 ef be ab f0 48 3e
       0.035601042 -0.120198555 -0.4680747 0.19623058
0003d0 e9 da 31 3e 5c 8a 0f bd f0 da 59 be bd d4 ac 3d
       0.17368664 -0.03504406 -0.21274924 0.08439014
0003e0 c3 3e 1d 3f 35 2d 03 3d 56 39 38 bd 63 5c 05 3e
       0.6142389 0.032025535 -0.044976555 0.13023524
0003f0 6d b0 5c 3e b3 3b 9f 3e 46 9e 88 be ec 1f 1c 3e
       0.21551676 0.31100234 -0.26683253 0.15246552
