models/demo_models/stationary_or_moving.tflite (tflite, 314988 bytes, 11 tensors)

sequential_2/conv1d_8/BiasAdd/ReadVariableOp f4 [32]
0	0xbe75a135	-0.23987277
1	0xbbef8567	-0.007309604
2	0xbe856adc	-0.2605809
3	0xbe063ee8	-0.13109934
4	0xbe80219e	-0.25025648
5	0xbec39a11	-0.3820348
6	0xbeb1a825	-0.34698597
7	0xbf14e188	-0.58156633
8	0xbe2833c0	-0.16425991
9	0xbe83fc46	-0.25778407
10	0xbda6f542	-0.08152248
11	0xbe405924	-0.18784004
12	0xbe94f25a	-0.2909115
13	0xbf226b50	-0.63444996
14	0xbf018508	-0.50593615
15	0xbd56d377	-0.052447762
16	0xbe8f1303	-0.27944192
17	0xbf0801ca	-0.5312773
18	0xbe89db7c	-0.26925266
19	0xbee87640	-0.45402718
20	0xbed8200b	-0.42211947
21	0xbe0fce8b	-0.14043634
22	0xbe904910	-0.28180742
23	0xbe90ec02	-0.2830506
24	0xbed19273	-0.40932044
25	0xbeb9da5d	-0.3629941
26	0x3ca47023	0.020073002
27	0x3d109710	0.035300314
28	0xbf261d9e	-0.6488894
29	0xbee58f95	-0.44836107
30	0xbcb07dc5	-0.021544347
31	0xbe5f6b6e	-0.21818325

sequential_2/conv1d_9/BiasAdd/ReadVariableOp f4 [64]
0	0xbe0223ca	-0.12708965
1	0xbdc67674	-0.09690562
2	0xbda8c743	-0.08241131
3	0xbe97762b	-0.29582343
4	0xbe9da627	-0.30790827
5	0xbe1184cf	-0.14210819
6	0xbe75acdd	-0.23991723
7	0xbee5f402	-0.44912726
8	0xbf044e11	-0.5168162
9	0xbe765480	-0.24055672
10	0xbdc18bf6	-0.094505236
11	0xbe71838d	-0.23585339
12	0xbdcceb51	-0.100058205
13	0xbdf05bb4	-0.11736241
14	0xbe191fa7	-0.1495348
15	0xbeb82313	-0.3596426
16	0xbf0e2b94	-0.55535245
17	0xbf1689c9	-0.58803993
18	0xbe3761a1	-0.17908336
19	0xbe173842	-0.14767554
20	0xbddb3896	-0.10704152
21	0xbdcaed84	-0.09908584
22	0xbc5bbc64	-0.013411615
23	0xbebf78c8	-0.37396836
24	0xbdb06780	-0.08613491
25	0xbea0e0ac	-0.3142141
26	0xbe1d43f1	-0.15357949
27	0xbdd97567	-0.10618096
28	0xbdc6aaa9	-0.097005196
29	0xbeb248ad	-0.34821072
30	0xbf0d4879	-0.5518871
31	0xbe92a383	-0.28640375
32	0xbe963978	-0.2934072
33	0xbdf73c64	-0.120720655
34	0xbe159389	-0.14607061
35	0xbeab9a63	-0.33516225
36	0xbe4d3361	-0.20039131
37	0xbe4048cc	-0.1877777
38	0xbea058d5	-0.31317773
39	0xbe2ae695	-0.16689523
40	0xbd614241	-0.054994825
41	0xbd61fe87	-0.055174377
42	0xbef11e02	-0.47093207
43	0xbd7c9518	-0.061665624
44	0xbe00d4f8	-0.12581241
45	0xbeda6c9c	-0.42660987
46	0xbeb328e9	-0.3499215
47	0xbe45f174	-0.19330388
48	0xbe510a56	-0.20414099
49	0xbf00c6da	-0.50303423
50	0xbe9a4707	-0.30132315
51	0xbe5cfc44	-0.21580607
52	0xbf1c33ff	-0.6101684
53	0xbeda9e55	-0.42698923
54	0xbe7370f3	-0.23773555
55	0xbf14c3b6	-0.5811113
56	0xbd87380a	-0.066024855
57	0x3a49450a	0.0007677829
58	0xbe909086	-0.28235263
59	0xbea18a69	-0.3155091
60	0xbee763f5	-0.4519345
61	0xbe3c5653	-0.18392305
62	0xbe0c0383	-0.13673215
63	0xbebfefee	-0.3748774

sequential_2/conv1d_10/BiasAdd/ReadVariableOp f4 [64]
0	0xbecb0c1d	-0.3965768
1	0xbe135385	-0.14387329
2	0xbe5209cd	-0.20511551
3	0xbcfceb12	-0.030873809
4	0xbc928830	-0.017887205
5	0xbdf85c8a	-0.121270254
6	0xbe8c2faf	-0.2738013
7	0xbd1e05d9	-0.038579796
8	0xbd2dbaf4	-0.04241462
9	0x3e5f7a90	0.21824098
10	0xbdb844db	-0.08997508
11	0xbea5cfe3	-0.32385167
12	0xbea8a7fe	-0.32940668
13	0xbd62cecb	-0.055372994
14	0xbd851a2f	-0.06499135
15	0xbd0affd8	-0.033935398
16	0xbd531e75	-0.051542718
17	0xbcd28881	-0.025699856
18	0xbe2aee73	-0.16692524
19	0xbe81b845	-0.253359
20	0xbd25fb4b	-0.040522855
21	0xbe5683bb	-0.20948689
22	0xbd4905ff	-0.049077984
23	0xbcf2bd1a	-0.029631186
24	0xbd787443	-0.06065775
25	0xbe9142d4	-0.28371298
26	0xbe07799d	-0.13229986
27	0xbd68768f	-0.05675369
28	0xbda3ca3b	-0.07997557
29	0xbf175a4e	-0.5912217
30	0xbe77e65a	-0.24208966
31	0xbda26e1e	-0.079311594
32	0xbe833cac	-0.25632226
33	0xbce450f0	-0.027870625
34	0xbd0c25a1	-0.034215573
35	0xbc9807d8	-0.018558428
36	0xbd356e55	-0.044294674
37	0xbc0005dc	-0.007813897
38	0x3da58d6c	0.08083615
39	0xbe2920bc	-0.16516393
40	0xbd2c9654	-0.04213555
41	0xbe801817	-0.2501838
42	0xbd5ab98e	-0.053399615
43	0xbe540ff0	-0.20709205
44	0xbe3f25ec	-0.1866681
45	0xbd42e8be	-0.04758524
46	0xbe94b558	-0.29044604
47	0xbda36137	-0.07977527
48	0xbc4615d1	-0.012090162
49	0xbe2f3aa4	-0.17112213
50	0xbd308949	-0.043099675
51	0xbdac97de	-0.08427404
52	0xbdc2892d	-0.094988205
53	0xbd5dca91	-0.05414826
54	0xbd3285dd	-0.043584693
55	0xbf129276	-0.5725473
56	0xbebcff8d	-0.3691372
57	0xbeb41f9e	-0.35180372
58	0xbd68f1aa	-0.056871094
59	0xbd04bb11	-0.032404963
60	0xbd42cf4a	-0.047560968
61	0x3c87ae3e	0.016562577
62	0xbf0b7472	-0.54474556
63	0x3db6b746	0.089216754

sequential_2/conv1d_11/BiasAdd/ReadVariableOp f4 [128]
0	0xbe02c3f6	-0.12770066
1	0x3df38338	0.11890262
2	0xbddec5cf	-0.10877573
3	0xbeddd3a8	-0.43325543
4	0xbce0ff9a	-0.02746563
5	0xbe831337	-0.25600597
6	0xbe4b0448	-0.19825852
7	0x3e83901f	0.25695893
8	0xbe195c6a	-0.1497666
9	0x3e3cfa2b	0.18454807
10	0xbe920c30	-0.28524923
11	0xbe11dab9	-0.14243592
12	0xbf22e36a	-0.63628256
13	0x3df510f1	0.11966122
14	0xbe33699a	-0.17520753
15	0xbd35de29	-0.04440132
16	0xbd4ddca0	-0.050259233
17	0xbe63da93	-0.22251348
18	0xbe6eb1e3	-0.23310046
19	0xbf64aff8	-0.89331007
20	0x3d241da7	0.04006734
21	0x3ebabbd2	0.3647142
22	0xbdb1d9ac	-0.08684096
23	0xbd84ba7d	-0.06480882
24	0x3edbfa14	0.42964232
25	0x3edefadf	0.43550774
26	0x3eb91bbf	0.3615398
27	0xbeb3f9e0	-0.35151577
28	0xbd865173	-0.06558504
29	0x3ef0becf	0.47020575
30	0x3ec40fa7	0.38293192
31	0xbe92dd96	-0.28684682
32	0xbd7e55c1	-0.0620935
33	0xbdcaf561	-0.099100836
34	0xbf19050d	-0.5977333
35	0xbebb06c3	-0.36528596
36	0x3eea549f	0.45767686
37	0xbf56600b	-0.837403
38	0xbeab65ad	-0.3347601
39	0xbe5a62e0	-0.2132678
40	0xbe94992c	-0.2902311
41	0x3b62189c	0.0034499532
42	0xbdc5c001	-0.096557625
43	0xbe63e2e8	-0.22254527
44	0xbe8e7f46	-0.27831477
45	0xbf9c09e6	-1.2190521
46	0xbf2c85d2	-0.67391694
47	0xbe65ae95	-0.22429879
48	0xbe5c940e	-0.21540853
49	0xbe57779c	-0.21041721
50	0x3e74e74e	0.2391636
51	0xbe9987a2	-0.29986292
52	0x3e88116c	0.26575792
53	0x3e0d8cde	0.13823268
54	0x3e9325a7	0.28739664
55	0xbd1b838a	-0.037967242
56	0xbdcf168d	-0.10111723
57	0x3ef75e6d	0.4831423
58	0x3d896e0f	0.06710445
59	0xbd8ff685	-0.07029442
60	0xbe97af72	-0.29626042
61	0x3ef27537	0.47355053
62	0xbd5d9785	-0.05409958
63	0xbe46f1e2	-0.19428208
64	0xbcf3ab2e	-0.02974471
65	0xbe47e9f2	-0.19522837
66	0xbdef206a	-0.11676104
67	0xbf0c50c5	-0.54810745
68	0x3ef2071b	0.47271046
69	0xbe81b96f	-0.25336787
70	0x3e534d62	0.20634988
71	0xbcb7ef91	-0.022453101
72	0x3ef0b9c3	0.47016725
73	0xbd96128b	-0.073277555
74	0x3c4c9c13	0.012488383
75	0xbdd3696f	-0.10322844
76	0x3e5f64ed	0.21815844
77	0x3f158d77	0.58418983
78	0xbe299a22	-0.16562703
79	0xbe150c2a	-0.14555421
80	0xbee78b04	-0.45223248
81	0x3e8dee7b	0.2772101
82	0x3dd76a40	0.105183125
83	0x3e7b32ed	0.24531145
84	0xbdc18fa1	-0.09451223
85	0xbe61f9ab	-0.22067897
86	0xbed250b3	-0.41077194
87	0xbe20982e	-0.15683052
88	0xbeabc51b	-0.33548817
89	0xbe45916a	-0.19293752
90	0x3e6f2d4b	0.23357122
91	0x3e88da3d	0.26729003
92	0x3ee189b3	0.4405037
93	0xbf0c041e	-0.5469378
94	0xbf3c279b	-0.73497933
95	0x3eb5dc60	0.35519695
96	0x3e506a96	0.2035316
97	0x3e251590	0.16121507
98	0x3e3a72aa	0.18207803
99	0xbf43345c	-0.7625177
100	0xb9aa25b1	-0.0003245301
101	0xbeb49936	-0.3527314
102	0x3e2e79ab	0.170386
103	0xbd2d7331	-0.042346183
104	0xbe0babe7	-0.13639794
105	0xbda56238	-0.08075374
106	0xbde0a65a	-0.10969229
107	0x3cc23787	0.023708118
108	0x3dab1089	0.08352763
109	0xbee43541	-0.4457188
110	0xbe5e4615	-0.21706422
111	0x3e843e10	0.258286
112	0xbea15797	-0.31512138
113	0xbe845afb	-0.25850663
114	0x3ea061d7	0.31324646
115	0xbe951161	-0.29114822
116	0xbe45fd6d	-0.19334956
117	0x3d706b02	0.0586958
118	0xbe45a16d	-0.1929986
119	0xbc3612fb	-0.011112924
120	0xbe3dc3fc	-0.18531793
121	0xbf015025	-0.50512916
122	0xbe25687e	-0.16153142
123	0xbdc3f70e	-0.09568606
124	0xbfb037d0	-1.3767033
125	0x3efa373e	0.4887027
126	0xbe8ab75c	-0.27093017
127	0x3dc460ec	0.09588799

sequential_2/conv1d_8/Conv1D f4 [32, 1, 3, 3]
0	0xbe0eb998	-0.13937986
1	0x3f2eb5a5	0.6824592
2	0x3e120994	0.14261466
3	0x3d5a16a4	0.053244248
4	0x3dcb152b	0.09916147
5	0x3e81c776	0.2534749
6	0x3ee76b04	0.45198834
7	0xbe4fdaf2	-0.20298365
8	0x3ea5447b	0.3227881
9	0x3f5486a4	0.83017945
10	0xbddb7b73	-0.107169054
11	0x3eb19d2e	0.3469023
12	0x3ea95cfb	0.3307875
13	0x3e07fe2b	0.13280551
14	0x3e3e04c5	0.18556507
15	0xbf27a096	-0.6547941
16	0x3ea2fdf8	0.31834388
17	0xbe63d061	-0.22247459
18	0x3f732209	0.9497381
19	0xbe54ba02	-0.20774081
20	0x3e212c3c	0.1573953
21	0x3f13167d	0.5745619
22	0x3e0602b1	0.13086964
23	0x3e481ccf	0.1954224
24	0x3e607f1e	0.21923491
25	0x3eaa783d	0.3329486
26	0x3e18ce5e	0.14922473
27	0x3e45e122	0.19324163
28	0xbda09074	-0.07840052
29	0x3eb5a8bd	0.354803
30	0xbde30310	-0.110845685
31	0x3e312762	0.1730018
32	0xbd81a5e7	-0.063304715
33	0xbd0cd59b	-0.034383398
34	0x3f356606	0.708588
35	0x3ea08d1d	0.3135766
36	0x3e050d42	0.12993339
37	0xbee7b0ee	-0.45252174
38	0xbf41dc4d	-0.7572678
39	0xbe80bc6f	-0.25143763
40	0x3e697119	0.2279705
41	0x3eb5ee23	0.35533246
42	0xbe98c7ea	-0.29840022
43	0x3db36349	0.087591715
44	0x3eaafde2	0.33396822
45	0xbdc8a171	-0.097964175
46	0xbe0ace72	-0.13555315
47	0x3e9c65f1	0.30546525
48	0x3e01ac11	0.12663294
49	0xbd410431	-0.047123138
50	0xbee824cd	-0.45340577
51	0x3e997329	0.29970673
52	0x3d1aefdc	0.037826404
53	0x3e5ad01d	0.21368451
54	0x3d71b77c	0.059012875
55	0xbe7f7e58	-0.2495054
56	0x3e1f8473	0.15577869
57	0x3e32a610	0.1744616
58	0x3e475b91	0.19468524
59	0xbe03f8cd	-0.12887879
60	0xbdbe0d77	-0.09279912
61	0x3ea5c9e3	0.3238059
62	0x3ce6ee90	0.028189927
63	0xbdef34a6	-0.11679964
64	0xbe86be0a	-0.26316863
65	0xbdbfb552	-0.09360756
66	0xbe0e7483	-0.13911633
67	0xbeb4491b	-0.35212025
68	0xbda4eb4d	-0.080526926
69	0x3f129c74	0.5726998
70	0xbe2ee586	-0.17079744
71	0xbe74933c	-0.2388429
72	0xbe98eb44	-0.29866993
73	0xbea63812	-0.32464653
74	0xbe8cbc48	-0.27487397
75	0x3e1e6b7d	0.15470691
76	0x3f178539	0.59187657
77	0x3e152cc4	0.14567858
78	0x3eaddd0d	0.3395771
79	0xbe788081	-0.2426777
80	0xbd34312d	-0.04399221
81	0xbe3f1599	-0.18660583
82	0x3eaeb830	0.341249
83	0xbe19e34b	-0.15028112
84	0x3e5c16ac	0.21493024
85	0xbdb2344e	-0.087013826
86	0xbe581c10	-0.21104455
87	0xbcdbd6d3	-0.026835835
88	0x3ed78b06	0.42098254
89	0xbb238d65	-0.0024956104
90	0x3e863384	0.26211178
91	0xbf07088e	-0.5274743
92	0x3e424d17	0.1897472
93	0x3f415150	0.755147
94	0xbe1019c6	-0.14072332
95	0x3e1f887b	0.15579407
96	0x3f257dcb	0.6464507
97	0x3e0f7423	0.14009146
98	0x3f039103	0.51393145
99	0xbf2972f3	-0.66191024
100	0xbcd79a64	-0.026318736
101	0xbe1f3ef8	-0.15551364
102	0xbe6d53e1	-0.23176529
103	0xbd783e03	-0.060606014
104	0x3e7fd5f6	0.24983963
105	0xbf02ad97	-0.5104613
106	0xbea25e6d	-0.31712666
107	0x3e0d465e	0.13796374
108	0x3e4e9e7b	0.20177643
109	0x3e19f4de	0.15034816
110	0xbeaef15e	-0.34168524
111	0x3ca11e1d	0.01966768
112	0x3e5a98e3	0.21347384
113	0xbe454dec	-0.19268006
114	0x3e18d6b2	0.1492565
115	0x3d7c7d34	0.06164284
116	0xbed14466	-0.40872496
117	0x3eab3292	0.3343702
118	0x3ddafb38	0.106924474
119	0x3e88f097	0.26746055
120	0x3e6fffe1	0.23437454
121	0x3ee659f1	0.44990495
122	0x3e01631f	0.12635468
123	0xbd7af44c	-0.061268136
124	0x3edc8f14	0.4307791
125	0xbe95bc3e	-0.2924518
126	0x3e162c15	0.14665253
127	0x3e910d58	0.28330493
128	0xbee9a26b	-0.45631728
129	0x3ebd2800	0.3694458
130	0x3cfa6ab7	0.030568464
131	0x3e39cf42	0.18145469
132	0x3dad191d	0.084520556
133	0xbe98c9d6	-0.2984149
134	0x3e827302	0.2547837
135	0xbf6bbfea	-0.9208971
136	0xbcb97d87	-0.022642864
137	0xbe33abae	-0.1754596
138	0x3eaf4545	0.34232536
139	0x3e177c93	0.14793615
140	0x3ee2d8a2	0.44305903
141	0x3f39a756	0.7252096
142	0x3e868ebe	0.2628078
143	0xbe99f65e	-0.30070776
144	0xbee09b2f	-0.43868396
145	0xbd73bf33	-0.059508514
146	0xbe1f7a30	-0.15573955
147	0x3e56a1bf	0.20960139
148	0x3ea5a710	0.3235402
149	0x3dffa170	0.12481964
150	0x3ea05f31	0.31322625
151	0xbdf1b96c	-0.118029445
152	0xbda11f88	-0.07867342
153	0x3e8f68ef	0.28009745
154	0xbe118e0c	-0.14214343
155	0x3dec0933	0.11525192
156	0xbef18887	-0.47174475
157	0x3bbe027b	0.0057986355
158	0xbdf08552	-0.11744179
159	0xbd89e178	-0.06732458
160	0xbc276e10	-0.010219112
161	0xbe27b28a	-0.16376701
162	0x3e52d8b3	0.20590477
163	0x3eb7ab70	0.35872984
164	0x3f0387d5	0.5137914
165	0x3df3557f	0.118815415
166	0x3ec41e1c	0.38304222
167	0x3effbb97	0.49947807
168	0x3e1deabc	0.15421575
169	0x3dff475a	0.12464781
170	0x3e9468ea	0.28986293
171	0x3ebe8729	0.37212494
172	0x3d6c585b	0.05770145
173	0xba2e9bb9	-0.0006660778
174	0xbe224e47	-0.15850173
175	0x3e01d0a4	0.12677246
176	0x3e6e10d5	0.23248608
177	0xbeeb90ac	-0.46008813
178	0xbe7cca52	-0.24686554
179	0x3d35ca6f	0.04438251
180	0x3eaed6b8	0.34148192
181	0x3f0460df	0.51710314
182	0x3cfcf22d	0.030877197
183	0xbe141164	-0.14459759
184	0x3ee2b741	0.44280437
185	0xbe2ac729	-0.16677536
186	0x3e5493a9	0.20759453
187	0x3d1027bf	0.035194155
188	0xbe809050	-0.25110102
189	0xbe943b54	-0.28951514
190	0x3dd6a1ab	0.104800545
191	0xbe892bd1	-0.26791242
192	0xbef66150	-0.4812112
193	0xbdc4bc68	-0.09606248
194	0xbe8224bb	-0.25418648
195	0xbe083d83	-0.13304715
196	0x3f3ed945	0.74550277
197	0x3e9c785a	0.3056057
198	0x3ebcc30c	0.3686756
199	0x3e8ff278	0.28114676
200	0x3f148b66	0.58025205
201	0xbc83bc41	-0.016080977
202	0x3ef52591	0.47880223
203	0x3e828345	0.25490776
204	0xbcc22306	-0.023698341
205	0x3cd0d5e5	0.025492618
206	0x3e66cbc6	0.22538671
207	0xbd95b637	-0.07310145
208	0xbd3886f6	-0.045050584
209	0xbea1ab39	-0.31575945
210	0xbd8b7d6c	-0.06811032
211	0xbb6a2327	-0.003572652
212	0xbe8fad28	-0.28061795
213	0x3e704e32	0.23467329
214	0x3e3800b5	0.1796902
215	0xbe883895	-0.2660567
216	0x3e9642a7	0.29347727
217	0x3eb366e9	0.35039452
218	0xbd2d979f	-0.042380925
219	0x3d83bd6d	0.064326145
220	0x3e57c39b	0.21070711
221	0xbe87ea4a	-0.26545936
222	0xbd290b95	-0.04127081
223	0xbc7082b1	-0.014679597
224	0xbe7cd130	-0.24689174
225	0xbebd76e8	-0.3700478
226	0xbe222ae3	-0.15836672
227	0xbe836d3a	-0.2566927
228	0xbee4fc47	-0.44723722
229	0xbd68b30e	-0.056811385
230	0xbe658294	-0.22413093
231	0xbe916456	-0.28396863
232	0xbdc43976	-0.09581272
233	0x3deb1a86	0.11479668
234	0x3e796e5e	0.24358508
235	0x3daad904	0.08342174
236	0x3f774200	0.96585083
237	0x3ed89e8a	0.42308456
238	0x3d87aa9e	0.066243395
239	0x3f80b201	1.0054322
240	0x3dff5725	0.124677934
241	0xbe9d6905	-0.30744186
242	0x3f50a8b5	0.81507427
243	0x3f117d6c	0.56832004
244	0x3ef23e52	0.47313172
245	0xbeda91f6	-0.42689484
246	0x3ec54be3	0.3853446
247	0x3f63e57a	0.8902203
248	0xbcd89172	-0.026436541
249	0x3f0fa5ec	0.5611255
250	0x3df5c6cf	0.1200081
251	0xbd0c325c	-0.034227714
252	0x3ec15ffc	0.37768543
253	0xbe56f77a	-0.20992842
254	0x3e58cfc4	0.21173006
255	0xbe6a536d	-0.22883387

sequential_2/conv1d_9/Conv1D f4 [64, 1, 3, 32]
0	0xbda59ff8	-0.08087152
1	0xbe1bf38f	-0.15229629
2	0xbd6455d6	-0.055745922
3	0xbda08df5	-0.07839576
4	0xbe3f3a9a	-0.18674698
5	0xbde6c57d	-0.11268137
6	0x3d130de8	0.035901934
7	0x3d2b052a	0.04175297
8	0xbd4ebfeb	-0.050475996
9	0x3cc55587	0.024088634
10	0xbdd84283	-0.10559561
11	0x3d2b071a	0.04175482
12	0x3aad4ff9	0.0013222686
13	0xbe422dd7	-0.18962799
14	0xbdec3309	-0.11533172
15	0xbdce2cb4	-0.1006712
16	0x3cd9f49a	0.026605893
17	0xbe21fb35	-0.15818484
18	0x3d90150b	0.07035264
19	0xbe07013d	-0.13184066
20	0xbd036f9e	-0.03208887
21	0x3ca634f9	0.020288931
22	0x3da6bf68	0.081419766
23	0xbdaf0603	-0.085460685
24	0x3ce851c7	0.028359307
25	0xbe33f2ed	-0.17573138
26	0xbdc9a0dd	-0.09845135
27	0x3cb90f7b	0.02259039
28	0xbc54f48f	-0.01299776
29	0xbe135a2b	-0.14389865
30	0xbc321133	-0.010868358
31	0xbeaabf63	-0.3334914
32	0xbd0cf5f6	-0.034414254
33	0x3d800362	0.06250645
34	0x3cb67fdf	0.02227777
35	0x3d4e0aa2	0.05030311
36	0xbd986989	-0.07442004
37	0xbe4a07fd	-0.1972961
38	0x3d354852	0.044258423
39	0xbc728295	-0.014801641
40	0xbd995b25	-0.074880876
41	0x3df85369	0.12125284
42	0x3d2ef59b	0.042714696
43	0xbe312396	-0.17298731
44	0x3d136298	0.0359827
45	0xbd894848	-0.0670324
46	0xbc9ebf99	-0.01937847
47	0xbe662975	-0.22476752
48	0xbc9ae3a1	-0.01890737
49	0xbc09eb09	-0.008417853
50	0x3df3b49d	0.118996836
51	0xbdab7826	-0.08372526
52	0x3d01631d	0.031588662
53	0x3de74f45	0.11294416
54	0x3d4198dd	0.047264922
55	0x3d982ea9	0.07430775
56	0xbdd17ac1	-0.102284916
57	0xbc92090b	-0.017826578
58	0xbdcd9c6d	-0.100396015
59	0x3d114ac3	0.03547169
60	0xbe319331	-0.17341305
61	0x3a697c68	0.00089067826
62	0x3bac13b0	0.0052513704
63	0xbdb1a1d5	-0.08673445
64	0xbe16bfbd	-0.1472158
65	0xbd84f0fc	-0.064912766
66	0xbe1e4b21	-0.15458347
67	0xbdf9edca	-0.12203558
68	0xbccd3da9	-0.025053816
69	0xbc6f4588	-0.01460398
70	0xbc9423f1	-0.018083544
71	0xbe73bc32	-0.2380226
72	0xbea17b7f	-0.31539533
73	0x3d36d4ae	0.04463642
74	0xbd585845	-0.052818555
75	0xbe71f138	-0.23627174
76	0x3cc4a5a6	0.024004769
77	0xbca3ab28	-0.019979075
78	0x3cc62c85	0.02419115
79	0xbdd77215	-0.10519806
80	0x3dd9f764	0.10642889
81	0xbc325a37	-0.010885767
82	0x3e7ae6f4	0.24502164
83	0xbd7f09b7	-0.062265124
84	0xbd7aa061	-0.061188105
85	0xbe8ab9c8	-0.27094865
86	0xbe41c730	-0.1892364
87	0xbd8a729c	-0.06760141
88	0xbddf0066	-0.10888748
89	0x3d295c64	0.041347876
90	0x3cb08262	0.021546546
91	0x3e1aaea9	0.1510569
92	0xbd240d46	-0.04005172
93	0x3da148c8	0.0787521
94	0xbe08dfb0	-0.1336658
95	0xbe78b8a6	-0.24289188
96	0xbe8ca79b	-0.27471623
97	0xbdd72d8a	-0.10506733
98	0x3af0415a	0.0018330023
99	0x3d98fb02	0.07469751
100	0x3d355ead	0.044279743
101	0x3cfe24aa	0.031023342
102	0x3d152980	0.03641653
103	0xbc1e1862	-0.009649368
104	0xbd803fb2	-0.06262149
105	0xbe090278	-0.13379848
106	0xbe0c8797	-0.13723598
107	0x3df35f73	0.1188344
108	0xbbde4e6b	-0.0067842505
109	0xbe846466	-0.25857848
110	0xbe1c0972	-0.15237978
111	0x3e16e5a5	0.1473604
112	0xbe0e7df3	-0.13915233
113	0x3d903fa4	0.070433885
114	0x3d02e6a4	0.031958237
115	0xbe4b8818	-0.19876134
116	0xb97f1497	-0.00024326365
117	0xbde9b13f	-0.1141076
118	0xbdc4b823	-0.09605434
119	0x3d8ed04d	0.06973324
120	0xbdb3c182	-0.08777143
121	0x3e1986d4	0.14992839
122	0xbe3ca759	-0.18423213
123	0xbdfb9f9d	-0.12286303
124	0xba3070e4	-0.0006730689
125	0x3c8d881c	0.017276816
126	0xbe1d3f92	-0.15356281
127	0xbe390ca0	-0.18071222
128	0xbe8c34fb	-0.2738417
129	0xbd697b18	-0.057002157
130	0xbda3dc7e	-0.0800104
131	0xbe02ab75	-0.12760718
132	0xba1c26d0	-0.0005956711
133	0xbe74c99a	-0.2390503
134	0xbe118444	-0.14210612
135	0xbde0444b	-0.10950526
136	0x3e1c5503	0.15266804
137	0xbece1697	-0.4025161
138	0x3d3208e5	0.043465514
139	0x3c37696c	0.011194568
140	0x3c63932a	0.013890067
141	0xbc14e3e4	-0.0090875365
142	0x3d8b1811	0.067917
143	0xbded8dd2	-0.11599316
144	0x3e5bd672	0.21468523
145	0x3c829735	0.015941242
146	0xbd851177	-0.06497472
147	0xbca62ff0	-0.02028653
148	0xbe0e8419	-0.13917579
149	0xbe5fa074	-0.21838552
150	0xbd461087	-0.048355605
151	0xbe42b7fb	-0.19015495
152	0x3d3ce6c9	0.04611853
153	0xbd2faa93	-0.04288728
154	0xbd2a600e	-0.04159551
155	0xbc7da724	-0.015481744
156	0xbe2e996d	-0.17050715
157	0xbd3bab07	-0.0458174
158	0xbe4ade39	-0.19811334
159	0xbe0c970c	-0.13729495
160	0xbe879b02	-0.2648545
161	0x3d6a15b8	0.05714962
162	0xbd880d56	-0.06643169
163	0x3d1dca9e	0.03852331
164	0x3dc85d0c	0.09783372
165	0x3dacd21f	0.08438515
166	0xbe868b80	-0.26278305
167	0xbe10a095	-0.14123757
168	0x3e2d3fe9	0.16918911
169	0xbe9aef24	-0.30260575
170	0xbda2643a	-0.07929273
171	0xbd837d9c	-0.064204425
172	0xbd2c9b01	-0.04214001
173	0xbe5f57bf	-0.21810816
174	0xbe3a11fb	-0.18170922
175	0xbb9c2553	-0.0047651916
176	0xbdb2093e	-0.08693169
177	0xbd77861e	-0.06043064
178	0xbe440550	-0.19142652
179	0xbe62860a	-0.22121444
180	0xbe03032c	-0.12794179
181	0x3b569700	0.0032743812
182	0xbe63b8f0	-0.22238517
183	0xbe30bdd9	-0.17259921
184	0xbd992736	-0.07478182
185	0xbe1a932c	-0.15095204
186	0xbe8428d4	-0.258124
187	0xbd90441f	-0.07044243
188	0xbdd69ead	-0.10479484
189	0xbd37682f	-0.04477709
190	0xbe6289aa	-0.22122827
191	0xbecf7b40	-0.4052372
192	0xbdb06148	-0.08612305
193	0xbd8214da	-0.06351633
194	0x3db589aa	0.08864148
195	0xbdb0b7a8	-0.0862878
196	0xbdfe7dfa	-0.12426372
197	0x3d8c7abd	0.06859348
198	0xbda5db30	-0.08098447
199	0xbe67f7a1	-0.22653057
200	0xbd76a1b7	-0.060212817
201	0x3d747ab8	0.059687346
202	0x3c82f334	0.015985109
203	0x3c3011b8	0.010746412
204	0x3d67bc06	0.056575797
205	0x3df1551d	0.11783812
206	0xbe1bd2b1	-0.15217091
207	0xbe629c4c	-0.22129935
208	0xbd4f5a41	-0.050623182
209	0xbe3e6114	-0.1859172
210	0x3e01a1ac	0.12659329
211	0xbda48612	-0.080333844
212	0xbd6c4fa4	-0.05769314
213	0xbe10ac1e	-0.14128157
214	0x3e35ed9c	0.17766422
215	0xbe36dc4a	-0.17857471
216	0xbd52ad91	-0.051435057
217	0x3bd7deb6	0.0065878285
218	0xbe4df119	-0.20111503
219	0x3bb095db	0.005388958
220	0xbe3550d3	-0.17706613
221	0xbe280782	-0.16409114
222	0x3b3b542d	0.0028584108
223	0x3d18b7f8	0.03728482
224	0xbb7faebe	-0.0039014067
225	0xbd2db209	-0.042406116
226	0xbd6b4298	-0.057436556
227	0xbe072ac6	-0.1319991
228	0xbd70688a	-0.058693446
229	0xbd58256e	-0.05277007
230	0xbd3832e2	-0.0449704
231	0xbdfdd819	-0.12394733
232	0xbe1494d4	-0.14509898
233	0x3cad39f4	0.021145798
234	0xbe514a6b	-0.20438544
235	0xbdcaa82b	-0.09895357
236	0xbe51ee38	-0.2050103
237	0x3dd10c35	0.102074064
238	0xbcb36d76	-0.021902781
239	0xbde2fb78	-0.1108312
240	0x3cab5cd5	0.02091829
241	0xbdd407a0	-0.10353017
242	0x3e34de19	0.17662849
243	0x3c9fd0b4	0.019508697
244	0xbd96ccf5	-0.07363311
245	0xbe0f75e2	-0.14009812
246	0x3e03ad13	0.12858991
247	0xbc5d7826	-0.013517415
248	0xbc56810b	-0.01309229
249	0xbe7ddcc0	-0.2479124
250	0xbdc06cef	-0.093957774
251	0xbcacd2df	-0.021096645
252	0x3d15718f	0.03648525
253	0xbd9b3b6c	-0.07579693
254	0xbd9b0e92	-0.075711384
255	0xbd5934ae	-0.053028755

sequential_2/conv1d_10/Conv1D f4 [64, 1, 3, 64]
0	0xbc264ac3	-0.0101496605
1	0x3c1759ff	0.009237765
2	0x3d6f4b85	0.05842163
3	0xbda2d942	-0.07951595
4	0x3e8589be	0.2608165
5	0x3dcac04f	0.09899961
6	0x3db721f6	0.089420244
7	0x3db26872	0.087113276
8	0xbe1c6107	-0.15271388
9	0xbf1d821a	-0.61526644
10	0xbd15a545	-0.036534566
11	0x3d6c25f0	0.057653368
12	0x3e10912f	0.14117883
13	0x3cc01d90	0.023451596
14	0x3c99ec35	0.01878939
15	0xbe97504f	-0.29553458
16	0x3e24741a	0.16059914
17	0x3ead3e47	0.33836576
18	0xbe311ae4	-0.17295414
19	0x3d86c4df	0.06580519
20	0x3dcc4b70	0.09975326
21	0x3d7a425e	0.06109845
22	0x3bc8f802	0.0061330805
23	0x3d2f0d0b	0.042737048
24	0xba327d28	-0.0006808811
25	0x3e16cb57	0.14726005
26	0x3dd75c00	0.105155945
27	0x3dd5ad1a	0.10433407
28	0xbd6f37cf	-0.058402833
29	0x3f020752	0.5079242
30	0x3d679a52	0.056543656
31	0x3ea8a0af	0.32935092
32	0x3e2e750d	0.17036839
33	0xbd69598c	-0.056970164
34	0x3b1a7986	0.0023570969
35	0xbe514e72	-0.20440081
36	0xbf170a7a	-0.5900036
37	0xbe4232ff	-0.18964766
38	0x3a11acba	0.00055570493
39	0xbd61fafc	-0.055170998
40	0xbdc47e3a	-0.09594388
41	0xbdd92a95	-0.10603825
42	0x3e3c2b2d	0.18375845
43	0xbd987d38	-0.074457586
44	0x3dec7f86	0.11547761
45	0x3c4204ad	0.011841935
46	0x3e06f98a	0.13181129
47	0xbd13724d	-0.035997678
48	0xbf0ae60d	-0.5425728
49	0xbe21809f	-0.15771721
50	0x3de453ff	0.111488335
51	0xbe72ea15	-0.23722108
52	0x3da8ba17	0.08238619
53	0x3e8cdb41	0.27511027
54	0xbe05640a	-0.13026443
55	0xbd110aab	-0.035410564
56	0xbd92642d	-0.07148013
57	0xbdc2a7de	-0.095046744
58	0xbdbf03db	-0.09326907
59	0x3d78f7fa	0.060783364
60	0x3e4882d8	0.19581163
61	0x3dfd4468	0.12366563
62	0xbca9c6f8	-0.020724759
63	0x3db6b56f	0.089213245
64	0xbcc7c63d	-0.02438652
65	0xbd24b182	-0.040208347
66	0x3d0723b0	0.03299302
67	0x3e89a8c4	0.2688657
68	0x3e47115e	0.19440219
69	0xbc8d8f09	-0.017280119
70	0x3cdb8293	0.026795661
71	0x3e804001	0.2504883
72	0x3e2286f0	0.15871787
73	0xbed55a0e	-0.4167027
74	0xbc048eef	-0.008090719
75	0x3e8eb23f	0.27870366
76	0x3dbeb1d2	0.0931126
77	0x3e0b3c65	0.13597257
78	0xbba0b2cd	-0.004904127
79	0xbd94e4cd	-0.07270203
80	0x3eed593c	0.46357143
81	0x3e919887	0.28436682
82	0x3d5189bc	0.051156744
83	0x3ddb7b6a	0.10716899
84	0x3d484413	0.048893046
85	0xbd607030	-0.05479449
86	0xbd414ab4	-0.047190383
87	0x3df8a2f7	0.12140458
88	0xbd1e1953	-0.03859837
89	0x3e5f1f11	0.21789195
90	0x3b85cdee	0.0040833866
91	0x3ce6c4eb	0.02817007
92	0xbc36f8df	-0.011167734
93	0x3f29760e	0.6619576
94	0x3e8ba23d	0.27272215
95	0x3eba3d43	0.36374864
96	0x3e87e114	0.26538908
97	0xbc820cc4	-0.015875228
98	0x3ea5d436	0.32388467
99	0x3cc2cf85	0.023780594
100	0xbef8402c	-0.4848646
101	0x3ebaf389	0.36513928
102	0x3d77ec67	0.060528185
103	0x3ea0b7f8	0.31390357
104	0x3c26277e	0.010141252
105	0x3dea724c	0.11447582
106	0x3ca991a0	0.020699322
107	0xbd4e4ed5	-0.05036815
108	0x3ce4e3a5	0.02794058
109	0x3ea0a8ab	0.31378683
110	0x3e924853	0.28570804
111	0x3e8ca26b	0.27467665
112	0xbe0c7e46	-0.13720044
113	0xbe641ade	-0.22275874
114	0x3e59c31a	0.21265832
115	0x3eb156f9	0.34636667
116	0x3e0837ac	0.13302487
117	0x3de37151	0.11105598
118	0x3ddf9f3c	0.109190434
119	0x3c79f9a5	0.015257274
120	0x3d9ac43d	0.07556961
121	0xbe207e30	-0.15673137
122	0x3e0ff1aa	0.14057031
123	0xbe5b7fac	-0.21435422
124	0x3e0f255b	0.13979094
125	0x3e99ffd6	0.30078
126	0x3d83fa5f	0.06444239
127	0x3d1c0b67	0.03809681
128	0xbda155db	-0.07877704
129	0x3e4bf426	0.19917354
130	0x3d4049f1	0.046945516
131	0x3e8882e2	0.26662356
132	0x3ea9df5b	0.3317822
133	0x3dbc0e4a	0.09182413
134	0x3e138b9c	0.14408726
135	0x3e9f9c03	0.31173715
136	0xbc0c08d0	-0.008547023
137	0xbe8a97a2	-0.27068812
138	0x3d6065a1	0.05478442
139	0x3db6c155	0.08923594
140	0x3e41e275	0.18934043
141	0x3d8e797f	0.06956767
142	0xbd95b449	-0.07309777
143	0xbdd708fa	-0.10499759
144	0x3e1b24c8	0.1515075
145	0x3deaf5ed	0.11472688
146	0xbd9f4084	-0.07775977
147	0x3d8fda92	0.07024111
148	0xbdad9153	-0.08474984
149	0x3d5cccc0	0.053906202
150	0xbe6ede64	-0.23327023
151	0x3d49c1b5	0.049257
152	0x3dfaad82	0.12240125
153	0x3dfecb24	0.1244109
154	0x3ddc54fd	0.10758398
155	0xbdc3d342	-0.095617786
156	0xbdd77717	-0.105207615
157	0x3f1aaaa3	0.6041662
158	0x3eb848aa	0.35992938
159	0x3e318677	0.1733645
160	0x3e06ec22	0.13176015
161	0x3c090b39	0.008364492
162	0x3e2b23f1	0.1671293
163	0x3e1d14a8	0.15339911
164	0xbe6f79e2	-0.23386338
165	0x3e8fd5f9	0.28092936
166	0xbe2fe4d6	-0.17177138
167	0x3e8f69c5	0.28010383
168	0xbdaef1cb	-0.08542212
169	0x3d556be4	0.052104846
170	0xbe8839c0	-0.2660656
171	0x3c3c41e6	0.011490321
172	0xbcfa8d9d	-0.030585105
173	0xbc6de330	-0.014519498
174	0x3e7ee637	0.24892507
175	0xbea927b5	-0.33038107
176	0xbeabbda8	-0.33543134
177	0xbeb06b03	-0.34456643
178	0x3cb3b452	0.02193657
179	0x3ea5ae5c	0.32359588
180	0x3e24e03e	0.16101167
181	0x3ed1a52a	0.40946323
182	0xbe97099d	-0.29499522
183	0x3ecdadea	0.40171748
184	0xbd4d2394	-0.050082758
185	0xbe6c5a62	-0.23081353
186	0xbe567bf4	-0.20945722
187	0x3f1fe232	0.6245452
188	0x3ea94e70	0.33067656
189	0x3ed60389	0.41799572
190	0x3dea7052	0.11447205
191	0x3dca5acb	0.09880599
192	0xbd7068bb	-0.05869363
193	0xbbef93a8	-0.007311303
194	0x3bfd6368	0.0077327974
195	0x3ebe16e7	0.37126848
196	0xbe8fc4a2	-0.28079706
197	0x3acb2122	0.0015497545
198	0xbdce9171	-0.100863345
199	0xbda87d76	-0.08227055
200	0x3eac3ef9	0.33641794
201	0xbf3477b5	-0.7049516
202	0xbd367dad	-0.044553448
203	0x3f1c5bde	0.6107768
204	0x3cad967f	0.021189926
205	0x3d94aad9	0.07259149
206	0xbcad4ecc	-0.021155737
207	0xbec36803	-0.38165292
208	0xbede3e08	-0.434067
209	0x3d722236	0.059114657
210	0xbe6f2aa0	-0.23356104
211	0x3d9c016b	0.07617458
212	0xbce829c8	-0.028340235
213	0xbd80281f	-0.062576525
214	0x3f30cb5a	0.6906029
215	0xbc90bf03	-0.017669206
216	0xbcb9a9bc	-0.022663943
217	0x3baece8b	0.0053346804
218	0x3d741692	0.059591837
219	0xbd4fa42f	-0.050693687
220	0xbd5bee95	-0.053694326
221	0x3e607832	0.21920851
222	0xbf3dd642	-0.74155056
223	0x3e2eafc7	0.17059241
224	0xbe8aac80	-0.27084732
225	0xbd06e9ff	-0.032938
226	0xbeeb1ed4	-0.45921957
227	0xbf1b203d	-0.60596067
228	0xbebfd2da	-0.37465554
229	0xbf484823	-0.7823507
230	0x3ede9b4f	0.43477866
231	0xbeea5910	-0.45771074
232	0xbd9b1b04	-0.07573512
233	0xbf4740c0	-0.77833176
234	0x3ed55c76	0.41672105
235	0x3d6522d3	0.055941414
236	0xbf176897	-0.59143966
237	0xbecf1bff	-0.40451047
238	0xbf0847b3	-0.53234404
239	0x3e6c8e3e	0.23101136
240	0x3f005a12	0.50137436
241	0x3eb9868e	0.3623547
242	0xbd75617d	-0.059907425
243	0xbe2dcb73	-0.16972141
244	0xbe6e0845	-0.23245342
245	0x3db55fbd	0.08856151
246	0x3d8bc6ff	0.06825065
247	0xbe5195f5	-0.2046736
248	0xbc81702b	-0.015800556
249	0x3f035d19	0.5131393
250	0xbe46e449	-0.19423021
251	0xbd195dec	-0.037443087
252	0x3e49be89	0.1970159
253	0xbed87bc1	-0.42281917
254	0xbf4a625d	-0.7905634
255	0xbf0873ee	-0.53301895

sequential_2/conv1d_11/Conv1D f4 [128, 1, 3, 64]
0	0xbe190651	-0.14943816
1	0x3eca9c0f	0.39572188
2	0xbc006db3	-0.007838654
3	0x3dfe0755	0.12403742
4	0x3f0e60cc	0.5561645
5	0x3dedfe6a	0.11620791
6	0x3e9d8aaa	0.30769855
7	0x3dfb7786	0.12278657
8	0x3e06be61	0.13158561
9	0x3c7b3808	0.015333183
10	0x3e18f896	0.14938578
11	0xbe35c198	-0.17749631
12	0xbdcaecb7	-0.09908431
13	0xbc4b140b	-0.012394915
14	0x3dbc3315	0.091894306
15	0x3d71ee3f	0.0590651
16	0x3d51681a	0.05112467
17	0xbd36648f	-0.044529494
18	0xbd03c51d	-0.032170404
19	0x3c952524	0.018206187
20	0x3e00b85f	0.12570332
21	0xbb85d3d7	-0.004084091
22	0x3d800944	0.06251767
23	0xbc5221ff	-0.012825488
24	0xbd6d332e	-0.057910137
25	0x3ddfe57c	0.109324425
26	0x3e207afc	0.15671915
27	0xbcdd3b62	-0.027005855
28	0x3ed4346e	0.4144625
29	0xbe0a6a04	-0.13517004
30	0xbdf5a615	-0.11994568
31	0xbdf1cf70	-0.11807144
32	0x3e00996d	0.12558527
33	0x3d151b29	0.036402855
34	0xbd95d9de	-0.073169455
35	0xbce50cca	-0.0279602
36	0xbdc04354	-0.09387842
37	0xbd5723ac	-0.052524254
38	0xbebc8aed	-0.36824742
39	0xbdd8bbba	-0.10582681
40	0xbdad9239	-0.084751554
41	0x3e204bff	0.1565399
42	0xbc9bcc62	-0.019018356
43	0x3eb1956d	0.34684315
44	0x3e19e918	0.15030324
45	0x3d87664f	0.06611311
46	0x3e1dd092	0.15411595
47	0x3ce52ba2	0.027974907
48	0x3cf53799	0.029933738
49	0x3d436b1c	0.04770957
50	0x3f176895	0.59143955
51	0x3e55c4d1	0.20875861
52	0x3e226294	0.15857917
53	0x3ce23e1b	0.027617505
54	0x3d12d5a0	0.03584826
55	0x3d0b9201	0.034074787
56	0x3d900520	0.070322275
57	0x3ead991c	0.33905876
58	0x3dddfd75	0.10839359
59	0x3beda233	0.0072520017
60	0xbd95ba2a	-0.073108986
61	0x3cb6fd68	0.02233763
62	0x3db26a0b	0.08711632
63	0x3f23ab99	0.6393371
64	0x3d8f98a1	0.070115335
65	0x3ea8b9a1	0.32954124
66	0x3de945f8	0.113902986
67	0x3ddea2ab	0.1087087
68	0x3e0076ed	0.12545367
69	0x3d8ccd61	0.068751104
70	0x3ed1a1cb	0.4094375
71	0x3df933b2	0.12168063
72	0x3defaa7b	0.117024384
73	0x3d6ab5a1	0.05730212
74	0x3db37d60	0.08764148
75	0x3d95c3c8	0.07312733
76	0x3d5c3b6e	0.053767614
77	0x3dacca8e	0.08437072
78	0xbdd84224	-0.1055949
79	0xbd04ff04	-0.032469764
80	0x3d7bb446	0.06145122
81	0xbd8351a3	-0.06412055
82	0x3db14ee7	0.086576276
83	0x3d088b12	0.033335753
84	0x3dcdeb73	0.10054674
85	0xbddb5242	-0.10709049
86	0xbc827000	-0.015922546
87	0xbc85c80e	-0.016330745
88	0x3c2fdeee	0.010734303
89	0x3d64b942	0.055840738
90	0xbf0b6f1c	-0.54466414
91	0x3c0bad99	0.008525276
92	0xbed48d28	-0.41513944
93	0xbd5a57bf	-0.053306337
94	0xbe11e642	-0.14247993
95	0xbe499e7f	-0.19689368
96	0x3e121792	0.14266804
97	0x3d51f001	0.051254276
98	0x3b108b7d	0.0022055798
99	0x3e03f5f2	0.1288679
100	0xbd8bf488	-0.0683375
101	0xbb619709	-0.00344223
102	0x3b59366e	0.0033144015
103	0x3d200006	0.039062522
104	0xbd3d6209	-0.04623607
105	0x3e0e5ee2	0.13903382
106	0xbb9e3d4a	-0.0048290836
107	0x3e295d8b	0.1653959
108	0x3ca4bc02	0.02010918
109	0x3c6a762f	0.014310404
110	0xbe1c6d18	-0.15275991
111	0xbd26e050	-0.040741265
112	0x3d836916	0.06416528
113	0x3e26f3f2	0.16303995
114	0xbba6c2fb	-0.0050891615
115	0x3df9d3b2	0.12198581
116	0x3d24db08	0.040247947
117	0x3e267ff6	0.1625975
118	0x3c75e7f4	0.015008915
119	0x3e61ccc9	0.22050776
120	0xbbd4a08d	-0.0064888657
121	0x3eb118fa	0.34589368
122	0xbd1cd437	-0.03828832
123	0x3ca344ee	0.01993033
124	0xbdfadb99	-0.12248916
125	0x3deb9dbc	0.11504695
126	0x3e1ce4a2	0.15321591
127	0x3f0d7dd8	0.5527015
128	0x3e367e6d	0.17821665
129	0xbf89652d	-1.0734001
130	0x3de71f49	0.11285264
131	0x3e099ecc	0.13439482
132	0x3e7759b9	0.2415532
133	0x3dc71696	0.09721105
134	0x3df370d0	0.11886752
135	0x3e0b7f7b	0.13622849
136	0x3d454dbe	0.048169844
137	0x3e1872c4	0.1488753
138	0x3dd47374	0.103735834
139	0xb91227ac	-0.00013938424
140	0x3cde6108	0.027145877
141	0xbd1117c4	-0.035423055
142	0x3ca072cd	0.019585991
143	0xbc620916	-0.013796112
144	0x3d73b853	0.059501957
145	0xbd652e52	-0.055952378
146	0xba907d2f	-0.0011023636
147	0x3e144d20	0.14482546
148	0xbd8aa103	-0.06768992
149	0xbd378e76	-0.044813596
150	0x3de8c57e	0.11365794
151	0xbd2bdbe9	-0.04195777
152	0x3d895799	0.06706161
153	0x3eab34ab	0.3343862
154	0xbe4d15d6	-0.20027861
155	0xbd09ca47	-0.033640172
156	0xbe7f7ece	-0.24950716
157	0x3e85479c	0.26031196
158	0xbdeaa50a	-0.1145726
159	0xbe971fc6	-0.2951643
160	0x3e120897	0.1426109
161	0x3db7720a	0.08957298
162	0x3d4ba6e9	0.049719725
163	0xbd4fc448	-0.050724298
164	0xbb5a3ef7	-0.003330169
165	0x3e03c172	0.12866762
166	0x3db40993	0.08790889
167	0xbd6ce407	-0.05783465
168	0xbdab8fee	-0.08377062
169	0x3e757306	0.23969659
170	0x3cca89d8	0.024723932
171	0x3d81b0eb	0.063325725
172	0x3a938da8	0.0011257427
173	0x3e10ffda	0.141601
174	0x3c17a628	0.009255923
175	0xbd0e6877	-0.034767594
176	0xbdc6ba20	-0.09703469
177	0xbb39d607	-0.002835633
178	0xbed0066e	-0.40629905
179	0xbf36e02a	-0.714358
180	0x3e0ff6dc	0.14059013
181	0x3d53a585	0.051671524
182	0x3da65aaf	0.08122765
183	0xbd7ab95b	-0.061211925
184	0xbda27827	-0.079330735
185	0x3e08010e	0.13281652
186	0xbd816e36	-0.06319849
187	0x3cca0abc	0.024663322
188	0x3c75ae94	0.014995236
189	0x3dabc5d9	0.08387346
190	0xbdb261de	-0.08710073
191	0xbe0b73d4	-0.13618404
192	0x3d02d0c0	0.03193736
193	0xbee4f3b1	-0.44717172
194	0x3d453045	0.048141737
195	0x3d8920dd	0.06695721
196	0x3e2705e4	0.16310841
197	0xbe1400a3	-0.14453368
198	0xbed0176e	-0.40642875
199	0x3c30807b	0.01077282
200	0x3e0dc659	0.13845195
201	0xbe199e52	-0.150018
202	0xbe2c4090	-0.16821504
203	0xbc82ecd0	-0.015982062
204	0xbe43414b	-0.19067876
205	0xbc9e9456	-0.019357841
206	0xbc091a65	-0.008368109
207	0xbcc726af	-0.024310438
208	0xbd0f8ddf	-0.03504741
209	0xbdb17ac0	-0.08665991
210	0x3d4d8874	0.05017896
211	0x3c10f358	0.00884708
212	0x3dde3154	0.10849252
213	0xbd1e3b06	-0.038630508
214	0xbc6e5e23	-0.014548811
215	0x3d732350	0.05935985
216	0x3d6d0ade	0.057871692
217	0xbdeb367c	-0.114850014
218	0xbdcc8aa2	-0.099873796
219	0xbc1376cd	-0.009000492
220	0x3e433eda	0.19066945
221	0xbea11907	-0.31464407
222	0x3e3e270f	0.18569587
223	0xbcbc01f9	-0.02295016
224	0xbbaa2f53	-0.00519363
225	0xbe32b188	-0.17450535
226	0x3b9adb0a	0.0047258185
227	0xbd0e300c	-0.03471379
228	0xbe025536	-0.12727818
229	0xbe0c69cc	-0.13712233
230	0xbe5f5a83	-0.21811871
231	0xbd5f8f28	-0.054579884
232	0xbd218993	-0.03943784
233	0x3d13fcb2	0.03612966
234	0xbd52fb9c	-0.051509485
235	0xbe758eef	-0.23980306
236	0x3cc2f28a	0.023797292
237	0x3de2cdf0	0.11074436
238	0xbc1a0482	-0.009400489
239	0x3ced60fe	0.028976914
240	0xbd2c86b2	-0.042120643
241	0xbd0e9a56	-0.034815155
242	0x3e0e0326	0.13868389
243	0x3e71bc45	0.23606975
244	0xbdba4610	-0.090953946
245	0xbdf0931c	-0.11746809
246	0x3cf2961d	0.029612595
247	0x3e47af7a	0.19500533
248	0x3e24ede6	0.16106376
249	0xbe1f0927	-0.15530835
250	0x3d84714d	0.06466923
251	0xbc2f8301	-0.010712386
252	0x3d86c612	0.06580748
253	0xbcaada1d	-0.020855958
254	0x3d517bd5	0.051143486
255	0x3e7b56b3	0.24544792

sequential_2/dense_4/BiasAdd/ReadVariableOp f4 [64]
0	0xbf340102	-0.7031404
1	0xbd1a4ac8	-0.037668973
2	0xbef508b2	-0.47858196
3	0xbef5a198	-0.4797485
4	0x3fcc2b92	1.5950797
5	0x3fa38d06	1.2777412
6	0xbe64fcdd	-0.22362085
7	0xbc7d9dc6	-0.015479511
8	0xbe952092	-0.29126412
9	0xbf03729d	-0.5134676
10	0x3ec85e79	0.39134577
11	0xbf562b1b	-0.83659524
12	0x3f231671	0.6370612
13	0x3e2278de	0.1586642
14	0xbf6cff02	-0.9257661
15	0xbed3db5c	-0.41378295
16	0xbf6b24c9	-0.91853005
17	0xbe933549	-0.2875159
18	0xbf150dca	-0.58224165
19	0xbe811e97	-0.2521865
20	0xbec1752b	-0.37784705
21	0xbf76b358	-0.96367407
22	0xbedee399	-0.43533018
23	0xbf693560	-0.9109707
24	0x3e886cb5	0.26645437
25	0x3e98029e	0.29689497
26	0xbebcb43d	-0.3685626
27	0xbf1d0036	-0.61328447
28	0xbf2ed390	-0.6829157
29	0xbdaa7edc	-0.08324978
30	0xbef3d5e5	-0.47624126
31	0x3e394ea1	0.18096401
32	0xbf14d263	-0.58133525
33	0xbf24aed4	-0.64329267
34	0xbf8bdea1	-1.0927316
35	0x3f323c31	0.69623095
36	0xbf2cefbd	-0.6755331
37	0xbeecba6e	-0.46235985
38	0xbf3f2965	-0.7467254
39	0xbea71322	-0.32631785
40	0x3f70bbdc	0.9403665
41	0xbf1e3b72	-0.61809456
42	0xbf2213de	-0.63311565
43	0x3fa18048	1.2617273
44	0xbeb240a5	-0.34814945
45	0xbeec6046	-0.461672
46	0xbf672f83	-0.9030687
47	0xbe98009c	-0.29687965
48	0xbf35a35e	-0.70952404
49	0xbed47643	-0.41496477
50	0xbe2b7307	-0.16743098
51	0xbf19a0e0	-0.600111
52	0xbea168c1	-0.31525233
53	0xbf3648a0	-0.71204567
54	0xbe595497	-0.21223675
55	0xbedeeef0	-0.4354167
56	0xbf682d2a	-0.90693915
57	0xbed3a36b	-0.41335616
58	0xbefe4bd1	-0.49667218
59	0xbed82884	-0.4221841
60	0xbee9bdc9	-0.45652607
61	0xbec18a69	-0.3780091
62	0x3e86208f	0.26196715
63	0x3e35057b	0.17677872

sequential_2/dense_4/MatMul f4 [64, 512]
0	0xbd951885	-0.07280067
1	0xbf1042b5	-0.56351787
2	0xbd162785	-0.036658783
3	0xbd626281	-0.055269722
4	0x3e0bcb02	0.1365166
5	0x3e8a34e8	0.2699349
6	0xbec0cb54	-0.37655127
7	0x3e2e5f78	0.17028606
8	0x3c45f1e8	0.012081601
9	0xbd468abd	-0.048472155
10	0x3cc89458	0.024484798
11	0xbe15e5c2	-0.14638427
12	0x3ee0654d	0.43827286
13	0x3d400a38	0.046884745
14	0x3e9d3f90	0.30712557
15	0x3f1042b6	0.5635179
16	0xbea2384f	-0.31683585
17	0xbe5e3259	-0.21698894
18	0xbdb4a87d	-0.08821199
19	0x3eed2494	0.4631697
20	0x3dbc4747	0.091932826
21	0xbf211895	-0.62928134
22	0xbd26b90d	-0.040703822
23	0xbd81a452	-0.0633017
24	0xbe96d38d	-0.29458275
25	0xbeb981bb	-0.3623179
26	0xbb5a8298	-0.0033342
27	0x3e0badad	0.13640471
28	0x3e5a669e	0.21328208
29	0x3d8b25d9	0.06794328
30	0xbf51a121	-0.8188649
31	0xbe415ca3	-0.18882994
32	0x3e473afc	0.19456095
33	0xbef00591	-0.46879247
34	0x3e75f1b4	0.24017984
35	0x3ed6a721	0.41924384
36	0xbd44c214	-0.04803665
37	0x3e9246ab	0.2856954
38	0x3eb69fd7	0.35668823
39	0xbcd4108f	-0.025886802
40	0x3c42280a	0.011850366
41	0x3ddbe26c	0.10736546
42	0x3f2016a8	0.6253457
43	0xbe377028	-0.17913878
44	0x3e15e77b	0.14639084
45	0x3eb89929	0.36054352
46	0x3ca894fc	0.020578854
47	0xbe2dabae	-0.16960022
48	0x3ecc2384	0.39870846
49	0x3e9edf00	0.3102951
50	0xbf4904f8	-0.78523207
51	0x3ecf2dca	0.40464622
52	0xbea877a7	-0.32903787
53	0xbe159c6d	-0.14610453
54	0x3e41c0b0	0.1892116
55	0x3ea42972	0.3206287
56	0xbe75ec5e	-0.24015948
57	0xbeb9c7fc	-0.36285388
58	0xbcee8d04	-0.029119976
59	0x3e2293ac	0.15876645
60	0xbd825278	-0.06363386
61	0x3d545f6b	0.05184881
62	0xbf40567e	-0.75131977
63	0x3e0a92f6	0.13532624
64	0xbe709a22	-0.23496297
65	0x3e54516f	0.2073419
66	0x3e78b655	0.24288304
67	0x3f281308	0.6565404
68	0xbdac8e02	-0.08425523
69	0x3e5b6d00	0.21428299
70	0xbf4b41ed	-0.7939747
71	0x3f1233d3	0.5711033
72	0xbe508743	-0.20364098
73	0x3e1d3965	0.15353926
74	0x3f136244	0.57571816
75	0xbc9ac245	-0.018891463
76	0xbececfca	-0.40392905
77	0xbf417545	-0.75569564
78	0xbe439c30	-0.1910255
79	0xbd799e61	-0.060942058
80	0xbc756cc3	-0.014979544
81	0xbe532981	-0.20621301
82	0xbd32762e	-0.043569736
83	0x3e595fa2	0.21227887
84	0x3a3f90ab	0.0007307629
85	0xbd915347	-0.07095962
86	0x3e61b874	0.2204302
87	0x3d7f799a	0.062371828
88	0x3e43ec23	0.19133048
89	0x3e76a8fc	0.240879
90	0xbd1b21cf	-0.03787404
91	0x3ef39ff7	0.4758298
92	0xbe835f88	-0.25658822
93	0x3f0731ca	0.5281035
94	0x3d64f55d	0.05589806
95	0xbf790ac4	-0.9728205
96	0xbed9ec0c	-0.42562902
97	0xbe8078dc	-0.25092208
98	0xbee4112c	-0.4454435
99	0x3dd3f580	0.1034956
100	0x3e17d9ff	0.14829253
101	0x3e5deb87	0.21671878
102	0xbf11a04d	-0.56885225
103	0xbc789b1a	-0.015173698
104	0xbd32c399	-0.043643568
105	0x3f7b54cd	0.9817627
106	0xbdbec358	-0.093146026
107	0xbeb0a2f7	-0.34499332
108	0xbd14bf09	-0.036314998
109	0xbd1b749b	-0.037953
110	0x3e517cbd	0.2045774
111	0x3d98937b	0.07450005
112	0x3e8d0e9b	0.27550206
113	0x3e531b8b	0.20615976
114	0xbd8f34f6	-0.06992523
115	0xbefb5da9	-0.49094895
116	0x3d9a03cb	0.07520255
117	0x3f5eea3b	0.8707616
118	0x3e8a1bb2	0.26974255
119	0xbec700c3	-0.3886777
120	0x3e7703e3	0.24122576
121	0x3ea5a1cf	0.32350013
122	0xbd25ea11	-0.040506426
123	0x3e42b90a	0.190159
124	0x3e22152f	0.15828393
125	0xbec606d4	-0.38677084
126	0x3e0cd2bd	0.13752265
127	0xbd440c4d	-0.047863293
128	0xbe7979a5	-0.2436281
129	0xbf0f13a3	-0.5588934
130	0x3c3fc529	0.0117047215
131	0xbd0c11ce	-0.034196667
132	0xbe8a9bd0	-0.27072
133	0x3e74103b	0.23834316
134	0x3e1b16c9	0.1514541
135	0x3da9b640	0.082867146
136	0x3edc8072	0.43066746
137	0x3eb03ed6	0.3442294
138	0xbee6f63d	-0.4510974
139	0xbd6e9239	-0.058244918
140	0x3f3b354a	0.7312819
141	0x3e84380c	0.2582401
142	0x3daf492a	0.08558877
143	0xbcd2828d	-0.025697017
144	0x3d44adc0	0.048017263
145	0x3e00c738	0.12575996
146	0xbe339245	-0.17536266
147	0x3ec7df3a	0.39037496
148	0x3e2044c9	0.1565124
149	0xbebbc732	-0.3667541
150	0x3e193308	0.14960873
151	0xbe69da52	-0.22837189
152	0xbe0d789f	-0.13815545
153	0xbedc87fc	-0.43072498
154	0xbe9c2cf1	-0.30503038
155	0xbe91b896	-0.2846114
156	0xbd9b1177	-0.075716905
157	0xbd4fb95e	-0.05071389
158	0x3db31086	0.08743386
159	0xbcc640e0	-0.024200857
160	0xbd94bafd	-0.07262228
161	0xbe0c7ac3	-0.13718705
162	0x3d7c9386	0.061664127
163	0xbd09ae19	-0.033613298
164	0xbe974780	-0.29546738
165	0x3e16bd74	0.14720708
166	0x3dc3e059	0.09564275
167	0xbe155c3c	-0.14585966
168	0x3e1b0f84	0.15142637
169	0x3e5de62c	0.21669835
170	0xbed1a5a9	-0.409467
171	0xbe20a24a	-0.15686908
172	0x3d9c51c7	0.07632785
173	0x3c3ab487	0.01139558
174	0x3e075bb4	0.13218576
175	0xbe3ef11b	-0.18646662
176	0x3dc6357f	0.09678172
177	0xbe2d9845	-0.16952617
178	0xbf0bc450	-0.54596424
179	0xbe2d7591	-0.1693938
180	0x3e51c6dd	0.20486017
181	0xbe6a9d41	-0.2291155
182	0x3a00869f	0.00049028726
183	0x3d32b504	0.04362966
184	0xbe4bcc93	-0.19902258
185	0xbea21426	-0.31655997
186	0xbe69a5de	-0.2281718
187	0x3ed9205e	0.42407507
188	0x3e84489c	0.25836647
189	0xbe4f3187	-0.20233737
190	0xbea83dd9	-0.32859686
191	0x3ea67ad7	0.32515594
192	0xbeb77425	-0.358308
193	0xbe86a79f	-0.2629976
194	0xbea6507f	-0.3248329
195	0x3d082875	0.033241708
196	0x3d66f104	0.056382194
197	0x3dabbaec	0.08385262
198	0x3eb13602	0.34611517
199	0xbdbd8de6	-0.092555806
200	0xbef65f63	-0.4811965
201	0xbc20dcb3	-0.009818244
202	0x3f0ac0e7	0.54200596
203	0xbd5bd4b7	-0.053669658
204	0xbe764dcb	-0.24053113
205	0x3d17b71a	0.037039854
206	0x3be8a959	0.007100266
207	0x3d51a783	0.051185142
208	0x3e8d071e	0.27544492
209	0x3e08e350	0.13367963
210	0xbea8a742	-0.32940108
211	0x3e86b768	0.26311803
212	0x3d5f0761	0.054450396
213	0xbe7ab85b	-0.24484389
214	0xbcdb0f82	-0.026740793
215	0xbf4679f1	-0.7752982
216	0x3e44af3b	0.1920747
217	0x3ed4fdbb	0.4159983
218	0x3e27ce53	0.163873
219	0xbce6cd4d	-0.028174067
220	0xbeea2cd9	-0.4573734
221	0x3efd5e3e	0.49485964
222	0x3e8961a0	0.26832294
223	0xbf24c8e4	-0.64369035
224	0x3e9c25dd	0.30497637
225	0xbef65cce	-0.4811768
226	0xbe8675b2	-0.2626167
227	0xbdf5c64b	-0.12000712
228	0xbe0b405e	-0.13598773
229	0x3ec8f77c	0.39251316
230	0x3d35b5ad	0.044362713
231	0x3db55be0	0.088554144
232	0xbceee53e	-0.029162046
233	0x3eff9c54	0.49923956
234	0x3e3feefa	0.18743506
235	0x3d8d3e05	0.06896595
236	0xbed81f2b	-0.4221128
237	0x3c933e6e	0.017974105
238	0x3e173b0d	0.1476862
239	0xbf224efd	-0.63401777
240	0x3e50e7a9	0.20400871
241	0x3e43576e	0.1907632
242	0xbeb9f065	-0.3631622
243	0xbce5727d	-0.028008694
244	0x3c8e92f5	0.017404059
245	0x3e1f0bcf	0.15531848
246	0xbe04c6fa	-0.12966529
247	0xbdb4dc18	-0.08831042
248	0xbdba2d95	-0.09090725
249	0x3eb47eec	0.35253084
250	0x3cd54d7c	0.026037924
251	0x3efbf079	0.49206904
252	0x3d85ea4a	0.06538828
253	0xbdfb6151	-0.12274421
254	0x3dc9d5e5	0.0985525
255	0x3e818ed4	0.25304282

sequential_2/dense_5/MatMul f4 [1, 64]
0	0x3e221e7f	0.15831946
1	0xbba71bb6	-0.005099739
2	0xbddf6004	-0.109069854
3	0x3db4f3a9	0.08835537
4	0xbd8e6e66	-0.069546506
5	0xbe14f2ce	-0.14545748
6	0x3bbea138	0.0058175586
7	0xbda1a5bd	-0.0789294
8	0xbd33cfb5	-0.043899257
9	0xbc3a4ab8	-0.011370353
10	0x3d16f76d	0.036857057
11	0x3d294152	0.04132206
12	0x3c95c874	0.01828406
13	0xbd651bf2	-0.055934854
14	0x3cdd400e	0.027008083
15	0xbd7c7fb7	-0.061645236
16	0x3d209794	0.039207056
17	0x3c184ca6	0.009295618
18	0x3ccaf1d7	0.024773521
19	0xbc93c036	-0.01803599
20	0xbbefb611	-0.007315405
21	0xbc902fba	-0.017600883
22	0xbc904ae3	-0.017613834
23	0x3d38c1b7	0.045106616
24	0x39f1b522	0.00046102057
25	0x3d1bd86c	0.038048193
26	0xbd978551	-0.07398475
27	0xbd16d98c	-0.036828563
28	0xbc22b631	-0.009931133
29	0x3dbd8afe	0.09255026
30	0x3d347d98	0.044065088
31	0x3ba89e94	0.005145857
32	0xbd8df414	-0.0693132
33	0x3dc960d8	0.098329246
34	0xbc2b8d62	-0.01047072
35	0x3a973f4a	0.0011539247
36	0x3c6eccc7	0.01457519
37	0xbdd47a3c	-0.10374877
38	0xbc08b0e4	-0.008342955
39	0xbc973f53	-0.018462813
40	0xbd7b342c	-0.06132905
41	0xbc966f66	-0.018363666
42	0xbd81bcdc	-0.0633485
43	0xbdf5e69b	-0.12006875
44	0x3d54887d	0.051887978
45	0x3dbdb87e	0.09263705
46	0xbbb818b0	-0.0056181774
47	0xbde693f5	-0.11258689
48	0xbd799203	-0.060930263
49	0x3cacb49f	0.02108222
50	0xbd0fcd27	-0.035107758
51	0xbd2add23	-0.0417148
52	0x3ca21c5b	0.019788912
53	0xbd452db9	-0.048139308
54	0x3cff8559	0.031191515
55	0x3c2e3e1f	0.010634928
56	0xbcd1a127	-0.025589539
57	0x3b8783fd	0.0041356073
58	0xbc194b24	-0.009356294
59	0x3c8a8e4d	0.016913557
60	0x3d9f976d	0.07792554
61	0xbd2f322d	-0.04277246
62	0xbd34ed19	-0.044171426
63	0xbd11d4e8	-0.035603434
