models/demo_models/stationary_position_classifier.tflite (tflite, 316044 bytes, 12 tensors)

sequential_2/conv1d_8/BiasAdd/ReadVariableOp f4 [32]
-0.4303809 -0.36962476 -0.18050346 0.112379245 -0.30909154 -0.35646206 -0.31816798 0.057870347
-0.23878746 -0.3257561 -0.27584958 -0.4274173 -0.13151334 -0.33865398 -0.3301839 -0.29189995
-0.053011656 -0.3286913 -0.19857958 -0.22255687 -0.17031433 -0.30753517 -0.35742602 -0.07989583
-0.1984112 -0.3765282 -0.26170334 -0.34152028 -0.21907085 -0.0257274 -0.39747834 -0.26611727
00000000: e35a dcbe 753f bdbe e6d5 38be 1727 e63d
00000010: 3f41 9ebe 3282 b6be eae6 a2be 7509 6d3d
00000020: b384 74be 81c9 a6be 283c 8dbe 71d6 dabe
00000030: 6fab 06be 0e64 adbe dd0d a9be e973 95be
00000040: c022 59bd 3a4a a8be 7258 4bbe f3e5 63be
00000050: e166 2ebe 4075 9dbe 8b00 b7be 6da0 a3bd
00000060: 4e2c 4bbe 4ec8 c0be fbfd 85be bfdb aebe
00000070: 1c54 60be 45c2 d2bc 4882 cbbe 8640 88be

sequential_2/conv1d_9/BiasAdd/ReadVariableOp f4 [64]
-0.11563703 -0.0702589 -0.20772669 -0.46972755 -0.31189895 -0.069730915 0.0332464 -0.17559603
-0.05063854 -0.39944854 -0.03720325 0.07083317 0.06842155 -0.052694906 -0.33281505 -0.053503416
-0.13330546 -0.12814088 -0.16433574 -0.4423758 -0.2869703 -0.20830077 -0.3383123 -0.13492207
-0.10030997 0.23315786 -0.33980724 -0.39569157 -0.2974675 -0.18134902 -0.16180933 -0.03954447
0.004347987 -0.22950782 -0.033759717 -0.21032469 -0.10150731 -0.07986539 -0.07655567 -0.20758918
-0.23196656 -0.0599662 -0.029100426 -0.3708101 0.21614257 -0.13921432 -0.10729354 -0.16875687
-0.1324011 -0.32862654 -0.31975803 -0.16062728 -0.026530823 -0.036891572 -0.117963135 0.09271151
-0.22903328 -0.15301432 -0.22302039 -0.27282864 0.1358953 -0.22124918 -0.07688785 0.10655569
00000000: 1bd3 ecbd e6e3 8fbd 4eb6 54be 2180 f0be
00000010: 38b1 9fbe 15cf 8ebd 612d 083d 72cf 33be
00000020: 5c6a 4fbd 8584 ccbe 6f62 18bd fb10 913d
00000030: 9920 8c3d 9dd6 57bd bc66 aabe 6626 5bbd
00000040: 3a81 08be 5d37 03be a147 28be 157f e2be
00000050: c5ed 92be cc4c 55be 4537 adbe 0329 0abe
00000060: 506f cdbd efc0 6e3e 37fb adbe 1698 cabe
00000070: a94d 98be 8fb3 39be 58b1 25be 62f9 21bd
00000080: 8f79 8e3b 1904 6bbe a147 0abd 5b5f 57be
00000090: 11e3 cfbd 7790 a3bd 38c9 9cbd 4292 54be
000000a0: a488 6dbe 1e9f 75bd 0464 eebc d2da bdbe
000000b0: 7a54 5d3e 338e 0ebe b7bc dbbd 9ace 2cbe
000000c0: 2794 07be bd41 a8be 53b7 a3be 7a7b 24be
000000d0: 2b57 d9bc 9e1b 17bd a896 f1bd 88df bd3d
000000e0: b387 6abe c9af 1cbe 755f 64be 32b0 8bbe
000000f0: 2328 0b3e 258f 62be 6177 9dbd df39 da3d

sequential_2/conv1d_10/BiasAdd/ReadVariableOp f4 [64]
-0.07405951 -0.009815921 0.028154857 -0.06505067 -0.07469856 -0.31666526 -0.032944363 -0.06341459
-0.35969797 -0.0032807698 0.03556939 -0.39623028 -0.4521257 -0.200485 -0.34022835 0.10142832
-0.0070405556 -0.07270699 0.13967335 -0.27569228 -0.3008493 -0.3646222 -0.16270949 -0.36814508
0.15603977 -0.07355615 -0.09179092 0.14145699 -0.23620908 -0.30261728 -0.36645365 -0.19937222
-0.06834115 0.062136624 -0.30933934 0.084161624 0.13583906 -0.06452203 -0.13610971 -0.026387192
0.05363858 -0.16385157 0.15136479 -0.31120622 0.10183423 0.017611865 -0.3016416 0.10439611
0.024958447 -0.2817508 -0.215325 -0.060028594 -0.19308718 -0.044798534 -0.3808698 -0.3227374
-0.40660053 -0.06905889 -0.3188036 -0.00938415 -0.3213723 -0.12720285 0.00584217 -0.6001318
00000000: 83ac 97bd f5d2 20bc 04a5 e63c 4939 85bd
00000010: 8ffb 98bd f321 a2be abf0 06bd 82df 81bd
00000020: 552a b8be 2f02 57bb 35b1 113d b2de cabe
00000030: 057d e7be f14b 4dbe 6932 aebe a7b9 cf3d
00000040: 76b4 e6bb 67e7 94bd 8806 0f3e 8a27 8dbe
00000050: eb08 9abe c3af babe 519d 26be 837d bcbe
00000060: e4c8 1f3e 9ba4 96bd e1fc bbbd 1ada 103e
00000070: cbe0 71be a7f0 9abe d09f bbbe 3b28 4cbe
00000080: 72f6 8bbd f982 7e3d ba61 9ebe ee5c ac3d
00000090: 6519 0b3e 2024 84bd 5860 0bbe f429 d8bc
000000a0: 21b4 5b3d b5c8 27be 5fff 1a3e 6c56 9fbe
000000b0: 778e d03d c246 903c c570 9abe a1cd d53d
000000c0: a875 cc3c a441 90be 287e 5cbe 8be0 75bd
000000d0: a5b8 45be ab7e 37bd 5e01 c3be d63d a5be
000000e0: f22d d0be bf6e 8dbd 3a3a a3be fabf 19bc
000000f0: e98a a4be 7741 02be ad6f bf3b 3da2 19bf

sequential_2/conv1d_11/BiasAdd/ReadVariableOp f4 [128]
-0.31212166 -0.15858564 -0.3524752 -0.13429756 -0.15083103 -0.06230048 -0.45828447 0.09106802
-0.6526555 -0.105653 -0.030099478 -0.24229564 -0.6684382 -0.36413178 0.19531 0.083957635
0.23894066 0.035107616 -0.27118224 -0.225644 0.029970456 0.127634 0.050323136 -0.03749614
0.047500998 -0.32137552 0.19911909 0.18747635 0.14380556 0.069611795 -0.0629378 -0.056894135
-0.18771815 -0.33189893 0.038759686 -0.0059248013 -0.16198246 -0.17148134 -0.22900684 0.09422526
0.004788406 0.16396734 -0.058100127 0.10035864 0.23793897 0.18246987 -0.059697744 0.12670542
-0.6152893 -0.44883865 -0.015749674 -0.14107838 0.075466834 0.00870517 -0.15114988 0.06912174
-0.2684388 -0.29730508 0.05218882 -0.142037 -0.20603034 -0.07183496 0.2761467 -0.31933525
-0.010620442 -0.11858794 -0.20206663 -0.029510645 0.18926643 0.059295658 -0.045026623 0.2418797
-0.1489631 0.09488404 0.047840096 -0.17461704 0.041157812 -0.08642686 -0.059666842 0.14838535
0.1528761 -0.63540787 -0.25559404 0.26640248 0.08437272 0.020054832 0.22382759 0.05669271
0.022526123 -0.17753766 -0.14551209 0.04441004 0.20486121 0.16643038 -0.40192705 -0.05403621
-0.19667932 0.13586892 -0.3135189 0.013895174 -0.13543755 0.11941709 -0.018741714 -0.37501296
0.24017842 0.14051415 -0.2904877 0.032934207 -0.032294303 0.05927911 -0.32559666 -0.32016426
0.25238952 -0.037383128 -0.028436719 -0.22326528 -0.21756029 0.08988378 0.0828243 -0.12573327
-0.15775147 0.12346141 -0.122917525 -0.3138393 -0.3034343 -0.123023726 0.21353747 -0.05916633
00000000: 69ce 9fbe 4664 22be a177 b4be 4d85 09be
00000010: 7373 1abe ca2e 7fbd 43a4 eabe df81 ba3d
00000020: 6e14 27bf 9a60 d8bd 2e93 f6bc 591c 78be
00000030: c41e 2bbf 7b6f babe 58ff 473e fbf1 ab3d
00000040: dcac 743e 01cd 0f3d 66d8 8abe 390f 67be
00000050: 9a84 f53c 7db2 023e a21f 4e3d 8d95 19bd
00000060: 6890 423d 558b a4be e0e5 4b3e cdf9 3f3e
00000070: c441 133e a190 8e3d 89e5 80bd d309 69bd
00000080: 3039 40be a8ee a9be 7ac2 1e3d d624 c2bb
00000090: bbde 25be ce98 2fbe c580 6abe 2cf9 c03d
000000a0: 10e8 9c3b 0ee7 273e 66fa 6dbd d588 cd3d
000000b0: 46a6 733e 62d9 3a3e 9f85 74bd 11bf 013e
000000c0: 9983 1dbf 2ece e5be 7605 81bc da76 10be
000000d0: 5b8e 9a3d 21a0 0e3c 09c7 1abe b38f 8d3d
000000e0: cf70 89be 5f38 98be f2c3 553d 2672 11be
000000f0: 9ef9 52be 351e 93bd 1a63 8d3e e97f a3be
00000100: 5d01 2ebc 3cde f2bd 8eea 4ebe 4fc0 f1bc
00000110: 0fcf 413e 01e0 723d d66d 38bd 50af 773e
00000120: c889 18be 9052 c23d faf3 433d cfce 32be
00000130: 1895 283d 9100 b1bd 3865 74bd 54f2 173e
00000140: 8d8b 1c3e 17aa 22bf 39dd 82be e865 883e
00000150: 9bcb ac3d 084a a43c 0f33 653e 9d36 683d
00000160: b488 b83c 6fcc 35be 1f01 15be 4de7 353d
00000170: 23c7 513e ba6c 2a3e 62c9 cdbe 1355 5dbd
00000180: 4e66 49be 3921 0b3e 8d85 a0be 95a8 633c
00000190: 24b0 0abe f390 f43d 3988 99bc b301 c0be
000001a0: 55f1 753e f1e2 0f3e ceba 94be 05e6 063d
000001b0: 0847 04bd a7ce 723d 9bb4 a6be 92ec a3be
000001c0: 3339 813e 0d1f 19bd 1ff4 e8bc a79f 64be
000001d0: 20c8 5ebe fd14 b83d c99f a93d 39c0 00be
000001e0: 9a89 21be 56d9 fc3d 2fbc fbbd 8baf a0be
000001f0: be5b 9bbe ddf3 fbbd 91a9 5a3e 6558 72bd

sequential_2/conv1d_8/Conv1D f4 [32, 1, 3, 3]
-0.16478209 -0.116670504 0.0016490535 0.016447643 0.092144035 0.029493084 -0.14587899 -0.031459343
0.0395553 -0.24684836 0.10973794 0.30222738 -0.04300241 -0.0799911 0.179803 0.16453052
0.077175125 0.26180843 0.20852102 0.34959295 0.20505852 0.27707437 0.16006698 -0.054775167
0.28188312 0.20681255 0.14452922 0.49460623 0.3228748 -0.06421954 0.5048396 0.3239859
0.08000519 0.30487636 -0.08382661 -0.28622177 -0.11797776 -0.06383389 -0.038028564 0.23303021
-0.3601375 0.38359252 0.17660171 0.2753271 -0.40239257 -0.07883957 0.0018665454 0.04008207
0.0062817256 -0.18624948 -0.07106536 -0.06393487 -0.24800205 0.024476824 0.0035123497 0.21645299
-0.11521473 -0.07606817 0.17213723 -0.17037533 0.19502954 0.21635659 0.099417955 -0.01777738
0.15152574 -0.2126772 -0.097304 0.13310954 0.034317978 -0.0061489404 0.025921883 -0.23664425
0.122322105 -0.18740234 0.2029251 -0.22492458 0.07019006 -0.056445926 0.21212485 0.16460268
0.059315376 -0.18234676 0.12721168 0.09146526 -0.007041353 -0.16680625 0.059030913 0.0015582244
0.18639418 -0.08982241 -0.04342464 0.44796336 -0.09082553 -0.17779747 0.4998994 0.18444516
-0.099551275 0.08944578 -0.10157093 0.008458476 -0.09684648 0.024446318 0.12252861 -0.20812903
-0.078661405 0.06969178 -0.060668226 -0.24352571 0.035399973 0.6979435 -0.0828606 0.1866035
0.6625314 -0.042905524 -0.19906005 0.72396487 -0.1272107 0.15035796 -0.016751701 0.025443427
0.044297464 -0.11445232 -0.0026136453 -0.10113621 0.017810399 0.007510813 0.0958654 0.12076065
0.014114036 -0.007895954 -0.091111764 0.053156063 -0.004086581 0.16847473 0.009232584 0.05798857
0.010478662 -0.17653744 -0.17784499 0.019958416 0.13626727 -0.049779497 0.18844956 -0.14750504
-0.043364406 -0.19020496 -0.01861079 0.17621219 -0.30444 0.045591854 0.16921337 -0.07632038
-0.09003382 0.2357161 0.04221955 0.05160705 0.16326497 -0.23640588 0.13647366 0.15724531
-0.059766915 0.11921353 0.4514758 0.5501486 0.13712336 0.18689081 0.3984254 0.20547259
0.14001249 0.422802 -0.12638949 0.096010424 0.1033592 0.10167636 -0.03532848 -0.12723346
0.05346049 0.3879592 0.14872108 -0.13158064 0.07703543 0.13102287 -0.113966554 -0.059005752
0.11002328 0.38692543 -0.0874582 -0.24242806 -0.17343903 -0.010198215 0.18279944 -0.03110412
-0.07526843 0.043288376 -0.072126105 -0.042792734 0.037216995 0.104859784 0.050471213 -0.15173508
-0.029742764 0.28324062 -0.31528875 0.14422119 0.1385502 0.05924346 -0.054763503 -0.1162052
-0.26085395 -0.13679272 0.092192695 -0.06039475 -0.17284797 0.16059674 -0.23423593 0.25482947
0.3801817 -0.37077585 0.5031886 0.2674065 0.07807365 0.2056834 -0.34490684 0.29169586
-0.5897892 0.113603614 -0.19691731 0.16416569 -0.14589462 -0.029788343 -0.12488328 0.102529354
-0.07306596 0.19461434 -0.3274768 -0.005888584 -0.24829112 -0.21430695 0.21653418 -0.1644659
-0.35332826 0.051643513 0.110885195 -0.081595324 0.29351544 0.19837438 -0.019609753 0.16877112
-0.0353672 -0.04190558 0.0017503431 0.10422091 0.5163899 -0.1441575 0.57258886 0.009667019
00000000: a3bc 28be f2f0 eebd 0e25 d83a 35bd 863c
00000010: 03b6 bc3d 7b9b f13c 4d61 15be 83db 00bd
00000020: bd04 223d d1c5 7cbe 49be e03d 8cbd 9a3e
00000030: 4c23 30bd 60d2 a3bd 471e 383e b07a 283e
00000040: fe0d 9e3d c10b 863e 8986 553e d9fd b23e
00000050: dcfa 513e b1dc 8d3e 99e8 233e ed5b 60bd
00000060: fc52 903e abc6 533e 78ff 133e 073d fd3e
00000070: d94f a53e 8985 83bd 2b3d 013f 7be1 a53e
00000080: c3d9 a33d c118 9c3e 49ad abbd a98b 92be
00000090: 539e f1bd 58bb 82bd d7c3 1bbd 799f 6e3e
000000a0: f163 b8be 3d66 c43e 14d7 343e acf7 8c3e
000000b0: 6606 cebe a476 a1bd dfa6 f43a 192d 243d
000000c0: efd6 cd3b 2fb8 3ebe b78a 91bd 49f0 82bd
000000d0: 40f4 7dbe 9f83 c83c 732f 663b daa5 5d3e
000000e0: b3f5 ebbd a1c9 9bbd be44 303e df76 2ebe
000000f0: d3b5 473e 958c 5d3e a49b cb3d dea1 91bc
00000100: 9029 1b3e 0dc8 59be 5247 c7bd de4d 083e
00000110: 0291 0c3d 0d7d c9bb 215a d43c df52 72be
00000120: 0384 fa3d 66e6 3fbe 99cb 4f3e a152 66be
00000130: cebf 8f3d d833 67bd 4237 593e 9b8d 283e
00000140: aef4 723d 1cb9 3abe c743 023e 2352 bb3d
00000150: 26bb e6bb 42cf 2abe 66ca 713d 563d cc3a
00000160: 1ede 3e3e d0f4 b7bd 09de 31bd 745b e53e
00000170: bc02 babd 8a10 36be d0f2 ff3e 31df 3c3e
00000180: 8ae1 cbbd 592f b73d 6b04 d0bd 6b95 0a3c
00000190: 7357 c6bd a543 c83c 48f0 fa3d c71f 55be
000001a0: 3b19 a1bd 90ba 8e3d 3f7f 78bd ce5e 79be
000001b0: 90ff 103d 6dac 323f d1b2 a9bd fd14 3f3e
000001c0: a89b 293f b4bd 2fbd 66d6 4bbe c355 393f
000001d0: 8643 02be 70f7 193e dd3a 89bc bc6e d03c
000001e0: 4271 353d fa65 eabd b149 2bbb 8020 cfbd
000001f0: 1de7 913c 441d f63b 1455 c43d 5c51 f73d
00000200: 8f3e 673c 085e 01bc ce98 babd 2cba 593d
00000210: bae8 85bb a484 2c3e 4444 173c 6c85 6d3d
00000220: b2ae 2b3c 3bc6 34be ff1c 36be d57f a33c
00000230: a689 0b3e 96e5 4bbd ecf8 403e 900b 17be
00000240: e09e 31bd 17c5 42be a875 98bc f870 343e
00000250: 8fdf 9bbe 86be 3a3d 4546 2d3e dc4d 9cbd
00000260: a763 b8bd 905f 713e 68ee 2c3d ea61 533d
00000270: ef2e 273e 6214 72be c0bf 0b3e ea04 213e
00000280: 27ce 74bd 3926 f43d d627 e73e 8ad6 0c3f
00000290: 116a 0c3e 4e60 3f3e 6afe cb3e 6867 523e
000002a0: 6f5f 0f3e 8179 d83e 3f6c 01be 1da1 c43d
000002b0: fdad d33d b23b d03d 99b4 10bd 7d49 02be
000002c0: 63f9 5a3d 97a2 c63e 574a 183e 13bd 06be
000002d0: c0c4 9d3d dc2a 063e 4c67 e9bd 04b0 71bd
000002e0: e353 e13d 171b c63e 491d b3bd 103f 78be
000002f0: 009a 31be 6a16 27bc c72f 3b3e 11ce febc
00000300: 5626 9abd 274f 313d dab6 93bd 6f47 2fbd
00000310: d970 183d bac0 d63d e7ba 4e3d 7160 1bbe
00000320: 19a7 f3bc ea04 913e 876d a1be b8ae 133e
00000330: 1be0 0d3e 45a9 723d b24f 60bd fefc edbd
00000340: a68e 85be 6413 0cbe 86cf bc3d 7c60 77bd
00000350: 0fff 30be 7973 243e 8bdb 6fbe 0279 823e
00000360: 2da7 c23e 55d6 bdbe f8d0 003f 81e9 883e
00000370: 14e5 9f3d ab9e 523e a197 b0be 2959 953e
00000380: 6dfc 16bf 03a9 e83d b1a4 49be 0d1b 283e
00000390: 6665 15be af06 f4bc cec2 ffbd e9fa d13d
000003a0: 9ba3 95bd fb48 473e 0aab a7be 06f5 c0bb
000003b0: 0740 7ebe 4873 5bbe 23bb 5d3e c069 28be
000003c0: 71e7 b4be 2688 533d c717 e33d 731b a7bd
000003d0: a847 963e a722 4b3e a2a4 a0bc 56d2 2c3e
000003e0: 32dd 10bd 2fa5 2bbd c56b e53a c671 d53d
000003f0: 2132 043f 069e 13be 2f95 123f 6b62 1e3c

sequential_2/conv1d_9/Conv1D f4 [64, 1, 3, 32]
-0.15514098 -0.121694304 -0.14450158 -0.25183544 0.04338016 0.18554172 -0.30851597 0.100429595
0.13858552 -0.13996692 0.068281054 -0.30219957 -0.029279662 -0.026070653 -0.15424843 0.20304525
-0.28231493 -0.16609477 -0.24927327 -0.1839433 0.2209577 -0.18038441 -0.12419768 -0.0028382193
0.06379354 0.013728393 -0.34491396 0.070250526 0.22194362 -0.16244891 0.032756995 0.15312357
-0.23185302 -0.038325515 -0.37565646 -0.2659968 0.13236128 0.19104137 -0.25055358 0.09054757
-0.0153293675 -0.0429266 -0.028307851 -0.10076059 0.084529765 -0.19431461 -0.14222263 0.24594514
-0.1928892 -0.3232267 -0.13007915 -0.092435 0.20824277 -0.05072572 -0.33233717 0.03236203
0.14535466 0.021072075 -0.2776036 0.042734437 0.17288865 0.0015656172 0.16370158 0.24782258
-0.2641933 -0.2235464 -0.33739898 -0.11304555 -0.0031564597 0.05036884 -0.08678165 0.073677495
-0.036314357 0.06250587 0.07848827 -0.28722522 0.11591626 -0.035879754 0.031188484 0.31126267
-0.26946902 -0.3501013 -0.054251485 -0.101696186 0.24129385 -0.15009013 -0.25062066 -0.057348527
-0.060061928 -0.19736773 -0.3935878 -0.023924947 0.24149205 0.010935625 0.12356325 0.037421864
0.12023058 0.0319716 0.0397907 -0.10465238 0.017131105 -0.0089960415 0.009931579 -0.11261309
-0.1687337 -0.06216815 -0.11097577 -0.15668006 -0.036558386 -0.1483733 -0.04011079 0.0055011683
0.043603305 -0.011632417 -0.13133581 0.02737561 0.100307845 -0.04199215 0.1085614 0.0059536323
-0.044841602 -0.11952209 -0.10193008 0.06694557 -0.07562822 -0.065388225 0.14521652 0.14318202
0.0032124294 -0.016446168 -0.14130813 -0.052144676 -0.14941882 -0.11407587 -0.0035696977 -0.099078394
-0.16503625 -0.15286496 0.04994346 -0.14488181 0.0099747 -0.011844365 0.0010941025 -0.0008737496
-0.08698622 -0.13065504 -0.0945404 0.040492363 0.11238304 -0.008742637 -0.049350522 -0.10635239
-0.014352117 0.0893162 0.04460099 -0.10962553 -0.07724666 0.10721196 -0.019982064 0.030826755
0.00032110355 -0.13481775 -0.09866993 -0.16479988 -0.115190774 -0.055550378 0.030293508 0.06249875
-0.10802342 -0.11716658 0.07560104 -0.03531249 0.034042303 0.03168404 0.066158764 0.11654779
0.053607624 -0.1061195 0.015644958 -0.05955279 -0.09587236 0.023404151 -0.06880726 0.011898857
-0.03620213 -0.11572997 -0.10550452 -0.12978528 -0.09577227 0.022242017 0.120349474 0.0084571075
-0.16398628 -0.14348778 -0.04806581 0.082004525 0.043812543 -0.24117275 0.11361034 -0.09457364
0.24623343 0.23639998 -0.028505582 -0.024776215 0.0135766 -0.06312719 -0.10465518 -0.057935834
-0.057245262 0.014601074 -0.06108631 0.15991527 0.200988 -0.038424317 0.030746717 -0.09229938
0.06038348 0.15619408 0.07855799 0.19533063 0.25738373 -0.29535758 -0.0187916 -0.0022372296
-0.094767176 -0.18223019 -0.19824098 -0.07830724 0.099236034 -0.053930316 0.0867809 -0.0844074
0.20267935 0.1610013 0.23392442 0.15533274 -0.07803009 0.079379976 0.14343388 0.13747281
-0.04330766 -0.111887194 -0.05225329 0.19326954 0.30606133 -0.09645706 0.1741186 -0.108100735
0.24938706 0.20146002 -0.008044318 -0.0885955 0.005492264 -0.31157017 -0.19390209 0.17673485
00000000: 47dd 1ebe dd3a f9bd 39f8 13be 93f0 80be
00000010: 65af 313d a6fe 3d3e cef5 9dbe 08ae cd3d
00000020: 5de9 0d3e 7d53 0fbe f0d6 8b3d e7b9 9abe
00000030: e7db efbc 1f92 d5bc 4df3 1dbe 18eb 4f3e
00000040: 958b 90be bf14 2abe 7e41 7fbe a25b 3cbe
00000050: bc42 623e b1b6 38be 5a5b febd 6b01 3abb
00000060: 30a6 823d 0eed 603c 9098 b0be 82df 8f3d
00000070: 3045 633e 0259 26be 332c 063d 6dcc 1c3e
00000080: e16a 6dbe 37fb 1cbd 0b56 c0be bc30 88be
00000090: b789 073e 59a0 433e 8f48 80be 0171 b93d
000000a0: 0728 7bbc cdd3 2fbd dee5 e7bc 915b cebd
000000b0: f11d ad3d 69fa 46be cfa2 11be 0bd9 7b3e
000000c0: bf84 45be f87d a5be 7833 05be 904e bdbd
000000d0: 983d 553e c6c5 4fbd 1928 aabe 0c8e 043d
000000e0: dad7 143e 589f ac3c 0f22 8ebe 4e0a 2f3d
000000f0: b909 313e 6535 cd3a 63a1 273e 34c5 7d3e
00000100: 5844 87be 59e9 64be 8fbf acbe 6d84 e7bd
00000110: 9bdc 4ebb 8f4f 4e3d 94ba b1bd 3ae4 963d
00000120: 5dbe 14bd 1403 803d 75be a03d 2f0f 93be
00000130: 8165 ed3d a6f6 12bd fe7e ff3c d25d 9f3e
00000140: d8f7 89be 7a40 b3be ce36 5ebd 1746 d0bd
00000150: bc15 773e 3ab1 19be 5a51 80be 4ae6 6abd
00000160: 7f03 76bd c41a 4abe 5784 c9be 40fe c3bc
00000170: b149 773e 562b 333c bb0e fd3d ab47 193d
00000180: 733b f63d a7f4 023d 93fb 223d fd53 d6bd
00000190: 8856 8c3c 2264 13bc 10b8 223c b1a1 e6bd
000001a0: 87c8 2cbe 08a4 7ebd 4447 e3bd bd70 20be
000001b0: 3fbe 15bd 2cef 17be 364b 24bd 2543 b43b
000001c0: 6199 323d e595 3ebc e57c 06be d142 e03c
000001d0: 336e cd3d f6ff 2bbd 7055 de3d b016 c33b
000001e0: d4ab 37bd ffc7 f4bd b8c0 d0bd c21a 893d
000001f0: f8e2 9abd 43ea 85bd a4b3 143e 4f9e 123e
00000200: 9f87 523b 1dba 86bc 14b3 10be a895 55bd
00000210: 3f01 19be 9ca0 e9bd 97f1 69bb 9de9 cabd
00000220: 43ff 28be a288 1cbe 8391 4c3d e65b 14be
00000230: ed6c 233c de0e 42bc fd67 8f3a 580c 65ba
00000240: d525 b2bd 6fca 05be 669e c1bd 52db 253d
00000250: 1429 e63d 473d 0fbc c623 4abd 48cf d9bd
00000260: 2425 6bbc 69eb b63d 87af 363d 5a83 e0bd
00000270: 7f33 9ebd f291 db3d 6db1 a3bc 6488 fc3c
00000280: ca59 a839 aa0d 0abe 7613 cabd 4dc1 28be
00000290: 24e9 ebbd cb88 63bd 172a f83c b0fe 7f3d
000002a0: 623b ddbd 08f5 efbd b8d4 9a3d d4a3 10bd
000002b0: f16f 0b3d 20c7 013d 3f7e 873d 9cb0 ee3d
000002c0: ab93 5b3d 2e55 d9bd db29 803c a0ed 73bd
000002d0: ba58 c4bd 10ba bf3c d2ea 8cbd 6cf3 423c
000002e0: af48 14bd d603 edbd c112 d8bd 6fe6 04be
000002f0: 4024 c4bd e434 b63c c979 f63d ae8f 0a3c
00000300: 05ec 27be 76ee 12be a8e0 44bd fdf1 a73d
00000310: c874 333d fdf5 76be 8aac e83d d3af c1bd
00000320: 9e24 7c3e d612 723e 8a84 e9bc 7df7 cabc
00000330: 6370 5e3c d448 81bd 7455 d6bd 204e 6dbd
00000340: 027a 6abd 5839 6f3c a335 7abd d4c0 233e
00000350: cccf 4d3e d162 1dbd 8ae0 fb3c 7507 bdbd
00000360: ab54 773d 57f1 1f3e 03e3 a03d c104 483e
00000370: cdc7 833e 1c39 97be d7f0 99bc 7c9e 12bb
00000380: 4b15 c2bd 8d9a 3abe afff 4abe 8c5f a0bd
00000390: 433c cb3d 09e6 5cbd 2fba b13d c9dd acbd
000003a0: 2d8b 4f3e 86dd 243e e289 6f3e 8c0f 1f3e
000003b0: 3dce 9fbd f891 a23d 55e0 123e acc5 0c3e
000003c0: 5f63 31bd 1d25 e5bd 8c07 56bd 73e8 453e
000003d0: 12b4 9c3e 478b c5bd 254c 323e eb63 ddbd
000003e0: 525f 7f3e 894b 4e3e 51cc 03bc 8f71 b5bd
000003f0: 73f8 b33b 2086 9fbe 458e 46be fbf9 343e

sequential_2/conv1d_10/Conv1D f4 [64, 1, 3, 64]
-0.042888008 -0.07520833 0.0009009202 0.013817638 -0.0561635 0.01924826 -0.0908869 -0.13705727
-0.072978966 -0.124355614 -0.12747374 -0.13247402 0.113531664 0.10937688 0.07529002 0.03595419
-0.092967324 0.0919238 -0.06503598 -0.043460906 -0.037834603 -0.111925654 -0.084533684 -0.06301488
0.0002554091 -0.12598331 0.0089643765 0.053419184 -0.12220556 -0.057571046 0.05178501 0.010965903
0.052199323 0.012150049 -0.17060366 0.04428046 -0.0050878576 -0.0031357494 -0.15850002 -0.042462997
0.050753206 -0.020898718 0.070677504 -0.054726545 -0.08830069 0.057550274 -0.02389088 0.021639163
-0.10913374 -0.14403294 -0.032011602 -0.085068025 -0.097540945 0.05344413 -0.079788774 -0.056367703
0.017650947 -0.065177836 -0.09808405 0.010306561 -0.12633851 0.04711322 0.075883865 0.0074008415
-0.12334964 -0.08254036 -0.05183102 0.09596182 -0.046853304 0.081721745 -0.058526818 -0.120650224
-0.11321021 0.08728619 -0.11163697 -0.08359378 0.010353176 -0.1248283 -0.14727104 -0.13222995
0.08839248 0.03278349 -0.012131094 -0.06659249 0.07328221 -0.016328411 0.046937574 0.074612886
0.06055046 -0.14219952 -0.0027376714 -0.06627847 0.030049745 -0.068185754 -0.029425155 0.05669108
-0.02256883 0.09547135 -0.124136426 -0.024076298 0.07024724 -0.16315214 -0.1788858 0.07606548
-0.010558277 0.07694142 0.03742644 -0.096037075 0.045727443 -0.0099744 0.008030619 0.049688287
0.012085468 -0.09397806 -0.04126935 -0.021007644 0.06686486 0.054553557 0.06583616 -0.00751953
-0.022561146 0.032161478 0.031577293 -0.15273526 -0.081735924 -0.08072863 0.06261389 -0.0031555397
-0.033668306 0.08759382 -0.13382639 -0.09063706 0.08447813 0.054590818 0.06558072 -0.026181072
-0.07221082 0.066095695 -0.16982278 -0.13562347 -0.018689303 0.025428182 -0.12684466 -0.066169076
0.010787256 0.08050542 0.00406685 -0.096876316 -0.05043847 -0.080953844 -0.032332513 0.0250803
-0.035608124 -0.019337036 0.055794727 -0.1306938 -0.029455781 0.029838212 -0.007310013 0.00087572087
0.04868995 -0.12504984 -0.10627079 0.11329443 -0.046328954 0.03573343 -0.11220531 0.043919764
0.06744242 0.043205947 0.0536924 0.13631275 0.02949829 0.033187073 -0.12364279 -0.10348836
-0.046549045 -0.15054746 -0.037674855 0.029302074 -0.058888886 0.0111425 -0.0033361446 0.030951807
0.02758479 0.04385729 -0.047039367 -0.08271598 -0.15622987 -0.12947582 -0.10010819 0.00034952877
-0.25151333 -0.12074449 0.09976527 0.44373003 -0.2047939 -0.047300097 0.22716863 0.12153667
0.037502535 -0.16031128 -0.2878947 0.0062998272 -0.08523559 -0.028040731 0.22502175 -0.1722481
0.1858879 -0.11730819 -0.0036934516 0.019728461 -0.052224237 0.002455027 0.22766997 -0.06379773
0.06297715 -0.5304098 0.22237921 -0.19876237 0.0033049064 -0.051527254 0.22282197 -0.1324371
-0.039809532 0.18532072 -0.04048486 -0.0007167651 0.006281276 0.38076574 -0.21798007 -0.25155118
0.11332411 0.07041312 0.013866462 0.1481877 -0.18087259 -0.009091878 -0.09902904 -0.12977397
-0.21790637 0.01367806 0.14416388 0.0015066162 -0.13314852 -0.34875113 0.058873896 -0.043105945
0.088520825 -0.19116926 0.07259892 -0.2727146 -0.1515701 -0.05908984 -0.08977367 0.041292142
00000000: 56ab 2fbd d306 9abd bb2b 6c3a 6063 623c
00000010: b30b 66bd 87ae 9d3c e922 babd be58 0cbe
00000020: ff75 95bd 28ae febd 7a88 02be 45a7 07be
00000030: 4a83 e83d fc00 e03d a731 9a3d b344 133d
00000040: a765 bebd 8c42 bc3d 9531 85bd 1004 32bd
00000050: 75f8 1abd 4739 e5bd ff1f adbd f20d 81bd
00000060: 6ee8 8539 c501 01be 52df 123c 13ce 5a3d
00000070: e946 fabd 9ecf 6bbd 851c 543d 55aa 333c
00000080: f5ce 553d 0011 473c bab2 2ebe 6d5f 353d
00000090: 0bb8 a6bb 2581 4dbb d44d 22be aeed 2dbd
000000a0: 98e2 4f3d ca33 abbc 5ebf 903d f128 60bd
000000b0: fed6 b4bd d6b9 6b3d cfb6 c3bc 9d44 b13c
000000c0: 8381 dfbd 5f7d 13be 991e 03bd 2538 aebd
000000d0: 8cc3 c7bd 3be8 5a3d 4c68 a3bd d2e1 66bd
000000e0: b898 903c f57b 85bd 4ae0 c8bd dadc 283c
000000f0: e25e 01be cbf9 403d 0069 9b3d c282 f23b
00000100: bc9e fcbd ec0a a9bd c34c 54bd a187 c43d
00000110: 40e9 3fbd bb5d a73d d1b9 6fbd 7717 f7bd
00000120: c1da e7bd 1ac3 b23d eca1 e4bd 3733 abbd
00000130: 5ea0 293c fba5 ffbd 38ce 16be 4a67 07be
00000140: 1e07 b53d fb47 063d 7fc1 46bc a561 88bd
00000150: fc14 963d 29c3 85bc 9d41 403d a4ce 983d
00000160: c203 783d c09c 11be 816a 33bb 02bd 87bd
00000170: e22a f63c f9a4 8bbd 060d f1bc e834 683d
00000180: 44e2 b8bc 7c86 c33d 3d3b febd a83b c5bc
00000190: c9dd 8f3d 5b11 27be d72d 37be 38c8 9b3d
000001a0: a0fc 2cbc 7793 9d3d 774c 193d 16af c4bd
000001b0: b34c 3b3d aa6b 23bc db92 033c f285 4b3d
000001c0: 2002 463c 9277 c0bd 0d0a 29bd 3918 acbc
000001d0: 72f0 883d 8d73 5f3d 1cd5 863d 6466 f6bb
000001e0: 27d2 b8bc c1bb 033d 3157 013d a266 1cbe
000001f0: 2a65 a7bd 0d55 a5bd b63b 803d 2ccd 4ebb
00000200: c7e7 09bd 6464 b33d c909 09be ec9f b9bd
00000210: df02 ad3d 9f9a 5f3d 2f4f 863d b079 d6bc
00000220: 44e3 93bd 2e5d 873d 06e6 2dbe e1e0 0abe
00000230: 4f1a 99bc c34e d03c 91e3 01be a783 87bd
00000240: 08bd 303c 07e0 a43d 3643 853b 1767 c6bd
00000250: 9298 4ebd 21cb a5bd 196f 04bd 3475 cd3c
00000260: d3d9 11bd b468 9ebc 0389 643d 98d4 05be
00000270: 404d f1bc 446f f43c d588 efbb a290 653a
00000280: 1d6f 473d 110d 00be 80a4 d9bd e906 e83d
00000290: 6ec3 3dbd 385d 123d e6cb e5bd 36e5 333d
000002a0: 401f 8a3d b8f8 303d 90ec 5b3d 9295 0b3e
000002b0: 66a6 f13c 2bef 073d 6e38 fdbd b5f1 d3bd
000002c0: 36aa 3ebd 1d29 1abe f350 1abd e70a f03c
000002d0: 7935 71bd 088f 363c 38a3 5abb a58e fd3c
000002e0: 7ff9 e13c b4a3 333d 5aac 40bd ff66 a9bd
000002f0: b9fa 1fbe 4f95 04be 8605 cdbd f540 b739
00000300: 5bc6 80be e348 f7bd bc51 cc3d 9530 e33e
00000310: 7eb5 51be bfbd 41bd e59e 683e 38e8 f83d
00000320: 429c 193d a428 24be ef66 93be c86e ce3b
00000330: ff8f aebd adb5 e5bc 1a6c 663e ce61 30be
00000340: 6659 3e3e 473f f0bd d60d 72bb 959d a13c
00000350: 15e9 55bd 85e4 203b 5122 693e 62a8 82bd
00000360: 2afa 803d f0c8 07bf 60b7 633e 5d88 4bbe
00000370: 2197 583b 3e0e 53bd 712b 643e 979d 07be
00000380: 520f 23bd b7c4 3d3e 74d3 25bd 4be5 3bba
00000390: 29d3 cd3b baf3 c23e 2b36 5fbe 51cb 80be
000003a0: 7916 e83d c134 903d 2830 633c 84be 173e
000003b0: aa36 39be 1af6 14bc bdcf cabd 78e3 04be
000003c0: d922 5fbe f119 603c b29f 133e a779 c53a
000003d0: 1658 08be 828f b2be c125 713d dc8f 30bd
000003e0: 684a b53d e0c1 43be beae 943d 40a1 8bbe
000003f0: 3135 1bbe 3008 72bd 42db b7bd f321 293d

sequential_2/conv1d_11/Conv1D f4 [128, 1, 3, 64]
0.023968939 -0.059288923 -0.16657807 0.07560977 0.014199048 0.17628188 -0.118380904 -0.20291759
-0.03841538 0.2901345 -0.032712057 0.06928062 -0.15301509 0.10268679 0.03500389 -0.024627829
0.08875235 -0.310483 -0.106622115 -0.106127776 0.0649709 -0.07646418 0.23940481 0.05876352
0.23608468 -0.081320375 0.040048514 0.36163694 -0.12511584 -0.0039417143 -0.13294284 0.4109093
-0.09413731 -0.09771603 -0.1566313 0.38008952 -0.0034793941 0.056454998 -0.10130668 0.07430623
0.053320825 0.30924073 0.09659165 -0.036967367 -0.11321258 0.08438012 0.15435176 -0.07324603
-0.10470045 0.11584603 0.11512729 0.23730528 -0.07313134 0.0068989773 -0.030232303 -0.037725598
0.19762866 -0.0013874918 0.109471254 0.095039785 0.5182281 0.21017043 -0.14033256 0.04861284
0.07682654 0.14073716 -0.20296873 0.078269616 -0.044489957 0.033743627 0.07254908 -0.22223951
-0.18371195 0.2012725 -0.04532857 0.18761903 -0.109139636 0.3067114 0.15450414 -0.0876203
0.054461773 -0.073913366 -0.072032705 -0.012691067 -0.0034404057 -0.12459843 0.18719763 0.0017522313
0.08526901 -0.031228147 0.05794164 0.18655172 0.039292023 0.009668579 -0.20427532 0.2849411
0.069615595 -0.107317194 -0.017121743 0.39703575 -0.11334746 0.045771677 -0.14885637 -0.0888438
-0.01676688 0.4514171 0.09172769 0.17889544 -0.230294 0.17259543 0.11676489 0.015088809
-0.15216975 0.06129201 0.104450144 0.18565665 -0.10382561 0.005618737 0.056404445 -0.12728181
0.1726515 -0.13080734 -0.0077351104 0.072839595 0.3992154 0.22185531 -0.12267579 0.26493764
-0.10414729 -0.016003959 -0.06895482 -0.036950056 0.028221365 0.16774288 -0.06872279 -0.23005837
-0.1377787 0.24674256 -0.1542636 0.24749395 -0.24427018 0.2883899 0.01902181 0.0072135422
-0.01625426 -0.10037374 -0.17727317 -0.19811071 0.05080803 -0.13823467 0.13510875 0.07139102
0.18903945 -0.0036008544 0.07764179 0.26596755 -0.074019454 -0.03843647 -0.04193114 0.36422285
0.06019665 -0.15637244 -0.046848156 0.420831 -0.16645998 0.05921312 -0.037258152 0.06209758
-0.07899443 0.4414842 0.14085126 0.048003193 -0.091690876 0.012216882 0.09422142 0.03480714
-0.15936714 0.05702974 -0.021280413 0.16822764 0.003139242 -0.029647946 0.0016577676 -0.07811824
0.30603495 -0.048123866 0.07345533 0.06960906 0.28870478 0.12926802 -0.029882116 0.115221605
0.047820468 -0.09759565 0.124525405 0.0054184343 -0.2079479 0.038343236 -0.008577017 -0.047642212
0.008984968 0.037353862 -0.10791537 -0.16383806 0.2899411 -0.07030098 -0.12196528 0.12736677
-0.33116212 0.1268033 -0.28300968 -0.06753375 -0.14626555 -0.1704597 -0.11125117 -0.01092466
-0.05481591 -0.060177688 -0.020301685 -0.44877318 0.014164379 0.20357329 -0.2816398 0.050142683
0.02053532 0.23125589 -0.15225846 -0.28935635 0.046783905 -0.05353484 -0.07165957 -0.02855333
0.039443787 0.029668668 -0.26943675 -0.45754158 -0.06464282 -0.029366978 -0.06447897 -0.13367555
-0.15857626 -0.15948814 0.06992668 -0.13483797 -0.071591035 -0.112661876 -0.30955532 0.0909769
-0.34138745 0.100266516 0.21612883 -0.14171192 0.18467861 0.029861063 -0.11355738 0.16212597
00000000: 825a c43c f1d8 72bd 7193 2abe 4cd9 9a3d
00000010: 20a3 683c 3d83 343e b071 f2bd a1c9 4fbe
00000020: 7259 1dbd 828c 943e 14fd 05bd ffe2 8d3d
00000030: fdaf 1cbe 744d d23d 3d60 0f3d 4dc0 c9bc
00000040: cbc3 b53d a1f7 9ebe b25c dabd 8559 d9bd
00000050: 770f 853d 4199 9cbd 8926 753e 04b2 703d
00000060: 2fc0 713e 4c8b a6bd e909 243d 7a28 b93e
00000070: 5e1e 00be 7f29 81bb 2b22 08be b462 d23e
00000080: 10cb c0bd 581f c8bd f563 20be 189b c23e
00000090: 8c06 64bb 5b3d 673d e079 cfbd dd2d 983d
000000a0: f066 5a3d cd54 9e3e d8d1 c53d 186b 17bd
000000b0: ffdb e7bd 7ccf ac3d 630e 1e3e 0402 96bd
000000c0: 316d d6bd af40 ed3d dbc7 eb3d 2800 733e
000000d0: e2c5 95bd d110 e23b bca9 f7bc 2886 1abd
000000e0: 2b5f 4a3e 80dc b5ba 7732 e03d 38a4 c23d
000000f0: 99aa 043f eb36 573e 57b3 0fbe 421e 473d
00000100: 3c57 9d3d 671d 103e 09d7 4fbe d24b a03d
00000110: 1a3b 36bd c236 0a3d 9d94 943d c192 63be
00000120: fc1e 3cbe 611a 4e3e 73aa 39bd 341f 403e
00000130: 9a84 dfbd 4709 9d3e 5536 1e3e 4672 b3bd
00000140: 4f13 5f3d e45f 97bd e285 93bd 31ee 4fbc
00000150: 6e78 61bb 762d ffbd bcb0 3f3e 20ab e53a
00000160: 85a1 ae3d 2cd2 ffbc 3754 6d3d 6a07 3f3e
00000170: acf0 203d f668 1e3c 8d2d 51be cde3 913e
00000180: 9f92 8e3d 1ec9 dbbd e642 8cbc 4548 cb3e
00000190: b722 e8bd 157b 3b3d ce6d 18be bdf3 b5bd
000001a0: b25a 89bc 2420 e73e badb bb3d 5e30 373e
000001b0: 31d2 6bbe dbbc 303e 6e22 ef3d 0d37 773c
000001c0: 63d2 1bbe 550d 7b3d f5e9 d53d c71c 3e3e
000001d0: 85a2 d4bd 621d b83b 5908 673d 2a56 02be
000001e0: 8ecb 303e 5cf2 05be cf76 fdbb ed2c 953d
000001f0: f665 cc3e 0a2e 633e 723d fbbd e8a5 873e
00000200: 2d4b d5bd bc1a 83bc 2f38 8dbd f158 17bd
00000210: 7e30 e73c cac4 2b3e 89be 8cbd 6c94 6bbe
00000220: dc15 0dbe 15aa 7c3e 47f7 1dbe 0e6f 7d3e
00000230: f621 7abe d7a7 933e a0d3 9b3c 945f ec3b
00000240: a727 85bc bf90 cdbd 1987 35be 89dd 4abe
00000250: 151c 503d 648d 0dbe f359 0a3e 7535 923d
00000260: 8f93 413e 50fc 6bbb a902 9f3d e62c 883e
00000270: 8397 97bd 8f6f 1dbd fdbf 2bbd 6b7b ba3e
00000280: c390 763d 1920 20be dae3 3fbd 2977 d73e
00000290: 7c74 2abe 7589 723d 019c 18bd 085a 7e3d
000002a0: d5c7 a1bd 380a e23e 503b 103e ff9e 443d
000002b0: 6dc8 bbbd 5129 483c 29f7 c03d ee91 0e3d
000002c0: 2431 23be 0498 693d 4354 aebc de43 2c3e
000002d0: bebb 4d3b 40e0 f2bc 7349 d93a 75fc 9fbd
000002e0: 9db0 9c3e 881d 45bd c06f 963d 328f 8e3d
000002f0: 1dd1 933e d65e 043e 57cb f4bc 4ef9 eb3d
00000300: 65df 433d 3ae0 c7bd 2d07 ff3d 1f8d b13b
00000310: 4bf0 54be cc0d 1d3d 9e86 0cbc 7b24 43bd
00000320: b035 133c 5d00 193d bc02 ddbd 2ac5 27be
00000330: 2973 943e f6f9 8fbd efc8 f9bd 6f6c 023e
00000340: 158e a9be b9d8 013e a5e6 90be 224f 8abd
00000350: a3c6 15be fd8c 2ebe a7d7 e3bd 58fd 32bc
00000360: a686 60bd e17c 76bd b84f a6bc 99c5 e5be
00000370: b611 683c 8475 503e 1833 90be 6a62 4d3d
00000380: b039 a83c 58ce 6c3e a4e9 1bbe 8426 94be
00000390: 7ba0 3f3d 5947 5bbd 41c2 92bd ace8 e9bc
000003a0: cf8f 213d b50b f33c 9df3 89be e442 eabe
000003b0: 7463 84bd 0493 f0bc 8d0d 84bd 3ee2 08be
000003c0: d161 22be dc50 23be b835 8f3d f712 0abe
000003d0: 529e 92bd 45bb e6bd 097e 9ebe 1952 ba3d
000003e0: 56ca aebe 8858 cd3d e050 5d3e ee1c 11be
000003f0: 641c 3d3e 309f f43c c690 e8bd 5a04 263e

sequential_2/dense_5/BiasAdd/ReadVariableOp f4 [5]
-1.1673574 0.32551867 0.8483499 0.11189855 -0.43979883
00000000: f86b 95bf 62aa a63e 762d 593f 112b e53d
00000010: 502d e1be

sequential_2/dense_4/BiasAdd/ReadVariableOp f4 [64]
0.21505234 -0.047988966 -0.12842384 -0.055708125 -0.02200475 -0.21618623 -0.43521896 0.23198472
0.31753245 -0.32724142 -0.6347996 0.08008212 -0.012452744 -0.23189354 -0.1190456 -0.48494688
0.1138965 -0.17366421 -0.3784591 0.3210341 -0.27487725 0.77424926 0.0771282 0.5593808
-0.26284328 -0.2795426 0.61843497 -0.0556466 -0.1584113 0.65878445 0.036449533 -0.072664954
0.30347177 -0.3892237 0.51454747 -0.18460996 0.15232538 -0.4901316 0.0069592786 0.0982353
0.225969 -0.23118366 0.63623005 0.06855757 -0.43520114 0.027530648 -0.06881483 -0.32190534
0.10687436 0.05569751 -0.086929195 0.089972295 0.9062025 -0.18332939 -0.02082971 0.30783266
0.54579335 0.13990928 0.3881655 0.104492635 -0.067791216 -0.36910275 0.47399497 -0.017734462
00000000: ae36 5c3e 1490 44bd 8a81 03be 342e 64bd
00000010: 4e43 b4bc ec5f 5dbe 05d5 debe 678d 6d3e
00000020: 9d93 a23e 308c a7be 3a82 22bf 1802 a43d
00000030: 9806 4cbc 8075 6dbe 2ece f3bd f54a f8be
00000040: 9142 e93d 08d5 31be 64c5 c1be 955e a43e
00000050: b6bc 8cbe 3335 463f 64f5 9d3d 9533 0f3f
00000060: 6593 86be 3520 8fbe c151 1e3f b0ed 63bd
00000070: 9236 22be 19a6 283f 1b4c 153d 5dd1 94bd
00000080: a760 9b3e 5448 c7be 62b9 033f 650a 3dbe
00000090: 2ffb 1b3e 87f2 fabe a90a e43b 972f c93d
000000a0: 6b64 673e 69bb 6cbe f9df 223f e967 8c3d
000000b0: afd2 debe f487 e13c caee 8cbd c7d0 a4be
000000c0: f2e0 da3d 1223 643d ef07 b2bd 6543 b83d
000000d0: e3fc 673f b3ba 3bbe 11a3 aabc 3e9c 9d3e
000000e0: 1db9 0b3f 6144 0f3e a1bd c63e 3c00 d63d
000000f0: 1fd6 8abd 09fb bcbe 78af f23e dd47 91bc

sequential_2/dense_4/MatMul f4 [64, 512]
0.07165682 0.045833275 -0.06597979 0.021282932 0.30992547 -0.038957767 -0.17716207 0.1879334
0.1268673 -0.050501946 -0.14857428 -0.019238822 0.07091904 -0.020151835 -0.012896816 0.058580182
-0.11105162 -0.2404737 -0.102868356 -0.110436544 0.1722883 -0.04254739 -0.252425 0.008705892
-0.16659115 -0.0035186822 0.061892223 -0.073814966 -0.09510155 -0.11808754 0.16607599 -0.28124228
-0.18371978 -0.35546696 -0.3178409 -0.13103034 -0.1504205 -0.21450062 0.039392255 -0.25937042
0.04296138 0.105609976 0.47034875 -0.34979832 -0.15090345 -0.009004027 -0.10328854 0.0037594053
0.15540995 0.34560135 -0.12492781 0.020929389 -0.072063684 -0.25685707 -0.09624581 -0.18806489
-0.080473155 0.10021739 -0.08100892 -0.08271535 0.004367333 0.06803105 -0.19376926 -0.13311763
-0.055279296 0.017450923 0.043372624 -0.19826071 0.18571185 -0.0012943357 0.01485515 -0.01297029
0.015837332 -0.022927228 -0.20529428 -0.017275121 0.39955756 -0.0291975 -0.042382024 -0.09458672
-0.4066128 0.106641315 0.19025081 -0.3137055 -0.088346586 -0.06159259 0.17889997 -0.03984315
-0.07058316 0.10596878 0.072220504 -0.1773715 -0.2084912 -0.3597246 0.19889317 -0.049839795
-0.13974483 -0.07581642 -0.164435 0.0038227355 -0.17562442 -0.12691808 -0.111688584 -0.15881464
-0.1855618 0.0342664 -0.14832729 0.037232786 0.3094688 -0.25547376 0.17492267 -0.013733317
-0.079102516 0.21960783 -0.32154387 -0.0057984437 -0.02885157 -0.13518122 -0.10129946 0.3414255
-0.25757477 -0.11830799 0.0475984 0.14249502 -0.55153805 -0.027682843 -0.05204343 0.018561486
-0.12337715 -0.041179433 0.1044869 -0.12709025 0.19804345 0.0249531 -0.11529204 0.30765423
0.0033876274 -0.06908393 0.08832959 -0.09130363 -0.25218555 0.23410161 -0.16815877 0.038238358
0.07834711 -0.2295301 -0.057655677 -0.05035113 0.19085626 0.140525 0.035052147 0.16866009
0.06050883 -0.009215249 -0.1568472 0.2753178 0.04198759 -0.117048144 -0.030341683 -0.35881275
-0.23218597 -0.31752393 -0.30820745 -0.13538012 -0.04298808 0.042922404 0.19209577 -0.25195548
0.029246395 0.004021208 0.3436232 -0.06059112 0.116814405 -0.11467252 -0.25221 -0.22997276
-0.08486536 0.4762403 -0.0040589767 -0.051271785 -0.101201005 -0.14299048 -0.13720734 0.046351433
0.001770337 -0.012065016 0.08355292 0.34296882 0.100992806 -0.09227811 0.17074369 -0.1348594
-0.14730611 -0.16907337 0.02933724 0.1137933 -0.3713334 0.04457451 0.030148994 0.043442126
0.04846437 -0.109848894 -0.2756946 -0.28710762 0.3116504 0.13746159 -0.03130605 -0.09780015
-0.1426532 0.029844984 -0.03621477 -0.37927496 -0.17925014 -0.19511236 0.24486068 -0.21534705
-0.16023335 0.2899179 -0.066075176 -0.42701578 -0.19392388 -0.032790463 -0.16434224 0.3355287
-0.13623047 -0.42873126 -0.2915647 -0.093055904 -0.16231301 -0.21660678 -0.022254035 -0.07295714
-0.24353376 0.056746803 -0.2581367 -0.20102423 0.3229395 -0.2463111 0.012795155 0.09626583
-0.18982309 0.14176133 -0.124704294 -0.0650735 -0.18370691 -0.24743968 -0.2374614 0.18087684
-0.10891021 0.116368644 0.11667717 0.23367906 0.0020976157 0.02323509 0.046814784 -0.14650503
00000000: d0c0 923d acbb 3b3d 6a20 87bd 8b59 ae3c
00000010: 8dae 9e3e 2e92 1fbd f969 35be 9d71 403e
00000020: 80e9 013e 21db 4ebd db23 18be bc9a 9dbc
00000030: 003e 913d 7615 a5bc 2b4d 53bc c6f1 6f3d
00000040: 086f e3bd bd3e 76be a5ac d2bd 8e2c e2bd
00000050: 586c 303e 2c46 2ebd d93d 81be 28a3 0e3c
00000060: df96 2abe b199 66bb b382 7d3d 4d2c 97bd
00000070: 9ac4 c2bd e1d7 f1bd d30f 2a3e fdfe 8fbe
00000080: 0a21 3cbe c4ff b5be 0bbc a2be d12c 06be
00000090: d507 1abe 0da6 5bbe c659 213d 33cc 84be
000000a0: 46f8 2f3d 0b4a d83d 8dd1 f03e c418 b3be
000000b0: 6f86 1abe a085 13bc f188 d3bd 5b60 763b
000000c0: c923 1f3e a9f2 b03e 27da ffbd 1c74 ab3c
000000d0: 2096 93bd c582 83be 861c c5bd 1594 40be
000000e0: 1ccf a4bd c63e cd3d 01e8 a5bd aa66 a9bd
000000f0: d81b 8f3b dd53 8b3d 736b 46be fd4f 08be
00000100: 8b6c 62bd 3df5 8e3c 7ea7 313d db04 4bbe
00000110: 3f2b 3e3e b3a6 a9ba 0463 733c 5781 54bc
00000120: 4bbd 813c e2d1 bbbc aa38 52be 8e84 8dbc
00000130: cf92 cc3e 982f efbc c698 2dbd afb6 c1bd
00000140: 8e2f d0be c366 da3d 1cd1 423e 029e a0be
00000150: 0eef b4bd 8348 7cbd 8e31 373e 9232 23bd
00000160: e78d 90bd 2906 d93d 58e8 933d e0a0 35be
00000170: b87e 55be d32d b8be a7aa 4b3e d024 4cbd
00000180: 4519 0fbe a445 9bbd a661 28be dc86 7a3b
00000190: e3d6 33be d0f6 01be fcbc e4bd 4ea0 22be
000001a0: ea03 3ebe ed5a 0c3d 1ce3 17be 6881 183d
000001b0: b272 9e3e 75cd 82be ee1e 333e b501 61bc
000001c0: 8000 a2bd e0e0 603e 66a1 a4be df00 bebb
000001d0: 215a ecbc f26c 0abe 1776 cfbd 53cf ae3e
000001e0: d7e0 83be 764b f2bd 8af6 423d 37ea 113e
000001f0: 9931 0dbf 21c7 e2bc 7e2b 55bd 420e 983c
00000200: 29ad fcbd c4ab 28bd 3afd d53d f223 02be
00000210: e7cb 4a3e 726a cc3c 3c1e ecbd db84 9d3e
00000220: f502 5e3b e07b 8dbd 25e6 b43d 66fd babd
00000230: 771e 81be 55b8 6f3e d031 2cbe d39f 1c3d
00000240: 7374 a03d f009 6bbe 5c28 6cbd fd3c 4ebd
00000250: d36f 433e c9e5 0f3e d792 0f3d 3bb5 2c3e
00000260: 1bd8 773d 8efb 16bc 8d9c 20be 74f6 8c3e
00000270: 2efb 2b3d f0b6 efbd 1f8f f8bc 4eb6 b7be
00000280: 29c2 6dbe 7f92 a2be 5ecd 9dbe 16a1 0abe
00000290: 4514 30bd 67cf 2f3d c1b4 443e 4f00 81be
000002a0: 2396 ef3c 56c4 833b 61ef af3e 652e 78bd
000002b0: 643c ef3d 6dd9 eabd ab21 81be fb7d 6bbe
000002c0: e4cd adbd c5d5 f33e 2a01 85bb 5d02 52bd
000002d0: 7942 cfbd 196c 12be 1580 0cbe 00db 3d3d
000002e0: a70a e83a 58ac 45bc cb1d ab3d 9c99 af3e
000002f0: 51d5 ce3d 4efc bcbd 6fd7 2e3e 9518 0abe
00000300: 6ad7 16be 9221 2dbe a754 f03c 760c e93d
00000310: 691f bebe c393 363d 06fb f63c 5ff0 313d
00000320: 9382 463d 75f8 e0bd d827 8dbe c5ff 92be
00000330: a490 9f3e bbc2 0c3e c63a 00bd 724b c8bd
00000340: ae13 12be 787d f43c f055 14bd 5430 c2be
00000350: 598d 37be 89cb 47be c2bc 7a3e f083 5cbe
00000360: 3614 24be 1e70 943e 6c52 87bd d0a1 dabe
00000370: fb93 46be 4b4f 06bd 5549 28be 6bca ab3e
00000380: 0080 0bbe aa82 dbbe f847 95be 1894 bebd
00000390: 6235 26be 2bce 5dbe 184e b6bc 8e6a 95bd
000003a0: ea60 79be 566f 683d 7e2a 84be 4cd9 4dbe
000003b0: 5358 a53e fa38 7cbe c5a2 513c 0527 c53d
000003c0: fc60 42be e229 113e f764 ffbd 4145 85bd
000003d0: aa1d 3cbe d460 7dbe 1529 73be c737 393e
000003e0: 510c dfbd af52 ee3d 71f4 ee3d 9049 6f3e
000003f0: 2778 093b 8457 be3c dcc0 3f3d 6a05 16be

sequential_2/dense_5/MatMul f4 [5, 64]
-0.098637335 0.18181497 -0.34722728 0.0070753596 0.071934015 -0.049354516 0.16500458 -0.087664485
0.01121432 -0.25033736 -0.3624923 -0.19372456 -0.17167917 -0.01222523 -0.011696182 0.18845554
0.0851159 -0.11621972 -0.32775214 -0.17315005 0.20198523 -0.25861076 -0.24642333 -0.036255997
0.0155029325 0.023571085 -0.26896948 0.21454269 -0.3436256 0.057348598 0.05148801 0.05346978
-0.2436847 -0.028633926 -0.04501574 0.031471644 -0.08198196 0.064027585 -0.08775501 0.10730953
-0.287364 -0.38498542 -0.0145943975 0.1144126 -0.2569941 0.08166213 -0.04340109 0.03403717
-0.22214288 0.16363142 -0.18150063 -0.22429429 -0.18895015 -0.4711311 -0.7422468 -0.13241334
-0.057162106 -0.08156554 -0.3067454 -0.26595813 -0.12302637 -0.03805303 -0.21044824 0.16431181
-0.3906331 -0.1297363 -0.3251597 -0.06394644 0.06993403 -0.052751288 -0.019258315 -0.101312086
-0.06499585 -0.32476017 -0.37246916 -0.45196918 -0.18027584 -0.027639953 -0.19304356 0.08209823
0.058842402 -0.15776828 -0.33694792 -0.6261514 0.1621774 -0.032669265 -0.070007436 0.034469068
-0.044824883 0.07803106 -0.013538373 0.10580859 0.07897547 0.10859524 -0.20284699 0.014165163
-0.4783445 -0.0943114 0.111479074 -0.03407973 -0.13693072 -0.013475652 -0.1564044 -0.10798266
-0.36377662 -0.042547386 -0.38961864 -0.73484546 -0.2104855 0.16987509 0.042654034 -0.6311937
0.015822327 0.04565709 -0.3044996 -0.66004497 0.044996753 -0.20968528 -0.21074954 0.014364589
0.03107665 -0.10465433 -0.21568447 -0.33247897 -0.3957945 -0.03424586 -0.24329953 -0.021080779
-0.66259485 0.13796762 -0.46164778 -0.58145815 -0.64125353 -0.40453058 0.07471536 -0.38540828
-0.17920567 -0.3426037 -0.59708375 -0.30890188 -0.48632038 -0.15456833 -0.06966972 -0.62408733
0.10436074 -0.29180902 -0.8632782 -0.23625882 -0.5913775 0.013745339 -0.32523623 0.011739646
-0.7553182 -0.5101628 -0.81765795 0.20877239 -0.1893062 -0.15115994 -0.05553968 -0.4386681
-0.009324212 -0.21300605 -1.3709344 -0.40065682 -1.2877184 -0.50697803 -0.95103264 -0.6945969
-0.18594664 -0.64487565 0.0734986 -0.0071145426 -0.4163156 -0.08759409 -0.98096853 -0.1654769
-1.3562883 -0.4020595 -0.12141703 -0.0006092193 0.09183647 -0.46420616 -0.5348108 -0.3757012
0.093179464 -0.61511093 -0.05094658 -0.2503465 -0.17650695 -0.10750375 -0.01601098 0.12447339
-0.27449247 -0.919736 -0.24155353 -0.5795901 0.08698427 -0.09033656 0.22776748 0.009919763
0.057534315 -0.17599097 -0.296518 -0.39971742 -0.16001807 -0.024308933 -0.119837895 -0.102603145
-0.30596608 -0.05846934 -0.5591162 -0.35739407 -0.01587539 0.014999987 -0.28461117 -0.18622336
-0.046331625 -0.00970554 -0.0044358894 0.1696479 -0.3515738 -0.28462082 -0.30355895 0.029184673
-0.25255287 0.00024261216 0.124885365 -0.039953277 -0.13725945 0.13659313 -0.41492167 -0.043167394
-0.2758038 -0.12188997 -0.17937659 -0.095449425 -0.20399927 -0.12644069 -0.16702503 -0.22320074
-0.085920416 -0.15683673 -0.020709315 -0.34571207 0.09767558 -0.5085133 -0.15709138 0.021332752
0.046448506 -0.37167764 -0.045399107 -0.34008953 -0.32230482 -0.083320774 -0.1375357 0.063254036
00000000: 5f02 cabd b42d 3a3e c6c7 b1be 6bd8 e73b
00000010: 2452 933d f627 4abd f6f6 283e 7089 b3bd
00000020: 44bc 373c 382c 80be 9798 b9be bb5f 46be
00000030: aacc 2fbe 554c 48bc 58a1 3fbc 7dfa 403e
00000040: 3f51 ae3d 9b04 eebd 21cf a7be 3f4e 31be
00000050: 37d5 4e3e a168 84be 6656 7cbe 2b81 14bd
00000060: 0300 7e3c 2618 c13c 5eb6 89be 14b1 5b3e
00000070: b2ef afbe 5de6 6a3d 17e5 523d 2103 5b3d
00000080: 7b88 79be b291 eabc 6d62 38bd 69e8 003d
00000090: 28e6 a7bd e520 833d e6b8 b3bd 19c5 db3d
000000a0: 6021 93be cf1c c5be 571d 6fbc 2751 ea3d
000000b0: bb94 83be 7a3e a73d 57c5 31bd 8f6a 0b3d
000000c0: 6c79 63be ff8e 273e 4ddb 39be 67ad 65be
000000d0: 267c 41be 1838 f1be e303 3ebf 5d97 07be
000000e0: d022 6abd d50b a7bd bc0d 9dbe aa2b 88be
000000f0: 40f5 fbbd 7edd 1bbd be7f 57be 5b41 283e
00000100: 1001 c8be 98d9 04be 557b a6be 5af6 82bd
00000110: 9339 8f3d bc11 58bd 9dc3 9dbc b67c cfbd
00000120: 8b1c 85bd f746 a6be 47b4 bebe 8168 e7be
00000130: 3b9a 38be 2f6d e2bc 36ad 45be 1e23 a83d
00000140: bb04 713d 028e 21be 7084 acbe 754b 20bf
00000150: d511 263e 35d0 05bd 0f60 8fbd 702f 0d3d
00000160: 4c9a 37bd c0ce 9f3d 0dd0 5dbc 2db2 d83d
00000170: e4bd a13d 2e67 de3d 1fb7 4fbe 0015 683c
00000180: 92e9 f4be 5626 c1bd 244f e43d 3097 0bbd
00000190: 9137 0cbe fbc8 5cbc 7a28 20be 0326 ddbd
000001a0: ee40 babe 2b46 2ebd 187c c7be d51e 3cbf
000001b0: 8389 57be bcf3 2d3e ffb5 2e3d e995 21bf
000001c0: d39d 813c ee02 3b3d 5fe7 9bbe b5f8 28bf
000001d0: 844e 383d bdb7 56be bace 57be 7459 6b3c
000001e0: 7594 fe3c 0255 d6bd 64dc 5cbe af3a aabe
000001f0: 94a5 cabe 6345 0cbd 8323 79be 99b1 acbc
00000200: d19f 29bf 6247 0d3e 195d ecbe 71da 14bf
00000210: 3129 24bf a21e cfbe 5e04 993d 3c54 c5be
00000220: b181 37be c169 afbe 7bda 18bf 6328 9ebe
00000230: fcfe f8be 2947 1ebe 00af 8ebd 30c4 1fbf
00000240: 15bb d53d fe67 95be cdff 5cbf d5ed 71be
00000250: 8464 17bf 2134 613c 5d85 a6be a557 403c
00000260: 895c 41bf 079a 02bf 0852 51bf 6ec8 553e
00000270: 7cd9 41be acc9 1abe 937d 63bd 1b99 e0be
00000280: 94c4 18bc 421e 5abe c77a afbf e422 cdbe
00000290: f5d3 a4bf 50c9 01bf e076 73bf 1ad1 31bf
000002a0: cc68 3ebe 9216 25bf 6f86 963d 1c21 e9bb
000002b0: 5127 d5be 8864 b3bd c120 7bbf c772 29be
000002c0: db9a adbf beda cdbe 7ea9 f8bd 04b4 1fba
000002d0: c214 bc3d 6eac edbe 5ce9 08bf e85b c0be
000002e0: e0d4 be3d e977 1dbf 5cad 50bd 6b2d 80be
000002f0: 3dbe 34be ed2a dcbd 7529 83bc e8eb fe3d
00000300: 478a 8cbe d273 6bbf cf59 77be 0460 14bf
00000310: cf24 b23d 6002 b9bd e13b 693e 8086 223c
00000320: 1aa9 6b3d fa36 34be 35d1 97be c3a7 ccbe
00000330: c7db 23be 8723 c7bc 926d f5bd 9921 d2bd
00000340: 96a7 9cbe 8c7d 6fbd 3d22 0fbf 5bfc b6be
00000350: 1b0d 82bc 81c2 753c 8eb8 91be 56b1 3ebe
00000360: 3bc6 3dbd fc03 1fbc f05a 91bb 2eb8 2d3e
00000370: 7b01 b4be d2b9 91be 146c 9bbe b214 ef3c
00000380: 9c4e 81be b565 7e39 e6c3 ff3d 0ca6 23bd
00000390: be8d 0cbe 12df 0b3e 9d70 d4be 4bd0 30bd
000003a0: 2836 8dbe 73a1 f9bd 7fae 37be fd7a c3bd
000003b0: 2fe5 50be ab79 01be 9c08 2bbe bc8e 64be
000003c0: 0bf7 afbd cf99 20be 95a6 a9bc 2c01 b1be
000003d0: 220a c83d ed2d 02bf 90dc 20be 06c2 ae3c
000003e0: ca40 3e3d 884c bebe 6af4 39bd 3720 aebe
000003f0: 2305 a5be 15a4 aabd 29d6 0cbe 558b 813d
