models/models_for_presentation/all_physical_classifier.tflite (tflite, 462800 bytes, 10 tensors)

sequential/conv1d/BiasAdd/ReadVariableOp f4 [32]
00000000: 0515 73be c980 4abe f8f7 1abe ff27 fcbd
00000010: 8b76 a4be e752 81bc 0d98 1bbf df25 d4be
00000020: 3cf8 f0be 9dfd 02bf 975d 89be ae6a a6be
00000030: 1f44 8ebe f297 bbbe 3486 be3d bec6 a4bd
00000040: 4aaf 8abe ad64 8cbe f40b 08bf f430 28bf
00000050: fe72 09bf 3d67 65be 66f2 2fbf 1113 2abe
00000060: 1d0f 06bf 7ea7 44be 080d dfbe 80cc 5cbe
00000070: 39a4 f0be c837 c4be 0385 71bd 5fca a2be
-0.23738487 -0.1977569 -0.15133655 -0.12312316 -0.3212169 -0.015786601 -0.60778886 -0.41435143
-0.47064388 -0.51168233 -0.26829216 -0.32503265 -0.27786347 -0.36639363 0.09302941 -0.080457196
-0.2708686 -0.2742056 -0.5314324 -0.65699697 -0.5369109 -0.22402664 -0.68729246 -0.16608836
-0.5236681 -0.19204518 -0.4356463 -0.21562386 -0.47000292 -0.38323808 -0.05896474 -0.31795022

sequential/conv1d_1/BiasAdd/ReadVariableOp f4 [64]
00000000: d263 dfbe dc23 72be 4055 cbbe 6d7d 0dbe
00000010: 3bc2 33be 88a1 1bbe 39ec 1bbf ef91 cfbd
00000020: 50e4 22be 10e6 95bd 084b 88be 6e11 a0be
00000030: 1066 4c3e b211 d6be 2caf c8be 11c6 36be
00000040: ddb5 15be cd34 51be 5d55 b7bd bf76 16bf
00000050: d483 90bd b407 c5be 3189 84be 99d3 78be
00000060: 357d b8be d4da 9ebe 22a9 47bd 516e e4be
00000070: 5c75 f43d cf0c cebe 4f68 dfbe 5f35 55be
00000080: 7e00 37be aac9 90be c776 29be f596 00bf
00000090: 98cb 0ebf dcec 1fbc 6815 333e 08f7 8abe
000000a0: 45f8 a0be 3251 cebd b37b 59be ab8a b8be
000000b0: ceb6 d7be 31da 923e 3ee3 ccbe 50bb a1bd
000000c0: eb56 31be 1f26 e93d cecf fcbd 52bf 983d
000000d0: 553e 78be 71e6 3fbe acdf 3ebe 1786 89be
000000e0: fd13 34be c351 01bf 7887 dfbe 296a 47bd
000000f0: 9bc9 a2be 6d85 12bf 10f1 c9be 7bd7 823e
-0.43630844 -0.23646492 -0.39713478 -0.13817377 -0.17554562 -0.15198338 -0.6090732 -0.101352565
-0.15907407 -0.073192716 -0.26619744 -0.31263298 0.19960809 -0.41810375 -0.39196146 -0.17848994
-0.14620157 -0.20430298 -0.08951829 -0.5877494 -0.07056394 -0.3848244 -0.2588592 -0.24299468
-0.36033025 -0.31026328 -0.048745282 -0.44615415 0.11936447 -0.40244147 -0.4363427 -0.2082114
-0.17871282 -0.28278857 -0.16549216 -0.5023034 -0.5577941 -0.0097610615 0.17488635 -0.27141595
-0.31439415 -0.100740805 -0.21238594 -0.36043295 -0.42131656 0.28682092 -0.40017122 -0.07897055
-0.17318313 0.11384224 -0.12344323 0.074583665 -0.24242528 -0.1874025 -0.18640012 -0.26860115
-0.1758575 -0.50515383 -0.43658042 -0.048685227 -0.31794438 -0.5723484 -0.3944173 0.25555024

sequential/conv1d_2/BiasAdd/ReadVariableOp f4 [128]
00000000: 1fdf cabd 1a3b 35bf 7ba0 833e f821 2dbe
00000010: 97cd 7ebf 3d2a 08be 08d9 e83d 6b60 d43d
00000020: b784 9cbd e655 52bf da49 fabe 46c8 41be
00000030: 3651 d9be 8d22 c3be 77f2 f3be 9536 bcbe
00000040: 55c8 12bf 4914 27be b1ec 7cbe 6f8f f1be
00000050: 4dbd 0cbd 162d e3be 1d0f 47be a9f9 693d
00000060: 0227 75bf 01a6 35be 424c d0be 7c4f 063e
00000070: 44c4 79be cee8 36bf a6d4 b13d 95d7 16bf
00000080: 7bdd 87bf 095a dfbe c922 f6be 5299 dabd
00000090: f935 02bf 73ff 32bf 52f5 22bd 3741 3abe
000000a0: 8b2c 13be 83f6 e7be 008a 11bf 1465 e9be
000000b0: a672 34bf 2d2a 07bf 0f19 89be 1b90 b23d
000000c0: 2631 94be 7c18 a9bf f19c 223e 1fc2 92bf
000000d0: 3b9f c6be 8243 afbc c848 023e 41bb 43bf
000000e0: 1bda f8be 5cf5 05bf fcba 78bd 07e2 933e
000000f0: b3e7 88bf f141 50bf 0dc2 e7be b3a3 32bf
00000100: 7c87 5c3d 0b0e 51be 8715 13bf fe82 0c3d
00000110: d892 a03e c011 cebd d7ab 1cbf 65e4 83be
00000120: 89a3 29be 2ef9 2ebf 2cd3 6abf 22ae e8bd
00000130: 384a 3a3e ffb4 acbd 511d e4bd a0f7 18bf
00000140: e2ab d4be c6fc 11bf 2fbf 94bf af38 1abe
00000150: a1b5 6abe 5097 b3be df6e 90be 4dc3 b53e
00000160: 7be6 18bf 32f4 93bd 4170 9ebe 1a7a 643d
00000170: 9078 be3d be3a 83bd 01f8 b2be 3685 3cbd
00000180: 2591 f5bd e307 92be c87f a8be 1ca6 d3be
00000190: 988e 86be b393 b9bd ef78 06be ec0b 4ebe
000001a0: 3ed4 2fbf 664c edbe 101d b2be 5d1f 30be
000001b0: 2d70 0fbe effb 16bf 9af6 78be 64a2 8ebb
000001c0: b156 0abf 40a4 c23c 5208 cbbe bd6b a6be
000001d0: e3d5 20be 478f aebe 2fc5 b7be 415c 1b3e
000001e0: 7901 083d 54b5 24bd e207 45bf b12e 3fbf
000001f0: eef7 aebe b95d e53d aa82 07bf 02a3 f7be
-0.09905838 -0.70793307 0.25708374 -0.1690749 -0.99532455 -0.13297363 0.113695204 0.10369953
-0.07642501 -0.8216232 -0.4888447 -0.18924055 -0.42444772 -0.38112298 -0.47645923 -0.36760393
-0.5733693 -0.16316332 -0.24699666 -0.47179744 -0.03436022 -0.44370335 -0.19439359 0.05712286
-0.95762646 -0.17739107 -0.4068318 0.13116258 -0.24391276 -0.7144898 0.086831376 -0.589227
-1.0614465 -0.4362338 -0.48073414 -0.10673775 -0.50863606 -0.69921035 -0.039784737 -0.1818894
-0.1437246 -0.4530526 -0.56851196 -0.4558493 -0.7048744 -0.5279873 -0.2677693 0.08718892
-0.28943747 -1.3210597 0.15880181 -1.1465491 -0.38793358 -0.021394495 0.12723076 -0.764576
-0.486039 -0.52327514 -0.060725197 0.28883383 -1.0695709 -0.8135062 -0.45265236 -0.69781035
0.053840145 -0.20415513 -0.57454723 0.03430461 0.31362033 -0.10061979 -0.61199707 -0.2576019
-0.1656629 -0.6834897 -0.9172847 -0.11361338 0.18192375 -0.0843296 -0.11138404 -0.59752846
-0.41537386 -0.57026327 -1.1620845 -0.15060686 -0.22920848 -0.3507638 -0.28209588 0.35500565
-0.59726685 -0.07224311 -0.30945018 0.055780508 0.09300339 -0.064076886 -0.34954837 -0.046025477
-0.11990575 -0.28521642 -0.3290999 -0.4133767 -0.26280665 -0.090613745 -0.1313207 -0.20121735
-0.6868323 -0.4634735 -0.34787798 -0.17199464 -0.14007635 -0.5897817 -0.24312821 -0.0043528546
-0.5403853 0.023759961 -0.39654785 -0.32504073 -0.15706591 -0.34093687 -0.35892627 0.15171911
0.03320453 -0.04021199 -0.76965153 -0.7468062 -0.3417353 0.11199517 -0.5293375 -0.48366553

sequential/conv1d/Conv1D f4 [32, 1, 3, 3]
00000000: f394 e53e 4f79 dfbe 1ea1 f73d 18e6 d43e
00000010: 4aa8 a13d 41f6 863e 7f3f 2dbf 39f3 d23e
00000020: 3f2a 0bbf 5ef9 b23e 99b2 6fbe a72f 843d
00000030: 18a7 8a3e e1d9 d4bd 396b 763e 5180 58be
00000040: 6c17 b2be 6753 473e 0ff7 fabd 5e5e 00bf
00000050: 0b87 25bf 613c 0ebe 30da 1abe f834 583e
00000060: a568 ba3e 2776 263f 70ed e13e ad69 ef3c
00000070: b4d6 7cbe 235f 4c3f e91e 8bbe 16ca b9be
00000080: fae5 2fbe f8d3 233e 2746 f23e b402 20bf
00000090: a74b f93d bec6 87be 44c0 5bbf 5cb3 653e
000000a0: 2c22 8abe 6dff e63e d332 03bf 720e 8e3e
000000b0: 4224 1e3f abd3 23bd 5772 a63d c0d8 543d
000000c0: b489 c03e 5038 73be 5cde f3be ebc0 5e3e
000000d0: 71d0 283d 31c6 6dbe 682b b63e 5d16 86be
000000e0: fadc 153e a700 e33e 80fc 303c 819f 06bd
000000f0: dad1 fa3d 7c44 723c daa2 f0be 3402 b9be
00000100: 6476 4c3f 8a1f 86be 7736 8bbe 623b 993f
00000110: ff2c fbbd e7b0 b8be 1709 5a3f 953a b5bd
00000120: c164 0dbe 6da8 b33e b26d f83e ec6b 68bd
00000130: 91a3 ed3e a13c 3bbf b588 5dbe 53d0 aabe
00000140: 8ccc 273e 6732 4bbd 77a6 383e 0d2e eabe
00000150: 38e6 22be cedc 6e3e 06fb e1be 535e c43c
00000160: 4787 f9be 4d22 753d 2d84 72be 8c45 70be
00000170: e841 2bbc e53e 60bd 4fac b2be 3aa5 713d
00000180: 0a56 1fbe badd 41be 7595 86be 5e4b 933e
00000190: 0496 7e3f 569b 12bd d77a 313e 92b0 803f
000001a0: 7788 3cbd 63b6 b43e ad4f e33e 16f0 c2be
000001b0: f140 78be e4ac 993e 289c 9b3e 8f9c b7bd
000001c0: d6fe 993e 232b b73e 2776 3fbe 4c0e 233f
000001d0: ccc7 b93e 0f67 8fbd 289f eb3d e674 003f
000001e0: 0f2a 643e 3035 95be 8d2c f63e dace ffbd
000001f0: da09 30be aecb 4c3e a97e a93e 76b4 04bf
00000200: 4cff c93d 4320 d43e e5e4 dc3d e1d4 9a3c
00000210: 4eea 9e3e f565 ca3e c21a 13bd 4f08 36bf
00000220: ad71 643c 9828 793f 1c8c 6d3e bf22 a3bd
00000230: 10a8 46be 1a71 1e3f 14da 953d 6f81 47bf
00000240: b983 0b3f b8b3 b43e 8eb6 c3be 2a82 9d3e
00000250: 7b4e 993e 595f a1bd fa93 233f d8e0 edbe
00000260: 6b2b dabe 733f cebe 1018 27bf c448 213e
00000270: 53c0 bb3d 7cf0 323f 82b5 bcbe 7f5f b23e
00000280: ccaf a83d df2a 963e c614 ffbd 36af 183f
00000290: 190a 373e fa11 ccbc 98e7 2f3f dcb4 853e
000002a0: e006 7b3d 9182 143e 11b7 dd3e dbbc 6f3d
000002b0: 3d5f dcbe c8e0 aebe 6d0d 50be ebd6 05be
000002c0: daf3 7dbe 61c3 aebe 7e57 1ebe b78c 4bbd
000002d0: fd7d 5b3d 53a5 933d 4417 9d3d c523 04be
000002e0: d602 e03e a926 d8bc 703e 8f3e 0a70 a7be
000002f0: 3b03 13be de8a e23e f609 a43e fe6c 9f3e
00000300: 4cc4 17bc b24b 403d a4c6 4a3e fb84 1fbe
00000310: bf15 f6be 2fb9 623e 7092 88bc 4c90 aa3d
00000320: b390 8cbe 5675 db3c cc74 df3d dee7 4b3c
00000330: d92e 9e3c b617 113e c6bf 2e3e 2d62 e9bd
00000340: 6f30 44be c7aa 50be 89e7 533d ae64 efbe
00000350: b152 e1be e6f1 423e 4f4f 53be 368f 13be
00000360: a9e6 1e3f e104 ab3b e4b9 67be 95be a83b
00000370: 9bbe e03e 99fc 1cbc 6141 1dbf 7cc5 d33e
00000380: a87c a23e a22c 1bbd 85d6 923d e535 8ebe
00000390: 4e40 cebe 28b6 8dbe 1190 943e efc7 54be
000003a0: aece a0be a8dd 923d 03e2 95be 0cad a93e
000003b0: c4a6 4fbf d5af 323d d966 1f3e 6475 813e
000003c0: bdd4 6b3d 35f4 9bbe b9af 013f db49 593c
000003d0: c844 f3bb 6934 b3be 3615 c1bd b3b1 4b3e
000003e0: 4749 0fbe 4cf6 f2bc 54b9 4d3e 4b8f 5dbe
000003f0: 96b3 2f3e 83c0 00bf 4a3c eebd dd1e 00bf
0.44840202 -0.4364724 0.120912775 0.41581798 0.07893427 0.26359752 -0.6767501 0.4120119
-0.5436134 0.34955877 -0.23407973 0.064544015 0.27080607 -0.103931196 0.2406434 -0.21142699
-0.34783494 0.19465409 -0.12254154 -0.5014399 -0.64659184 -0.1389022 -0.15122294 0.21113956
0.36407962 0.65024036 0.44126463 0.029225195 -0.24691278 0.7983267 -0.2717202 -0.36286992
-0.17177573 0.15998828 0.47319147 -0.62504125 0.12172633 -0.26518816 -0.8584025 0.22431701
-0.26979196 0.4511675 -0.51249427 0.27745396 0.61774075 -0.039996784 0.08127277 0.05196452
0.3760506 -0.2375195 -0.47630584 0.2175328 0.04121441 -0.23220135 0.3557999 -0.26188937
0.14635077 0.44336435 0.010802388 -0.03286696 0.12247057 0.014786836 -0.46999246 -0.36134493
0.7986815 -0.26195937 -0.2718999 1.1971247 -0.12264442 -0.36072466 0.8517012 -0.08849064
-0.13807966 0.35089436 0.4852119 -0.056743547 0.46413854 -0.7313939 -0.21634181 -0.33362064
0.16386622 -0.049608614 0.18032251 -0.4573826 -0.15908134 0.23326418 -0.44136828 0.023970759
-0.4873602 0.059847165 -0.23683234 -0.2346403 -0.010452725 -0.05474748 -0.34897086 0.058995463
-0.15560165 -0.18932238 -0.26285902 0.28768438 0.99447656 -0.03579267 0.17332016 1.0053885
-0.04602858 0.352954 0.44396725 -0.38073796 -0.24243523 0.30014718 0.30392575 -0.08965408
0.30077237 0.35775098 -0.18697415 0.6369369 0.36285245 -0.07002079 0.11504966 0.5017837
0.22281669 -0.2914214 0.48080865 -0.12490626 -0.17191258 0.19999573 0.33104447 -0.5183786
0.09863147 0.41430864 0.10785846 0.018900337 0.31038135 0.39530912 -0.03591419 -0.7110643
0.013943118 0.97327566 0.23197979 -0.07965612 -0.19400048 0.6189133 0.07316986 -0.77931875
0.5449787 0.35293365 -0.38225216 0.3076337 0.29942688 -0.07879514 0.6389767 -0.46460605
-0.4261125 -0.40282783 -0.6527109 0.15750414 0.09167542 0.698982 -0.3685723 0.34838483
0.082366556 0.29329583 -0.12455134 0.5964235 0.17874946 -0.024910916 0.6871276 0.26114547
0.061285853 0.14502932 0.4330373 0.058529716 -0.4304141 -0.3415587 -0.20317622 -0.13070266
-0.24800053 -0.34133437 -0.15463063 -0.049694743 0.05358695 0.072092675 0.07670453 -0.1290427
0.43752164 -0.026385622 0.27977324 -0.32702667 -0.14356701 0.44246572 0.3203885 0.31137842
-0.009263109 0.04694719 0.19802338 -0.15578072 -0.48063466 0.22140954 -0.01667139 0.08328304
-0.27454147 0.026789349 0.10910949 0.012445418 0.019309448 0.14169201 0.17065343 -0.11395679
-0.19159101 -0.20377646 0.05173448 -0.467565 -0.440084 0.1903759 -0.20635723 -0.144101
0.6207071 0.0052190875 -0.22629505 0.0051496723 0.4389542 -0.009581708 -0.61427885 0.41361606
0.3173573 -0.037884362 0.071698226 -0.27775493 -0.40283436 -0.27678037 0.29016164 -0.20779394
-0.31407684 0.07171184 -0.29273996 0.33139837 -0.8111384 0.043624718 0.15566577 0.25284874
0.05757593 -0.30459753 0.50658756 0.013262237 -0.007423971 -0.35000923 -0.09427874 0.19892006
-0.13992797 -0.02965846 0.20090228 -0.21636693 0.1715835 -0.5029375 -0.11632593 -0.50047094

sequential/conv1d_1/Conv1D f4 [64, 1, 3, 32]
00000000: 1881 f3be 4067 dd3c 649b 21bf 2ecf 3a3e
00000010: 1c42 51bf 1114 40bf ea22 edbe 02cd 2a3e
00000020: 234f 24bc c3d2 cabe c607 e73d cc8e ad3c
00000030: b988 1fbf 6fd6 98be fcb1 59be ed4e 68be
00000040: b46b 2fbf 4314 40bf aa81 e2be 0131 f63d
00000050: 8ab7 abbe c566 b3be 1c62 35be ba2b cebe
00000060: 825f 243d aceb b3bc ebaf b9be 6348 9b3d
00000070: 5e67 9ebe 1bee 19bf 3e7d 6bbf f9d0 57bd
00000080: ed7b 23bf 7f54 893e c439 423e 01ac cebe
00000090: f62f 20bf 73fc 803d f4b7 bbbc 4bbc df3e
000000a0: 73e9 963e 0dc8 02bf 7b3a f03d d4b9 073c
000000b0: bbe5 d9be cee2 03be 0bf0 3f3e 004d 423f
000000c0: 8a8a a83e ac87 3a3d 556e 0fbf 8837 dabe
000000d0: 1c3d e4be 2cf7 083e 4d5e 8e3c fa6c 23bd
000000e0: 4c09 a0bd 7c61 1f3e 1500 cd3e 1951 ed3d
000000f0: c5ca 30bf 5a2d df3e e640 86be d3b1 6b3e
00000100: c7bc 09bf 4462 923e de94 b1be 50f8 3dbe
00000110: 629d 16be 5c03 363e bcda 843e 733d cf3e
00000120: 960c 09be 5e4f 75be b4e7 593e f8fb ea3d
00000130: 7392 e0be 667d 8f3e ee6a 863e d016 9abf
00000140: 2cc4 bc3e 8a63 a3bd 4cdc adbe 1b81 da3d
00000150: 81ec 8dbd b2f7 bbbe 20a8 983e 77be 18bc
00000160: 2e5b c1be 79d1 9c3c f2e1 f0be c794 f3bd
00000170: 46f4 98bd 8c26 033f 04ab 8abe edc4 c8bd
00000180: 021a 43be 725c 88be 9e70 ffbc 4c2a e33c
00000190: cf2a 9dbf fb52 1f3e feac 763e ecce c93e
000001a0: 91c7 4cbf cec2 a53e db96 37bf 75b2 c93d
000001b0: 573f 0fbf fac3 163e 34db c8bd 04c2 203e
000001c0: 0769 64bf 9f89 fa3e 5e0b dfbe 047b 40be
000001d0: 64df 96bf 1ed4 d3be d0b8 903d 3151 f5be
000001e0: 6ac5 8bbe 0f98 7abf 89db 72be aebe f93d
000001f0: be9f b0bd bade 50bf a7d0 25bd fcbe 34bf
00000200: dacb 5abe aee7 023e 6433 74be 808f 893d
00000210: 5948 b6bd 882d 5b3e d031 88bf cf5f e13d
00000220: 0e20 843e 5177 9e3e 8058 5cbf a22d dcbd
00000230: a3d5 bebe 8157 1cbf 8c09 1fbf bf10 f43d
00000240: 1b23 2dbf 614a 0abe 9ff7 02bf 0837 d8be
00000250: 7e45 f2bd f8dd be3e 8494 5b3d cc74 d7be
00000260: 97c4 4dbe 3579 49bf 5e46 e23a aa9c e63d
00000270: dbec 5fbf 61fc 74bd 41b1 c93d 7fcb 29be
00000280: 7f71 473f 1f50 4d3e f17e f63d 1d37 283f
00000290: 3a72 7b3f 29ba 6cbb 1cc9 cb3d 20c9 073f
000002a0: 728f 073f 2812 8f3e 6f94 89bd 8b7d 3b3e
000002b0: 2ea4 74be c29d ab3e a6b3 07bc 75ec 5cbe
000002c0: ec43 dcbe 92fe 0e3f 549b 00be 1971 a9be
000002d0: 0e6d 73bc 20ef 953e 7318 a43d fd90 01be
000002e0: 882e 973c f523 f8be 85aa d63e 8e35 ea3d
000002f0: 8bf3 dfbc 9458 473e 997e a33e a961 ea3c
00000300: 9aa8 a03d 0e43 3bbf 8d6b 253e 6382 c33e
00000310: 12c4 cfbe 6c4c 103e 1a77 04be 2b7e a3be
00000320: 268e 9d3e 3c9f 1abe cc1b ca3e 22fa 843e
00000330: 4e40 883e fef2 48be 01cf 34bf d2dc 383f
00000340: 0bee 48bd c335 263e 9c05 a93d eeca 91be
00000350: 66d8 ccbd b35c 323e cdbb b33e 640f 0bbe
00000360: d628 c4be e377 16be 9a98 ce3e a3bb 97bd
00000370: 38f7 34be bafb 9ebe 8291 15be b92d 763c
00000380: c8ea 01bf f601 08bd 4a22 5a3e 4d95 75be
00000390: c015 b9be 8f06 1dbe 5759 023d 9c4a d6be
000003a0: 96f4 df39 6e9f 95be b82a aa3e 25e1 28be
000003b0: 4d06 fb3d 50cb 563d 8419 2bbf aaae 883e
000003c0: 9388 e13d 31c3 b93d 196a 42bc 2166 c13d
000003d0: baf3 10bf 2488 3fbe 1024 013f 5de4 aabe
000003e0: 2222 5b3d 5a64 54be d787 0f3d 9bac 35bf
000003f0: 54d9 87bd c78d 0fbf dc6c 0abe 5161 b1ba
-0.47559428 0.027026772 -0.6312773 0.18243095 -0.817415 -0.7503062 -0.463157 0.16679767
-0.010028633 -0.39613923 0.112807795 0.021186255 -0.62318 -0.298511 -0.21259302 -0.22686358
-0.68523717 -0.75030917 -0.4423955 0.120210655 -0.33538467 -0.35039344 -0.17713207 -0.40267736
0.040130146 -0.021962963 -0.36267027 0.07582166 -0.30938238 -0.60128945 -0.9198798 -0.052689526
-0.6386097 0.26822278 0.18967348 -0.40365604 -0.6257318 0.06298151 -0.022914864 0.43698344
0.29474983 -0.51086503 0.11729904 0.008284051 -0.42558083 -0.12879488 0.18743913 0.7589874
0.32918197 0.045539543 -0.5602773 -0.42620492 -0.44577873 0.13375539 0.01737895 -0.03989885
-0.07814273 0.15564531 0.40039125 0.11587734 -0.690594 0.43589288 -0.2622139 0.23017053
-0.53803676 0.28590596 -0.3468389 -0.18551755 -0.14708474 0.17774719 0.2594813 0.4047657
-0.13383707 -0.23956057 0.21279794 0.114738405 -0.43861732 0.2802536 0.26253456 -1.2038212
0.36868417 -0.0797797 -0.33957136 0.10669156 -0.06929875 -0.36712414 0.2981577 -0.009322754
-0.37764877 0.019142853 -0.47047383 -0.118936114 -0.074684665 0.5123069 -0.270836 -0.098031856
-0.1905289 -0.2663303 -0.03118163 0.02773013 -1.2278689 0.15558998 0.24089429 0.3941568
-0.79992014 0.32375187 -0.7171456 0.09848491 -0.55956024 0.14723197 -0.09807435 0.15699011
-0.8922276 0.48933122 -0.4356336 -0.18796927 -1.1786923 -0.4137277 0.070665 -0.47913507
-0.27299052 -0.97888273 -0.23716559 0.121945724 -0.086242184 -0.81589854 -0.04048219 -0.7060392
-0.21366826 0.12783691 -0.23847729 0.067168236 -0.08900518 0.21404088 -1.0640202 0.11004602
0.25805706 0.30950406 -0.8607254 -0.10750891 -0.37272367 -0.6107102 -0.6212394 0.119172566
-0.6763169 -0.13504936 -0.5115909 -0.42229486 -0.11829661 0.37278724 0.053608432 -0.42081296
-0.20094524 -0.7870057 0.0017263403 0.1126035 -0.8747079 -0.059811 0.098482616 -0.16581534
0.77907556 0.20050095 0.12035931 0.65709096 0.9822117 -0.0036121702 0.09950468 0.5304127
0.52953255 0.2794354 -0.067177646 0.1830961 -0.23890755 0.33518797 -0.008282578 -0.21574576
-0.4302057 0.55857193 -0.12559253 -0.330941 -0.014857544 0.29284 0.08012476 -0.12652965
0.018454805 -0.48464933 0.4192697 0.11435996 -0.02733781 0.19467384 0.31932524 0.028611021
0.07844658 -0.7314919 0.16154309 0.38185415 -0.40579277 0.14091653 -0.12936059 -0.31932196
0.30772513 -0.15099806 0.39474332 0.25972086 0.2661156 -0.19623944 -0.7062836 0.72211945
-0.04905514 0.16231446 0.08253023 -0.28475136 -0.10002212 0.17418174 0.35104218 -0.1358009
-0.38312405 -0.1469417 0.403508 -0.07408836 -0.17672431 -0.31051427 -0.14606288 0.01502555
-0.5074887 -0.033204995 0.21302143 -0.23982735 -0.36149406 -0.15334533 0.031823482 -0.41853797
0.00042716105 -0.29223198 0.33235717 -0.16492136 0.12257061 0.052439988 -0.6683581 0.26695758
0.110123776 0.09070433 -0.011866116 0.09443308 -0.566219 -0.18704277 0.5044565 -0.33377352
0.05349935 -0.20741406 0.035041656 -0.709665 -0.06633249 -0.5607571 -0.13518089 -0.0013533031

sequential/conv1d_2/Conv1D f4 [128, 1, 3, 64]
00000000: 935f 6abf 8d54 90be e9d1 8fbe ed85 58be
00000010: b0e9 b1be 7f18 ad3d 1320 6cbe 2570 8abc
00000020: 6bd1 22bd 6ef7 a33d a63a 133e 1f37 9c3e
00000030: 100f 3ebd fb1f 1cbf 648d 99bf 4682 3d3e
00000040: c0fd 473f 89f0 87bf 3f5b 3b3d 249f c03e
00000050: 09a9 043e 3d29 d7be e5ac fbbe 4683 a03d
00000060: fbb3 13bf 7781 4abf f658 f8be bee3 e33e
00000070: 9da9 9f3e 975c 6a3e fbfd d0bd 7feb bcbe
00000080: 7c42 08bf cfcc 91be 9af0 32be 5f75 debd
00000090: 53e6 57be e72c 4ebf ca30 0dbf 0583 b8bd
000000a0: cf6d 593f 4779 aabc 5c0c 8c3d 178e a2be
000000b0: d1bb 73bf f1a0 393d a086 753c 06f2 423d
000000c0: 49d9 703f d5ff 88bd 8a18 f23e ce9e b4be
000000d0: 8ae4 5c3e 6d10 4b3f 9b30 db3e 47a3 a73f
000000e0: 940a 81bd d5a4 35be 0464 c33e f579 febe
000000f0: 540e 1bbf 48a4 2dbf 9b80 203e 9347 273f
00000100: 2572 eb3d b938 90bf 7a03 e3bd 6f6a 273d
00000110: a142 bdbe 2b6e f93d f3aa 3b3e aedf bd3e
00000120: 31fa 0abc e878 1f3e aa83 a93e b728 bf3d
00000130: 3a4c 2f3b 7ff2 cfbe 7348 4e3d 35ad 023e
00000140: ab30 3f3c 0b40 a43d d574 d9bd c112 d3be
00000150: d6ec 22be ba96 2ebe b4b0 24bd 4679 353e
00000160: d5ca dbbd 5e43 0bbf e61e 80be 1588 40be
00000170: fbf5 cabc fd4d 363c 55d5 b23d 5de0 1bbe
00000180: 744c 693e f758 0d3e 6391 303e 9e7d 43be
00000190: 82c6 1e3d f092 42bd 7831 a03c cfd2 60be
000001a0: 3dd8 403d 3d52 b8b9 d615 25be d814 1dbf
000001b0: 900c 493e b90b 3c3d 1b04 d6bd de8f aabd
000001c0: 0c1a 183f 41bb f4bd 4708 4dbe 474a 05be
000001d0: 4d22 8cbe 141d 79bd 597e cdbe e4ee 09be
000001e0: 5cb6 3b3d b8e6 e43e 7ede 053e d2e3 1c3e
000001f0: 4302 bf3d e661 97be 327c 803e b210 0a3e
00000200: 07a7 4e3f 657d 18bf 562c b83e b34f 4e3f
00000210: d9a4 8ebe 2423 5cbc 9855 c53e 75c9 f23e
00000220: c324 20bc d3f1 3dbd de83 153f 244b a43e
00000230: f4cf ab3d 15f9 10bf ad7e 223f 8d56 d9bd
00000240: 93c1 2bbf d5e3 ea3e 8ac1 3d3c 7cb9 7bbc
00000250: 4524 7ebe b34a 7bbd 48c8 0c3f 128f 673e
00000260: c325 993e bccc e4be 0fcf fabd 44d9 8bbe
00000270: 1741 36bf 8803 de3e f2e5 8a3e 6afe a23e
00000280: 8ed2 1b3f 07c5 313f ebb9 213e 0d8e 83bd
00000290: 3f95 033f 463c 91be 57c6 013f 5a41 3cbe
000002a0: 3a04 71bf 636f 8bbd a6d7 50be 3593 3f3e
000002b0: c1e4 2e3f 604e f03e a82a 44be 44ed 403b
000002c0: 8004 2a3f f03e 1cbf 565e 1cbf 749c ff3d
000002d0: 1695 01bf 1c9f 9abf 2694 eebd 7a9c 94bf
000002e0: 2788 0cbe eeb7 bb3c c560 523d 1839 9cbf
000002f0: 2de3 8a3e 5f21 db3e 847f 053f 916a 8bbf
00000300: a5f2 11bf c7aa 3cbe 4640 ab3d c8a8 f1be
00000310: cf84 a73d eb84 423c 14d7 013f d15f 1bbe
00000320: 7a58 2a3d 5c24 873b 7b00 a23d 21c2 833e
00000330: 32c9 bcbe fbdb 953e 614f 2bbe 2822 603d
00000340: de88 e6bd 0154 dc3c 34a2 1fbc 71a9 06be
00000350: dc43 09bf 5093 b1bd 51ec fd3d b68e c33d
00000360: 1901 b5be eae4 423e 4ba2 113e 41b0 2dbe
00000370: 4488 b43e 4b2e bf3e d511 63be 6448 61bd
00000380: b58d 40be 1d64 94be 735d 42be 4adc 433e
00000390: 6d70 e3bd e3e6 16be c87f afbe a1fd 4b3e
000003a0: 12cb 383e 384e cdbb b528 d93d a8ea 54bc
000003b0: 05ec 15bd 2108 d33e d71b 4f3d 1819 8a3d
000003c0: d6ca 203e ee54 59be e6d4 93be 4f61 e4bd
000003d0: 7ce4 bdbe b8fb 983e aaba d63c a2a7 973e
000003e0: 7f8b dcbc a8ab 36be ff76 043f 5de1 963e
000003f0: 80ac bf3e 3ce8 9bbe aa52 79be 8480 bcbe
-0.91552085 -0.28189507 -0.28089836 -0.21144839 -0.34748602 0.08451938 -0.2305911 -0.016899178
-0.039750498 0.08006178 0.14377841 0.30510804 -0.046401083 -0.609863 -1.1996274 0.18506727
0.78121567 -1.062028 0.045741316 0.37621415 0.12955107 -0.4202365 -0.49155346 0.078375384
-0.57696503 -0.791038 -0.48505372 0.4450969 0.31184092 0.22886883 -0.10204693 -0.3689842
-0.5322645 -0.2847657 -0.17474595 -0.108622305 -0.21083955 -0.80537266 -0.5515257 -0.09009365
0.8493318 -0.020809783 0.06838295 -0.3174903 -0.9520846 0.0453195 0.01498571 0.047594093
0.9408155 -0.06689421 0.47284347 -0.35277408 0.21571556 0.7932194 0.4281052 1.3096703
-0.06300846 -0.1773866 0.38162243 -0.4970242 -0.6056874 -0.678288 0.15674059 0.6534359
0.11496381 -1.126731 -0.110846475 0.040872987 -0.36964896 0.12179216 0.1832693 0.37084717
-0.008482502 0.15573466 0.33108264 0.093339376 0.0026748315 -0.40614697 0.05036206 0.12761386
0.011669318 0.08020028 -0.10617987 -0.41225246 -0.15910658 -0.17049685 -0.04020758 0.17722043
-0.107320465 -0.5439967 -0.25023574 -0.18801911 -0.024775496 0.011126992 0.08732096 -0.15222307
0.22783071 0.13803469 0.1724296 -0.19090888 0.03876353 -0.04750341 0.019554839 -0.21955417
0.04708122 -0.00035156487 -0.16121611 -0.6135993 0.19633698 0.045909617 -0.10450002 -0.08328222
0.59414744 -0.11949778 -0.20022689 -0.13016616 -0.2736992 -0.060818747 -0.40135458 -0.13470036
0.04582821 0.44707274 0.13073155 0.15321282 0.09326603 -0.29566878 0.25094754 0.13482931
0.80723614 -0.59566337 0.35971326 0.8059036 -0.27860144 -0.013436113 0.38541865 0.47419325
-0.00977439 -0.0463732 0.5840434 0.32088578 0.08389273 -0.5663007 0.6347454 -0.106122114
-0.67092246 0.45876947 0.011581788 -0.015364047 -0.24818523 -0.061350536 0.54993105 0.2261317
0.29911622 -0.4468745 -0.122465245 -0.27314198 -0.7119307 0.4336207 0.2712856 0.31834728
0.60868156 0.69441265 0.15793578 -0.064235784 0.51399606 -0.28366297 0.5069327 -0.18384305
-0.94147074 -0.06808355 -0.20394763 0.18708499 0.683178 0.46934795 -0.19156897 0.0029438296
0.66413116 -0.61033535 -0.61081445 0.12481013 -0.5061811 -1.2079806 -0.11649351 -1.1610253
-0.13723813 0.022914853 0.051361818 -1.2204924 0.27126446 0.42798898 0.521477 -1.0891896
-0.5701087 -0.18424521 0.083618686 -0.47199082 0.08179628 0.01187251 0.5071881 -0.1517327
0.041588284 0.0041242074 0.07910248 0.25734046 -0.3687225 0.29269394 -0.167295 0.054720074
-0.11256574 0.026895525 -0.009743262 -0.13150574 -0.5361917 -0.08670676 0.123985894 0.09548704
-0.353524 0.19032636 0.14222066 -0.16961767 0.35260212 0.37340006 -0.22174771 -0.055000678
-0.18804057 -0.2898263 -0.1898096 0.19127002 -0.11105428 -0.14736514 -0.34277177 0.1992097
0.18046215 -0.006265428 0.106034674 -0.0129954 -0.03660204 0.4121714 0.05056366 0.067430675
0.15702376 -0.21223804 -0.28873366 -0.11151373 -0.37088382 0.29879546 0.026212055 0.2962008
-0.026921986 -0.17838919 0.51744074 0.29468814 0.37436295 -0.30450618 -0.2434794 -0.368168

sequential/dense/BiasAdd/ReadVariableOp f4 [64]
00000000: 143b a63f 8e6c a9bf ecff a3bf eb49 65bf
00000010: c6ef 0b3f 9dd5 67bf 63b3 97bf 90fb 91be
00000020: f7a7 78bc cf13 5c3f 62f1 c4be 89cc 03bf
00000030: 6bed 5f3e 2256 3dbf be08 babf 7127 23bf
00000040: fd17 03bd 2015 27bd b076 e8bf 71a2 a2be
00000050: 8f5f d1bf 556f 76bf 6a9f 80bf 9562 21bf
00000060: b832 f4bf c527 95bf 78fd dcbf d285 ccbf
00000070: 7035 cb3e 5896 95bf 0398 8dbf b647 90bf
00000080: baa5 8b3f d527 5dbf 71fa 673f c01a c33f
00000090: f258 61bf f7a8 00c0 0887 4dbf f4b8 97bf
000000a0: ff30 68bf df3c b4bf fc25 aabf 6cdb 9f3e
000000b0: a45f 11c0 fb1e 27bf 3271 8cbf 381d 153f
000000c0: bf3c cabe 552a 3fbe ace5 7dbf 77f1 ce3f
000000d0: be6b da3f 501c bb3f f3e8 4d3f be64 5abe
000000e0: debb 00c0 47bb abbf 25f9 ad3f 8a59 94bf
000000f0: 9a93 9ebf 4e7f 5a3e e74c adbf e447 31bf
1.2986779 -1.3236253 -1.2812476 -0.89565915 0.5466274 -0.90560323 -1.185162 -0.2851224
-0.015176765 0.85967726 -0.3846541 -0.5148397 0.21867912 -0.73959553 -1.4533918 -0.6373206
-0.0320053 -0.04079163 -1.816122 -0.31764558 -1.6357287 -0.9626363 -1.0048649 -0.6304105
-1.9077978 -1.1652762 -1.7264853 -1.5978339 0.39689207 -1.1686506 -1.1062015 -1.1271884
1.0909951 -0.86388904 0.9061652 1.5242538 -0.88026345 -2.0103128 -0.80284166 -1.1853318
-0.9069976 -1.4081076 -1.3292842 0.31222093 -2.2714624 -0.6528165 -1.0972044 0.5824771
-0.3949947 -0.18668492 -0.99178576 1.6167439 1.706413 1.4618015 0.8043358 -0.21327493
-2.0114665 -1.3416528 1.3591658 -1.1589825 -1.2388794 0.21337625 -1.3539094 -0.6925032

sequential/dense_1/BiasAdd/ReadVariableOp f4 [11]
00000000: ad35 243f 68c4 0dbf 4812 79bf a7e9 003f
00000010: 63c6 2abf 8e73 a1bd ee9d 81bf d48e 893f
00000020: e94b d7be bfc6 7ebf 204b fd3e
0.641444 -0.5537782 -0.9729352 0.50356525 -0.66708964 -0.078833684 -1.0126321 1.0746713
-0.42050102 -0.9952201 0.49471378

sequential/dense/MatMul f4 [64, 1280]
00000000: b3b3 47bf af0c 373f 4c3c 8b3e 54cf c2bd
00000010: 5ebf c83e 3a5d 123f df8d e7bd a30b debd
00000020: af4c 993e 619b 123e 9677 f53e 516b a2be
00000030: 647b 283f 948b 513e cad6 ae3d ffb7 86bd
00000040: 495b 043f e4a5 c13c 0e15 19bf 1274 4abe
00000050: 56d1 563e 7f71 a0be 569b 78be dec9 20bf
00000060: b7ec 89bc 175f d83e 940a 013f 2807 713e
00000070: 0a95 3ebe 30f3 2c3e 5a8c 663d 8376 72bd
00000080: 7ecd 5a3f 7988 123f 193b f4bc 28b3 05be
00000090: e6ee 853d 9d1c 7c3f 34e5 1ebe 101d 123e
000000a0: 6b35 ff3e 4f18 573e 87a0 363f 7e05 a8bc
000000b0: 4258 06bd 8370 f6be 0ed1 043f 7919 033f
000000c0: b712 073f 0859 c13e 6892 453e e86b 5d3f
000000d0: a804 ffbc 30e8 89be 0c7c 29ba 931d 3b3f
000000e0: adea 4fbf b3a8 29be 78c3 dbbe 8cb5 563e
000000f0: 4eae c83e 3830 ad3e b2db 333e 8e9f 9a3d
00000100: 037d 89bf 64d8 dfbd b297 a33e 7b70 d23e
00000110: bd1e d23e 6250 03bf 2cf4 db3d 5127 003f
00000120: 7eb2 01bf f28d 76be 6350 fb3d b9c6 8ebf
00000130: fe8a 34be 5b33 173e 98b6 0a3f e794 3bbe
00000140: d77a 573e 49f2 1dbe 1e28 843e e152 aabe
00000150: e5a4 513e b9f2 db3e 6f7a 593e 1bd8 d03d
00000160: 3bdd 873e 6698 e6bd 4078 1b3e af5a 25be
00000170: d5c8 acbd a0e6 34be 2291 a63d 77b2 8ebe
00000180: 9657 363f 727c bd3e fb62 02be 2ca9 8b3d
00000190: 9a29 103f 2497 af3e 77d5 083f 72a0 b33e
000001a0: 8971 053d 768d ee3e b408 fe3d d283 09bd
000001b0: fb73 30bf c340 6a3e f362 293e 85e0 843e
000001c0: 7e1e 053f 7236 433e b3e7 2d3d 4039 bd3e
000001d0: f2ac 933e 8319 b43e 111e 633e a98e debe
000001e0: 72cd 5bbf a25d 44bf d3b2 993e 972d 833c
000001f0: c703 143f 9b33 09bf 6550 a73e 4d91 9c3e
00000200: e35d 64be 63dd 0d3f 0304 05be 684d 943b
00000210: 9470 7c3f 2aaa 613e 625e 163e 5e59 01bf
00000220: b336 463e 5175 413d aa4d 503e 6d80 1bbf
00000230: 0edb 5a3e 12e7 8ebe d71a ca3e 5b31 b33e
00000240: 5a8f 543e 9202 f73d d431 e7be bbe8 94bd
00000250: 4445 ab3d 452b dbbc bc5e 933d 068c 86be
00000260: 4f6e d63e 7312 293f 0a59 b33e ef53 813e
00000270: 47c3 5f3c ed70 f03e cfc2 373d dc6c 8f3e
00000280: ad49 1f3f 26fd fc3d ebc3 2d3e f3ec e8bd
00000290: 5087 7d3e 47e6 0f3f 8d96 a3bd c426 333e
000002a0: 6ae5 1e3d 6b91 e3bd 2488 983d 390f 6c3e
000002b0: 5b91 bd3d 77cd bcbe e91b 2f3f e90f 2d3f
000002c0: 7d28 953e 9b4c 603e b96a 163e 3336 3d3f
000002d0: 1b40 95bd d3ca c9be 53a7 8fbe 055c 493e
000002e0: d662 8fbf 2073 26be be59 24bf 48ee 85be
000002f0: 6c2d 4f3f d8e3 603e 911d f83d 4153 ab3e
00000300: dd04 0abf 3aee 59be 1d5b 563e e270 16bc
00000310: e995 ad3e d8d7 dbbe 641b d93d e825 ff3e
00000320: e305 4c3e 0282 293e 07a6 0b3f c797 96bf
00000330: 8dcf 8e3d 4a00 6a3d 312e 7f3e 98e1 ef3e
00000340: 0921 6d3e 533d 343d 7787 a5bd 97f7 6abf
00000350: b7fb 393e 5621 833e aeeb e03e 68e4 54be
00000360: 8ace 5c3f 3966 aabe c7d6 3c3d 0e39 92be
00000370: dfb9 eabc 45df 243e bae0 023e d832 83bd
00000380: 0bf7 7c3f 6085 2a3f 0a15 d43e 4061 3abe
00000390: 7a53 e8bc 9533 4fbd fd6a 8fbd d259 50bd
000003a0: b226 a3be 449d 0b3f b3f3 0f3e 5965 603d
000003b0: 4b06 95bf c4e5 4d3e 01b0 013f 5599 fb3d
000003c0: d3b3 573e ee83 a03e 0360 f33e 22db a13e
000003d0: 2492 473e 72eb 673e 01eb 363f 832e 86be
000003e0: 686c 97bf c3c6 7ebe 1bf7 b2bd fad1 ebbd
000003f0: 6a3b 863e 4997 b9bd 7e3d 283f d50e 113f
-0.78008574 0.7150373 0.2719444 -0.09512201 0.39208502 0.571735 -0.11306357 -0.10842063
0.29941317 0.14317085 0.479428 -0.317225 0.6581328 0.20463401 0.085370615 -0.06578063
0.5170179 0.023638673 -0.5979775 -0.1977084 0.20978293 -0.3133659 -0.24278006 -0.62808025
-0.016836507 0.42260048 0.50406766 0.23537886 -0.18611541 0.16889644 0.056286193 -0.059195053
0.85469806 0.5723949 -0.029813336 -0.13056624 0.06539707 0.9848116 -0.15517122 0.14268899
0.49845442 0.21005367 0.71338695 -0.020510431 -0.032799013 -0.48132715 0.5188149 0.51210743
0.5276293 0.37763238 0.19294131 0.86492777 -0.03113015 -0.26934958 -0.0006465323 0.73092
-0.8121746 -0.1656826 -0.42922568 0.20967692 0.39195484 0.3382585 0.17564276 0.07549964
-1.0741276 -0.10929945 0.31951672 0.4110144 0.41039076 -0.5129453 0.107399315 0.5005999
-0.5066298 -0.24077585 0.12271192 -1.1154395 -0.17631146 0.14765684 0.54184866 -0.1831852
0.21042953 -0.15424456 0.25811857 -0.33266357 0.20473059 0.4295862 0.21238111 0.10197469
0.26535973 -0.112595364 0.1518259 -0.16147874 -0.08436743 -0.17666101 0.08133151 -0.27870533
0.71227396 0.37009007 -0.1273307 0.06819376 0.5631348 0.34295 0.5345072 0.35083348
0.03257898 0.465923 0.12404004 -0.03357298 -0.6892697 0.22876267 0.16541652 0.25952545
0.5199965 0.19063738 0.042457294 0.3695774 0.28842884 0.35175714 0.22179438 -0.43468216
-0.8586036 -0.7670537 0.30019245 0.01601295 0.57818264 -0.5359437 0.32678524 0.30579606
-0.2230144 0.55415934 -0.12989812 0.004525829 0.9860928 0.22037569 0.14684442 -0.5052699
0.19356804 0.047231022 0.20342126 -0.6074284 0.21372625 -0.27910668 0.39473602 0.34998593
0.2075781 0.12061037 -0.45155203 -0.07270952 0.08362821 -0.026754031 0.071958035 -0.26278704
0.41881034 0.66043776 0.3502887 0.2525935 0.013657398 0.46961156 0.04486352 0.2801274
0.62221795 0.12352972 0.16969268 -0.113733195 0.24758649 0.5621075 -0.079877 0.17495257
0.038793005 -0.11111721 0.07447842 0.23052682 0.0925624 -0.36875507 0.6840196 0.676024
0.29132453 0.21904223 0.14689149 0.73910826 -0.07287618 -0.39412555 -0.28057346 0.19664009
-1.1202037 -0.16254854 -0.64199436 -0.26158357 0.80928683 0.21961915 0.12115014 0.33461955
-0.5391367 -0.21282282 0.20933194 -0.009182187 0.33903435 -0.42938113 0.106009275 0.49833608
0.1992412 0.165535 0.5455021 -1.1765069 0.06973181 0.057129182 0.24919964 0.46851802
0.23157133 0.044003796 -0.080824785 -0.9178404 0.18162428 0.2561137 0.4392981 -0.20790255
0.86252654 -0.33281115 0.046103265 -0.28559154 -0.028653083 0.16100796 0.12781039 -0.06406182
0.9881446 0.66609764 0.41422302 -0.1820116 -0.028360117 -0.0505863 -0.07002828 -0.05086691
-0.3186546 0.54536843 0.14057808 0.054784153 -1.1642545 0.2010718 0.50659186 0.12285105
0.21064691 0.31350654 0.4753419 0.31612498 0.19489342 0.22648409 0.7145234 -0.2620736
-1.1829958 -0.24880509 -0.08738538 -0.11514659 0.26217204 -0.090620585 0.6571883 0.56663257

sequential/dense_1/MatMul f4 [11, 64]
00000000: 6610 9e3d aa4e cbbf 3184 85be 7ecc 62bf
00000010: f836 a2c0 a221 e23c d1b4 e0be 8513 95be
00000020: 964b a2bf 59d5 413d 8912 83bf 795f 75be
00000030: 43c4 05bf 158b 84be 9fdc 54be 23cf f6be
00000040: 63f1 85bf d918 06be 08d8 b8be 95a3 c8be
00000050: d4e1 e1be 09de 7ebe d900 debd 99c7 82be
00000060: 3943 b1bf e53c 62be 4dfe 83be 5022 d2be
00000070: e607 68be f013 95bd 5124 37be 9725 05bf
00000080: 9999 80bf 0c7b d6be 6048 04be ab90 013e
00000090: f538 b0be 9097 e6be 7c93 b7bf 1486 d8be
000000a0: 379e 54be b7b6 a33d 43c9 d8be 13a9 053d
000000b0: 7130 83be ea72 7fbe b733 47bd 231f 5fbe
000000c0: 9a37 a5c0 c4cf 9abf 7a9a 8dbe 87d8 33bf
000000d0: 5533 6cbd 930f b3be 83fe 3dbe e1e5 0bc0
000000e0: 4fd1 0bbe 5be8 26be 0867 f5bd 8678 b7be
000000f0: 17ca 89bf f96d 0abf b276 a6be 1825 b2be
00000100: 9fce 92be 5131 2ebf 97e6 16bf ca0e 303d
00000110: 29fa 923c a0e7 6abe 4a85 2abf eda5 2abf
00000120: 0f61 3fbf 8fdb 7abd 8da6 e03b c264 23be
00000130: 367b 48bf dd9a 04bf 98c1 b2bc 13db 4cbe
00000140: cc12 eebd aa73 8ebe 4377 16bf 5b10 94bd
00000150: cbe4 e3be a059 73be e4de 71be 9afe b83c
00000160: 6443 d23c a747 663e d5b1 15bf 9fd8 27bf
00000170: 5f3c ba3c 1e74 e4bd a8e8 0bbe 4ffa 16bf
00000180: 663d 62be a0ba 00bf 1089 38be d368 2a3e
00000190: de37 d7be ed09 22bf 90fc 6fbe b247 cabe
000001a0: bf54 1bbe b08c cc3d 0ff4 b2be b867 ce3d
000001b0: 86e0 fbbe ea05 82be 7e11 8dbe b5b6 d7bd
000001c0: debd 7ebe d3d3 613e d789 5abe 10fd b0bd
000001d0: c74c 0b3d 445e a9bd a0b3 3ebf f810 e1bd
000001e0: 6309 8ebe 5764 26be 5374 94be 5fc2 c2be
000001f0: ca39 99bf 6e3b b5be 6c97 92be 55a4 eebe
00000200: 6715 31bf c817 38bf 3085 323e f16a b7be
00000210: c2b9 0ebf c45d f6bb 0475 bfbe 9aae fbbe
00000220: 317c bcbe c36d 47be f1e1 f43d ac73 b73e
00000230: c0f0 4abe 5015 4abd 65d6 6b3e 164f 97be
00000240: c635 633e bbc5 7bbd b32a f1bd 763d 8a3e
00000250: 9ad1 f6bd 1beb 04be 4181 2a3e 56a7 21bf
00000260: d88e 4bbe b67c b6be 7b3d 7a3e ef00 023d
00000270: c408 64bf c59d bdbe 9835 64bd 3243 94be
00000280: 464a bebe ad17 9f3e ad0f 04bf 2013 5cbf
00000290: 0ac5 1dbf 4132 3c3e 2d82 b4be 7a30 82be
000002a0: 3e79 c63d f2c1 ebbe 9030 d83e 6630 5dbf
000002b0: ee69 403e f29f 813e 51eb 95be 2800 ca3d
000002c0: b024 04bd f52d d1be e4be 52be 40e5 03bf
000002d0: 64eb 19bf b6cc 11be 20a9 bdbd b9f4 b53d
000002e0: 0f81 453e 0819 dabd b0c9 e5bd 6739 11be
000002f0: 0696 17bf 2db1 26be 7da6 a6be b7a0 2dbe
00000300: b5b6 2d3e d2c2 14bf a148 efbe 9644 fcbf
00000310: 6678 6fc0 f674 08bd 49e2 bcbe 14b2 49be
00000320: 4dce f9be dac0 1abe 736e 87be 2a3b c0bd
00000330: 2369 27c0 f8d5 6ebe 5134 213d 584b 32bf
00000340: 87fa 87be 78a8 28be 65da babe 0fa6 f83d
00000350: e039 d0be 7e5f b0bd 71d4 403d 8a25 3b3e
00000360: 1687 4bbf f1e5 f7bd 2e2f 87be 5fd0 b2be
00000370: 1bb5 04bf 0cf0 d1bd f74c 24bf 12c9 eabe
00000380: a9fd 69bd e4cd b4be bf38 acbe 446a 743d
00000390: fa9b e4be 2f97 0fbf 9cee 40be 996f f8be
000003a0: 73de 88be 0378 e6be 2465 ebbe 3704 2d3c
000003b0: f03c d9be bb1c b9be a2c9 2ebd f017 2dbf
000003c0: 6689 28be 09ac 3abf 51a1 3bbe 05b8 49be
000003d0: 5be5 ac3d 6626 d2bd 983f 18bd efbb 4ac0
000003e0: 2c1f 2ebe b46f 02be ee3d a3be 9324 72bf
000003f0: a836 aebf 5dd9 95be 6db6 fcbe 3253 8cbe
0.077179715 -1.5883381 -0.26077417 -0.8859328 -5.06921 0.027603928 -0.43887952 -0.29116455
-1.2679317 0.047322605 -1.0240031 -0.23962201 -0.52252597 -0.2588736 -0.20787285 -0.48204908
-1.046429 -0.13095416 -0.3610232 -0.39187303 -0.44117606 -0.24889387 -0.108400054 -0.25542906
-1.384864 -0.22093542 -0.25779954 -0.41041803 -0.22659263 -0.072791934 -0.17884947 -0.5201048
-1.0046874 -0.41890752 -0.12918234 0.12652843 -0.34418455 -0.45037508 -1.4341884 -0.42289793
-0.20763479 0.079938345 -0.4234105 0.032631945 -0.25622895 -0.2494618 -0.048633303 -0.21789221
-5.1630373 -1.2094655 -0.2765692 -0.7025227 -0.05766614 -0.3497282 -0.1855412 -2.1859057
-0.13654064 -0.16299574 -0.11982542 -0.3583414 -1.0764798 -0.54074055 -0.32512432 -0.34793925
-0.28673264 -0.68044 -0.589456 0.042982854 0.017941551 -0.2293992 -0.6660963 -0.6665943
-0.74757475 -0.061244544 0.006855792 -0.15956405 -0.78313005 -0.517988 -0.021820828 -0.20005445
-0.11624679 -0.2782262 -0.5877573 -0.07229682 -0.44510493 -0.23764658 -0.23620182 0.022582341
0.0256669 0.2248827 -0.58474475 -0.6556491 0.022733865 -0.1115496 -0.1366297 -0.5897569
-0.22093734 -0.5028477 -0.18021035 0.1664155 -0.4203481 -0.63296396 -0.23436189 -0.39507824
-0.15169047 0.099877715 -0.34951827 0.100783765 -0.49194735 -0.25395137 -0.27552408 -0.105328955
-0.24877116 0.22053461 -0.21341644 -0.08642018 0.034008767 -0.08269933 -0.74492836 -0.10989565
-0.27741536 -0.16249214 -0.28994998 -0.38038918 -1.1970761 -0.35396904 -0.2863115 -0.4660975
-0.6917328 -0.7191129 0.1743362 -0.35823777 -0.55752194 -0.007518502 -0.37393963 -0.49156648
-0.368135 -0.19475465 0.119571574 0.35830438 -0.19818401 -0.04933673 0.23031004 -0.29552525
0.22188482 -0.061467867 -0.11775722 0.27000016 -0.12051697 -0.1298031 0.16650869 -0.6314596
-0.1987871 -0.35642022 0.24437515 0.03173917 -0.89075875 -0.3703443 -0.055715173 -0.28957516
-0.3716604 0.3107275 -0.5158642 -0.8596668 -0.6162878 0.18378545 -0.35255566 -0.2542761
0.09691094 -0.46046406 0.4222455 -0.86401975 0.18790409 0.2531734 -0.29281095 0.09863311
-0.03226155 -0.40855375 -0.20580631 -0.5152168 -0.601248 -0.14238247 -0.09260774 0.08884568
0.19287513 -0.106493056 -0.112201095 -0.14182054 -0.5921329 -0.16278525 -0.32548895 -0.16955839
0.16964228 -0.5810977 -0.467351 -1.9708431 -3.7417235 -0.033314668 -0.36891392 -0.19696838
-0.48790208 -0.1511263 -0.26451454 -0.09386285 -2.615792 -0.2332381 0.039356533 -0.69646215
-0.26558325 -0.16470516 -0.36494747 0.12141048 -0.40669155 -0.08611964 0.0470776 0.18276039
-0.79503 -0.12104405 -0.26403183 -0.349246 -0.51838845 -0.102508634 -0.6417994 -0.4585653
-0.057126675 -0.35313332 -0.33637044 0.059671655 -0.4465025 -0.5609006 -0.18841022 -0.48522642
-0.26732215 -0.45013437 -0.45975602 0.010560087 -0.42429304 -0.36154732 -0.04267276 -0.6761465
-0.16458663 -0.72918755 -0.18323256 -0.19699104 0.084421836 -0.1026123 -0.037170023 -3.1677206
-0.17004079 -0.12737924 -0.31883186 -0.9458706 -1.361043 -0.29267398 -0.4935793 -0.27407223
