models/models_for_presentation/lying_down_back_model.tflite (tflite, 461732 bytes, 10 tensors)

sequential_3/conv1d_9/BiasAdd/ReadVariableOp f4 [32]
00000000: 336d 983c 3df1 bdbd 25fc b8bd f5f1 27bb
00000010: cc4e 19bd f249 14be 3030 d7bd 0e55 a4bc
00000020: 9171 cabc f94d 473d fcda 06bd eb36 24be
00000030: d18d 22bc 0000 0000 650d b6bc 43f1 2b3d
00000040: e2e8 ffbd cc65 023d 5664 4abe ab40 05be
00000050: ab0c a9bd d98c 0dbd 0000 0000 513c 32bd
00000060: 47d7 8bbd d9a3 70bd d589 4bbd dc4e 893c
00000070: 650a a7bc 74b5 f8bd 8d7d 3abe 156a 993c
0.018606758 -0.09274528 -0.09032468 -0.0025626395 -0.037428662 -0.14481333 -0.10507238 -0.020060088
-0.024712356 0.048658345 -0.032923684 -0.16036575 -0.009921507 0.0 -0.022223184 0.041978132
-0.12495591 0.031835362 -0.19764838 -0.1301295 -0.08254369 -0.03455815 0.0 -0.043514553
-0.0682817 -0.058750007 -0.049691994 0.016761236 -0.020390699 -0.121439844 -0.18211956 0.018727342

sequential_3/conv1d_10/BiasAdd/ReadVariableOp f4 [64]
00000000: 0d12 79bb a610 95bd e09a b6bd 375a 56be
00000010: 56d5 b1bd 5dc4 243b 203e e9bc 233a 28be
00000020: 2de4 9fbd d2b1 09bd e15f 6bbe 3b7a 1ebe
00000030: a04e 943d fd8b cdbc dfdc 5fbd bee0 c2bc
00000040: 594f 223c b268 89be 87b8 73bd 93f1 653c
00000050: 7ab2 e1bd fcb2 79bd 67e8 fabd d162 f43b
00000060: ab61 1abd 9a00 88bd 63f6 843c d129 c7bd
00000070: 3dd5 3cbe 5748 76be 7706 edba 0464 4bbe
00000080: 2b07 fcbc ccbb 9dbd 098b 70bd cd90 59bd
00000090: 7b4f e0bc 8666 f0bd d3e5 55bd 60cd 20be
000000a0: a026 5ebc f264 15bd 79e0 e7bd 1440 58bd
000000b0: a6c3 debd 502f 80bd 3074 82bd 052f a9bd
000000c0: 3c58 5abd 470a 29bd 86fc dabd 1b59 13bd
000000d0: 528f 913c cdbe 19be 863c 02bd 191b 2cbe
000000e0: 387f 9fbd 367e d5bd 1a8b c0bd ba00 dcbd
000000f0: f8b2 d3bd 6249 1abc eb01 38bd e10b 073d
-0.0038005144 -0.07278566 -0.08916259 -0.20932852 -0.08683269 0.0025141456 -0.028472006 -0.16428427
-0.07807193 -0.03361685 -0.22985794 -0.15476315 0.07241559 -0.025091166 -0.054654 -0.023788806
0.009906613 -0.2683769 -0.05950215 0.014034647 -0.1102037 -0.06096171 -0.122513585 0.007458069
-0.0376908 -0.0664074 0.016230768 -0.09724773 -0.18440719 -0.24051033 -0.0018083592 -0.19862372
-0.030765137 -0.07701835 -0.058726344 -0.05311661 -0.02738165 -0.11738305 -0.05222113 -0.15703344
-0.013559014 -0.036473222 -0.11322112 -0.052795485 -0.10877161 -0.06259024 -0.06369817 -0.082609214
-0.053306803 -0.041269567 -0.10692696 -0.03597365 0.017768536 -0.15014191 -0.031796 -0.16807212
-0.07787937 -0.104244635 -0.094015315 -0.10742326 -0.1033687 -0.00941691 -0.044923704 0.032970313

sequential_3/conv1d_11/BiasAdd/ReadVariableOp f4 [128]
00000000: 3c15 48bd 0819 cabd 0da8 47bd 2912 f03c
00000010: 3543 a5bd d60d a6bd 57bf 4fbd 3280 3bbd
00000020: 8515 eebc 22f5 92bd 8261 bdbd 9b11 4ebd
00000030: f220 47bd aded e6bd 9384 803d 5127 153b
00000040: 7d3f 62bd 4355 92bd b3b9 19be f882 46bd
00000050: 716b 4dbd af09 97bd bbf8 9dbd e132 5d3c
00000060: 0fc2 94bc a0ee fbbd 2ad5 e8bc b756 29bc
00000070: f3a1 063d 9bbf 2dbd 400b 8dbd c103 4dbd
00000080: 7473 2ebe 27ca 2a3d accf 46be b372 4dbd
00000090: 10f5 293d d79b 6fbc fd41 91be f405 cfbd
000000a0: 8e59 9b3d d075 83bd 0b40 76be d226 813d
000000b0: 2174 79bd 358b a1bc f6f5 1fbd 1e90 e3bd
000000c0: a75a 0dbd 0399 de3c dc12 59bd 654e 7ebd
000000d0: a8e1 1fbd 43f9 28bd 963e 3bbd 06bb 24ba
000000e0: 8d1e fbbd 21b4 e3bd ab4e abbd c76e 45be
000000f0: e1b9 c4bc a87f dfbd d543 82be 4348 8ebd
00000100: 0eed 43be 39db 22bd 3add 61bd 7c4f d0bd
00000110: f81a e63c b39d 18bd 94f0 40bd e022 3ebe
00000120: 9ae6 0ebb 5d4c d1bd d49e fbbc 35c8 123d
00000130: fa79 69be f6c7 85bd b8a6 e1bd e825 01be
00000140: 8e2d e6bd 6724 7cbd b8a9 b9bc 9711 76bd
00000150: 57a6 8ebd 443d 75be 3922 12bd e216 a6bd
00000160: adb2 7dbd e7ea 6dbd 80f4 86bd d5e9 5fbd
00000170: da85 9dbb bf3f c6bd c0c2 9abd dcd9 a9bd
00000180: 77de a2bd 6759 a6bd afc2 5cbd 4de9 143d
00000190: 4169 98bd e7c1 a6bd 0cda 173e 87e1 183c
000001a0: ae2d 793d 7b0e c4bd a74e bcbd 0dd9 acbd
000001b0: 8eec 7ebd 2aa6 80bc 1a8f 303c 541d a9be
000001c0: 9325 51be 07ca 933d af59 13bd 6b3f 17be
000001d0: 1884 93be eaf3 40bd b704 bdbd 7a3c af3d
000001e0: 1362 8abe cfd8 c3bd f9e6 63ba 9133 bfbc
000001f0: 75ca 7ebe ed2d 85be 8dfc 07be e7bb 88bd
-0.048848376 -0.098680556 -0.04874425 0.029305534 -0.08069459 -0.08108108 -0.050719585 -0.045776553
-0.029062996 -0.071756616 -0.09247114 -0.05030976 -0.048615403 -0.11275802 0.062752865 0.002275903
-0.05523633 -0.07145169 -0.15012245 -0.048464745 -0.050151292 -0.07374894 -0.07713457 0.0135009
-0.01815894 -0.123013735 -0.028421957 -0.010335616 0.03286929 -0.042419057 -0.068869114 -0.050052408
-0.1703623 0.041696694 -0.19415158 -0.050158214 0.041493475 -0.014624557 -0.28370658 -0.10108557
0.075854406 -0.06418955 -0.24047868 0.063062325 -0.060901765 -0.0197197 -0.039052926 -0.111114725
-0.03451028 0.027172571 -0.0529965 -0.06208648 -0.039033562 -0.04125334 -0.045713983 -0.0006283972
-0.122616865 -0.11118341 -0.08364614 -0.1928054 -0.024014415 -0.1091302 -0.25442377 -0.069473766
-0.19133398 -0.03975985 -0.05514262 -0.101714104 0.028089032 -0.03725977 -0.047104433 -0.18567991
-0.002180493 -0.10219643 -0.030715384 0.035835464 -0.22800437 -0.0653228 -0.11018127 -0.12612116
-0.112391576 -0.061558153 -0.022663936 -0.06007537 -0.069653206 -0.23949152 -0.03567717 -0.08109833
-0.061937977 -0.05808535 -0.065896034 -0.05466636 -0.004807216 -0.09680127 -0.07556677 -0.082935065
-0.07952588 -0.08122521 -0.053896602 0.036355305 -0.074419506 -0.08142453 0.14829272 0.009331114
0.06083458 -0.095730744 -0.09194689 -0.08439837 -0.062237315 -0.015704233 0.010776306 -0.33030188
-0.2042449 0.07216268 -0.0359742 -0.14770286 -0.28811717 -0.047107615 -0.09229415 0.08556457
-0.2702795 -0.09562837 -0.00086937804 -0.023340018 -0.24881919 -0.260116 -0.13279934 -0.066764645

sequential_3/conv1d_9/Conv1D f4 [32, 1, 3, 3]
00000000: 0651 12bd e219 5d3f 3f51 f9be c78e 673d
00000010: 6c43 6fbe 513e 4e3e 6131 ccbb d9ad 2abf
00000020: e320 a83e 6978 81be 52a6 973e fa08 cf3a
00000030: a2b0 2dbe 37b5 df3d dd68 76be e95e 58be
00000040: 3505 8a3e e789 92bb 01ca 1dbd ca08 85be
00000050: 13c7 183e 55e1 0dbd 90f0 163d 9408 a53d
00000060: 88ea 4d3e e31b 783e 0c73 bbbe 7e59 313e
00000070: 5e2f 8ebe 46d7 b0be 38e5 cebd 8e4d 0f3f
00000080: 6c96 c4bc 182d f5bd 9fc7 a2be dc10 c43e
00000090: 19fe 1ebe c10a 013e 4331 dabd 4ba0 31be
000000a0: 2044 433e b672 47be aecb 393e 22e3 dd3c
000000b0: 8554 53bd c25e 90be 8b12 d7be 5610 943e
000000c0: f40a 473e 2ff0 f5bd 0abd e63c b94a 753d
000000d0: 892f b3bc 7be5 6abe 5ae8 443e ee6a dfbe
000000e0: 61e2 85be 50cc 063e c3a0 9dbe 6ad8 e03d
000000f0: a823 333e dcc2 17bf d9a8 a03e 54da 58be
00000100: b051 28be 25b7 67be 00af 5e3e 9a5d b4ba
00000110: a9c6 16bd 611d 1c3e 258b 053e a4f0 dbbd
00000120: bf81 7c3c e027 603d a49f b13d 922a a8bd
00000130: 2008 eebd 4d08 eebd a71a 133e a2fe c43c
00000140: 6232 3fbe 7236 a7be fd70 e63a 8bdc b13e
00000150: 3abd acbc 5dc8 463d 317b 51be 21af b53e
00000160: 888b 97bc 8438 1dbe 3941 fabd 8bbb e7be
00000170: 4ab5 bf3b 88d5 273e 78e5 11be a0f3 993e
00000180: 1e30 48bd f963 1b3f 866b 82be f995 7b3e
00000190: cc5f eabe 0d0d 24bd 6a1f 893d c823 f7be
000001a0: d914 91bd 9074 3d3e ab07 1abe 4147 f83d
000001b0: a971 c23e 8fb4 fabc 6e08 0abe 3795 c1be
000001c0: 34e8 bd3d 09f9 853e 6cfb 0c3b 9612 3cbd
000001d0: ca12 12be 0ae8 8ebd d2c2 cebd 45ba 65be
000001e0: ad49 0c3e a6ca b5bd c411 7abd d4ba 52bd
000001f0: 950b 0f3e 5c40 ecbd 8064 3b3d 77b0 02be
00000200: db00 abbd fe06 ed3c 68e4 42be 815e 1a3e
00000210: 6314 68bd 5ab0 9e3e ee70 72be 6649 45be
00000220: ae41 d23e 2d25 19be a5d3 b6bb 3c38 bb3e
00000230: 8b02 9d3d e705 953e 26f2 1d3f b2d9 a2bd
00000240: 767f 00be 45bd 28bd 171a cdbd 169f 92bd
00000250: ac58 853d d778 c0bd c1fd e73b 3605 b83e
00000260: 6996 b4bd 800e a23d 73a2 49bf ec39 80bd
00000270: 81fd 0f3e ee8d 17bd b53c debd c77e 77be
00000280: e94a 463f 997e 233e 4705 ffbc e449 d4be
00000290: 2126 9d3d 46c7 87bd 07d7 b2be ab8f 7d3e
000002a0: 8725 a4bd b708 1abf 94e7 5ebe 5287 d33d
000002b0: b898 d2bd 71b5 8d3d 6f5d d23d 1233 3f3e
000002c0: 06d3 44be c3bc a3bd 206e 10bc c360 943d
000002d0: e157 823e c667 733c 1cbb 623e 9a97 d33d
000002e0: edd7 59be b4cc 3b3e 20de 113e 95a2 813e
000002f0: ddc7 c4bd 8dc6 46be c24d d0be 4f80 54be
00000300: 5c96 48be 85d3 7c3e 57d1 823d 16e7 ad3e
00000310: e2e1 433e f6eb 47be 1b68 333e 10e7 27bc
00000320: 3c86 73bd 5870 3dbd 2301 6e3e b4de 1ebd
00000330: 3886 97bd 1efd c9bd 7480 babd dfb6 a1bc
00000340: 6fa5 01bd fb58 9fbe d583 8d3d 1b9a 023d
00000350: b2a9 8ebe 70bc bfbd 3a5f bc3c 4388 2c3e
00000360: 1166 c93c 2f98 6cbe e187 8d3d e86c 2e3e
00000370: 8e55 543d e03a f8ba 96b4 dcbd 918e 4d3c
00000380: 55eb fabd 01f6 9abe 4104 853e ef4d 443d
00000390: eb13 93be e958 1c3f 990f 62be 2baa e6bb
000003a0: 755a 4d3e 5d31 5abe 353c 17bd a60b b9be
000003b0: 2dea 93be 9eb3 21be a075 c9be c6ad 1cbe
000003c0: 8c98 a9bc f8d0 93be 0593 b53c bddc e33d
000003d0: 7877 b93e ec7c 0cbd f001 7ebe f203 34bf
000003e0: ec5f 30be c9b3 f13d 91e8 af3e febc 1b3e
000003f0: 8115 0bbe b8ba ed3d 85ec b13e c4a3 02bd
-0.0357218 0.8636762 -0.48694798 0.056532647 -0.23365563 0.2014096 -0.0062314724 -0.6667152
0.3283759 -0.25287178 0.2961908 0.0015795522 -0.16961911 0.10923236 -0.2406344 -0.21129955
0.26957098 -0.0044720056 -0.038522724 -0.25983268 0.14919691 -0.03463872 0.036850512 0.08058277
0.20108998 0.24229388 -0.3661121 0.17319295 -0.27770513 -0.3453924 -0.10102314 0.55977714
-0.023997508 -0.119714916 -0.31792924 0.38294113 -0.15526618 0.12601759 -0.10653927 -0.17346303
0.19068956 -0.19477352 0.18144104 0.027085844 -0.051594276 -0.28197294 -0.42006335 0.28918713
0.19437772 -0.12008702 0.028166313 0.059885714 -0.021873252 -0.22939102 0.1922926 -0.43636268
-0.26149276 0.13163877 -0.30786714 0.10978778 0.1749407 -0.59281707 0.3137882 -0.21177036
-0.16437411 -0.22628458 0.21746445 -0.0013760806 -0.03681055 0.15245582 0.1304136 -0.10739258
0.015411793 0.054725528 0.08673027 -0.08211245 -0.116226435 -0.11622677 0.14365636 0.0240472
-0.18671563 -0.32658726 0.001758128 0.34738573 -0.021086324 0.048530925 -0.2045715 0.35485175
-0.01849915 -0.1535359 -0.122194715 -0.4526027 0.0058504688 0.1639005 -0.14247692 0.30068684
-0.048874013 0.6069942 -0.2547266 0.24568929 -0.45776212 -0.04005151 0.06695445 -0.48269486
-0.070840545 0.18501496 -0.15041988 0.121229656 0.3797734 -0.030603675 -0.13479778 -0.37809154
0.09272805 0.2616656 0.0021512164 -0.045916162 -0.1426498 -0.06977852 -0.10095753 -0.22434337
0.1369998 -0.08876543 -0.0610521 -0.051447704 0.13969262 -0.11535713 0.04575014 -0.12762628
-0.083497725 0.028933998 -0.19032443 0.15075113 -0.056660067 0.3099392 -0.23675892 -0.1926628
0.41065735 -0.14955588 -0.005579429 0.3656634 0.07666501 0.29106066 0.61697614 -0.07951678
-0.12548622 -0.041196126 -0.10014742 -0.071592495 0.065110534 -0.09398048 0.0070798104 0.35941476
-0.08817751 0.07912922 -0.787635 -0.06261048 0.14061548 -0.03700059 -0.10851423 -0.24169455
0.77458054 0.15966262 -0.031130446 -0.41462624 0.07673288 -0.06629805 -0.34929678 0.24761836
-0.0801497 -0.6016955 -0.21768028 0.10328545 -0.10283035 0.06919373 0.10271727 0.18671826
-0.19221124 -0.07994988 -0.008815318 0.07245018 0.2545767 0.0148562845 0.22141689 0.1033165
-0.21273775 0.18339807 0.1424489 0.25319353 -0.096084334 -0.19411679 -0.40684325 -0.20752071
-0.19588608 0.24690063 0.06387585 0.33965367 0.19129136 -0.19523606 0.17520182 -0.010247961
-0.059454188 -0.046249717 0.23242621 -0.038786605 -0.07398647 -0.098627314 -0.09106532 -0.01974052
-0.03165191 -0.31122574 0.069099106 0.031885248 -0.27863842 -0.093621135 0.022994626 0.16848855
0.024584802 -0.23104928 0.069106825 0.17033732 0.051839404 -0.0018938445 -0.107766315 0.0125461975
-0.12251917 -0.3026581 0.25979808 0.047925886 -0.28726134 0.61073166 -0.22076263 -0.0070393286
0.20054038 -0.21307893 -0.036922652 -0.361417 -0.288896 -0.15791175 -0.39347553 -0.15300664
-0.020702623 -0.28870368 0.022164831 0.11126087 0.3622396 -0.034298822 -0.24805427 -0.7031852
-0.17224091 0.118018694 0.34357122 0.15208814 -0.13582422 0.116078794 0.34750763 -0.03189446

sequential_3/conv1d_10/Conv1D f4 [64, 1, 3, 32]
00000000: c1ad 60be a0e0 a33b 6a22 f33d 36ed 193d
00000010: 8589 303e 0d4a c1bd 77f3 a4be 785e fe3d
00000020: 7810 eabd 2d1b 753e aae1 963c 7d8e ee3d
00000030: 6432 87bc f03b b23d 1cb1 ecbd 9a5e b1bc
00000040: 566c bd3d 56e1 05bc c820 2dbe 1112 a03d
00000050: 1795 b73b fac0 24be d237 2dbd 4b92 8a3d
00000060: 8294 b63d 481d df3d 1f90 41be 2d7f 413e
00000070: c988 673e 2e41 9c3c b177 17be fe2b 263d
00000080: 872b 353f 40f7 fbbc e792 3cbe 8e10 063f
00000090: 91ef 7ebd d379 4bbe 7c16 17be cc6b 27be
000000a0: c2e4 37bd 74c0 0dbf 990f b8be 50c1 06bc
000000b0: 44b6 b43d c4e1 9d3d b837 a3bd 2d84 2bbe
000000c0: c04e a83d 188a fa3e 5d2d ac3c 5fea b33d
000000d0: a69b af3c 23cf c3bd ec63 cebc cfd7 293d
000000e0: 5010 bbbd 6906 c5bd 1da4 773d 1f55 d83d
000000f0: 5579 eabe 5b1e 84be a284 553c b3c6 023f
00000100: ba56 1abe 5fa4 95bd d4e6 8bbc 13ae fabe
00000110: 85ea 8dbd 07ad 503e 5ace 403e acc8 66bd
00000120: ed73 47bd 83a0 873e 96be 553e d3dc 703e
00000130: 92d4 f6bd 18be 0c3e 9f24 10be 46ed ca3b
00000140: f227 9b3c dd73 0abf 753a 293e c2f0 923c
00000150: 717a 413d 6a39 fdbd dc2a e03d c65a 78bd
00000160: feeb c6bd 8ece 213e c1b1 8b3d 0089 7cbe
00000170: 310e 023e bbe3 6cbd 43cd fc3b cb72 05bf
00000180: ca05 88bd 765d 6dbd 105f c03d 09da a33d
00000190: 1c0a 98bd b4c8 8c3d 9169 9d3c 4027 263b
000001a0: 4c45 acbd 857f 0cbd 9589 c9bd f063 573d
000001b0: 3426 9c3d 0acc 81bd 5419 d43d 488a 0d3d
000001c0: 6096 8bbd 1b0f 333d 1721 ddbd cd42 16be
000001d0: 3927 debc 8b2e 33bc a8a1 d43c ed2e b0bc
000001e0: 1806 eabd 5667 fcbd 53bf ffbc ffe1 113e
000001f0: a0af b33d fd1a b9bd d9e6 f1bc 3493 2b3d
00000200: 88f8 7ebd ad1b f4bd 7959 e73d 07b0 33be
00000210: 624b cf3d c0a0 c9bd baa0 e4bc 4b02 9cbd
00000220: 4097 113d d332 5abe c45f 73bc 9ac7 0bbe
00000230: 1545 e43c f076 0b3d d46e 173e 46c8 c3bd
00000240: e350 1cbc e255 24bd ab88 c5bd de92 cebc
00000250: d8db d1bd a53e d2bd 181b 0c3e 666c ecbd
00000260: ce9d bc3d 56de cc3d a864 7cbc accc ff3d
00000270: dde2 3dbd ed01 08be 0783 4b3d 0639 21be
00000280: b632 c5bc 11f5 1cbe 1ebb eabc 78c2 9dbd
00000290: 7bdf 243c 9701 c33d 51a6 93bd c88c a93d
000002a0: 5a54 02bd acfb d2bd 0bab 23be 7aab 84bd
000002b0: ca27 13be 6e28 c7bd 2b1d fc3d f9dc 08be
000002c0: eb9e 05be 682a ae3d a449 713d d977 11be
000002d0: a167 69bd 21cf 18be de92 b53d 60ab cebc
000002e0: 1ce3 02be 4c3a 793c 431a e23d 150d f33d
000002f0: c590 abbd 1a08 23be fec7 f1bd 1e2e 703d
00000300: adbd a7be 5e87 16be 08fb 4abd e3c9 363d
00000310: ca78 13be 50fe f93d 3aac 1bbe 2a6b 023e
00000320: 80b9 54bd dfbc 2dbe 62f3 243e 3e5b 443e
00000330: 8ca6 923c 7943 92bd 8533 3c3d 62f1 57bf
00000340: 686f b63d 81b3 84be d177 05bd 7b75 8e3d
00000350: 5b3c f23b 49c3 32be 48d7 b7bc b397 b73d
00000360: 53f4 263e 6a9f dbbe 0ab6 823e 1e6d c1bc
00000370: a2a4 4ebe afc1 813e 8c18 aebd e074 e6be
00000380: 97da b23e deb0 68bd 66b6 a9bd b6c4 2ebd
00000390: ff2c 603e 7855 8d3d 3f48 2dbe 05c8 5f3d
000003a0: 49a0 993d b1db 12bd 3a5b 13bb b88f 1c3e
000003b0: 9348 d63e ca01 803d 7925 e5bc 6a55 08bf
000003c0: ce3a 663d 3ae2 023f 8ee0 1c3d aa16 bf3c
000003d0: bc6c 21be 1d5d d5be a03c 083e 4897 6e3e
000003e0: 88a3 013e 9162 933d 9de7 8c3d 302e 393f
000003f0: cce8 85bd a0f9 6b3e 3d70 b4bd 970e 8f3d
-0.21941282 0.0050011426 0.11871798 0.037579738 0.1723996 -0.09437952 -0.32217 0.12420362
-0.114289224 0.23936148 0.018418152 0.11648271 -0.01650352 0.087028384 -0.115572184 -0.021651555
0.09249179 -0.0081714 -0.16907036 0.07815946 0.0056024897 -0.1608924 -0.042289563 0.067661844
0.08915044 0.10894257 -0.18902634 0.1889617 0.22610773 0.019074049 -0.14791752 0.040569298
0.7076954 -0.030757546 -0.18415414 0.5236901 -0.062240187 -0.19870691 -0.14754671 -0.16349715
-0.044895895 -0.55371785 -0.359494 -0.0082248 0.08823827 0.07709077 -0.07969612 -0.1674964
0.08218145 0.48933482 0.021017725 0.08784937 0.021436524 -0.095609926 -0.02519413 0.041465577
-0.09133971 -0.09620363 0.060459245 0.105631106 -0.45795694 -0.2580441 0.01303211 0.5108444
-0.15072146 -0.07306742 -0.01707784 -0.48960933 -0.06929497 0.20378505 0.18828717 -0.05634372
-0.04869454 0.26489648 0.20873484 0.23521738 -0.12052263 0.1374439 -0.1407647 0.006192836
0.018939946 -0.54083043 0.16526206 0.017937068 0.04723591 -0.123644665 0.10945675 -0.060633443
-0.09712981 0.1580145 0.06821013 -0.24661636 0.12700726 -0.05783437 0.007714899 -0.52128285
-0.06641729 -0.05795046 0.09393132 0.08000571 -0.07423803 0.068742186 0.019215377 0.0025352985
-0.08411655 -0.0343013 -0.09840695 0.052585542 0.07624474 -0.063377455 0.103563935 0.034555703
-0.06815791 0.043715578 -0.10797327 -0.1467392 -0.027118312 -0.01093639 0.02595599 -0.021506751
-0.114269435 -0.12324397 -0.03121916 0.14246367 0.08773732 -0.09038351 -0.029529022 0.04188843
-0.062248737 -0.11919341 0.112963624 -0.17547618 0.101218 -0.09845114 -0.027908672 -0.07617625
0.035544634 -0.2130845 -0.014854375 -0.1365036 0.027864972 0.034048975 0.14788371 -0.095596835
-0.009540769 -0.040120967 -0.09645208 -0.025216516 -0.1024701 -0.10265855 0.1368221 -0.11544113
0.09209786 0.10003345 -0.015404858 0.1249021 -0.04635893 -0.13281985 0.049685504 -0.15744409
-0.024072032 -0.1532786 -0.028653678 -0.077031076 0.0100630475 0.095217876 -0.07209457 0.08278805
-0.031818725 -0.10301909 -0.15983216 -0.06478019 -0.14370647 -0.09724508 0.12310251 -0.13365544
-0.13048904 0.08504182 0.05890812 -0.14205875 -0.056983594 -0.14922763 0.08865903 -0.025228202
-0.12781948 0.015211653 0.11040165 0.118677296 -0.08377222 -0.15921059 -0.118057236 0.05863773
-0.327619 -0.14700076 -0.04955581 0.044626128 -0.14401546 0.122067094 -0.15202418 0.12736192
-0.05193472 -0.1696658 0.16108468 0.19175431 0.017901681 -0.07141776 0.04594757 -0.84352696
0.08907968 -0.259182 -0.03258497 0.06956001 0.007392449 -0.17457308 -0.022441521 0.08964481
0.1630414 -0.4289506 0.2552951 -0.023611601 -0.2017999 0.2534308 -0.08500776 -0.45011044
0.34932396 -0.0568093 -0.08286743 -0.042668067 0.21892165 0.069010675 -0.16922091 0.054634113
0.07501275 -0.035854045 -0.0022484795 0.152892 0.41852245 0.06250341 -0.02797197 -0.5325533
0.056208424 0.51126444 0.03830009 0.023326237 -0.15764135 -0.41672602 0.13304377 0.23299897
0.12660038 0.071965344 0.06880114 0.723361 -0.06538543 0.23044443 -0.0881047 0.06985205

sequential_3/conv1d_11/Conv1D f4 [128, 1, 3, 64]
00000000: 9602 14be 6403 efbc 7125 4dbe 8339 5ebd
00000010: 04e5 00bd 3ef8 46be 1804 1e3d e38d aebd
00000020: e260 f83c 5c72 b9bd 4495 073d fb5b 943c
00000030: 5d61 183e f20a af3d 521d 85bc 05a0 153c
00000040: c6d7 e4bd 70fb 083e 8af6 c13d 13f1 e5bd
00000050: 1342 d53b 4408 80bd 16e4 97bd 92f7 10bd
00000060: 3020 91bd ea91 68bd 673e 123c d051 bbbd
00000070: 3946 053e e40d 82bd 6ad9 18be 3cb7 fd3c
00000080: 87e5 9fbd 72e6 d23c 6ca2 473d b345 38be
00000090: 2b59 9abd 70af 17bd 2009 673d c497 e1bd
000000a0: 2adc a0bd fdfd 8ebd cd20 30be 6ce8 bb3d
000000b0: a3b8 a5bb 6855 9abc 027c bf3d 9090 7fbe
000000c0: 9b4c bc3d 27c6 acbd aaf5 22be 1c8f 903d
000000d0: 7caf 04be 3529 41be 2144 213d 703c c13c
000000e0: a02f babd 9481 01bd a541 6dbd eb09 26bd
000000f0: 952d bbbc 55f8 3fbe 9479 77bd 8e5e 67be
00000100: 02a2 833d ecbd 693d 8661 44be 4c79 9abd
00000110: 463a 56be fc95 70be ed5f 72bb df3d 6cbd
00000120: 4dbd e33d 440d f93c be38 6f3d 00f3 1dbe
00000130: 89cb 5dbd 3c2b c5bd 74e7 21bc 56f4 093b
00000140: 2097 fbbd 3ea4 043e 3c5a 583d 0882 5b3c
00000150: 7049 62bc 074f 9d3d 5c7f 9fbc 2eba 343d
00000160: d212 53be 99bf f1bb efff 5ebd 65ce 14be
00000170: eb6d 86bd da08 11be 6674 36be e3ff f1bd
00000180: 4f35 3f3d a381 933d 3d3c 3f3c 03cd 70bb
00000190: 85b0 aabd 523c a53b 5cd9 553d 6970 e1bd
000001a0: 141b b3bd 6ea5 913d 5882 72bc 3062 89bc
000001b0: a152 8abd 48b3 27bc 7d06 74bd 9c52 38be
000001c0: 65cf e7bb 63cd 0abc fb87 5e3c 41cd f83c
000001d0: ceae 45be e14a ec3d 2f21 1d3d 4914 b73c
000001e0: af05 883b dfd2 d83b 5218 d7bd d3f9 e3bd
000001f0: 643e 58be 09db 19be b4c6 4f3d dbc7 12bd
00000200: 84ee cb3c f445 053d 761b b83d 2a0e 3d3c
00000210: b1c0 48bd b3fa c13d 0b99 74bd 03fc 3bbd
00000220: b465 a73d cc64 4e3d b812 253e 8ed7 02bd
00000230: 8ea7 efbc e47f 89bc 8885 153d 680d 803d
00000240: b9b2 43bd 82ba db3d e4d8 1b3d 9682 60bd
00000250: 520e b1bd 51bb 733e dd4a a73c e6a5 d93d
00000260: 44b9 053e 1c16 c23d e119 a9bb ab63 993d
00000270: cfa4 9a3d b356 93bd 0589 2c3e 3b4b 01be
00000280: 2425 7fbe 90a5 873d 160c 8a3d 5a09 f0bc
00000290: deba b93c 19f6 053e 0a36 8abd e32e 8dbd
000002a0: 7ddb 983c 0297 9dbd bde4 59bc 2060 98bd
000002b0: 4d33 313e 16b0 c43d b4c1 a83c d6ee 9e3d
000002c0: 5621 ff3c 4746 9ebd be6d e3bd 6127 98be
000002d0: 38ea ab3d 7558 a23d 63a7 0abd 66d5 14be
000002e0: e2e2 f1bc ce14 9ebd 60df b53e 049e 7ebe
000002f0: cf27 f93d 4a30 873d 7939 ad3d 54d5 14be
00000300: 27ae b63d 4eb7 12bc 5183 0e3c 7035 013e
00000310: b5a0 573d ab49 76bd 4980 3cbd 99ed 3a3c
00000320: 7594 6f3d 55ab b6bd d911 76be f9f7 03be
00000330: c6b6 31bd 84ac 8f3c 146e b73d f7a6 f63c
00000340: 678c d43b 274e 44bd 4c19 353d 78be 9cbc
00000350: 50a8 c7bd 77fc 07bd 7e87 eebb c8c4 17be
00000360: 06f7 ae3d e563 933d 6586 e63c 48c2 74bd
00000370: 43a5 13bd 5915 9cbd 85da f93d a8be 1ebe
00000380: 48c5 ad3d acab a43d 59bc a2bd 7db2 fbbd
00000390: 0dd0 173d 5843 5f3e 0cc0 a8bd 61c3 5c3e
000003a0: 1bc8 41bd 22b5 81bd 2c92 0bbd d876 1c3d
000003b0: 263e a93e 9285 8fbd c93b 153c 4b4b 8a3d
000003c0: acfd 6b3d 03dd 273d e751 033e 9f06 8ebe
000003d0: e81e 273d cbf7 1ebe 805d f1bd 8900 44be
000003e0: d251 193d b91c 8b3c b0b1 923c d674 35bd
000003f0: b381 5abe 2cbf 973d 0cc1 7cbc 6df5 03bd
-0.14454111 -0.029176421 -0.20033814 -0.054254066 -0.031468406 -0.19430634 0.038578123 -0.085231565
0.030319635 -0.090550154 0.033101335 0.018110266 0.14880891 0.085470095 -0.016249333 0.00913239
-0.11173968 0.13377166 0.09470852 -0.11227622 0.006508121 -0.062515765 -0.07416551 -0.03539235
-0.070862174 -0.05677978 0.008926011 -0.09146464 0.13015069 -0.06350306 -0.14926687 0.030971162
-0.07807451 0.02574465 0.048738882 -0.17995338 -0.07536539 -0.037032545 0.056405187 -0.11015275
-0.07854493 -0.06982038 -0.17200013 0.0917519 -0.005057411 -0.018839553 0.093498245 -0.2495749
0.09194299 -0.08436232 -0.15914026 0.07058546 -0.12957567 -0.18863375 0.039371613 0.02358839
-0.09091115 -0.031617716 -0.05792393 -0.040536802 -0.022848884 -0.18747075 -0.06041868 -0.22594664
0.06427385 0.05706589 -0.19177827 -0.07542667 -0.20920667 -0.23494714 -0.0036983446 -0.057676192
0.11120091 0.030401833 0.058403723 -0.15424728 -0.054149184 -0.09627387 -0.009881843 0.0021050177
-0.12284684 0.12953278 0.05282043 0.013397701 -0.013811454 0.07681089 -0.01946991 0.044122867
-0.20612648 -0.0073775765 -0.054443296 -0.14531858 -0.06563934 -0.14163533 -0.1781784 -0.11816385
0.0466817 0.072024606 0.011672077 -0.003674329 -0.0833445 0.005042591 0.052209243 -0.11007769
-0.08745399 0.07111631 -0.014801584 -0.016770452 -0.067540415 -0.010235615 -0.0595765 -0.18000263
-0.007074284 -0.00847182 0.013582225 0.03037131 -0.19304964 0.115377195 0.038361724 0.02234854
0.004151068 0.0066169347 -0.105026856 -0.111316346 -0.2111755 -0.15024962 0.050726607 -0.03583513
0.024894007 0.032537416 0.08989613 0.0115390215 -0.04901189 0.09471645 -0.059716266 -0.045894634
0.08173695 0.050389096 0.16120422 -0.03194385 -0.029254701 -0.016784616 0.0365043 0.06252557
-0.047777865 0.10728933 0.03804864 -0.054812036 -0.086453095 0.23801924 0.02042144 0.10627346
0.13058954 0.09476873 -0.0051605557 0.07489713 0.07550966 -0.07194271 0.16849144 -0.12626354
-0.24916512 0.066233754 0.067405865 -0.029301334 0.022672113 0.1308216 -0.067485884 -0.068937086
0.018659348 -0.07694818 -0.013299164 -0.074402094 0.17304726 0.09603898 0.020600177 0.07760398
0.031143826 -0.07728248 -0.11104916 -0.29717544 0.08394283 0.07927028 -0.03385104 -0.1453453
-0.029527131 -0.07718812 0.35521984 -0.24864966 0.12165796 0.06601007 0.08458228 -0.14534503
0.08919936 -0.008954836 0.0086983 0.12618041 0.052643497 -0.06012885 -0.04602078 0.011409187
0.05849119 -0.08919398 -0.24030246 -0.12887563 -0.043387197 0.017538317 0.089565426 0.030108912
0.006486464 -0.047926094 0.044213578 -0.019133791 -0.097489 -0.033199754 -0.0072793355 -0.1482116
0.0854321 0.07196788 0.028140256 -0.059755594 -0.036046278 -0.07621259 0.121998824 -0.15502417
0.08484894 0.08040556 -0.07946081 -0.12289903 0.037063647 0.21803033 -0.08239755 0.21558906
-0.047309976 -0.063333765 -0.034074947 0.038199276 0.33055228 -0.070078984 0.009108492 0.06752642
0.057614967 0.040982258 0.12824212 -0.27739426 0.04080096 -0.15524213 -0.11785412 -0.19140829
0.037431546 0.01698147 0.017906994 -0.044300877 -0.21338539 0.0740951 -0.015426885 -0.03221648

sequential_3/dense_7/BiasAdd/ReadVariableOp f4 [6]
00000000: 8427 8b3c 6c9d cfbe 051e 51bc 476c 8f3d
00000010: 3c47 873e 4ed1 333d
0.016986616 -0.4054979 -0.012763505 0.07003074 0.26421535 0.04390078

sequential_3/dense_6/BiasAdd/ReadVariableOp f4 [64]
00000000: 4b9e 23bd e768 18be c378 77bd eceb 963e
00000010: bd18 763e c401 2fbd 01a3 943d 6752 f93e
00000020: 2091 ed3e 03bb c33c c462 57be bc48 1a3e
00000030: 0ba1 97bd 375f dbbd 0947 c33e 1ced 57bd
00000040: 36ae 3fbb 8dde bdbe bbb2 dbbc a860 6abd
00000050: 2b3a 81bd 1a3e 693e b36f 34bd a368 8ebd
00000060: cdd7 86bd 6b9c d1bd 8ff6 88bc 7d1d a83e
00000070: 74ed 94bd bf7c 943e 0fdf 09be 44a8 30bd
00000080: 9faa a23e 4dff cf3e 8637 49bd c49d 87bd
00000090: bad1 53be 23b5 003f f3a7 b83d b993 c33d
000000a0: b1ce 71bd 8b6c 6fbd da16 dcbc 8060 853e
000000b0: 3868 d53d b1f0 ff3c aca1 d53e d22a ba3e
000000c0: 9e7c b33e 3880 dcbd 523b b63e 5c18 26bd
000000d0: d274 66be f7fb 863d 3371 603e 5894 adbd
000000e0: 6525 50bd 2800 f93b caa6 e03e dca0 63bd
000000f0: 5966 8f3e 962e 2abe e6ab b4bd dfa2 6a3e
-0.03994588 -0.14883767 -0.0604179 0.2947687 0.24032874 -0.042726293 0.07257653 0.4869568
0.46399784 0.023892885 -0.2103377 0.15066808 -0.074037634 -0.1071152 0.38140133 -0.05271636
-0.0029248125 -0.37083855 -0.026818624 -0.057221085 -0.06309923 0.22777596 -0.044051837 -0.069535516
-0.065841295 -0.102349125 -0.01671913 0.32834998 -0.07271853 0.29001424 -0.13463996 -0.04312922
0.317708 0.40624467 -0.049125217 -0.06621888 -0.20685473 0.5027639 0.09016409 0.0954966
-0.059035007 -0.058453124 -0.026866365 0.26050186 0.10420269 0.0312427 0.41724908 0.36360794
0.35056013 -0.10766643 0.35592133 -0.040550575 -0.22505501 0.06591027 0.21918182 -0.0847556
-0.050816912 0.0075988956 0.4387725 -0.05557333 0.28007773 -0.16619334 -0.088218495 0.22913693

sequential_3/dense_6/MatMul f4 [64, 1280]
00000000: fe09 a7bc 7fb9 6d3d d056 92bc 9d0e f43b
00000010: 7572 4d3e a87a a1bd ae86 e3bc 6f52 763d
00000020: 69ba 35bd ad01 54bd a17a 333d 9997 933d
00000030: 3fa5 b53d 58d8 8dbc 9b3a b63b e144 5dbc
00000040: cc8f 323d 3bb4 87bc ffbb 3bbd e6a3 eb3d
00000050: 9050 a9bd edc0 353d dd41 273d 909b 783c
00000060: b8ba f93d 3771 b33d 4ed7 76bc c716 563c
00000070: 3107 3d3d b9f4 8e3d 767a e6bc 82e1 43bc
00000080: 27a2 c2bc 5aaa cd3c 21d8 7ebd 1a3f 983c
00000090: a498 5fbd e660 17bb 265e f9bc 0fca 4cbb
000000a0: f955 403c eb3f 79bd 35e5 b13c b051 e13c
000000b0: c800 6f3c 32e2 91bd c2f0 bd3c 67af 30bd
000000c0: 55c8 43bc 8dec 2dbe f013 39bd 81d9 54bd
000000d0: 6b25 dcbc 8f22 a7bd c044 bd3b de81 62bd
000000e0: f1e3 023e cdc2 7e3d 07ba d8bc e91d aa3d
000000f0: 4dad 62bc 0da8 f3bb 97f4 02be c221 91bd
00000100: 4254 b7bb f417 d8bd 9f2a b03c 5b4e 373c
00000110: be0b f73c 3a52 0b3d 880e 393c bd95 9d3d
00000120: c1ff 213d ea5f 02bd 7892 8dbc 7d7e 63bd
00000130: 1e6d 89bd ac31 4cbd a77f 30bb 3c94 39bd
00000140: b49e 80bd 58f4 1dbd b111 aebd ccee f1bc
00000150: 146f 2cbd ceac d4bc 913a 5d3d 99db acbb
00000160: edfb 6fbd dfe4 05bd 8963 6bbd 7ec6 743d
00000170: a742 0abe 6756 26be dfea 283d 42b9 37bd
00000180: 1477 5dbd b7ea fcbc a1f4 ecbc 0fa4 2a3d
00000190: c044 09bd 0998 32bd 620c 3bbd 7e86 a83d
000001a0: 859f 6abd da4b 713d 17d1 1e3e d8bd 13bd
000001b0: 9074 b03c 8fea 88bd d719 683d a1c3 fa3d
000001c0: 1c43 7ebd c827 c03d 821f 10be eb0d 033e
000001d0: 5f5b e63d e9f3 003d 6752 213c d161 873d
000001e0: 36d7 4abd 548c 073d 71c3 02be 8d9c be3d
000001f0: 81cf 1dbb c82b ce3c b32f 9d3c 9c5b 03bd
00000200: 74f5 7bbc 9268 d1bc 346f 263b f5de 66bd
00000210: 7d08 16be 0fdb 933d 3e0d 813d 8cad 813d
00000220: 26fd 893c 8554 6c3d 12cb 163e bf32 a03d
00000230: 655f 99bd 86a3 27be 07e4 9ebb 2f6d 473c
00000240: 4eef 723d 0fe1 d0bc 3155 57be 62c3 0bbd
00000250: 5a66 b2bd 900a 183d d12a 313d 8739 e5bd
00000260: 4f73 a9bd 6945 e1bd 1b28 54bd 467b 9f3d
00000270: 7a2d ffbd e2c5 9ebd a83c 313d 9ec9 27bc
00000280: a1d0 8bbd 75b0 61bd d40b 80bd f63d 65bd
00000290: 8b1e e7bd bf0e dcbd 94f0 183e f311 243d
000002a0: 270f 3cbd 9cf1 b23b d23a 073b 1136 4bbd
000002b0: aed2 10bd 8416 a5bd 5199 55bd 5450 5abd
000002c0: 6049 313d cfa8 54be 706d d03c 884a 55bc
000002d0: dcd9 3dbc 136b c53c f0ef 65bd ecfa 4dbd
000002e0: fa1c fabc ccae c73c 8a90 09bd e4b8 03be
000002f0: 2519 0d3c 77cf 96bd ddd5 c2bd 47c5 46be
00000300: cd9f 37be a0f2 8ebe 9722 38bd a0dc d4bc
00000310: 3807 c4bc 20ab 35bd 2407 1ebc 1d2e cd3d
00000320: 0076 88bc 71e2 493e 9c87 1bbe 2e39 fdbb
00000330: 74bb bcbc 0ced 33bd cdf1 c2bc 8bd0 12be
00000340: 8b0e 8e3d a4a9 8fbd 74f1 f3bc abc8 1a3d
00000350: 3615 24bd 61b2 9e3d d9e5 dc3d c1d0 413d
00000360: 6ea1 133d 17e2 d9bb 9525 883c abd7 2dbd
00000370: 877d 903b 6aaa b73d 1f6c 46bc eed6 993d
00000380: eebd 14bd 528b de3c 23f0 1c3d 03e1 cbbd
00000390: 6862 473e a001 363d 1a14 a8bc cdd3 6cbd
000003a0: 1fc7 d7bc 61b5 0bbd d2b7 c23d 93b9 353d
000003b0: 32b9 91bd fa32 143d 5ebb d2bd 6078 acbd
000003c0: 6737 34be 30c7 873d 7ac1 14bc 9adb 633d
000003d0: d615 cebd 1255 823c f8c5 4dbd 2f23 abbd
000003e0: cc7d 2dbe ba88 bb3d 2d9e 84bc df5d 87bd
000003f0: af51 373d 22b8 09be 9b5d 66bd 6df6 953c
-0.020390507 0.05803823 -0.017863661 0.007448031 0.20063193 -0.07884723 -0.027774181 0.06013721
-0.044367228 -0.05175941 0.04381812 0.07206649 0.08869409 -0.017315075 0.0055611855 -0.013505192
0.043594167 -0.016565433 -0.045833584 0.115058705 -0.08267319 0.04437344 0.040834296 0.015173808
0.12193817 0.087618284 -0.015065981 0.013066954 0.046149436 0.06980271 -0.028134566 -0.011955621
-0.02375896 0.025105644 -0.062217835 0.018584777 -0.05458893 -0.0023098527 -0.030440401 -0.0031248366
0.0117392475 -0.060851973 0.02171574 0.027504772 0.014587589 -0.071232215 0.023186091 -0.043136027
-0.011949618 -0.16984768 -0.04518503 -0.05196524 -0.026873311 -0.081608884 0.005776018 -0.055299632
0.12782265 0.062197495 -0.026455892 0.08306486 -0.013835263 -0.0074358047 -0.12788616 -0.07086517
-0.005594761 -0.10551444 0.021504698 0.011188115 0.030156966 0.034013964 0.011294968 0.07694576
0.039550547 -0.031829752 -0.017281756 -0.05554055 -0.067102656 -0.04985206 -0.0026931555 -0.045307383
-0.0628027 -0.038563102 -0.08499468 -0.029532813 -0.04209812 -0.025961306 0.05401093 -0.0052752015
-0.058589865 -0.03268897 -0.05746797 0.05975961 -0.13501988 -0.16243897 0.041239616 -0.04485441
-0.05406864 -0.03087364 -0.028925242 0.041660365 -0.03351283 -0.043602023 -0.045666106 0.08228777
-0.057281036 0.05891023 0.15509449 -0.03606972 0.021539956 -0.066853635 0.056665268 0.122443445
-0.06207572 0.09382588 -0.1407452 0.12798278 0.112478964 0.03148261 0.009846306 0.06610454
-0.049521647 0.03309281 -0.12769867 0.093072034 -0.002407998 0.02516736 0.019187784 -0.032069787
-0.015378345 -0.025562558 0.0025395872 -0.056364972 -0.14651676 0.072195165 0.06301354 0.063319296
0.016844343 0.05769779 0.14725903 0.07822179 -0.07488898 -0.16370973 -0.0048489603 0.0121720275
0.05931025 -0.025497941 -0.21028592 -0.03412188 -0.08710928 0.03711945 0.043253724 -0.11192613
-0.082739465 -0.10999567 -0.05179606 0.077871844 -0.12459846 -0.07752587 0.043270737 -0.01024094
-0.06826902 -0.055099923 -0.06252256 -0.055967294 -0.112851225 -0.10745 0.14935523 0.04005618
-0.045912888 0.005460931 0.0020634425 -0.04961211 -0.03535717 -0.08060935 -0.052148167 -0.053299263
0.043282866 -0.2076752 0.025442809 -0.013018258 -0.011587586 0.024098909 -0.056137025 -0.050288126
-0.030531395 0.024375342 -0.03358511 -0.12863499 0.008611952 -0.073637895 -0.095134474 -0.19411193
-0.17932053 -0.27919483 -0.044954862 -0.025984108 -0.023929223 -0.04435265 -0.009645257 0.10018561
-0.01665783 0.19715287 -0.1518845 -0.0077277636 -0.023038603 -0.043927237 -0.02379694 -0.14337365
0.069363676 -0.07014778 -0.02977822 0.03778903 -0.04005929 0.07748867 0.107860275 0.047318224
0.036042623 -0.0066492665 0.016619483 -0.042442005 0.0044094953 0.08968051 -0.012110739 0.07511698
-0.036313944 0.027166042 0.03831495 -0.09955027 0.19471133 0.044435143 -0.020517398 -0.057819176
-0.026340066 -0.034108523 0.09507717 0.04436643 -0.07115401 0.036181428 -0.10289644 -0.08421397
-0.1759926 0.06629789 -0.0090793315 0.05562935 -0.100627586 0.015909705 -0.050237626 -0.0835632
-0.16942519 0.09156938 -0.016188705 -0.06609701 0.044755634 -0.13449147 -0.056241613 0.018305982

sequential_3/dense_7/MatMul f4 [6, 64]
00000000: 3dc1 56be 4528 cabc 34eb 85be 4a8c 15bf
00000010: 4495 1d3e 6516 293e 949b 6fbe 715a 4c3e
00000020: 5495 763e 6c71 a1be 2c92 42be c7eb 863e
00000030: fe53 43bd 390c 003d 50e1 823e 25a8 58bd
00000040: 8de7 df3e 53f9 e1bd 2d4a 49be 4d64 503e
00000050: 71ac 85be 35a9 42bf 4031 c5bc 6bbb 343f
00000060: 7976 d43e bbed dabd 7822 a73d af6a 523e
00000070: eda5 333e d539 ecbe f422 adbe 88b2 3e3e
00000080: 5b53 1b3e f24b b43e cff4 a0bd c2df 2c3e
00000090: 8a75 89bd 3791 62bd d613 533e c95a 25bd
000000a0: 6e73 2ebe 06a4 ba3d ba7d 9cbe eb3a 5dbe
000000b0: 8f65 44be 4639 803e 1ae2 793e f7e3 cc3c
000000c0: ee49 913e 4517 f1bd c5bf c63d 159c 0b3c
000000d0: 7501 54be 68a9 72bd 618f 753c 1f2f febd
000000e0: f30a 02ba 90f4 4a3d 8497 ef3d 55bb 18be
000000f0: e1d9 7b3d 7f96 573e f6f9 f03e 8ffb a63c
00000100: 7d37 ee3d 2ff7 763c 36c1 89be 99e5 943d
00000110: c11e 0e3f cf0a 54be 96b6 973e 8fa1 d1be
00000120: 08f8 c33d 47c1 49be 399b 443e 002b 9bbf
00000130: 1bfc 58be 3378 863d d3af d3be 9749 893d
00000140: b9d1 5dbf bfcb da3e 5c4a 91bc fdb6 ae3d
00000150: c4bd 603a 9cf9 303f 3e7d da3d c06b 8dbd
00000160: 8bae f53d faa6 f6bc 228c 823d d6dc d53e
00000170: eac6 0bbe 1add 01bd 4ca2 d3bd b30f 34be
00000180: a485 833e 806e 17bf 1374 2cbe 1e52 253e
00000190: 5c04 7b3e 80dc fcbe 8226 293d bf53 91be
000001a0: 94b9 05bd 1514 013c 9f7d d63e 1dd3 253f
000001b0: eb3c f83d a722 6bbf 631f bdbd c650 69bd
000001c0: 69ea 88bf fbda 43be 2929 9a3e cd97 6fbf
000001d0: 0a8a 98be 22ce 52bf faa5 5bbf 381c 793e
000001e0: 8648 04be 7eda f33c e98a debe d211 fb3e
000001f0: 163f f53c 670b db3d ed4a 453e 8af1 9c3e
00000200: cb9a 15be 35cb b83c e1c6 e6bd 06a1 fabe
00000210: d487 71bf fc2a 0e3e 5f86 67bd be7f 82bf
00000220: 3386 64be 845c 653e bdb8 a93e 643c cfbe
00000230: 3e8d f43d f793 fe3c 00ab 9bbf 25d8 2a3b
00000240: 74d7 1f3e f7fc e1bc 9513 7cbe 779c 413d
00000250: 9e2b 2dbe eb32 20be 8143 333e a4e8 03bf
00000260: 41ab a53c 155c 933e 1f89 983e 8dbe 59bf
00000270: 7a40 433e 711f 28c0 958c c73d d8a9 ff3d
00000280: 12bd 57bf c796 5cbf c867 59be 3062 183e
00000290: 18c8 513e 2015 a6bf e479 efbd 9027 96be
000002a0: c698 c6bd 666f f03d 53bf 0e3e c653 10bf
000002b0: 8a44 ff3d b2c3 173f fc07 1dbf 4ef1 a0bf
000002c0: ec21 2fbf e1fa a4bd b8e1 a7bf 0a9d b33e
000002d0: 7c03 1fbd 3586 843e ae1d bdbe eade 94bd
000002e0: d83f ccbd fc02 30be c15c 71bf 2f5e 1ebf
000002f0: 53f9 79bf 32ac d43d 8218 3abe ae4a 1fbf
00000300: e9eb a33d 36e4 efbc aebe 05be 2c23 7fbe
00000310: fc4d 31bf 542f 7cbe 019f f2be 0cac ebbd
00000320: 641d 81bf 5bae 503e 8721 a1be 004d 963d
00000330: 782d cebc e23b eb3d aa51 47bf 486f 60be
00000340: 72cd 0dbe dd54 12bd d579 bcbd 7260 4fbd
00000350: 95c8 7ebe 29f5 8f3e 9d54 7cbd 0e71 a43e
00000360: 5816 733d 4259 bd3e 2730 953e 3189 cabe
00000370: a972 083e cabb 05c0 3f51 3c3e e560 dc3d
00000380: e926 98bd 7a58 dfbe 1f03 40be c561 3abe
00000390: 1f01 2a3e af37 5ebd 6305 e13d 66fb 093f
000003a0: 3765 fa3d aae9 e33c 90fe e1be 5615 13bf
000003b0: b74e cbbe ebc3 6bbe 1902 8bbf 8f43 b1bf
000003c0: b856 98bd 1ed2 5bbd e909 3c3c 7f46 6c3e
000003d0: 8d20 ef3c 8197 803e 2a9f 34bf 38d0 72be
000003e0: 4df1 b93d cd84 d73d 2d7c 90bf 3399 8c3e
000003f0: c2a8 da3e 13ba 4bbc eb31 743c 3fa7 44be
-0.20972152 -0.024677405 -0.26156008 -0.5841719 0.15388972 0.16512449 -0.23399192 0.19956376
0.24080402 -0.31531847 -0.19001073 0.2635176 -0.047687523 0.031261656 0.25562525 -0.05289473
0.43731347 -0.11033883 -0.19657202 0.20350762 -0.26108125 -0.7603944 -0.024071336 0.7059848
0.41496637 -0.10689875 0.08160871 0.20548509 0.17543764 -0.46137872 -0.3381573 0.18622792
0.15168516 0.35214192 -0.078591935 0.16882232 -0.06711872 -0.05531427 0.20613036 -0.040369783
-0.1703622 0.09113316 -0.30564672 -0.21604507 -0.19179367 0.25043696 0.24402657 0.025011046
0.28376716 -0.117720164 0.09704546 0.0085211 -0.20703681 -0.05924359 0.0149877975 -0.124113314
-0.0004960738 0.04954964 0.11698821 -0.14915211 0.061487082 0.21053503 0.47065705 0.020383624
0.11631677 0.015073582 -0.2690522 0.07270355 0.55515677 -0.20707248 0.2963149 -0.40943572
0.095687926 -0.19702636 0.19199838 -1.2122498 -0.2118992 0.06565895 -0.4134508 0.06703489
-0.86648136 0.4273357 -0.017735653 0.08530996 0.0008573199 0.69130874 0.10668419 -0.06905317
0.11996182 -0.030108918 0.063743845 0.41770047 -0.13650098 -0.031705 -0.1033369 -0.17584114
0.25687897 -0.59152985 -0.16841154 0.16144606 0.24513382 -0.49386978 0.04129649 -0.28384206
-0.032647684 0.007878323 0.41892716 0.6477526 0.12120994 -0.9184975 -0.09234502 -0.056961797
-1.0696536 -0.19126503 0.30109528 -0.93591005 -0.29792815 -0.82345784 -0.85800135 0.24327171
-0.1291829 0.029767271 -0.43465355 0.49037033 0.029937308 0.10695534 0.19266863 0.3065303
-0.1460983 0.022557834 -0.11268402 -0.48950976 -0.9434788 0.13883585 -0.05652463 -1.0195234
-0.22316818 0.22398573 0.33148757 -0.40475762 0.11941002 0.031076415 -1.216156 0.0026068774
0.15609533 -0.027586443 -0.24616845 0.047268357 -0.1691117 -0.15644424 0.1750622 -0.51526856
0.020223262 0.2878119 0.29792115 -0.8505638 0.19067565 -2.626919 0.09743611 0.12483567
-0.84272873 -0.8616757 -0.21230996 0.14881206 0.20486486 -1.2975197 -0.11693171 -0.2932706
-0.09697108 0.117399976 0.13940172 -0.5637783 0.12464245 0.5928298 -0.6134031 -1.257364
-0.68411136 -0.08055664 -1.3115759 0.3508075 -0.038821682 0.25883642 -0.36936706 -0.0726908
-0.09973115 -0.17188638 -0.94282156 -0.6186246 -0.97646064 0.10384406 -0.18173411 -0.6222333
0.08003981 -0.029283624 -0.1306102 -0.24915761 -0.6925962 -0.24627429 -0.47386935 -0.11507425
-1.0087094 0.20379011 -0.31470892 0.07338905 -0.025168166 0.11486031 -0.77858984 -0.2191745
-0.13847902 -0.035725463 -0.09202925 -0.050629087 -0.24881203 0.2811673 -0.06160413 0.32117504
0.05934748 0.3698216 0.291383 -0.39557794 0.1332499 -2.0895867 0.18390368 0.10760669
-0.074292965 -0.4362219 -0.1875119 -0.18201359 0.1660199 -0.054252323 0.109873556 0.5389923
0.122263364 0.02782138 -0.44139528 -0.5745443 -0.39708492 -0.23023956 -1.0860015 -1.3848742
-0.07438415 -0.05366718 0.011476972 0.23073767 0.029190326 0.25115588 -0.70555365 -0.23712242
0.090792276 0.105233766 -1.1287895 0.27460632 0.42706877 -0.0124345 0.0149044795 -0.19204424
