models/models_for_presentation/lying_down_stomach_model.tflite (tflite, 461752 bytes, 10 tensors)

sequential_4/conv1d_12/BiasAdd/ReadVariableOp f4 [32]
0	0xbbdd32a3	-0.006750421
1	0xbd02aca0	-0.03190291
2	0xbd27fc7e	-0.04101228
3	0xbd7f72ea	-0.06236545
4	0xbd495667	-0.049154665
5	0x3c0cb1a2	0.008587273
6	0xbd28e376	-0.04123255
7	0xbd93db2a	-0.072195366
8	0xbcbb03f0	-0.022829026
9	0x00000000	0.0
10	0xbc9f4767	-0.019443227
11	0x3c981cba	0.018568385
12	0xbc570835	-0.013124515
13	0xbd6379fd	-0.05553626
14	0xbd5663bf	-0.05234122
15	0x00000000	0.0
16	0xbd5d2d7b	-0.05399845
17	0x3cb9829d	0.02264529
18	0xbd9afae4	-0.07567385
19	0xbd8ebd22	-0.06969668
20	0x3bdbdc4b	0.0067096106
21	0xbd02fb31	-0.031977836
22	0xbc64a57c	-0.01395547
23	0xbdbbda61	-0.09172512
24	0xbdb41295	-0.08792607
25	0x3c8f3387	0.017480625
26	0xbd5ed79e	-0.054404847
27	0x3cee7266	0.029107284
28	0x3c6b4008	0.014358528
29	0xbcf6e66c	-0.03013917
30	0x3b86bf8a	0.0041121887
31	0xbdce8194	-0.10083309

sequential_4/conv1d_13/BiasAdd/ReadVariableOp f4 [64]
0	0xbe367bc8	-0.17820656
1	0xbe589087	-0.21148883
2	0xbac8d371	-0.0015321804
3	0xbe18b2f2	-0.14912012
4	0xbe0589ca	-0.13040844
5	0x3ca3555b	0.019938162
6	0xbe3c9f81	-0.18420221
7	0xbe02c2a4	-0.12769562
8	0xbe3b16c3	-0.18270402
9	0xbe4917fc	-0.19638056
10	0xbca90053	-0.020630037
11	0xbd19dbeb	-0.037563246
12	0xbd9f7622	-0.07786204
13	0xbd502da1	-0.050824765
14	0x3d9248a7	0.071427636
15	0xbc148592	-0.009065049
16	0x3ca86483	0.02055574
17	0x3e059f1d	0.13048978
18	0xbe25da37	-0.16196524
19	0xbd42a9c2	-0.047525175
20	0xbdc2e1f2	-0.09515752
21	0xbd467c47	-0.048458364
22	0xbd5f72b4	-0.05455275
23	0xbd4e9690	-0.050436556
24	0x3df1a06a	0.11798175
25	0xbd14c176	-0.03631731
26	0xbd8b8bc8	-0.068137705
27	0xbc35a79f	-0.011087327
28	0x3d566b50	0.052348435
29	0x3ca95a84	0.020673044
30	0x3cb66ecf	0.022269635
31	0xbd44cf29	-0.048049126
32	0xbd64e728	-0.05588451
33	0xbe4cdeb0	-0.20006824
34	0xbd153cbf	-0.036434885
35	0x3cce92a1	0.025216402
36	0xbe3243c5	-0.17408665
37	0x3d3a1b08	0.045435935
38	0xbe21b664	-0.15792233
39	0xbe2c7244	-0.16840464
40	0xbd403efe	-0.046935074
41	0xbd5d4482	-0.054020412
42	0xbd9bbc2b	-0.076042496
43	0xbd9e9016	-0.07742326
44	0xbdd38c40	-0.10329485
45	0xbd23f63d	-0.040029753
46	0xbe1bba9e	-0.15207908
47	0xbdabfbaa	-0.083976105
48	0xbd9970ab	-0.07492193
49	0xbd514bf3	-0.05109782
50	0xbde45034	-0.1114811
51	0xbdbd83e6	-0.09253673
52	0x3c98bf10	0.018645793
53	0xbe5d8817	-0.21633945
54	0xbdee7446	-0.11643271
55	0xbe276adb	-0.16349356
56	0xbe27d6c7	-0.16390525
57	0xbe5c8fad	-0.21539183
58	0xbde8e539	-0.11371846
59	0xbd3a2edb	-0.04545484
60	0xbd518430	-0.051151454
61	0xbd976d35	-0.073938765
62	0x3d98e6cb	0.07465895
63	0xbd29a4e5	-0.04141702

sequential_4/conv1d_14/BiasAdd/ReadVariableOp f4 [128]
0	0xbd1a3be6	-0.03765478
1	0xbdb7797c	-0.08958718
2	0xbd9ad336	-0.075598165
3	0xbd822111	-0.06353963
4	0xbd5c67c6	-0.053809904
5	0xbe95fc26	-0.29293936
6	0xbcffe865	-0.031238744
7	0xbc12c2d5	-0.008957584
8	0xbe2db29b	-0.16962664
9	0x3d2ff98b	0.042962592
10	0xbd7487aa	-0.05969969
11	0x3c50a30c	0.012734186
12	0xbdb11a6d	-0.086476184
13	0xbe4d69bf	-0.2005987
14	0xbd18fa8c	-0.037348315
15	0xbd64f440	-0.055896997
16	0xbdcc289d	-0.09968684
17	0xbe696fcd	-0.22796555
18	0xbda86000	-0.082214355
19	0xbe842f4b	-0.25817332
20	0xbe220e99	-0.15825881
21	0x3e0439db	0.12912695
22	0x3c9b64c7	0.018968953
23	0xbe886ca1	-0.26645377
24	0xbd7020bb	-0.058624964
25	0xbda0d746	-0.0785356
26	0xbe321b70	-0.17393279
27	0xbd68fd29	-0.056882057
28	0xbe5f2cb8	-0.21794403
29	0xbe617479	-0.22017087
30	0xbd8a705e	-0.067597136
31	0xbe00a00a	-0.1256105
32	0xbd0966a3	-0.033545148
33	0x3da0545f	0.078285925
34	0xbdd53772	-0.10410966
35	0xbe3bd1de	-0.18341777
36	0xbd949f14	-0.07256904
37	0xbde092b9	-0.10965485
38	0xbe7f6580	-0.24941063
39	0xbe6839e2	-0.2267833
40	0x3dc83ff3	0.09777822
41	0xbe6b6af5	-0.2299002
42	0xbcf3af0d	-0.029746557
43	0xbd4bc57b	-0.04974888
44	0xbde67e07	-0.112545066
45	0xbd9cda63	-0.076588415
46	0xbdfb3e67	-0.12267762
47	0x3d85edb8	0.06539482
48	0xbe03cc8d	-0.12870999
49	0xbd7a4be4	-0.06110753
50	0xbdef0afd	-0.11672018
51	0xbe810762	-0.25200945
52	0xbe040a90	-0.12894654
53	0xbbf2f427	-0.007414359
54	0xbe5f5016	-0.21807894
55	0xbd633c07	-0.05547717
56	0x3d9c84c9	0.07642514
57	0xbe887fc8	-0.2665999
58	0xbdfe9d29	-0.1243232
59	0xbcc06e10	-0.023489982
60	0xbe86fb88	-0.26363778
61	0xbe528de3	-0.20561938
62	0xbd045d18	-0.032315344
63	0xbd9147f1	-0.070938
64	0xbeadf622	-0.33976847
65	0xbe8a5553	-0.27018222
66	0x3d8cb63b	0.06870695
67	0x3d82c63c	0.063854665
68	0xbe8a1a11	-0.26973012
69	0x3d93aed0	0.07211077
70	0xbc8b71a1	-0.017021956
71	0xbe105149	-0.14093508
72	0x3c3bb9ae	0.011457844
73	0xbd5d035a	-0.053958274
74	0xbe3cef38	-0.1845063
75	0xbd4f343b	-0.05058692
76	0xbe259378	-0.16169536
77	0xbd74fd4b	-0.05981187
78	0xbc52d3df	-0.012867897
79	0xbe1410ac	-0.14459485
80	0x3d206908	0.039162666
81	0x3dcd3304	0.10019496
82	0xbdab4dd9	-0.08364458
83	0xbe08d105	-0.13360985
84	0xbd2712da	-0.040789463
85	0xbcb5b6ef	-0.022181956
86	0xbe06bff1	-0.13159157
87	0x3cbb3a3e	0.02285492
88	0xbd884d26	-0.0665534
89	0x3ddab963	0.10679891
90	0xbd80fbe2	-0.06298043
91	0xbd2685d7	-0.040654983
92	0xbd52c8c9	-0.051461015
93	0xbe4d8b81	-0.20072748
94	0xbcc53531	-0.024073215
95	0xbd4db347	-0.0502198
96	0xbc99cc78	-0.018774256
97	0xbd8e69e8	-0.06953794
98	0x3ce2bfe0	0.027679384
99	0xbe5109dc	-0.20413917
100	0xbd70211e	-0.058625333
101	0xbd93d08b	-0.07217511
102	0xbda130cf	-0.078706376
103	0x3d91ddf6	0.07122414
104	0xbd4b05d3	-0.0495661
105	0xbd54a4ec	-0.051915094
106	0xbd00664e	-0.031347565
107	0xbe403f20	-0.1877408
108	0xbda6ba62	-0.081410185
109	0xbd557392	-0.05211217
110	0xbc7270ba	-0.014797384
111	0xbd872da6	-0.066005036
112	0xbd194bfe	-0.037425987
113	0xbd823a2d	-0.063587524
114	0xbe386b79	-0.18009748
115	0xbd4c43e0	-0.04986942
116	0xbdafc9b2	-0.08583392
117	0xbd3f81c5	-0.046754617
118	0xbbc07678	-0.0058734976
119	0xbdb758c1	-0.08952475
120	0xbe5d135d	-0.21589418
121	0x3c9c272f	0.019061653
122	0xbde1465a	-0.109997466
123	0xbd4c5d15	-0.049893457
124	0xbc04c6d1	-0.008104042
125	0xbdb940f0	-0.09045589
126	0xbda8d40b	-0.08243569
127	0xbcbbb1d7	-0.02291195

sequential_4/conv1d_12/Conv1D f4 [32, 1, 3, 3]
0	0xbd5a7e5a	-0.053343154
1	0x3e32b27d	0.174509
2	0x3e353ceb	0.1769902
3	0x3dbbb139	0.09164662
4	0x3e56a176	0.2096003
5	0x3e087288	0.1332494
6	0xbd661ece	-0.05618172
7	0x3e25eac9	0.16202845
8	0xbd9f3582	-0.07773878
9	0x3ea2d017	0.31799385
10	0xbe1f151b	-0.15535395
11	0x3e84c10f	0.25928542
12	0x3da76847	0.08174186
13	0x3da1f0b7	0.07907241
14	0xbdd73352	-0.105078354
15	0x3eb48d84	0.35264218
16	0x3d9b5669	0.07584841
17	0x3e5f2cad	0.21794386
18	0x3d563eb9	0.05230591
19	0xbd2e8ec2	-0.042616613
20	0x3e0e1e5e	0.13878772
21	0xbd2e9964	-0.042626753
22	0xbe17df79	-0.14831342
23	0x3d3000c5	0.042969484
24	0x3df6041e	0.12012504
25	0x3e673e8e	0.22582456
26	0x3e6005cb	0.2187721
27	0x3df2b529	0.1185096
28	0xbe0e2a50	-0.13883328
29	0x3e8389af	0.25690982
30	0x3d8a9567	0.067667775
31	0xbe863897	-0.2621505
32	0x3ead89e1	0.33894256
33	0x3ea5325c	0.32264984
34	0xbe389ac8	-0.18027794
35	0xbe5832b1	-0.21113087
36	0x3e50dfd0	0.20397878
37	0x3cb65db5	0.02226148
38	0x3df17e9d	0.11791728
39	0xbe318906	-0.17337427
40	0x3d8951df	0.06705069
41	0x3e9a7579	0.3016775
42	0xbe50f8f2	-0.20407465
43	0xbed42d46	-0.4144079
44	0xbe1a23cc	-0.15052718
45	0x3e25cee9	0.16192211
46	0x3c5dc12c	0.013534825
47	0x3e369284	0.17829329
48	0x3e8ab420	0.2709055
49	0x3b1e9081	0.0024195018
50	0x3e69167c	0.22762483
51	0x3e7c5bf5	0.24644454
52	0xbd6f09b6	-0.05835887
53	0x3e961efd	0.29320517
54	0xbe3d4563	-0.184835
55	0x3ef1d50f	0.47232863
56	0x3dd2857c	0.102793664
57	0xbeb6844b	-0.35647807
58	0x3ec51de3	0.38499364
59	0x3e2f1c14	0.17100555
60	0xbe9f71b9	-0.3114145
61	0x3d925a24	0.07146099
62	0x3da53c07	0.0806809
63	0xbe595742	-0.21224692
64	0xbe59c9ce	-0.21268389
65	0x3e69c283	0.22828107
66	0x3c107409	0.008816727
67	0x3e469104	0.19391257
68	0x3e3a8f35	0.18218692
69	0x3e7af047	0.24505721
70	0xbcc0a80e	-0.023517635
71	0xbefaa0e3	-0.48950872
72	0x3d5e4004	0.05426027
73	0x3f098468	0.5371766
74	0x3e677fa5	0.22607286
75	0x3e83a63b	0.2571276
76	0x3ed9d187	0.4254267
77	0x3e5f3502	0.21797565
78	0x3d902e13	0.07040038
79	0x3ec2a0b1	0.38013223
80	0x3ea05959	0.31318167
81	0x3cb46658	0.022021458
82	0x3e520631	0.20510174
83	0x3df5bdca	0.1199909
84	0xbe04cb34	-0.12968141
85	0x3d1f5f9c	0.03890954
86	0x3e701755	0.234464
87	0xbe312684	-0.17299849
88	0x3c934668	0.017977908
89	0xbd2f815c	-0.042847976
90	0xbea78fc3	-0.3272687
91	0x3e277cea	0.16356245
92	0xbb8bd06a	-0.0042667883
93	0xbe8b7739	-0.27239397
94	0x3e162e14	0.14666015
95	0x3dae4254	0.08508745
96	0xbeb5e251	-0.35524228
97	0xbe979ed2	-0.29613358
98	0xbeb6d9e5	-0.35713115
99	0xbca1ff87	-0.019775165
100	0xbea6308b	-0.3245891
101	0x3e8b441b	0.27200398
102	0xbe51b029	-0.20477356
103	0xbebdf353	-0.37099704
104	0xbd2f39ef	-0.04277986
105	0xbe56d46d	-0.20979472
106	0xbe1510ed	-0.14557238
107	0xbecbd7f8	-0.3981321
108	0x3e72e5b3	0.23720436
109	0xbe3b561c	-0.18294567
110	0x3e9c0289	0.30470684
111	0xbe67f5e5	-0.22652395
112	0x3dbb42f1	0.091436274
113	0x3d112187	0.035432365
114	0x3e6cf74c	0.23141211
115	0xbe832626	-0.25615042
116	0x3e7f8ada	0.24955311
117	0xbe3b4302	-0.1828728
118	0xbe4c5eec	-0.19958085
119	0x3c0cba05	0.008589272
120	0x3e49c7da	0.19705144
121	0x3d243edd	0.040099014
122	0x3e47bd68	0.19505847
123	0xbcfe80fa	-0.03106736
124	0xbe046899	-0.12930526
125	0x3dfe8cab	0.12429174
126	0x3cb0ba33	0.021573162
127	0x3f693865	0.91101676
128	0x3d8418a1	0.0645001
129	0xbe870f09	-0.26378658
130	0x3f5493dc	0.83038116
131	0x3d2401a6	0.040040635
132	0x3e3692b7	0.17829405
133	0x3f621266	0.88309324
134	0xbdeb9510	-0.11503041
135	0xbc2755b0	-0.010213301
136	0xbd9b6710	-0.07588017
137	0xbc4b4cd0	-0.01240845
138	0xbdf59a9d	-0.11992381
139	0xbe414330	-0.18873286
140	0x3e5b7d0f	0.21434425
141	0xbe67b786	-0.22628602
142	0x3dcf11c2	0.10110809
143	0x3df1fe5e	0.11816095
144	0xbe9eaead	-0.30992642
145	0x3eba0dc0	0.36338615
146	0xbe1c4a90	-0.15262818
147	0x3d255c45	0.0403712
148	0xbe1edd1b	-0.15514033
149	0x3eaaabf1	0.33334306
150	0x3e778ff2	0.24176005
151	0xbe169050	-0.14703488
152	0xbe38be97	-0.18041454
153	0xbee146e5	-0.439994
154	0x3f0b0e27	0.5431847
155	0x3e052abf	0.13004588
156	0xbe4a45df	-0.19753216
157	0x3edb67d8	0.42852664
158	0x3dd57841	0.10423327
159	0xbeb4a2b4	-0.35280383
160	0x3efd5eb4	0.49486315
161	0x3d88ae77	0.066739015
162	0x3da83962	0.0821407
163	0x3d942294	0.07233158
164	0x3df23a6e	0.11827551
165	0x3dd6dd00	0.10491371
166	0x3d2f2681	0.04276133
167	0x3dd017ea	0.10160811
168	0xbdaa0845	-0.083023585
169	0x3e58ae1c	0.21160167
170	0x3d9931e9	0.07480223
171	0xbe958942	-0.29206282
172	0xbe0a33c4	-0.1349631
173	0xbea00f98	-0.31261897
174	0x3dafb8ee	0.085801944
175	0xbe51403a	-0.20434657
176	0xbe16d42b	-0.14729373
177	0x3e8afe0c	0.27146947
178	0x3e81905f	0.2530546
179	0x3ec757a8	0.38934064
180	0x3e4a2671	0.19741227
181	0xbe85b1ba	-0.26112157
182	0x3df2459b	0.118296824
183	0xbe044a31	-0.12918927
184	0xbef7537e	-0.48305887
185	0x3e3b5a17	0.18296085
186	0x3e36f47c	0.17866701
187	0xbec9a90e	-0.3938679
188	0x3e676012	0.22595242
189	0xbde0d256	-0.109776184
190	0x3ec341aa	0.38136035
191	0xbde60894	-0.11232105
192	0xbedcf3c6	-0.43154734
193	0x3f2da43a	0.67828715
194	0x3dabdb9e	0.08391498
195	0xbe8473b1	-0.25869516
196	0x3ed13467	0.40860292
197	0xbe5d13ee	-0.21589634
198	0xbf0ae236	-0.5425142
199	0x3d4a2ea0	0.04936087
200	0xbdddf393	-0.10837474
201	0xbe2671db	-0.1625437
202	0xbda49025	-0.08035306
203	0x3badb0eb	0.0053006313
204	0xbf1377c7	-0.5760464
205	0xbdebe050	-0.115173936
206	0xbe8242c2	-0.25441557
207	0xbf07cafa	-0.5304409
208	0xbe4ea1af	-0.20178865
209	0xbdcd0fa8	-0.10012752
210	0xbdd87fc7	-0.105712466
211	0xbeca345a	-0.39493066
212	0xbc0340b5	-0.008011033
213	0xbe01ed8a	-0.1268827
214	0xbea0e951	-0.31428006
215	0xbdf0e986	-0.11763291
216	0xbeec14c7	-0.46109602
217	0x3ef4df45	0.4782659
218	0xbdb832da	-0.08994074
219	0xbf5d088e	-0.8634118
220	0x3f3447ee	0.70422256
221	0xbd26b187	-0.040696647
222	0xbf139e9c	-0.57663894
223	0x3f137a16	0.57608163
224	0xbc0c807b	-0.008575554
225	0xbf787ba6	-0.9706367
226	0x3e445a40	0.19175053
227	0xbe19c2ec	-0.15015763
228	0xbf81ede5	-1.0150725
229	0x3d2adeaf	0.041716274
230	0x3cb90369	0.022584634
231	0xbf1aa72e	-0.60411346
232	0x3e94350f	0.2894673
233	0xbe4f74e8	-0.2025944
234	0x3e4b4c21	0.1985326
235	0xbc854df1	-0.016272517
236	0x3eb25704	0.34832013
237	0xbe5b3434	-0.21406633
238	0xbd738ebc	-0.059462294
239	0x3dccb829	0.09996063
240	0x3dd9e88b	0.10640057
241	0x3dbaa519	0.09113521
242	0x3e0a9bd4	0.13536006
243	0xbe9410f8	-0.28919196
244	0x3f23aea0	0.6393833
245	0x3cfc22f0	0.030778378
246	0xbe328a98	-0.17435682
247	0x3f2a6a66	0.665686
248	0x3b8c774a	0.0042866813
249	0xbeaa2d6f	-0.33237788
250	0x3f2a9ed7	0.6664862
251	0x3dba8ed1	0.09109271
252	0xbe3dd210	-0.18537164
253	0x3dfc5d2f	0.12322461
254	0xbece215b	-0.40259823
255	0x3ea47daa	0.32127124

sequential_4/conv1d_13/Conv1D f4 [64, 1, 3, 32]
0	0xbe041c2b	-0.1290137
1	0xbe195f78	-0.14977825
2	0xbd915747	-0.07096725
3	0xbdfedc4b	-0.12444361
4	0x3e0a815d	0.1352591
5	0x3d34a5eb	0.044103544
6	0xbe066313	-0.13123731
7	0xbb0afbde	-0.0021207253
8	0x3da29a4c	0.07939586
9	0xbdf43bd2	-0.11925472
10	0xbe5f5395	-0.21809228
11	0xbe86f13c	-0.26355922
12	0xbdd09420	-0.101845026
13	0x3d9cb8e2	0.07652451
14	0x3e56cf2d	0.20977469
15	0xba9b2980	-0.001183793
16	0x3b7d310c	0.003863397
17	0x3da4085b	0.08009406
18	0xbdab994c	-0.083788484
19	0xbe445363	-0.19172435
20	0x3debc762	0.11512639
21	0x3cdd6724	0.02702672
22	0xbd37f3b6	-0.044910155
23	0xbf037a7e	-0.51358783
24	0x3dc16608	0.09443289
25	0xbc00f5d0	-0.007871106
26	0x3d8c5004	0.06851199
27	0x3e8cf9d3	0.2753435
28	0xbdf203ba	-0.11817117
29	0xbe07afc3	-0.13250642
30	0xbe270471	-0.16310288
31	0xbd855ce3	-0.06511857
32	0x3d51c92a	0.051217236
33	0xbe247707	-0.1606103
34	0x3b7fb236	0.0039016134
35	0xbdf2861c	-0.118419856
36	0xbc8eced4	-0.017432608
37	0x3de6f793	0.1127769
38	0xbe13ce3a	-0.14434138
39	0x3e13f91d	0.14450498
40	0x3e066893	0.1312583
41	0xbdd831aa	-0.10556348
42	0x3cb7d66f	0.022441117
43	0xbeb61bcc	-0.35568082
44	0xbdb2c579	-0.08729071
45	0x3cb80adf	0.022466121
46	0x3e0c55fa	0.13704672
47	0x3e09ceb6	0.1345776
48	0x3c9191da	0.017769743
49	0x3d09e10c	0.033661887
50	0xbd8caf82	-0.06869413
51	0xbe0c167b	-0.1368045
52	0x3c3eabc9	0.011637636
53	0x3d1781f9	0.036989186
54	0xbe3e9af6	-0.186138
55	0xbf0312e9	-0.5120073
56	0x3e0355c9	0.12825693
57	0xbe098e73	-0.13433246
58	0x3e0aebda	0.13566533
59	0x3eb68232	0.35646206
60	0xbdc03015	-0.09384171
61	0x3d975176	0.07388584
62	0xbe05fed8	-0.13085496
63	0xbd8b317e	-0.06796549
64	0xbd91b3ce	-0.07114373
65	0xbe7a1c5b	-0.24424879
66	0x3d3c011e	0.045899503
67	0x3e03aef1	0.12859704
68	0x3d6fa35b	0.058505397
69	0xbd3dd021	-0.046341065
70	0xbe048ce9	-0.12944378
71	0x3e1942c0	0.1496687
72	0xbca8d116	-0.020607512
73	0xbd36965a	-0.04457698
74	0x3ba454d2	0.005014994
75	0xbedd8c91	-0.43271306
76	0x3d2f8246	0.042848848
77	0xbd3e26de	-0.046423785
78	0x3e1c67c9	0.15273966
79	0xbd91a916	-0.07112329
80	0xbcf782dc	-0.030213766
81	0x3c8fe560	0.01756543
82	0x3bd47f85	0.006484928
83	0x3b92ec4e	0.004483736
84	0xbd8f9ea5	-0.07012681
85	0xbe2b50cc	-0.1673004
86	0xbd6e58c4	-0.058190122
87	0xbeba260c	-0.36357152
88	0x3e34979c	0.1763596
89	0x3d6804f6	0.056645356
90	0xbd0cccab	-0.034374874
91	0x3e5a78e2	0.21335176
92	0xbe4f4287	-0.20240222
93	0xbd29a46f	-0.04141658
94	0xbdb37e6c	-0.087643474
95	0xbd3ca852	-0.04605896
96	0x3d5a54f4	0.053303674
97	0xbdb50adc	-0.08839962
98	0xbcb260e0	-0.02177471
99	0x3cea8952	0.028629933
100	0xbde65831	-0.1124729
101	0x3d0a6b74	0.03379388
102	0x3e7b7c7c	0.24559206
103	0xbe094ade	-0.13407466
104	0x3e0acdd6	0.13555083
105	0x3d4972e8	0.04918185
106	0xbd9e3c54	-0.077263504
107	0xbc8ba847	-0.017048014
108	0x3d9055b2	0.07047595
109	0x3d3bea41	0.0458777
110	0x3e451a49	0.19248308
111	0xbdddeade	-0.10835813
112	0xbd3b0618	-0.04566011
113	0x3e6cf46c	0.23140115
114	0x3c913870	0.017727107
115	0xbe797a7b	-0.24363129
116	0x3d64d346	0.05586555
117	0xbd1a87e0	-0.037727237
118	0xbd6f84c2	-0.058476217
119	0xbe9387e3	-0.2881461
120	0x3dc19981	0.09453107
121	0x3dcdd5bb	0.100505315
122	0xbddb0708	-0.106947005
123	0x3e97cdda	0.2964924
124	0xbf1d65ab	-0.6148326
125	0x3e109dca	0.14122692
126	0x3e665e1d	0.22496839
127	0xbe1b8a6e	-0.15189525
128	0xbd9d5e70	-0.07684028
129	0x3e38b9b4	0.1803959
130	0xbd8b996c	-0.06816372
131	0x3b939620	0.0045039803
132	0xbdd950fc	-0.1061115
133	0xbdd8deb4	-0.10589352
134	0x3e02bc52	0.12767151
135	0xbe01642e	-0.12635872
136	0xbd859f03	-0.0652447
137	0xbd9ec264	-0.07751921
138	0xbd9e6a40	-0.07735109
139	0xbcf12cd7	-0.029440327
140	0xbdd448fd	-0.10365484
141	0xbde0b543	-0.10972073
142	0x3daf6e77	0.08565991
143	0xbe12bf81	-0.14330865
144	0xbd467ca0	-0.048458695
145	0x3e8806a4	0.26567566
146	0x3df57040	0.119843006
147	0xbecc3982	-0.39887625
148	0xbd59b15a	-0.05314765
149	0x3d5ab6f4	0.053397134
150	0xbdad01ce	-0.0844761
151	0xbe7a9596	-0.24471125
152	0x3df1e8d2	0.11811985
153	0xbcda131f	-0.026620446
154	0x3bb877c0	0.0056295097
155	0x3eead0d9	0.45862463
156	0xbf2ccb96	-0.6749815
157	0xbd230a50	-0.039804757
158	0x3e88398b	0.26606402
159	0xbd33aea3	-0.04386772
160	0xbd8340ab	-0.06408819
161	0xbd8b233a	-0.06793828
162	0x3de44a04	0.1114693
163	0xbd89277c	-0.06696984
164	0xbdee9b43	-0.116507076
165	0xbccc7c6c	-0.024961673
166	0x3e238069	0.15966953
167	0xbdbc6119	-0.091982074
168	0xbdb1d3ba	-0.08682962
169	0xba85eb00	-0.001021713
170	0xbd2a8fbb	-0.04164098
171	0xbd89acbf	-0.06722402
172	0xbe0169f9	-0.12638082
173	0x3c317abb	0.010832484
174	0x3e5f2645	0.21791942
175	0xbd3a7842	-0.045524843
176	0x3c10b243	0.008831563
177	0x3dc820b7	0.09771865
178	0x3db2bb6c	0.08727154
179	0xbe9dad38	-0.30796218
180	0x3d4c32a2	0.049852975
181	0x3d6501b6	0.055909835
182	0x3d44c9b4	0.04804392
183	0xbea580aa	-0.32324725
184	0x3df1436b	0.11780437
185	0x3e4553a1	0.19270183
186	0xbc3bfb00	-0.011473417
187	0x3e92e391	0.28689244
188	0xbf1201df	-0.57034105
189	0x3dbb9dee	0.09160982
190	0x3e17d0d4	0.14825755
191	0xbe5ff4aa	-0.21870676
192	0xbd99324f	-0.07480299
193	0x3ceaafb2	0.028648231
194	0x3db59baa	0.08867581
195	0x3e5e9065	0.2173477
196	0x3e26976d	0.16268702
197	0x3e40a5d3	0.18813257
198	0xbe1ffd87	-0.15624057
199	0xbec7f371	-0.3905292
200	0xbd1b9cee	-0.037991457
201	0xbe02d696	-0.1277717
202	0xbcd6604d	-0.026168967
203	0xbe2d5afb	-0.16929238
204	0x3e8d829d	0.27638713
205	0x3c169de0	0.009192914
206	0xbec1def5	-0.37865415
207	0xbd6f1e92	-0.058378763
208	0xbe2f0209	-0.1709062
209	0xbd98a535	-0.07453386
210	0xbcdfe7c3	-0.027332192
211	0x3e53f1a0	0.20697641
212	0x3eb10966	0.34577483
213	0x3e2f1655	0.17098363
214	0x3d5a6de9	0.053327475
215	0xbd46e0c6	-0.048554204
216	0x3e27486e	0.16336223
217	0x3e2ca0d2	0.16858223
218	0x3e96ff18	0.29491496
219	0xbe7d8f1b	-0.24761622
220	0xbb1a8efe	-0.0023583765
221	0x3e4222a3	0.18958525
222	0xbe34021d	-0.17578931
223	0xbdce6896	-0.10078542
224	0xbd89eccb	-0.06734618
225	0x3c597a07	0.0132737225
226	0xbbe0330a	-0.006842022
227	0x3d11d94a	0.035607614
228	0x3ef4648e	0.47732967
229	0xbe80e36c	-0.2517351
230	0x3da3c031	0.07995642
231	0x3f1683c3	0.587948
232	0xbe8c2ecf	-0.27379462
233	0xbe03f377	-0.12885843
234	0x3da7ea4b	0.08198985
235	0x3e070da0	0.13188791
236	0xbe04fb31	-0.12986447
237	0xbd737064	-0.059433356
238	0xbe951408	-0.29116845
239	0x3d420178	0.047364682
240	0x3d92894f	0.07155096
241	0xbe063a9d	-0.13108297
242	0x3d07bc9a	0.03313885
243	0xbecc128d	-0.39857903
244	0x3e28a6f6	0.1646994
245	0x3e77cac3	0.24198441
246	0xbda7d713	-0.08195319
247	0x3e0e6d44	0.13908869
248	0x3cc46c64	0.023977466
249	0x3e37f2c9	0.17963709
250	0xbe694e25	-0.22783716
251	0xbefed9f6	-0.49775666
252	0xbf1a98a1	-0.60389143
253	0x3e253efc	0.16137308
254	0xbe14b5fd	-0.14522548
255	0x3e6465db	0.2230448

sequential_4/conv1d_14/Conv1D f4 [128, 1, 3, 64]
0	0xbe27aefc	-0.16375345
1	0xbdb58d18	-0.08864802
2	0x3d86e847	0.06587272
3	0xbe3fe7d0	-0.18740773
4	0xbdd56580	-0.1041975
5	0x3da4c132	0.080446616
6	0xbe31f997	-0.17380367
7	0xbe4860c7	-0.19568168
8	0xbce64a40	-0.028111577
9	0xbe829272	-0.25502354
10	0x3d9929f9	0.07478709
11	0x3d1d7d4b	0.038449567
12	0xbdfa088c	-0.122086614
13	0x3d597b08	0.053095847
14	0x3e38dfd4	0.18054134
15	0x3dd64bcd	0.104636766
16	0x3e5c344f	0.21504329
17	0xbd938ca9	-0.07204563
18	0xbe50bd1c	-0.2038464
19	0xbd126a12	-0.035745688
20	0xbd34f39e	-0.044177644
21	0x3e0c96fd	0.13729472
22	0x3e4dfd42	0.20116141
23	0xbdc45ccb	-0.09588011
24	0x3c51b8b3	0.012800383
25	0x3d4576fb	0.04820917
26	0xbc02dfa9	-0.007987895
27	0x3dca1e0b	0.098690115
28	0x3e16b3d7	0.14717041
29	0x3d9ef44e	0.07761441
30	0x3b08dccc	0.0020883558
31	0x3dc3a0c6	0.095521495
32	0x3e792622	0.24330953
33	0x3bba7d3c	0.0056911986
34	0x3d46f9ef	0.0485782
35	0x3e0d12bc	0.13776678
36	0x3d0a025a	0.03369365
37	0x3e02a9ef	0.12760137
38	0xbc8c7650	-0.01714626
39	0xbd01c39d	-0.031680692
40	0xbe035a35	-0.1282738
41	0xbdaaab9d	-0.08333514
42	0xbe04f00e	-0.12982199
43	0xbe382d57	-0.17986046
44	0x3d0b04d4	0.03394015
45	0xbdc3b428	-0.095558465
46	0xbe6dd6bf	-0.2322645
47	0x3dc90c6e	0.09816824
48	0xbcdc97d1	-0.02692786
49	0x3e021142	0.12701896
50	0x3e181709	0.14852537
51	0x3db2fd53	0.08739724
52	0x3dafa10c	0.08575639
53	0x3e1ae168	0.15125048
54	0x3cd328f7	0.02577637
55	0xbee8888b	-0.45416674
56	0xbe1c0c86	-0.15239152
57	0xbd2b9823	-0.041893136
58	0xbb7329b8	-0.0037103724
59	0xbe07421f	-0.13208817
60	0x3d57696c	0.052590773
61	0xbda65541	-0.0812173
62	0x3db9caec	0.090719074
63	0xbed7b7d5	-0.4213244
64	0x3d9e9799	0.07743759
65	0xbdaaf5cb	-0.083476625
66	0xbe938825	-0.28814808
67	0x3d7f7012	0.062362738
68	0xbdc2c348	-0.09509903
69	0x3d611632	0.054952808
70	0xbb2b71e8	-0.0026160423
71	0xbd24cc11	-0.040233675
72	0x3d42e7cb	0.047584336
73	0xbd69684d	-0.056984235
74	0xbf1d2536	-0.61384904
75	0xbd289045	-0.04115321
76	0xbd06b8d8	-0.032891124
77	0xbcecd562	-0.028910343
78	0x3ee5adf9	0.44859293
79	0xbed2f64e	-0.4120354
80	0x3ec01831	0.37518457
81	0xbd40296f	-0.046914514
82	0xbeb9711b	-0.36219105
83	0xbc90b91e	-0.017666396
84	0x3dbec29d	0.09314463
85	0xbf0e8d2a	-0.5568415
86	0xbe052684	-0.13002974
87	0x3d0ef07c	0.034897313
88	0x3e8dadb9	0.27671602
89	0xbf17416a	-0.5908419
90	0xbd244365	-0.040103335
91	0x3e9a025d	0.30079928
92	0xbc6db6e5	-0.0145089375
93	0xbea9a8ab	-0.33136496
94	0x3dba0a47	0.090839915
95	0x3d7d8c44	0.061901346
96	0xbef0327b	-0.46913514
97	0xbb823d8f	-0.0039746235
98	0x3d245128	0.04011646
99	0xbe5ddb11	-0.21665598
100	0xbcfb7b93	-0.030698573
101	0x3d78b649	0.060720716
102	0x3d0d1a75	0.03444906
103	0x3cc9155d	0.02454632
104	0xbd71a791	-0.058997694
105	0xbdb91b27	-0.09038382
106	0xbe3ed753	-0.18636827
107	0xbcf7c63f	-0.030245898
108	0xbdbba256	-0.091618225
109	0x3da29872	0.07939233
110	0xbe52e225	-0.2059408
111	0xbe104d4d	-0.14091988
112	0xbf04cb0d	-0.5187233
113	0xbf241e34	-0.64108586
114	0x3d6b2539	0.057408545
115	0x3e8de1ee	0.27711433
116	0xbdca5fff	-0.09881591
117	0x3c54f4d2	0.012997823
118	0x3d2289bc	0.039682135
119	0xbd5720cc	-0.052521512
120	0x3c1be2e0	0.00951454
121	0xbc92282c	-0.017841421
122	0xbc47d550	-0.012196854
123	0xbe865d49	-0.26243046
124	0x3d24951c	0.040181264
125	0x3d9772de	0.07394956
126	0x3ea615e2	0.3243857
127	0xbe204aff	-0.15653609
128	0x3e05b7c6	0.13058385
129	0x3cacc106	0.021088134
130	0x3eb9dfa7	0.36303446
131	0x3da1895d	0.07887528
132	0x3d9b9b2c	0.07597956
133	0xbd5864f9	-0.05283067
134	0x3dd86813	0.105667256
135	0xbda8b2e6	-0.08237247
136	0x3d74d232	0.05977077
137	0x3e19f2c8	0.1503402
138	0x3e171dee	0.14757511
139	0xbd61b476	-0.05510374
140	0x3d39ffd5	0.045409996
141	0x3ab18041	0.0013542251
142	0xbf089d80	-0.53365326
143	0x3e23f23f	0.16010378
144	0xbf1cf00a	-0.6130377
145	0xbdcbb6f3	-0.09947004
146	0x3e1f8217	0.15576969
147	0xbcadad5a	-0.021200825
148	0x3c672458	0.014107786
149	0x3e9fb38c	0.3119167
150	0x3e065509	0.13118376
151	0x3ca1c486	0.01974703
152	0xbe97a4fa	-0.29618055
153	0x3ed96c5d	0.42465487
154	0x3d249c74	0.040188268
155	0xbea454a3	-0.32095823
156	0xbcd1ea91	-0.025624545
157	0x3e954bdd	0.29159442
158	0x3c09f287	0.008419639
159	0x3cd8611b	0.026413491
160	0x3e089b0a	0.13340393
161	0x3d005802	0.03133393
162	0x3d9ede1c	0.07757208
163	0x3d90bd83	0.070673965
164	0xbaadcedb	-0.00132605
165	0x3e035409	0.12825026
166	0x3c94c6a3	0.018161124
167	0x3e2d0256	0.16895422
168	0x3d5a892a	0.053353466
169	0x3dd60037	0.1044926
170	0xbe4e7d6f	-0.20165037
171	0xbd9d49ef	-0.07680117
172	0x3b61cc28	0.0034453962
173	0xbcbb343e	-0.02285206
174	0xbea091ea	-0.31361324
175	0xbe875d4d	-0.2643837
176	0x3ec5c5c2	0.3862744
177	0x3e98d7d5	0.29852167
178	0x3d0aaffa	0.03385923
179	0xbd972771	-0.0738057
180	0x3da89799	0.0823204
181	0xbe00c2aa	-0.12574258
182	0xbe038931	-0.12845303
183	0xbd89a1a6	-0.06720285
184	0xbabefbfe	-0.0014570949
185	0x3cbfb875	0.023403386
186	0x3d40fd21	0.047116403
187	0xbe22227e	-0.1583347
188	0xbd66f328	-0.056384236
189	0x3d7b2533	0.061314773
190	0xbe81c77d	-0.2534751
191	0xbe24d0f0	-0.16095328
192	0x3d4d80b5	0.050171573
193	0xbb04bf62	-0.0020255675
194	0xbccae9a2	-0.024769608
195	0xbc38efea	-0.011287669
196	0x3d803c7a	0.06261535
197	0x3c8e55d0	0.017374903
198	0x3d9cae6e	0.07650457
199	0xbcc8995a	-0.024487186
200	0xbb89dc8d	-0.0042072
201	0x3db8d4e8	0.09024984
202	0xbd9ba63c	-0.07600066
203	0xbd502562	-0.0508169
204	0xbdc33db6	-0.09533255
205	0x3db7e4fc	0.08979222
206	0xbbb3bfe5	-0.005485522
207	0x3d3fcd1c	0.046826467
208	0x3cb678bb	0.022274366
209	0xbca9f53a	-0.020746816
210	0xbd081dc0	-0.033231497
211	0xbd88e1ce	-0.06683694
212	0xbdc990ed	-0.098420955
213	0xbd5f3a20	-0.05449879
214	0xbdcc868b	-0.099865995
215	0x3d7f3175	0.062303025
216	0x3ad9e248	0.0016623223
217	0xbca520ff	-0.020157335
218	0x3dc68ac0	0.09694433
219	0xbd9cbf96	-0.076537296
220	0xbda37b03	-0.07982447
221	0x3d8c6724	0.0685561
222	0xbc1096c0	-0.008825004
223	0x3ca9b370	0.020715445
224	0x3d7d4607	0.06183436
225	0xbd1dd843	-0.03853632
226	0xbd86b6e7	-0.065778546
227	0xbdd2b4aa	-0.10288365
228	0xbda48a31	-0.080341704
229	0xbddd25d1	-0.107982285
230	0xbd87ff49	-0.06640489
231	0x3d30da16	0.043176733
232	0x3c289a58	0.010290705
233	0xbbbe46c3	-0.0058067753
234	0xbd9cd973	-0.07658663
235	0x3d836473	0.064156435
236	0xbd97df3c	-0.074156255
237	0x3d3cc1ec	0.046083376
238	0x3d37a0a3	0.04483093
239	0xbd738dc1	-0.05946136
240	0xbdf0302d	-0.11727939
241	0xbbdc9ca3	-0.0067325397
242	0xbd378cb1	-0.04481191
243	0xbdaa5a2e	-0.08317982
244	0xbcf95d88	-0.030440107
245	0x3d851d7e	0.06499766
246	0x3d849593	0.064738415
247	0xbd1b50fc	-0.03791903
248	0xbcc8a551	-0.024492892
249	0xbe00513f	-0.12530993
250	0xbcc259f0	-0.023724526
251	0xbc17daf0	-0.009268507
252	0xbd87ea26	-0.06636457
253	0xbdf96e8f	-0.121792905
254	0xbc923f2c	-0.017852388
255	0x3d8c0f62	0.068388715

sequential_4/dense_9/BiasAdd/ReadVariableOp f4 [6]
0	0x3da52487	0.08063608
1	0xbd8ca261	-0.06866909
2	0xbb085d45	-0.0020807546
3	0xbe2464a9	-0.16054024
4	0x3e0a3568	0.13496935
5	0xbb70788f	-0.0036692952

sequential_4/dense_8/BiasAdd/ReadVariableOp f4 [64]
0	0x3e007f76	0.12548622
1	0xbe349637	-0.17635427
2	0x3e8d8a23	0.27644452
3	0xbe755f5c	-0.23962158
4	0xbd8af954	-0.06785837
5	0xbe4a0c8a	-0.19731346
6	0xbee851e3	-0.45374975
7	0x3da63c0e	0.08116923
8	0xbe7b82ee	-0.24561664
9	0x3f005f84	0.50145745
10	0x3d945715	0.07243172
11	0x3dbd5699	0.09245033
12	0xbde2a0c8	-0.11065823
13	0xbe71d2b5	-0.23615535
14	0xbe598c9e	-0.21245047
15	0xbe963b9a	-0.29342347
16	0x3e2272f4	0.15864164
17	0xbe65aff0	-0.22430396
18	0xbe8c91d6	-0.27455014
19	0x3e7e0847	0.24807845
20	0x3eb1aaf4	0.3470074
21	0xbe0fdf4a	-0.14050022
22	0x3ebe85eb	0.37211546
23	0x3d8f72e6	0.07004337
24	0xbd20fc5b	-0.039303165
25	0xbe5adec6	-0.21374044
26	0xbda0bf19	-0.07848949
27	0x3e2bf3ab	0.1679217
28	0xbdde4a22	-0.108539835
29	0x3e67bf99	0.22631682
30	0xbdbcd65e	-0.09220575
31	0x3e1c7971	0.15280701
32	0xbc80eca5	-0.01573784
33	0x3eedce92	0.46446663
34	0x3ec58bc8	0.38583207
35	0x3ecdbfd1	0.40185407
36	0xbef38dbb	-0.4756907
37	0xbdd2b5a7	-0.10288554
38	0xbd770a61	-0.060312632
39	0x3ec993d0	0.39370584
40	0x3ef0062d	0.46879712
41	0x3dfd4c95	0.123681225
42	0xbd3ae38e	-0.04562717
43	0xbe23ef83	-0.16009335
44	0xbda595d7	-0.0808522
45	0xbd223180	-0.039597988
46	0x3ec8a795	0.39190355
47	0x3ea3e204	0.32008374
48	0xbd533a8f	-0.051569518
49	0x3f194e5e	0.59885204
50	0xbd83ace6	-0.06429462
51	0x3ed2a747	0.41143247
52	0x3efaaf67	0.48961946
53	0xbe8119eb	-0.25215086
54	0x3e373bda	0.17893925
55	0xbe481b2b	-0.19541614
56	0xbd900915	-0.07032982
57	0xbd9a8a95	-0.07545964
58	0xbd590d31	-0.052991096
59	0x3e0606a8	0.13088477
60	0x3cb9366a	0.022608954
61	0x3dfd0126	0.12353735
62	0xbdbb1d5e	-0.09136461
63	0x3ea4da06	0.3219759

sequential_4/dense_8/MatMul f4 [64, 1280]
0	0xbeb36d94	-0.3504454
1	0xbc2688f1	-0.010164485
2	0x3d2fe921	0.04294694
3	0x3ea33d36	0.31882638
4	0x3d56ce00	0.05244255
5	0x3d49fede	0.049315326
6	0xbecbc61f	-0.39799592
7	0xbf109724	-0.5648062
8	0xbca359d2	-0.01994029
9	0x3db1d15d	0.08682511
10	0x3b7fe7a9	0.0039047992
11	0x3dad2332	0.084539786
12	0x3d658e4a	0.0560439
13	0x3e4cc516	0.19997057
14	0xbf0caf58	-0.54955053
15	0xbd6118ca	-0.05495528
16	0x3d34c152	0.044129677
17	0xbd527404	-0.051380172
18	0xbc4f73c7	-0.012661881
19	0xbd8a570d	-0.06754885
20	0xbe09fe74	-0.13475972
21	0x3e038b5b	0.12846129
22	0xbea5dbd3	-0.32394275
23	0xbe15cfd9	-0.14630069
24	0xbf25c345	-0.6475108
25	0xbe3f94c7	-0.18709098
26	0xbd682c00	-0.056682587
27	0xbd9b4e0b	-0.07583245
28	0x3c1db80c	0.0096264
29	0x3de9cacf	0.11415636
30	0xbe1e9ec0	-0.15490246
31	0xbdac923e	-0.08426331
32	0xbd9b66ce	-0.07587968
33	0xbedef6fd	-0.43547812
34	0xbb52566c	-0.0032094968
35	0xbe7a0c42	-0.24418738
36	0xbf056776	-0.52110994
37	0xbdb6d04d	-0.08926449
38	0x3e5a42d6	0.21314558
39	0xbecb8c29	-0.3975537
40	0x3e0ec8a2	0.13943723
41	0xbcbc6e7b	-0.0230019
42	0xbdf46948	-0.11934143
43	0xbf280ac2	-0.65641415
44	0x3d9a62f5	0.07538406
45	0xbf060f76	-0.5236734
46	0xbb5ae557	-0.0033400857
47	0x3de9f6c5	0.11424021
48	0xbcdbad1f	-0.026815949
49	0x3c4f2c3b	0.012644823
50	0x3e03266b	0.12807624
51	0x3e1b0ca9	0.15141548
52	0xbeb0aaf7	-0.34505436
53	0x3d583198	0.05278167
54	0x3e1e965c	0.15487045
55	0x3d888695	0.066662945
56	0xbe2521d2	-0.16126183
57	0xbe40154c	-0.18758124
58	0x3eb1e3d1	0.34744123
59	0xbf1ac603	-0.6045839
60	0x3e66974f	0.22518657
61	0x3e7416b3	0.23836784
62	0xbe5d64b3	-0.21620445
63	0xbe993c01	-0.29928592
64	0xbe49af71	-0.19695832
65	0xbd5f3b45	-0.054499883
66	0x3e424a7b	0.18973725
67	0x3d61635a	0.05502639
68	0xbe41bd89	-0.18919958
69	0x3da17e87	0.07885461
70	0x3e7fac6c	0.24968117
71	0xbe32e16d	-0.17468806
72	0xbe2d13fd	-0.16902156
73	0x3deb3bdc	0.11486027
74	0xbc64729b	-0.01394334
75	0x3d6e8115	0.05822857
76	0x3d631060	0.05543554
77	0xbbcbce0a	-0.00621963
78	0x3ce4fbd4	0.027952112
79	0xbea41ea8	-0.3205464
80	0xbee9f938	-0.4569795
81	0x3eea4157	0.45752975
82	0x3e5105ca	0.20412365
83	0xbd4e0fe4	-0.050308123
84	0xbc5d11b2	-0.013492988
85	0xbf491ebf	-0.7856254
86	0xbde92239	-0.113834806
87	0xbf06b5c0	-0.5262108
88	0xbcba9f9d	-0.022781188
89	0xbcef2e92	-0.029197011
90	0xbd5f5266	-0.05452194
91	0x3cbd0e8b	0.023078224
92	0xbf047281	-0.5173722
93	0xbedb90db	-0.42883953
94	0xbf644cd6	-0.8917974
95	0xbb634582	-0.003467888
96	0xbf37fa9f	-0.7186679
97	0x3d7af29a	0.06126652
98	0x3e4ec67b	0.20192902
99	0x3e4e55f6	0.20149979
100	0xbb00b660	-0.0019639954
101	0x3c0212f7	0.007939092
102	0x3d1ca5e7	0.038244154
103	0x3d31e6a2	0.04343284
104	0x3b231bc3	0.0024888373
105	0x3d5f430a	0.054507293
106	0xbf38c673	-0.7217781
107	0x3c773cc8	0.015090175
108	0x3dd28bb3	0.10280552
109	0x3e055081	0.13018991
110	0xbeebd141	-0.46058086
111	0x3d1e516f	0.03865188
112	0xbd8004d9	-0.062509246
113	0x3d3af6e5	0.045645613
114	0xbe783415	-0.24238618
115	0xbc9316b4	-0.017955162
116	0xbcdd4826	-0.027011942
117	0xbd9da656	-0.07697742
118	0x3e067131	0.13129117
119	0x3cad17f7	0.021129591
120	0xbe27689f	-0.16348504
121	0x3e34b5ee	0.17647526
122	0xbc5852ac	-0.013203304
123	0xbe8c7c7d	-0.27438727
124	0xbf34e435	-0.70660716
125	0xbe6bfb52	-0.2304509
126	0x3ccbe5c0	0.024889827
127	0xbcf89816	-0.030345958
128	0xbf77dd0a	-0.96821654
129	0xbdacb78e	-0.08433448
130	0xbd6398fa	-0.05556581
131	0x3e7ff2ed	0.24995013
132	0x3d2d2985	0.042275924
133	0x3dccf63e	0.100079045
134	0xbe212635	-0.15737231
135	0xbf537626	-0.82602155
136	0x3d87ac92	0.06624712
137	0x3d578e65	0.052626032
138	0xbc91a258	-0.017777607
139	0x3e4153c9	0.18879618
140	0xbc470142	-0.012146296
141	0xbcb43398	-0.021997258
142	0xbe45a635	-0.19301684
143	0xbd355990	-0.044274867
144	0x3d08654e	0.033299737
145	0x3d2b9a88	0.04189542
146	0x3e269343	0.16267113
147	0x3daa1a95	0.08305851
148	0xbc8aafba	-0.016929496
149	0x3e116b0a	0.14200988
150	0xbf26b816	-0.6512464
151	0xbe8a1fe0	-0.26977444
152	0xbf2dfb20	-0.6796131
153	0xbd4f3209	-0.050584827
154	0x3e7f4b89	0.24931158
155	0xbda4be05	-0.08044056
156	0x3e04cf8c	0.12969798
157	0x3e5cf13e	0.21576402
158	0x3d895151	0.06704963
159	0x3df83bac	0.121207565
160	0xbf6cdcfb	-0.9252469
161	0xbf108a82	-0.56461346
162	0xbc84eff8	-0.016227707
163	0xbe8d3025	-0.27575794
164	0xbeaa9213	-0.3331457
165	0xbf08f166	-0.53493345
166	0x3e0bdedc	0.13659233
167	0xbeba56c9	-0.36394337
168	0x3da0c0ee	0.078492984
169	0x3e13083e	0.14358613
170	0xbe6c17a2	-0.2305589
171	0xbdcbb9c3	-0.099475406
172	0xbb699baa	-0.0035645762
173	0xbe36826a	-0.17823187
174	0x3d49604c	0.0491641
175	0x3e23cb26	0.15995464
176	0x3d058b24	0.032603398
177	0xbde247b3	-0.11048832
178	0x3b9f93fc	0.004869936
179	0x3b23b415	0.0024979163
180	0x3c9a50b8	0.018837318
181	0x3bd2758a	0.006422703
182	0x3e1f03b3	0.15528755
183	0x3aa05564	0.001223248
184	0xbe40dc48	-0.1883403
185	0xbe190f68	-0.14947283
186	0x3e2d97b0	0.16952395
187	0xbf7b582d	-0.9818142
188	0x3e449bc2	0.19200042
189	0xbe0adf5b	-0.13561766
190	0xbd9fe44b	-0.07807215
191	0xbe6ce84e	-0.23135492
192	0xbe70eec5	-0.23528583
193	0xbdb6d6ca	-0.089276865
194	0x3e975140	0.29554176
195	0x3d465db7	0.048429217
196	0xbe8fa5f1	-0.2805629
197	0x3d4ef33f	0.050524946
198	0x3e8927c5	0.26788154
199	0xbddf192c	-0.10893473
200	0xbdfffefe	-0.12499808
201	0x3dbb9097	0.09158438
202	0x3d9fc4ed	0.078012325
203	0x3d275a9b	0.040857892
204	0x3e20b3f4	0.15693647
205	0x3cd192a0	0.025582612
206	0x3d7d6bf3	0.061870527
207	0x39a1e6ae	0.00030880183
208	0xbe931288	-0.28725076
209	0x3ef6d15b	0.482066
210	0xbce86f3f	-0.028373359
211	0x3d3b976b	0.0457987
212	0x3d808332	0.062750235
213	0xbe64831f	-0.22315644
214	0xbe5e78fa	-0.21725836
215	0xbde08840	-0.109634876
216	0x3cac446b	0.021028718
217	0x3d54dac3	0.05196644
218	0xbca2c436	-0.019868951
219	0x3d7f6a96	0.062357508
220	0xbe68f288	-0.22748768
221	0xbf022265	-0.5083373
222	0xbee1124a	-0.43959266
223	0x3ce11c79	0.027479397
224	0xbee41a68	-0.44551396
225	0xba9f1080	-0.0012135655
226	0x3d9a372b	0.07530054
227	0x3edf00e5	0.4355537
228	0xbd5a11a1	-0.05323947
229	0xbd2c75c7	-0.04210451
230	0x3db0ab6d	0.08626447
231	0xbc6b7d59	-0.014373147
232	0x3c981c2f	0.018568126
233	0x3d35df32	0.04440231
234	0xbeb5d516	-0.35514134
235	0xbd7468c0	-0.05967021
236	0x3dd9d9b7	0.10637229
237	0x3de1ec40	0.11031389
238	0xbf0ee67c	-0.5582044
239	0x3d74e4ee	0.059788637
240	0x3cbaa362	0.022782985
241	0x3d27ec5c	0.040996894
242	0xbded6a2d	-0.11592517
243	0x3d12f361	0.035876635
244	0x3cc9b8aa	0.024624187
245	0xbd2e2bca	-0.04252223
246	0x3d904319	0.07044048
247	0x3bc77224	0.0060866047
248	0xbdaba421	-0.083809145
249	0x3e3ea3b0	0.1861713
250	0x3de1a792	0.110182896
251	0xbecffec1	-0.4062405
252	0xbefea34a	-0.49733955
253	0xbe5338fc	-0.20627207
254	0x3d618db2	0.05506677
255	0xbb97af7f	-0.004629075

sequential_4/dense_9/MatMul f4 [6, 64]
0	0x3f27b771	0.65514284
1	0xbd369815	-0.04457863
2	0x3f25952c	0.64680743
3	0xbf9bd048	-1.2172937
4	0xbe3455e4	-0.1761089
5	0x3eae9752	0.34099823
6	0xbf22b2cd	-0.6355408
7	0xbe9ae852	-0.3025537
8	0x3dea9164	0.11453512
9	0x3d2530f3	0.040329885
10	0xbe6f9068	-0.2339493
11	0xbdc45a42	-0.09587528
12	0x3e6e93da	0.23298588
13	0xbf816824	-1.0109906
14	0xbe9ae79c	-0.3025483
15	0xbef1d53e	-0.47233003
16	0x3da97ed9	0.082761474
17	0xbf3bd059	-0.7336479
18	0xbf8c3834	-1.0954652
19	0x3f1e0b4c	0.6173599
20	0xbe06c440	-0.13160801
21	0xbe63a2e7	-0.22230111
22	0x3e22fec7	0.15917502
23	0xbf4ab6ee	-0.7918538
24	0xbf177a2d	-0.591708
25	0xbf0209e7	-0.5079636
26	0x3cb8f8a5	0.0225795
27	0x3dc38dda	0.095485404
28	0xbf452069	-0.7700258
29	0xbd32c937	-0.043648925
30	0x3e7df783	0.2480145
31	0x3f12ef13	0.5739605
32	0xbee6d675	-0.45085493
33	0x3f027963	0.5096647
34	0x3ed3fa68	0.41401982
35	0x3ec9b154	0.39393103
36	0xbed4563d	-0.41472045
37	0xbd8a8006	-0.067627
38	0xbb952810	-0.004551895
39	0x3eadf782	0.33977896
40	0x3d15ee57	0.03660425
41	0xbf7e10d6	-0.9924444
42	0x3e8d3eba	0.2758692
43	0xbf1da2b2	-0.6157638
44	0x3e1f24a3	0.1554132
45	0xbe8a4736	-0.27007455
46	0x3ec716d5	0.38884607
47	0x3da7de70	0.081967235
48	0xbe729904	-0.23691183
49	0x3e811b98	0.25216365
50	0x3e29172d	0.16512747
51	0x3dbaaaac	0.09114584
52	0x3e27977f	0.16366385
53	0xbd8ba52b	-0.06818613
54	0xbeb327e6	-0.34991378
55	0xbe8f3b5e	-0.2797498
56	0xbe7500e7	-0.23926125
57	0x3e0ae15c	0.1356253
58	0xbe0f163c	-0.13973325
59	0x3e4f9187	0.20270358
60	0x3e90a59a	0.28251344
61	0x3f4006e5	0.7501052
62	0xbe632e85	-0.22185715
63	0x3f028d37	0.50996727
64	0xbf3fec54	-0.74969983
65	0x3e3c441e	0.1838536
66	0x3e5b59b9	0.21420945
67	0x3d43598d	0.047692824
68	0x3e7fe933	0.24991302
69	0xbe77cfaf	-0.24200319
70	0x3e4acc49	0.19804491
71	0xbe721936	-0.2364243
72	0x3e48bdd3	0.19603662
73	0x3d8f61f6	0.070011064
74	0x3c98d6fa	0.018657196
75	0x3dafc3a9	0.08582241
76	0xbd8a73b1	-0.06760348
77	0x3e5bb992	0.21457508
78	0x3e52e20d	0.20594044
79	0x3e69d912	0.22836712
80	0xbe54d447	-0.20784102
81	0x3e25ed20	0.16203737
82	0x3dc40b51	0.09572471
83	0x3dc30cc9	0.09523923
84	0x3f602b05	0.8756564
85	0xbf177ca2	-0.5917455
86	0xbf67885d	-0.9044245
87	0xbea0ef18	-0.31432414
88	0x3db90826	0.09034757
89	0x3e8a614d	0.2702736
90	0xbe88bfd8	-0.26708865
91	0xbf22f0f3	-0.6364891
92	0x3e91b8bb	0.2846125
93	0xbf541f44	-0.8286021
94	0x3e7ac7df	0.24490307
95	0xbe19095e	-0.1494498
96	0x3d5f11ef	0.054460462
97	0xbc3fad2e	-0.011699004
98	0xbf59fb71	-0.85149294
99	0xbf05d17f	-0.5227279
100	0x3e41ec8b	0.1893789
101	0xbe7730b5	-0.24139674
102	0xbe120b24	-0.14262062
103	0xbfa8a1f5	-1.3174425
104	0x3e2d51cb	0.16925733
105	0x39ee9c5e	0.000455114
106	0xbe12f311	-0.14350535
107	0x3dae840f	0.08521282
108	0x3e207ed0	0.15673375
109	0x3ece1ee3	0.4025794
110	0xbf61a45e	-0.8814143
111	0x3ee0e948	0.4392798
112	0x3d950e8e	0.07278167
113	0x3e158567	0.1460167
114	0x3d5dd2ae	0.054155998
115	0x3c926229	0.017869072
116	0xbcecac0d	-0.028890634
117	0xbefe4b73	-0.49666938
118	0xbf01aa7a	-0.5065075
119	0xbf0b8f18	-0.5451522
120	0xbcb181c7	-0.021668328
121	0xbde0f38f	-0.10983955
122	0xbe30e89d	-0.17276235
123	0xbee2d6d7	-0.44304535
124	0x3e82ea81	0.25569537
125	0xbe839b98	-0.25704646
126	0xbdea75e2	-0.114482656
127	0xbf6522ad	-0.89506036
128	0x3e41a133	0.18909149
129	0x3edfe9b4	0.4373299
130	0x3efbcbb8	0.49178863
131	0x3d819002	0.063262954
132	0xbdd2a81b	-0.1028597
133	0xbf1b1811	-0.605836
134	0x3d512971	0.051064912
135	0xbe0b5665	-0.13607176
136	0xbf89b6e8	-1.0758944
137	0xbcbaf27b	-0.022820702
138	0xbf1eb235	-0.6199067
139	0x3e2c80df	0.16846035
140	0xbdf32ade	-0.11873411
141	0x3e9684ed	0.2939829
142	0xbeb30305	-0.3496324
143	0x3e433ec3	0.1906691
144	0xbec35d66	-0.38157195
145	0xbe2df0f3	-0.16986446
146	0x3d87c672	0.06629647
147	0xbf2f21bd	-0.68410856
148	0xbf3b7d2e	-0.73237884
149	0xbf05dbfa	-0.5228878
150	0xbd971f87	-0.0737906
151	0x3ecb2696	0.39677876
152	0x3e4784e4	0.19484288
153	0xbe6cb226	-0.23114833
154	0xbd7970d1	-0.060898606
155	0x3e80733a	0.2508791
156	0xbc8a735b	-0.016900709
157	0x3e9fbe57	0.31199905
158	0x3d98e34b	0.07465228
159	0x3dff044b	0.12451991
160	0x3b8dc745	0.0043267333
161	0xbfc2d102	-1.5220034
162	0x3ecdb9f8	0.40180945
163	0xbe490579	-0.19630994
164	0x3d9ba3e0	0.07599616
165	0xbee2d9ee	-0.44306892
166	0x3e59dd2b	0.21275775
167	0xbd8973cf	-0.06711542
168	0x3dcd4bb5	0.100242056
169	0x3eb8d92e	0.36103195
170	0xbe213e78	-0.15746486
171	0x3e8bfeef	0.27342936
172	0x3ca67714	0.020320453
173	0xbeefd70a	-0.4684375
174	0x3e38e658	0.18056619
175	0xbeeca6a6	-0.46220893
176	0x3de2a496	0.110665485
177	0xbd19682d	-0.037452865
178	0x3daba5e1	0.08381248
179	0x3e5669e7	0.20938836
180	0x3d77d743	0.060508024
181	0x3efb4a28	0.49080014
182	0x3e3c58c3	0.18393235
183	0x3f2b23e1	0.6685162
184	0x3e5b8341	0.21436788
185	0x3dfe4eb5	0.12417356
186	0xbd15725e	-0.036486022
187	0xbf1cba5d	-0.6122187
188	0x3e53fdcb	0.20702283
189	0x3eb0ae69	0.34508064
190	0x3df2f8b2	0.11863841
191	0x3e905b41	0.2819462
192	0xbf03af21	-0.514391
193	0x3e78c71e	0.24294707
194	0xbe15f0b2	-0.14642599
195	0x3d1d5c96	0.038418375
196	0x3b9bb8c0	0.0047522485
197	0x3f1f87e9	0.6231676
198	0x3e8b3758	0.2719066
199	0x3e1dc45c	0.15406936
200	0x3e345c1a	0.17613259
201	0xbf966b59	-1.175151
202	0x3e960625	0.29301563
203	0xbf1b8f0f	-0.60765165
204	0x3d95e8e4	0.07319811
205	0x3e37d88e	0.17953703
206	0x3e76d901	0.24106218
207	0x3e0896fb	0.13338844
208	0x3e9b7e1c	0.3036965
209	0x3e89f280	0.26942825
210	0x3e1d8ca9	0.15385689
211	0xbf01752c	-0.50569415
212	0xbe50cd09	-0.20390715
213	0x3f0f28fe	0.55921924
214	0xbfaa2d4e	-1.3295076
215	0xbeefb722	-0.46819407
216	0x3e44efaa	0.1923205
217	0x3e27c1b6	0.16382489
218	0xbe70609e	-0.23474357
219	0x3eb595fd	0.35465994
220	0x3e8d49c2	0.27595335
221	0x3f2621cd	0.64895326
222	0xbdf65f2a	-0.1202987
223	0xbf40225f	-0.75052446
224	0x3d5fc64d	0.054632474
225	0x3e8f8382	0.2803002
226	0x3e8ee0f3	0.27905998
227	0xc0027f68	-2.0390263
228	0xbf3ca1b3	-0.73684233
229	0x3e1203c1	0.14259245
230	0xbe7dce1c	-0.24785656
231	0x3ea558ba	0.32294255
232	0xbf775dd0	-0.9662752
233	0x3d91d6f8	0.0712108
234	0xbcc6351c	-0.024195246
235	0x3e12e505	0.14345177
236	0x3e42c187	0.19019137
237	0x3e03ebb4	0.12882882
238	0xbf787c69	-0.97064835
239	0xbecf81a2	-0.4052859
240	0xbe277a42	-0.16355231
241	0xbfbb8cef	-1.4652385
242	0x3ce65fc8	0.028121844
243	0xbf41b868	-0.75672007
244	0xbf853e9c	-1.0409732
245	0xbf04b1df	-0.5183391
246	0xbea497fc	-0.32147205
247	0x3e218fc9	0.15777506
248	0x3d18ec3b	0.037334662
249	0xbd60ce47	-0.05488422
250	0x3e54654f	0.20741771
251	0x3f206cc4	0.62665963
252	0xbf832979	-1.0247031
253	0xbeecc323	-0.46242628
254	0xbe435e53	-0.1907895
255	0xbf312ebd	-0.6921194
