models/models_for_presentation/lying_down_left_model.tflite (tflite, 461776 bytes, 10 tensors)

sequential_6/conv1d_18/BiasAdd/ReadVariableOp f4 [32]
0	0x3ca40880	0.020023584
1	0xbcb8f85d	-0.022579366
2	0xbde57516	-0.11203973
3	0xbd4adaf2	-0.04952521
4	0xbd29d89e	-0.041466348
5	0xbcd35110	-0.02579549
6	0xbd3eb745	-0.0465615
7	0x3d57df34	0.052703097
8	0xbd41a433	-0.047275733
9	0xbd9fed13	-0.0780889
10	0xbb232be2	-0.0024897982
11	0xbdaa980a	-0.083297804
12	0xbd8e526d	-0.06949315
13	0xbd0a7dcf	-0.033811387
14	0xbd53b9dd	-0.051690925
15	0xbd795cb1	-0.060879413
16	0xbe09aaf5	-0.13444121
17	0xbd03fe5c	-0.032224998
18	0xbcc2791c	-0.02373939
19	0xbbf15cbf	-0.0073657925
20	0xbda66c92	-0.08126177
21	0x3c4e03bf	0.012574135
22	0xbdb95b9a	-0.09050675
23	0x3d109594	0.0352989
24	0xbd86fc19	-0.065910526
25	0xbdc54aa6	-0.09633379
26	0x3c5913ea	0.013249377
27	0x3d0fac15	0.03507622
28	0x3c3562b0	0.011070892
29	0x3d684cde	0.05671393
30	0xbdfa83c6	-0.12232165
31	0xbe03189b	-0.12802355

sequential_6/conv1d_19/BiasAdd/ReadVariableOp f4 [64]
0	0xbe15a859	-0.14615001
1	0xbe2e7d8b	-0.17040078
2	0xbe28ed04	-0.16496664
3	0x3d0204f1	0.031742994
4	0xbd19082b	-0.037361305
5	0xbe0c2518	-0.13686025
6	0xbe53ac41	-0.20671178
7	0xbe8c7154	-0.27430212
8	0x3ca432f0	0.02004382
9	0xbe3341a1	-0.17505504
10	0xbe5abdf3	-0.21361522
11	0x3de8af31	0.1136154
12	0x3d4d02a8	0.05005136
13	0x3d54529b	0.05183659
14	0xbd144920	-0.03620255
15	0xbe429c4a	-0.19004932
16	0xbd9b120c	-0.075718015
17	0xbe233b9e	-0.15940711
18	0xbc76b3ec	-0.015057545
19	0xbd5d410e	-0.05401712
20	0xbe42a205	-0.19007118
21	0x3d3be5b2	0.04587335
22	0xbe6fe9a4	-0.2342897
23	0x39ee8c38	0.0004549937
24	0xbcde7496	-0.027155202
25	0xbd75c702	-0.06000424
26	0xbdcfdc6f	-0.10149466
27	0x3ca51190	0.020149976
28	0x3c25575b	0.010091628
29	0x3df44f36	0.11929171
30	0xbdb7f34f	-0.08981954
31	0xbdf60b72	-0.12013902
32	0xbd2fae46	-0.04289081
33	0xbe5aebc0	-0.21378994
34	0xbdfc101b	-0.123077594
35	0x3d843b04	0.06456569
36	0xbdf179d6	-0.117908165
37	0xbc742209	-0.014900693
38	0xbd95547c	-0.07291505
39	0x3b0c2712	0.0021385592
40	0x3c9a68a0	0.018848717
41	0x3d94f529	0.07273323
42	0xbd203358	-0.039111465
43	0xbe3cd38b	-0.18440072
44	0xbd0160e9	-0.03158656
45	0xbdc9004e	-0.09814511
46	0xbdd8367a	-0.105572656
47	0xbd314431	-0.043277923
48	0xbe5036d2	-0.20333412
49	0xbd839f0f	-0.064268224
50	0xbd46f9cc	-0.04857807
51	0xbd4e4907	-0.050362613
52	0xbcd92a03	-0.02650929
53	0xbe54fa8b	-0.207987
54	0xbd98ce98	-0.0746128
55	0xbd6e2934	-0.058144763
56	0xbdedac5d	-0.11605141
57	0xbe39ae08	-0.18132794
58	0xbae73550	-0.001763979
59	0xbe067cab	-0.13133495
60	0x3dce7857	0.10081547
61	0xbcfdd202	-0.030983929
62	0xbdc91e3e	-0.09820221
63	0x3d5c8984	0.053842083

sequential_6/conv1d_20/BiasAdd/ReadVariableOp f4 [128]
0	0x3e1fbe99	0.15600051
1	0xbdcefd60	-0.10106921
2	0xbde0c466	-0.1097496
3	0xbde2a161	-0.11065937
4	0xbe0975f4	-0.13423902
5	0x3da429b5	0.080157675
6	0xbe399cee	-0.1812627
7	0xbe05d8d4	-0.13070995
8	0xbd6cce33	-0.057813834
9	0xbd6991cd	-0.057023812
10	0xbdaf7c57	-0.08568638
11	0x3cfaf61c	0.030634932
12	0x3d2e11a2	0.042497285
13	0xbe5bc1ec	-0.21460694
14	0x3d50d08d	0.05098014
15	0xbd947272	-0.07248391
16	0xbd90deed	-0.0707377
17	0xbe822457	-0.2541835
18	0xbe54df6d	-0.20788355
19	0xbdb280f9	-0.08716006
20	0x3db48cf2	0.08815946
21	0xbe82c2f6	-0.25539368
22	0xbd824bb7	-0.06362098
23	0xbda6d218	-0.08145541
24	0x3d7c1178	0.061540097
25	0x3baa93b2	0.005205595
26	0xbda2cb9a	-0.0794899
27	0xbce6c97c	-0.028172247
28	0xbdf1c5d2	-0.11805309
29	0xbda1e876	-0.079056665
30	0xbc19679d	-0.009363082
31	0x3ca077f6	0.019588452
32	0xbe28cc98	-0.16484296
33	0xbd25e9a2	-0.040506013
34	0xbd44ad95	-0.048017103
35	0xbcb870c2	-0.022514705
36	0xbd107998	-0.03527221
37	0xbe198dd4	-0.1499551
38	0xbe03304a	-0.1281139
39	0x3dc905de	0.09815572
40	0xbd9da8d5	-0.07698218
41	0xbd989a62	-0.07451321
42	0xbe156f46	-0.14593229
43	0xbe0b5c3b	-0.13609402
44	0xbdfaa763	-0.12238958
45	0x3d366c06	0.044536613
46	0x3df12c52	0.117760316
47	0xbd3debfd	-0.046367634
48	0xbd819c9a	-0.063286975
49	0xbd94ff70	-0.07275283
50	0xbd94ce58	-0.072659194
51	0x3d96c88e	0.073624715
52	0xbd0ad87a	-0.033897854
53	0x3e2f8199	0.17139281
54	0xbdc641f6	-0.0968055
55	0xbd66d44b	-0.056354802
56	0xbd5b5b7a	-0.053554036
57	0xbe049025	-0.12945612
58	0xbe2a5dec	-0.16637391
59	0xbdad682e	-0.08467136
60	0xbb7b1196	-0.0038310043
61	0xbdad6ee0	-0.08468413
62	0xbd858246	-0.06518988
63	0xbcfa12e0	-0.030526578
64	0x3d84692d	0.06465373
65	0xbe74c3c2	-0.239028
66	0x3d57eab4	0.052714065
67	0xbd81aa2f	-0.06331288
68	0xbd19b688	-0.03752759
69	0xbd102e80	-0.035200596
70	0xbd5ab142	-0.053391702
71	0xbdb14ffd	-0.08657835
72	0xbe0016a1	-0.12508632
73	0xbd992695	-0.07478062
74	0xbe1702f4	-0.1474722
75	0xbdb2ccfa	-0.087305024
76	0xbda697cb	-0.08134421
77	0xbd996401	-0.07489777
78	0xbda513e8	-0.080604374
79	0xbc0ca235	-0.008583595
80	0x3db0acc7	0.08626705
81	0xbd1ca49d	-0.038242925
82	0x3dc25ce8	0.09490377
83	0xbd4a1fd5	-0.049346764
84	0xbde6cebf	-0.112699024
85	0xbe4c792c	-0.19968098
86	0xbd38af7c	-0.04508923
87	0xbe52c6a8	-0.20583594
88	0xbe15552a	-0.14583269
89	0xbd6ab2f1	-0.057299558
90	0xbc97c5f1	-0.018527003
91	0xbe61a6a5	-0.22036226
92	0xbd75a233	-0.05996914
93	0xbe6c96f0	-0.23104453
94	0xbc540bec	-0.0129422955
95	0xbd7f0fd8	-0.06227097
96	0xbe24c2e5	-0.16089971
97	0xbd65096c	-0.05591719
98	0xbd9ae394	-0.07562938
99	0xbe6d527f	-0.23176001
100	0xbdd1aea3	-0.102383874
101	0xbd16434d	-0.036685277
102	0xbd146087	-0.03622487
103	0xbd4ba530	-0.049718082
104	0x3dba7f3d	0.091063
105	0xbc9e45db	-0.019320419
106	0x3db2ed40	0.08736658
107	0xbd30af20	-0.043135762
108	0x3c9d687f	0.019214867
109	0xbd809793	-0.062789105
110	0xbd177200	-0.036973953
111	0x3cc2dea1	0.023787798
112	0x3de32634	0.11091271
113	0xbd9a5218	-0.075351894
114	0x3cc6f4d0	0.024286658
115	0xbdcf6f3c	-0.10128638
116	0xbd82db71	-0.063895114
117	0xbd7220b8	-0.059113234
118	0xbdca3760	-0.09873843
119	0xbcbec8d4	-0.023289122
120	0x3e0f1612	0.13973263
121	0xbd2225a4	-0.03958668
122	0x3c43bd86	0.011947041
123	0xbdede0bb	-0.116151296
124	0x3ce31cda	0.027723718
125	0xbe4aba34	-0.19797593
126	0xbdc3d241	-0.09561587
127	0x3c76853a	0.015046412

sequential_6/conv1d_18/Conv1D f4 [32, 1, 3, 3]
0	0x3ecbfc13	0.39840755
1	0xbeb67e2a	-0.3564313
2	0x3b80fc08	0.0039362945
3	0x3e17f984	0.14841276
4	0xbe9b46d9	-0.3032749
5	0xbe4f0bbd	-0.20219322
6	0x3ef02bed	0.46908513
7	0xbec14270	-0.37746
8	0xbd8b0638	-0.067882955
9	0xbde1055e	-0.10987352
10	0x3de14ad0	0.110005975
11	0x3f111040	0.5666542
12	0x3cdb4490	0.026766092
13	0xbde5c1bd	-0.11218593
14	0x3ed0e30e	0.4079823
15	0xbe13be8e	-0.1442816
16	0xbe57cb1a	-0.21073571
17	0x3ccbf8d3	0.024898922
18	0x3cc1a041	0.023635985
19	0x3d440a32	0.047861286
20	0xbe988225	-0.29786792
21	0x3e6f751b	0.23384516
22	0x3eab24ca	0.33426505
23	0xbd03ed34	-0.032208636
24	0xbe0f4bac	-0.1399371
25	0x3ee93a01	0.45552066
26	0xbe6c6b36	-0.23087773
27	0xbdf69206	-0.120395705
28	0xbda7fac2	-0.08202125
29	0xbdd840f9	-0.105592676
30	0x3cf28582	0.029604677
31	0xbe27a051	-0.1636975
32	0x3efd65e5	0.49491802
33	0x3d9a0cbc	0.0752196
34	0x3ec913cc	0.39272916
35	0xbeaf9dfe	-0.34300226
36	0x3da81781	0.08207608
37	0xbe127312	-0.14301708
38	0x3e5b7f52	0.21435288
39	0x3e4779e5	0.19480093
40	0x3ad59d68	0.0016297521
41	0xbd048e65	-0.03236236
42	0x3e1b13dd	0.15144296
43	0xbe8f306e	-0.27966636
44	0x3db9544e	0.09049283
45	0x3e877739	0.26458147
46	0xbc12ad2a	-0.008952418
47	0xbe9a8bfc	-0.30184925
48	0x3e055c82	0.1302357
49	0x3de6d80d	0.11271677
50	0xbd694268	-0.056948096
51	0x3e59eace	0.21280977
52	0x3e35bfe8	0.17748988
53	0xbdb1a4a4	-0.08673981
54	0xbe4c06f6	-0.1992453
55	0x3e939865	0.28827205
56	0xbe493645	-0.19649608
57	0xbdf1b5b7	-0.118022375
58	0xbe36f511	-0.17866923
59	0xbd2a2c3c	-0.04154609
60	0x3e8db3b9	0.2767618
61	0xbdf79802	-0.1208954
62	0x3f46f0cd	0.7771118
63	0x3e2b9122	0.16754583
64	0x3e8a2e06	0.26988238
65	0x3e805bd1	0.2507005
66	0xbe18a13f	-0.1490526
67	0x3f1dc31e	0.6162585
68	0xbd6c828b	-0.057741683
69	0xbd453178	-0.04814288
70	0x3f1ae364	0.6050322
71	0xbd494902	-0.04914189
72	0x3d88b9f1	0.066760905
73	0x3efb2809	0.49053982
74	0xbec41335	-0.38295904
75	0x3de75689	0.11295802
76	0x3e1a1680	0.15047646
77	0x3e864b35	0.26229253
78	0xbd1ad46d	-0.03780024
79	0x3cfc881c	0.03082662
80	0xbdd31735	-0.10307161
81	0xbe419ace	-0.1890671
82	0xbca13764	-0.019679733
83	0x3eb8f1ac	0.3612188
84	0xbd5a5e85	-0.053312797
85	0x3df29947	0.118456416
86	0x3e4b4ae0	0.19852781
87	0x3da1f50b	0.07908066
88	0x3c2e415d	0.010635701
89	0xbf136d65	-0.575888
90	0xbe3a30f5	-0.18182738
91	0xbebd6105	-0.36988083
92	0xbc8b6eb6	-0.017020565
93	0x3e4ecda7	0.20195638
94	0xbe753d51	-0.23949172
95	0xbec7cfa3	-0.39025602
96	0x3e868f8a	0.26281387
97	0x3d647bee	0.05578225
98	0x3cc6f85f	0.024288354
99	0x3eb4bc38	0.3529985
100	0x3db7a2ca	0.089665964
101	0x3e8af66b	0.27141127
102	0x3e5fda3b	0.21860592
103	0x3e49765a	0.19674054
104	0xbd9b9b1a	-0.07597943
105	0x3e9fbe9b	0.31200108
106	0x3e9f4a59	0.3111141
107	0x3e8fb5b7	0.28068325
108	0xb828a247	-4.0205454e-05
109	0x3e0e87c4	0.13918978
110	0x3f237749	0.6385389
111	0xbd92534e	-0.07144795
112	0x3ecae4e2	0.3962775
113	0x3f0af88b	0.54285496
114	0xbc4ce435	-0.012505581
115	0x3f0e9ccf	0.5570802
116	0x3ef158bb	0.47138008
117	0x3e3b7f16	0.18310198
118	0xbb3fd5d0	-0.002927173
119	0x3dec8d64	0.115504056
120	0xbe1601aa	-0.14649072
121	0xbdc2218b	-0.09479054
122	0xbd4c4cfb	-0.0498781
123	0x3df9eeed	0.122037746
124	0x3de5732a	0.112036064
125	0x3da1c4b8	0.07898849
126	0xbdfd8209	-0.12378318
127	0x3de57da2	0.11205603
128	0x3e982664	0.2971679
129	0xbd9573c2	-0.0729747
130	0x3edea369	0.43484047
131	0x3eaa7eca	0.33299857
132	0x3adc62f5	0.001681416
133	0x3eddbd63	0.43308553
134	0x3ec28de7	0.37998888
135	0x3e527f5b	0.20556395
136	0x3e31b6f7	0.17354952
137	0x3e765b3a	0.24058238
138	0xbe30f291	-0.17280032
139	0x3e326bd5	0.17423947
140	0x3eb9299e	0.36164564
141	0x3e1e8051	0.15478636
142	0x3e219c3e	0.15782258
143	0x3e1922a4	0.1495462
144	0x3eaad3a4	0.33364594
145	0xbd8b02d8	-0.06787652
146	0xbe03007f	-0.12793158
147	0x3bb54792	0.0055322135
148	0x3d6c0fbf	0.057632204
149	0xbe81f4d5	-0.25382105
150	0x3e2d5ec0	0.16930676
151	0xbd103138	-0.03520319
152	0xbe8d68f2	-0.2761913
153	0xbe29be93	-0.16576605
154	0xbeb49b14	-0.35274565
155	0x3ec84a9e	0.39119428
156	0x3e9b8843	0.30377397
157	0xbee803f6	-0.45315522
158	0x3ee03cdd	0.43796435
159	0x3e22fafa	0.15916052
160	0xbe7b8673	-0.24563007
161	0x3ecc2a25	0.39875904
162	0xbe6362fd	-0.2220573
163	0xbecb3042	-0.39685255
164	0xbdd04564	-0.10169485
165	0x3b45a0af	0.003015559
166	0xbed9d646	-0.4254629
167	0x3e5341c7	0.20630561
168	0x3e897cbb	0.26852974
169	0xbe92e920	-0.28693485
170	0x3e552ff4	0.20819074
171	0x3de97269	0.11398775
172	0x3de832f0	0.113378406
173	0x3f1db803	0.61608905
174	0xbe44233e	-0.19154069
175	0xbe029db6	-0.12755474
176	0xbe64b150	-0.22333264
177	0x3d7264f4	0.059178308
178	0x3cb1bac1	0.021695497
179	0xbece573a	-0.40300924
180	0x3d3aae6d	0.0455765
181	0xbe22eead	-0.1591136
182	0x3e340f21	0.17583896
183	0x3d76ee1e	0.06028568
184	0xbebd3c61	-0.36960128
185	0x3efd910b	0.49524722
186	0xbe0f5a8f	-0.13999389
187	0xbe955129	-0.29163483
188	0x3ea0943e	0.313631
189	0x3da17596	0.07883756
190	0xbedc2244	-0.42994893
191	0x3e81ec20	0.25375462
192	0x3e5623b4	0.20912057
193	0xbea880bd	-0.3291072
194	0xbda023ef	-0.07819354
195	0xbe313e9e	-0.17309043
196	0xbe71d687	-0.23616992
197	0x3e737a12	0.23777035
198	0x3e8e6ec3	0.2781888
199	0x3d85484c	0.0650793
200	0xbe15c6f7	-0.1462668
201	0x3dc8fb6d	0.09813581
202	0x3e75f728	0.24020064
203	0xbe4431d6	-0.19159636
204	0x3d0e78f5	0.034783322
205	0x3eb109aa	0.34577686
206	0xbdca76de	-0.09885953
207	0x3be84d01	0.0070892577
208	0xbd95ade4	-0.07308558
209	0xbf39d402	-0.72589123
210	0x3d83f32a	0.06442864
211	0x3e2bbc50	0.16771054
212	0x3e59680d	0.21231098
213	0xbd9c1eb1	-0.076230414
214	0xbdb2418c	-0.08703908
215	0x3f05fc70	0.52338314
216	0x3ec555c1	0.38541988
217	0x3ea1b964	0.31586754
218	0x3d4a7b6b	0.049434107
219	0x3ec9b226	0.3939373
220	0x3e0df8e8	0.13864481
221	0x3d22963d	0.03969406
222	0x3ea50ec4	0.32237828
223	0x3e90a816	0.2825324
224	0x3ec891f5	0.39173856
225	0xbe258391	-0.1616347
226	0xbe787211	-0.24262263
227	0x3f0d6761	0.5523587
228	0xbcd31025	-0.025764534
229	0xbd571e66	-0.052519225
230	0xbb164258	-0.0022927728
231	0x3da30001	0.07958985
232	0x3e6e9da2	0.2330232
233	0xbf217920	-0.6307545
234	0xbdf62b56	-0.120199844
235	0x3edc5a7c	0.43037784
236	0xbe1f9d56	-0.15587363
237	0xbe534faf	-0.20635866
238	0x3ec2d2f7	0.38051578
239	0x3ef7ea95	0.4842116
240	0xbe2c0fea	-0.16802946
241	0x3e86d8a3	0.26337156
242	0x3ebc51ff	0.36781308
243	0x3e552eca	0.2081863
244	0xbe614498	-0.21998823
245	0xbea448ac	-0.32086694
246	0x3d8d6986	0.069048926
247	0x3ef2ec8d	0.474461
248	0x3e3bded3	0.1834672
249	0xbe5e8684	-0.21731001
250	0xbe9e26a7	-0.30888864
251	0x3e1c1754	0.15243274
252	0xbdcfe7af	-0.10151612
253	0xbe5c2295	-0.21497567
254	0xbf17581f	-0.5911884
255	0x3e637c6e	0.22215435

sequential_6/conv1d_19/Conv1D f4 [64, 1, 3, 32]
0	0x3ea1233c	0.31472194
1	0xbd7ede66	-0.062223814
2	0x3d9317de	0.07182287
3	0xbe237049	-0.15960802
4	0x3da913f6	0.0825576
5	0xbeb9c989	-0.36286572
6	0xbe0af0b8	-0.1356839
7	0xbd71331e	-0.05888664
8	0x3d12f85b	0.03588138
9	0xbe8aabba	-0.27084142
10	0x3b17a65c	0.002313993
11	0x3d478edd	0.04872023
12	0xbe007814	-0.12545806
13	0x3e12d8df	0.14340542
14	0x3dfc7910	0.12327778
15	0xbcb79fa0	-0.022414982
16	0xbb6ced8c	-0.003615233
17	0x3d3710d1	0.04469377
18	0x3dbf94a6	0.09354524
19	0xbea24026	-0.31689566
20	0xbe341b7d	-0.17588611
21	0x3e4af24c	0.19818991
22	0xbe76b066	-0.24090728
23	0xbe972ade	-0.29524893
24	0xbdd9c008	-0.1063233
25	0xbda8cc11	-0.082420476
26	0xbc59daf2	-0.01329683
27	0x3d996ccc	0.074914545
28	0xbcc1c979	-0.02365564
29	0x3d520018	0.05126962
30	0x3c865ff2	0.016403172
31	0xbe09ea4c	-0.13468283
32	0x3e5a2991	0.21304919
33	0xbc98f779	-0.018672692
34	0x3cae3791	0.02126673
35	0xbe73f013	-0.2382205
36	0xbcabb6ab	-0.020961126
37	0xbe93347c	-0.2875098
38	0x3b83b161	0.004018948
39	0xbde1a22e	-0.110172614
40	0xbd57ade2	-0.052656062
41	0xbeaea97f	-0.3411369
42	0x3e231e24	0.15929466
43	0xbbbf4cd3	-0.0058380156
44	0xbd061318	-0.032733053
45	0x3dee2d24	0.11629704
46	0x3d4f4d5c	0.050610885
47	0xbc266fa2	-0.010158451
48	0xba3d8ba8	-0.0007230588
49	0xbe237a46	-0.15964612
50	0x3d84ae1f	0.064785235
51	0xbeb49f60	-0.35277843
52	0xbe11726b	-0.14203803
53	0x3e50f4a8	0.20405829
54	0xbd356044	-0.04428126
55	0xbe7c249f	-0.24623345
56	0x3d919f8d	0.0711051
57	0xbe180781	-0.14846613
58	0xbe5e5275	-0.21711142
59	0xbb802616	-0.00391079
60	0xbe10a977	-0.14127146
61	0x3de763ee	0.11298357
62	0xbe1bb6f7	-0.15206514
63	0xbdde5903	-0.108568214
64	0x3ee6f886	0.45111483
65	0xbe19cc9a	-0.15019456
66	0x3d20b32c	0.03923337
67	0xbd9fa942	-0.07795955
68	0xbddb85ef	-0.10718905
69	0xbebc2389	-0.3674586
70	0xbe0d0dfc	-0.13774866
71	0x3c634b79	0.013872975
72	0xbd982517	-0.07428949
73	0xbe883325	-0.2660152
74	0xb981215c	-0.00024629652
75	0x3d128881	0.03577471
76	0xbdcc84a0	-0.09986234
77	0x3d1da45f	0.038486835
78	0xbe23c44f	-0.15992855
79	0xbd2366df	-0.039893027
80	0x3ccc7aff	0.024960993
81	0xbe495253	-0.1966031
82	0x3c467138	0.012111954
83	0xbeba658b	-0.36405596
84	0xbe347ee2	-0.17626527
85	0xbcc686f0	-0.024234265
86	0xbe1ba408	-0.15199292
87	0xbeb1f6fe	-0.34758753
88	0x3dc143e9	0.09436781
89	0xbd4a2658	-0.049352974
90	0x3c0a74d0	0.008450702
91	0xbb1e424d	-0.0024148405
92	0xbe333e07	-0.1750413
93	0x3d99a35d	0.07501862
94	0xbe34cc7c	-0.1765613
95	0xbe356c90	-0.17717195
96	0x3f326020	0.69677925
97	0xbf2b0c68	-0.66815805
98	0xbe6f7f80	-0.23388481
99	0xbed60eab	-0.41808066
100	0xbd913c0d	-0.07091532
101	0xbebff72c	-0.37493265
102	0xbe4b08b5	-0.1982754
103	0xbd2dd475	-0.042438943
104	0xbdb55e62	-0.08855893
105	0xbe1370fb	-0.14398567
106	0xbd047fd4	-0.03234847
107	0xbe494506	-0.19655237
108	0xbd1753f0	-0.036945283
109	0x3b60f875	0.003432778
110	0xbd9d7a40	-0.07689333
111	0xbbbb0020	-0.005706802
112	0xbaa68a4f	-0.0012706014
113	0xbe8a95bc	-0.27067363
114	0x3e65df20	0.22448397
115	0xbe2df204	-0.16986853
116	0xbedfdd53	-0.43723544
117	0x3e8def19	0.2772148
118	0x3b1b8b1b	0.0023734036
119	0xbe357266	-0.17719421
120	0xbaa58847	-0.0012629115
121	0xbd7a89c1	-0.06116653
122	0xbe807d36	-0.25095528
123	0xbd950613	-0.07276549
124	0xbe27427e	-0.16333959
125	0xbe5fca32	-0.21854475
126	0xbe3d1025	-0.1846319
127	0xbdf2e0bb	-0.1185927
128	0x3f2abf27	0.66697925
129	0xbf01d9e0	-0.50723076
130	0xbec92889	-0.39288738
131	0xbe580d66	-0.21098861
132	0xbe056ff9	-0.13030995
133	0xbec6de2a	-0.38841373
134	0xbc076901	-0.008264781
135	0xbe337415	-0.1752475
136	0xbd94462c	-0.07239947
137	0xbe06b2ad	-0.13154097
138	0x3dcbd6aa	0.09953053
139	0xbd02e356	-0.031955086
140	0xbd0d538c	-0.034503505
141	0xbcaf68d1	-0.021412285
142	0xbe3c0616	-0.18361697
143	0x3ca2b0f8	0.019859776
144	0xbe0cf41e	-0.13764998
145	0xbec5a72a	-0.386041
146	0x3e123b6e	0.14280483
147	0xbe2bc47e	-0.16774175
148	0xbf293e90	-0.6611109
149	0x3e82a093	0.25513133
150	0xbe09464b	-0.13405721
151	0xbda5f491	-0.08103288
152	0xbda94d20	-0.082666636
153	0xbdf7a4e6	-0.12091999
154	0xbe53fad5	-0.20701154
155	0x3cbe6d62	0.023245517
156	0xbdca54df	-0.09879469
157	0x3c6d9470	0.014500722
158	0x3d88f1f9	0.066867776
159	0x3cbd62a5	0.023118326
160	0x3f3be65e	0.7339839
161	0xbf2dbe28	-0.6786828
162	0xbf03d897	-0.51502365
163	0xbeb7769e	-0.35832685
164	0xbe1b9daa	-0.15196863
165	0xbedd3c23	-0.43209943
166	0xbe36efd6	-0.17864928
167	0xbe2e8cee	-0.17045948
168	0xbd727ee9	-0.059203062
169	0xbe06d3fc	-0.13166803
170	0xbd228d76	-0.03968569
171	0xbd2cb60e	-0.04216581
172	0x3dd09251	0.10184158
173	0xbd3297d5	-0.04360183
174	0x3865c19a	5.477816e-05
175	0xbdfba8e9	-0.122880764
176	0x3b712e90	0.0036801435
177	0xbe531412	-0.20613125
178	0x3da11c04	0.07866672
179	0x3cebe807	0.028797163
180	0xbf367772	-0.7127601
181	0x3e861f78	0.26195884
182	0xbe06e5a2	-0.13173535
183	0xbd378f5b	-0.04481445
184	0xbcc8c64b	-0.024508616
185	0xbe10d44a	-0.14143482
186	0xbeb54a8a	-0.3540843
187	0xbd20dba6	-0.039271973
188	0xbda7a41a	-0.08185597
189	0xbe430326	-0.1904417
190	0xbe5c9697	-0.2154182
191	0x3c4ebe63	0.012618634
192	0x3e842256	0.25807446
193	0x3dbb5537	0.09147113
194	0xbc28549c	-0.010274079
195	0x3d1a2dc4	0.0376413
196	0x3dcd9dc3	0.10039856
197	0x3d109259	0.035295818
198	0x3dd217c9	0.10258443
199	0x3bf69a82	0.007525743
200	0x3dd04288	0.1016894
201	0xbd8fa161	-0.070132025
202	0xbe465cbc	-0.19371313
203	0xbe694301	-0.22779466
204	0x3d8535bd	0.065043904
205	0xbdad28cd	-0.08455048
206	0xbc64afdf	-0.013957947
207	0xbd955d96	-0.07293241
208	0x3dd0fc66	0.10204391
209	0x3ecc1d4e	0.39866108
210	0x3d21a61f	0.039465066
211	0xbe443d3c	-0.19163984
212	0x3e56f765	0.20992811
213	0x3cdc95c1	0.026926877
214	0xbd14e81b	-0.036354166
215	0xbdb840b2	-0.08996715
216	0xbd3c24d0	-0.045933545
217	0xbe4437f0	-0.19161963
218	0xbe7ead71	-0.2487085
219	0x3d84d99a	0.06486817
220	0xbdc89c5d	-0.09795449
221	0xbda48599	-0.08033294
222	0xbe44adca	-0.1920692
223	0xbe2da0c9	-0.16955866
224	0x3e778903	0.2417336
225	0x3d8097ac	0.06278929
226	0xbe143dda	-0.1447672
227	0x3d0ad297	0.03389224
228	0x3e1630a7	0.14666997
229	0x3be6f262	0.0070479373
230	0x3e304dd8	0.17217195
231	0x3c5e3404	0.013562206
232	0xbe0a7e1a	-0.13524666
233	0xbd88b3c2	-0.06674911
234	0xbdcc9f9e	-0.09991382
235	0x3d01ff4d	0.031737614
236	0xbd126d1e	-0.035748594
237	0x3d53e0b6	0.051727973
238	0xbe46fcf9	-0.19432439
239	0xbd6487ed	-0.05579369
240	0x3df4eae7	0.119588666
241	0x3f3931d2	0.72341645
242	0x3e604d99	0.21904601
243	0xbd945871	-0.07243431
244	0x3e38d201	0.1804886
245	0x3da49d02	0.08037759
246	0xbda9e892	-0.082963124
247	0xbe3847a8	-0.17996085
248	0xbe41b3ab	-0.18916194
249	0xbe038b55	-0.1284612
250	0xbe4a6e43	-0.19768624
251	0xbb8f5342	-0.004373939
252	0xbe239d85	-0.15978058
253	0xbd6b4701	-0.05744076
254	0xbe09e301	-0.13465501
255	0xbe32ab5a	-0.17448178

sequential_6/conv1d_20/Conv1D f4 [128, 1, 3, 64]
0	0x3da28d12	0.07937063
1	0xbd183dae	-0.037168197
2	0xbea74cbc	-0.3267573
3	0xbf14b1e1	-0.5808392
4	0xba061a55	-0.0005115618
5	0x3e8d1d46	0.27561396
6	0xbe522457	-0.20521675
7	0xbf092082	-0.5356523
8	0xbe2698f4	-0.16269284
9	0x3eaf363a	0.3422106
10	0xbe25c87e	-0.16189763
11	0x3e21e19d	0.15808721
12	0x3d835f85	0.06414703
13	0xbe93fa02	-0.28901678
14	0x3b3622b4	0.002779168
15	0xbe7ab54e	-0.24483225
16	0x3ed96623	0.42460737
17	0xbdcb73ce	-0.09934197
18	0xbd8fc973	-0.07020845
19	0xbd8f4257	-0.06995075
20	0xbdf849cd	-0.121234514
21	0x3e47a3ee	0.19496128
22	0x3eb55e8d	0.354237
23	0xbf1e07ea	-0.61730826
24	0xbe9d5f07	-0.30736563
25	0x3e0068d2	0.12539986
26	0xbdf99418	-0.1218645
27	0xbea38d51	-0.31943753
28	0x3d908ee4	0.07058504
29	0xbeed3b5e	-0.46334356
30	0xbda0410c	-0.07824907
31	0x3c01cbbe	0.007922111
32	0x3d09c157	0.03363165
33	0x3d46a22a	0.048494495
34	0xbe6ad466	-0.22932586
35	0x3e3016f7	0.1719626
36	0xbd682e97	-0.056685057
37	0x3d9fa0e4	0.07794359
38	0x3d06b4c7	0.032887246
39	0x3d61d2aa	0.055132546
40	0xbd980de1	-0.07424522
41	0x3e864379	0.26223353
42	0xbe83877b	-0.256893
43	0xbc32b851	-0.010908202
44	0x3da016f2	0.078168765
45	0x3e05b13e	0.13055894
46	0xbeb411ed	-0.35169926
47	0x3eba4842	0.36383253
48	0xbec221ef	-0.37916514
49	0x3d8225f2	0.06354894
50	0x3d1964c1	0.037449602
51	0xbdf92b34	-0.121664435
52	0x3e387d68	0.18016589
53	0xbe695177	-0.22784983
54	0x3ed8aa7f	0.42317578
55	0x3e8c443f	0.27395818
56	0xbe47c9c3	-0.1951056
57	0xbcf2b7de	-0.02962869
58	0xbe777e4a	-0.24169269
59	0x3d7fc1e1	0.062440757
60	0xbed45ba6	-0.41476172
61	0x3dc2a326	0.09503774
62	0xbe27a5ea	-0.16371885
63	0x3ce03735	0.027370075
64	0x3e547f75	0.20751746
65	0x3db55deb	0.08855804
66	0xbed208d8	-0.41022372
67	0xbf1fdf5b	-0.6245019
68	0x3d0c68b9	0.03427956
69	0xbbcc9934	-0.006243849
70	0xbe825a26	-0.25459403
71	0xbe564ee9	-0.2092854
72	0xbe47bcfa	-0.19505683
73	0x3dcd43b0	0.10022676
74	0xbe13a91d	-0.1441998
75	0x3deb92db	0.1150262
76	0xbd7ac52c	-0.061223194
77	0xbea908a3	-0.33014402
78	0x3c45ab24	0.012064729
79	0xbea27ef2	-0.31737477
80	0x3ef73674	0.48283732
81	0xbc42699c	-0.011866
82	0xbeafcdd4	-0.34336722
83	0x3dc3cf5b	0.09561034
84	0xbdadc8b9	-0.084855504
85	0x3c2cf5e9	0.010556676
86	0x3e54092b	0.20706622
87	0xbf192980	-0.5982895
88	0x3c830c39	0.01599704
89	0xbaf4c8e1	-0.0018675589
90	0xbdf5f1c8	-0.12009007
91	0xbdf7af1c	-0.12093946
92	0x3db2ad81	0.087244995
93	0xbed4db3e	-0.4157352
94	0x3d9630c2	0.073335186
95	0xbd321968	-0.04348126
96	0xbc917480	-0.017755747
97	0xbcd49116	-0.025948089
98	0xbe6c4a6d	-0.23075266
99	0x3e2c1d99	0.16808166
100	0x3cd692ce	0.026193049
101	0x3d8285ab	0.063731514
102	0x3d87f357	0.0663821
103	0x3e356a3b	0.17716305
104	0xbdd3ab0c	-0.10335359
105	0x3e00dd5d	0.12584443
106	0xbe7a4890	-0.24441743
107	0xbe3b2da4	-0.1827913
108	0x3ddb01dc	0.10693714
109	0x3e2e921b	0.17047922
110	0xbe8c46dd	-0.27397814
111	0x3eec262d	0.46122876
112	0xbe97bcb9	-0.2963617
113	0xbd338d19	-0.043835733
114	0xbc1000b4	-0.00878923
115	0x3db05bd9	0.086112686
116	0x3dfd6013	0.1237184
117	0xbe022da4	-0.12712723
118	0x3ed5e78b	0.41778216
119	0x3e986c64	0.29770195
120	0x3ccc39fa	0.02492999
121	0xbe4e3eb7	-0.20141111
122	0xbe64b600	-0.22335052
123	0x3e1a8469	0.15089573
124	0xbeba7957	-0.364207
125	0x3bfa1939	0.0076324013
126	0xbe7d85cd	-0.24758072
127	0xbe092e14	-0.13396484
128	0x3d3d9429	0.046283875
129	0x3c3279f6	0.010893336
130	0xbe8b4426	-0.2720043
131	0xbf459ceb	-0.7719256
132	0x3db180da	0.086671546
133	0x3e5f5444	0.21809489
134	0xbe141860	-0.14462423
135	0xbe74473c	-0.23855299
136	0xbe99547b	-0.29947266
137	0x3e0c3b7e	0.1369457
138	0xbdff989b	-0.12480279
139	0x3d3382cd	0.043825913
140	0xbe45a6eb	-0.19301955
141	0xbeea1a78	-0.4572332
142	0xbcfaf705	-0.030635366
143	0xbe96cde6	-0.29453963
144	0x3ecb2811	0.39679006
145	0xbcb76f86	-0.022392046
146	0xbe4aa814	-0.19790679
147	0xbd4f17f4	-0.050559953
148	0x3d2a3999	0.041558836
149	0x3d009fc4	0.031402364
150	0x3ebc26a9	0.36748245
151	0xbf11dd5c	-0.5697839
152	0x3db1d428	0.08683044
153	0x3d758b4a	0.05994729
154	0xbd9aa2d4	-0.07550588
155	0xbe5919a3	-0.21201186
156	0x3cbb0fc0	0.022834659
157	0xbee33917	-0.44379494
158	0xbdb4f705	-0.08836178
159	0xbc936544	-0.017992623
160	0x3bcafb2b	0.0061944923
161	0x3dcb4228	0.09924728
162	0xbe820d5e	-0.25400823
163	0x3e16000f	0.1464846
164	0xbdaaf3d2	-0.08347286
165	0xbd05be3e	-0.032652132
166	0x3deb1d3f	0.114801876
167	0xbe0c2fd0	-0.13690114
168	0xbe7908e4	-0.24319798
169	0x3de26ba5	0.11055688
170	0xbe72e298	-0.23719251
171	0xbe7b6832	-0.24551466
172	0x3e3c3240	0.18378544
173	0x3e706774	0.23476964
174	0xbe9bf17f	-0.30457684
175	0xbec4d33d	-0.38442412
176	0xbe8c37c2	-0.2738629
177	0xbd5283e0	-0.051395297
178	0x3dbec660	0.09315181
179	0xbca05320	-0.019570887
180	0x3d5069c7	0.050882127
181	0xbec3304e	-0.3812279
182	0xbf0c6751	-0.5484515
183	0x3e822e27	0.25425836
184	0xbe6ed3dc	-0.23323005
185	0xbf1f519a	-0.6223389
186	0xbe8af7a2	-0.27142054
187	0xbdab488b	-0.08363446
188	0xbe918273	-0.28419837
189	0x3c2b3008	0.010448463
190	0xbe573b5f	-0.21018742
191	0xbcdb7abb	-0.02679192
192	0x3d2f9907	0.042870548
193	0x3db981cc	0.0905796
194	0x3e835247	0.2564871
195	0x3d43c680	0.047796726
196	0x3c451fe8	0.012031533
197	0xbd740050	-0.05957061
198	0xbe6cc586	-0.23122224
199	0x3dc5758a	0.096415594
200	0x3d161bb9	0.036647532
201	0x3e814a58	0.25252032
202	0x3c65532e	0.013996882
203	0xbe10ff78	-0.14159954
204	0x3d0be804	0.034156814
205	0xbb062259	-0.002046725
206	0xbda96c82	-0.08272649
207	0x3ea12eb4	0.31480944
208	0x3da06e4c	0.078335375
209	0x3d264c7d	0.04060029
210	0xbe36f319	-0.17866172
211	0x3a904043	0.001100548
212	0xbcca71e8	-0.024712518
213	0xbdb030dc	-0.08603069
214	0x3e25ad80	0.16179466
215	0xbdde0bf1	-0.108421214
216	0xbcfbb42f	-0.030725567
217	0x3d844096	0.06457631
218	0x3c4b6b21	0.012415678
219	0xbe188ab7	-0.14896666
220	0xbd3aca17	-0.045602884
221	0xbdcd96ac	-0.10038504
222	0x3d86ae9d	0.065762736
223	0x3dbf2374	0.09332934
224	0xbc3c1b84	-0.01148117
225	0xbe887ff9	-0.26660135
226	0x3cbdeb98	0.023183629
227	0xbd5aa3ef	-0.053378996
228	0x3d3b72d4	0.045763806
229	0xbe970d64	-0.29502404
230	0x3c313d39	0.010817819
231	0xbe337d69	-0.17528309
232	0xbe5970e6	-0.21234474
233	0xbe47f67c	-0.1952762
234	0x3d9f9982	0.07792951
235	0xbe97fd68	-0.2968552
236	0xbcd0fe25	-0.02551181
237	0xbe9dffd2	-0.30859238
238	0x3c9b5581	0.01896167
239	0x3e16cf07	0.14727412
240	0x3eb8bd38	0.36081862
241	0xbd8e649d	-0.06952784
242	0xbdef2193	-0.11676326
243	0x3c16e427	0.009209669
244	0xbdeecc2c	-0.116600364
245	0xbd439e05	-0.04775812
246	0xbc8f8668	-0.017520145
247	0xbdc7c52b	-0.09754404
248	0x3da51bf2	0.08061971
249	0xbc65a406	-0.014016157
250	0xbe75b0df	-0.23993252
251	0x3eb7a86b	0.3587068
252	0xbe8e2130	-0.27759695
253	0x3d8846ce	0.0665413
254	0x3e1f4a72	0.15555742
255	0xbe38ad53	-0.18034868

sequential_6/dense_13/BiasAdd/ReadVariableOp f4 [6]
0	0xbe38bc21	-0.18040515
1	0x3d9722ce	0.07379685
2	0x3d524a83	0.05134059
3	0xbe576996	-0.21036372
4	0x3ddcad12	0.10775198
5	0x3e0f3c96	0.13987955

sequential_6/dense_12/BiasAdd/ReadVariableOp f4 [64]
0	0xbdb76866	-0.08955459
1	0xbdad98fc	-0.08476445
2	0x3f0ed5d7	0.55795044
3	0x3de083da	0.10962649
4	0xbd20d98b	-0.039269965
5	0xbd7c70ae	-0.061630897
6	0x3e0c3f34	0.13695985
7	0x3e60741d	0.21919294
8	0xbdb899ef	-0.090137355
9	0x3e73a4a0	0.23793268
10	0x3e14de5b	0.14537947
11	0x3e09f0e1	0.13470794
12	0xbe003c17	-0.12522922
13	0xbdcaeacd	-0.09908066
14	0xbd8e3f99	-0.06945724
15	0xbd8e6e63	-0.06954648
16	0xbe01e46d	-0.12684794
17	0xbd949088	-0.0725413
18	0xbd6f11a5	-0.058366437
19	0xbda32a62	-0.07967068
20	0x3e37ec3e	0.17961213
21	0x3f0bc062	0.5459043
22	0x3ed03291	0.4066358
23	0xbda9d76b	-0.08293041
24	0x3d83ff63	0.064451955
25	0x3ed600e6	0.4179756
26	0xbcc9d738	-0.024638757
27	0xbda6cf87	-0.081450514
28	0x3d690c14	0.056896284
29	0xbdf3bd6b	-0.11901363
30	0x3e580f61	0.21099617
31	0x3dc5b3ce	0.09653436
32	0xbd91d443	-0.07120564
33	0x3dc48ecc	0.09597549
34	0xbe731ba2	-0.2374101
35	0x3edf21a1	0.43580344
36	0xbf177df2	-0.5917655
37	0xbcc96671	-0.02458498
38	0x3f0a25c5	0.5396388
39	0x3ed25825	0.41082874
40	0xbdce7b47	-0.10082107
41	0x3e7ea788	0.24868596
42	0xbe4307da	-0.19045964
43	0xbe69adfd	-0.22820278
44	0x3f061507	0.52375835
45	0x3dd38924	0.10328892
46	0x3ebfbf07	0.3745043
47	0xbd2853ab	-0.041095417
48	0xbe58dff5	-0.21179183
49	0xbe1f5f40	-0.15563679
50	0xbe5914d2	-0.21199349
51	0x3dd1b74e	0.10240041
52	0xbe7ecbd3	-0.2488244
53	0x3e33ca7d	0.17557712
54	0x3ebaf1b1	0.3651252
55	0xbdb42432	-0.08795966
56	0xbe3b0023	-0.18261771
57	0xbd94a6b1	-0.07258356
58	0x3eae740f	0.3407292
59	0x3ea6f92a	0.32611972
60	0xbe2c46e4	-0.16823918
61	0xbe1abf3b	-0.15112011
62	0xbe911e39	-0.2834337
63	0xbddb24e9	-0.107003994

sequential_6/dense_12/MatMul f4 [64, 1280]
0	0x3e4920b2	0.19641379
1	0x3da357af	0.07975709
2	0x3b1db947	0.0024066733
3	0x3e94419a	0.289563
4	0xbe37d3c0	-0.1795187
5	0xbe19c75b	-0.15017454
6	0x3db7c9e8	0.089740574
7	0xbd0bc101	-0.03411961
8	0x3e49aa15	0.19693787
9	0x3d5bf0fa	0.05369661
10	0x3e1a9537	0.15095983
11	0xbd835c4c	-0.064140886
12	0xbcba9eff	-0.022780893
13	0x3e6b2202	0.22962192
14	0xbdbd3cd3	-0.09240117
15	0x3de05e57	0.10955494
16	0x3e735c0f	0.23765586
17	0xbc5bc329	-0.013413229
18	0x3cb04949	0.02151932
19	0x3e0eeb8f	0.13957046
20	0xbe48b630	-0.19600749
21	0xbc22e2a0	-0.009941727
22	0xbd01e8ef	-0.031716283
23	0xbdf85c3e	-0.12126969
24	0xbe06bfbd	-0.1315908
25	0xbd1b8798	-0.03797111
26	0x3cec3b9c	0.028837018
27	0x3da1d9cf	0.07902872
28	0xbd5c36db	-0.05376325
29	0x3dc20a66	0.094746396
30	0xbd8e23bb	-0.06940409
31	0x3bbece1a	0.005822909
32	0xbd1be8b2	-0.038063712
33	0x3c584e50	0.013202265
34	0x3e5074c0	0.20357037
35	0x3c2d6988	0.010584243
36	0xbe0d6928	-0.13809645
37	0x3e3e1209	0.18561567
38	0xbe0f097d	-0.13968463
39	0x3d92e237	0.07172053
40	0x3e2fbac1	0.17161085
41	0x3ea98e1e	0.3311624
42	0x3e3e0e3b	0.18560116
43	0x3b5944f9	0.0033152683
44	0x3e1848fe	0.14871594
45	0xbe4ce92a	-0.2001082
46	0xbd233cdf	-0.039852973
47	0x3b5da860	0.0033822283
48	0x3e9dd191	0.3082395
49	0x3c1f6e10	0.009730831
50	0xbd428bc9	-0.04749659
51	0xbdd9aac3	-0.10628273
52	0x3d889111	0.06668294
53	0x3c924923	0.01785714
54	0x3c585d6b	0.013205866
55	0x3e518b6f	0.20463346
56	0x3c37a3a3	0.011208448
57	0x3dcf65de	0.101268515
58	0xbcd956b4	-0.026530601
59	0x3db8436c	0.08997235
60	0xbc033a78	-0.0080095455
61	0xbdf2077f	-0.11817836
62	0x3e96194d	0.29316178
63	0x3e7626bc	0.24038213
64	0xbdcc53db	-0.09976932
65	0xbe1c8ffe	-0.15289304
66	0x3dab28ad	0.08357368
67	0xbaa3bf9d	-0.0012493018
68	0xbdbd02bb	-0.092290364
69	0x3cbe68f8	0.023243412
70	0x3d76f52d	0.06029241
71	0xbe669da5	-0.22521074
72	0x3ced6425	0.028978417
73	0x3e83e588	0.25761056
74	0xbc5711e2	-0.013126822
75	0xbe14a095	-0.14514382
76	0xbce0f821	-0.027462067
77	0x3e2a98c2	0.16659835
78	0x3d847adb	0.06468745
79	0x3d0506b8	0.03247711
80	0x3ea024d6	0.31278104
81	0x3dc1a94d	0.0945612
82	0xbe99cc8b	-0.30038866
83	0x3d86d6d5	0.06583945
84	0x3dd51cca	0.10405882
85	0xbd494a63	-0.049143206
86	0x3cffc0d4	0.031219877
87	0x3e71a07f	0.2359638
88	0xbe6bdd47	-0.2303363
89	0x3ddfa391	0.1091987
90	0x3e705958	0.23471582
91	0x3d7745d9	0.060369346
92	0xbdca093a	-0.09865041
93	0xbd0ccd8f	-0.034375723
94	0x3c778da8	0.015109457
95	0x3e7729ed	0.24137087
96	0xbc123c81	-0.008925558
97	0xbd7a0593	-0.061040472
98	0x3c9a455e	0.018831905
99	0x3e715cc8	0.2357055
100	0xbd17bed0	-0.037047207
101	0xbdca4e0a	-0.09878166
102	0x3d1a0532	0.03760261
103	0x3ce18b0d	0.027532125
104	0x3c01cfc5	0.007923071
105	0x3d470538	0.04858896
106	0xbdaf29f4	-0.08552924
107	0x3d0238ca	0.03179244
108	0xbdcfaeb4	-0.10140744
109	0x3ce2a6c9	0.02766742
110	0x3d6a7f65	0.0572504
111	0x3e7efcfc	0.24901193
112	0x3d5dd524	0.054158345
113	0x3d641486	0.055683635
114	0xbe459643	-0.19295602
115	0xbe6a075a	-0.22854367
116	0x3e59c65f	0.21267079
117	0x3d3c4137	0.04596063
118	0x3e22f05a	0.15912
119	0x3e498245	0.196786
120	0xbc959aa4	-0.018262215
121	0xbb368ba3	-0.0027854226
122	0xbe011666	-0.126062
123	0x3d1f3eac	0.038878128
124	0x3e1abfe2	0.1511226
125	0x3e4593bc	0.19294637
126	0x3c83d30e	0.01609185
127	0xbb8793dd	-0.0041374997
128	0x3da698f8	0.08134645
129	0x3c680e4e	0.014163567
130	0x3ccea001	0.02522278
131	0xbded0840	-0.11573839
132	0x3b016d14	0.0019748854
133	0xbc72cd1a	-0.014819408
134	0xbe5c462b	-0.21511142
135	0xbb1eb4af	-0.0024216583
136	0x3e055216	0.13019595
137	0x3d4ee7c0	0.050513983
138	0xb99e4b8b	-0.00030192392
139	0xbe9b8de8	-0.30381703
140	0x3e647014	0.2230838
141	0x3e4af819	0.19821204
142	0x3e292799	0.16519012
143	0x3d7cefb7	0.061752047
144	0x3d997d03	0.07494547
145	0xbdd1047f	-0.10205936
146	0x3cdd1e9c	0.026992135
147	0xbd9beeaa	-0.07613881
148	0xbed99c05	-0.42501846
149	0x3d7f5b04	0.06234266
150	0x3de8249a	0.11335106
151	0xbd999c30	-0.075004935
152	0xbe814dc2	-0.25254637
153	0xbe25a314	-0.1617549
154	0x3d1d9ff0	0.038482606
155	0x3dd92455	0.10602633
156	0x3d947ecb	0.07250746
157	0x3d76553c	0.06013988
158	0xb9bc387d	-0.0003590024
159	0x3e03bc6c	0.12864846
160	0xbdecaa6b	-0.11555942
161	0xbbbe6695	-0.0058105686
162	0x3e845d45	0.2585241
163	0x3e22bdfc	0.15892786
164	0x3ad84443	0.0016499836
165	0x3e04e736	0.12978825
166	0xbd0a368a	-0.03374342
167	0xbceef5ee	-0.029170003
168	0x3d912e00	0.07088852
169	0x3e16f4ee	0.14741871
170	0x3d1664d5	0.036717255
171	0x3d356bc7	0.044292238
172	0x3de64ad2	0.112447396
173	0xbdaa047e	-0.08301638
174	0xbe10b32a	-0.14130846
175	0xbd455929	-0.048180733
176	0x3cea872b	0.028628906
177	0x3d52f9ac	0.051507637
178	0xbd21288c	-0.03934531
179	0xbda27953	-0.07933297
180	0x3d7a77ed	0.061149526
181	0xbe7a9af6	-0.24473175
182	0xbe542f1e	-0.20721099
183	0x3e2a4aae	0.1663005
184	0xbcbeff9a	-0.02331524
185	0x3da03eec	0.078245014
186	0xbc5b12b0	-0.013371155
187	0x3e067812	0.1313174
188	0xbd866ae9	-0.0656336
189	0xbd9f0007	-0.07763677
190	0x3dff0491	0.12452043
191	0xbd08d52e	-0.03340643
192	0x3daef7e6	0.085433766
193	0x3d982c2b	0.07430299
194	0x3ca0d5d3	0.01963321
195	0xbc2a40ec	-0.010391455
196	0x3cd3a44e	0.025835183
197	0x3d5a2c1a	0.053264715
198	0x3c2b4aa4	0.010454807
199	0xbe963ab7	-0.2934167
200	0x3c141933	0.009039211
201	0xbc135f0e	-0.008994831
202	0xbe5ded31	-0.21672513
203	0xbe84d8d3	-0.25946674
204	0xbdd82049	-0.10553033
205	0x3e35760a	0.1772081
206	0xb93be600	-0.00017919391
207	0xbda485c2	-0.08033325
208	0x3e9c8bd1	0.3057542
209	0xbd3832a7	-0.04497018
210	0xbeb6d808	-0.35711694
211	0x3d0addfe	0.033903114
212	0x3d121813	0.03566749
213	0xbe5826a0	-0.21108484
214	0xbd0f479a	-0.034980394
215	0x3df15b17	0.11784952
216	0xbe7d6e32	-0.24749067
217	0xbd476cb6	-0.04868766
218	0xbd528a16	-0.05140122
219	0xbd714fca	-0.058913983
220	0xbd02442d	-0.0318033
221	0xbd3f73bb	-0.04674123
222	0x3ca13160	0.019676864
223	0x3e02cc40	0.12773228
224	0xbcf28413	-0.029603994
225	0xbd1cade2	-0.038251765
226	0xbcc15b0e	-0.023602989
227	0x3ed2cfe9	0.41174248
228	0x3e0c192b	0.13681476
229	0xbe723cf0	-0.23656058
230	0xbd3c4352	-0.04596264
231	0xbd015144	-0.03157164
232	0xbc03cfdf	-0.008045166
233	0x3dd5f719	0.10447521
234	0x3b2dda48	0.002652781
235	0x3d7c69b6	0.06162425
236	0xbdbb1a96	-0.0913593
237	0xbd95ba22	-0.07310893
238	0x3e6c79be	0.23093316
239	0x3daadc56	0.08342807
240	0xbdadc77c	-0.08485314
241	0x3e521419	0.20515479
242	0xbd64f096	-0.055893503
243	0xbe99c242	-0.3003102
244	0x3db1660b	0.08662041
245	0xbc4e6ba6	-0.012598908
246	0xbb9ae5c4	-0.004727097
247	0x3d1382a8	0.036013275
248	0xbc9c14ad	-0.019052828
249	0xbcb22690	-0.021746904
250	0x3b1a48a0	0.0023541823
251	0xbe053859	-0.13009776
252	0x3b41e73c	0.002958729
253	0x3c8f636a	0.017503459
254	0x3e13292f	0.14371179
255	0xbe311974	-0.17294866

sequential_6/dense_13/MatMul f4 [6, 64]
0	0xbbe5303f	-0.006994277
1	0xbb5e1759	-0.0033888428
2	0xbf71038c	-0.9414604
3	0x3f089c7d	0.5336378
4	0xbe5943c5	-0.21217258
5	0xbdf537d8	-0.11973542
6	0xbdbec5d5	-0.09315077
7	0xbe5bbe16	-0.21459231
8	0x3e86b61d	0.26310816
9	0xbf8fe118	-1.1240568
10	0xbd759b4e	-0.059962563
11	0xbeba13aa	-0.36343127
12	0xbe7c131b	-0.24616663
13	0xbc1b3e9f	-0.009475379
14	0xbe1ed667	-0.15511476
15	0x3e67f1fa	0.226509
16	0x3ce93b1a	0.028470565
17	0x3e63c4bf	0.22243021
18	0x3e16a821	0.14712574
19	0xbe6df0b6	-0.23236355
20	0xbf72b1f9	-0.94802815
21	0xbf116ee1	-0.5680981
22	0xbeefcdee	-0.468368
23	0xbd97eb2c	-0.07417902
24	0xbed41fd7	-0.41430542
25	0xbfa674d6	-1.3004405
26	0xbdc5b941	-0.09654475
27	0xbdc73c2a	-0.09728272
28	0x3d0d019e	0.03442537
29	0x3e624fd4	0.22100765
30	0xbf1eca46	-0.62027395
31	0xbf0184f4	-0.50593495
32	0xbe862701	-0.26201633
33	0xbed06f38	-0.40709853
34	0x3e42b8bb	0.19015782
35	0xbf896395	-1.0733515
36	0xbe4863d6	-0.19569334
37	0xbdc77a01	-0.09740067
38	0xbf365cbb	-0.71235245
39	0xbf693f30	-0.9111204
40	0xba498507	-0.0007687364
41	0xbecfb09a	-0.40564424
42	0x3e6437f0	0.22286963
43	0xbe7bb0fc	-0.24579233
44	0xbf295306	-0.6614231
45	0xbdbd178a	-0.09233005
46	0xbf9ec9b4	-1.2405305
47	0xbedbf483	-0.42959985
48	0xbe5726e1	-0.21010925
49	0x3d819348	0.0632692
50	0xbe93134b	-0.28725657
51	0x3ebc4d57	0.36777756
52	0xbe987f66	-0.29784697
53	0xbf9913ad	-1.195913
54	0xbef849df	-0.4849386
55	0xbed14673	-0.4087406
56	0x3bc65356	0.006052415
57	0x3e73e4da	0.23817769
58	0xbdfd02ea	-0.123540714
59	0xbf82e850	-1.0227146
60	0x3e99e4fc	0.30057514
61	0x3e41dddc	0.18932289
62	0x3e99f6c8	0.30071092
63	0x3eb6b798	0.35686946
64	0xbd3d47d3	-0.046211075
65	0xbe5e1178	-0.21686351
66	0x3de403c0	0.11133528
67	0xbf04cae2	-0.51872075
68	0xbbb273a6	-0.0054459153
69	0xbe863ea1	-0.26219657
70	0x3b3f9bcc	0.002923715
71	0xbea7ff31	-0.32811883
72	0x3e5d2adf	0.21598385
73	0xbf29bef8	-0.6630702
74	0x3dd09158	0.10183972
75	0x3e74e1dc	0.23914284
76	0xbe93e8c2	-0.28888518
77	0xbca18dda	-0.01972096
78	0xbe1abb14	-0.15110427
79	0xbf1c7658	-0.6111808
80	0xbe57fa30	-0.21091533
81	0xbe585c5d	-0.21128984
82	0x3e4301c7	0.19043647
83	0xbd99a49d	-0.075021006
84	0xbd63b23f	-0.05558991
85	0x3d795fca	0.060882367
86	0xbf2088b2	-0.6270858
87	0xbe04c59e	-0.1296601
88	0x3ea5b369	0.32363442
89	0xbee097d6	-0.43865842
90	0xbe18684a	-0.14883533
91	0xbe5543ff	-0.2082672
92	0x3d832744	0.06403974
93	0x3e494a28	0.19657195
94	0xbeb9c81c	-0.36285484
95	0x3e871efb	0.26390824
96	0xbe2a7b63	-0.16648631
97	0x3cea316f	0.028588025
98	0x3e4fe5fc	0.20302576
99	0xbcb3c4d8	-0.021944448
100	0xbef3a25b	-0.47584805
101	0x3e5e12c1	0.21686842
102	0x3e69e0ae	0.22839615
103	0xbee0e270	-0.43922758
104	0xbf2ab410	-0.66681004
105	0xbc8c5759	-0.017131494
106	0x3e3e0b8a	0.1855909
107	0x3e843de9	0.25828484
108	0xbe3826e4	-0.17983586
109	0xbe9c44c1	-0.30521205
110	0xbf0dc6f4	-0.55381703
111	0x3e9d7d3e	0.30759615
112	0x3e47c03d	0.19506927
113	0xbdb15984	-0.08659652
114	0x3e0ad689	0.13558401
115	0xbf282e15	-0.65695316
116	0x3bc37281	0.0059645777
117	0x3eae3c8a	0.34030563
118	0xbf4f57e0	-0.8099346
119	0x3e3c2f4f	0.18377422
120	0x3cd6697e	0.02617335
121	0xbe78fc8d	-0.2431509
122	0x3e9f7882	0.31146628
123	0xbf7a648c	-0.9780967
124	0x3e9623f8	0.29324317
125	0xbe77b11f	-0.2418866
126	0x3c5ec211	0.013596074
127	0x3e34823d	0.17627807
128	0xbe9b9c50	-0.30392694
129	0xbe9347e2	-0.2876578
130	0x3e123ef5	0.14281829
131	0x3e0bf164	0.13666302
132	0xbbb50333	-0.005524063
133	0x3e3e21d0	0.18567586
134	0x3e691df1	0.22765328
135	0xbf546563	-0.82967204
136	0xbea0d6e9	-0.31413963
137	0x3ec33b83	0.3813134
138	0xbe12e557	-0.14345299
139	0x3e28fda2	0.16503003
140	0x3db87019	0.09005756
141	0x3b5b1baa	0.0033433237
142	0xbea25d32	-0.31711727
143	0xbeb78eb4	-0.3585106
144	0xbdf598fb	-0.11992069
145	0xbe80a188	-0.2512324
146	0xbb9cb7be	-0.004782646
147	0xbddb2d33	-0.107019804
148	0xbea1c4ac	-0.3159536
149	0x3eb8908a	0.36047775
150	0xbf12c5ed	-0.5733326
151	0xbeadc36f	-0.33938166
152	0xbd85b6a0	-0.065289736
153	0x3d966d41	0.07345057
154	0x3f5296ee	0.8226155
155	0xbdab8923	-0.08375766
156	0xba016598	-0.0004936098
157	0xbf3bf0b0	-0.73414135
158	0x3e6c80a8	0.23095953
159	0x3e83890c	0.25690496
160	0x3e343845	0.1759959
161	0xbf22403d	-0.6337927
162	0xbeb48d89	-0.35264233
163	0xbdb510b8	-0.088410795
164	0xbe3ac098	-0.18237531
165	0x3d0beac4	0.034159437
166	0x3ebe5513	0.3717428
167	0x3e91f5d8	0.28507876
168	0x3e17f1ef	0.14838384
169	0xbdbb4edb	-0.091459
170	0xbe423a23	-0.1896749
171	0x3ebbca4e	0.36677784
172	0x3e1bad45	0.15202816
173	0xbedbcb13	-0.4292837
174	0x3e41b723	0.18917517
175	0xbf0c7528	-0.54866266
176	0x3e5f0ecd	0.2178299
177	0x3eab53ad	0.33462277
178	0xbebd37cd	-0.36956635
179	0x3e915e9f	0.28392503
180	0xbce78eca	-0.02826633
181	0x3ee38ed9	0.44444922
182	0xbe8c36ed	-0.27385655
183	0xbd43a229	-0.04776207
184	0xbd9a6737	-0.07539218
185	0xbbd212bd	-0.006410925
186	0xbd40b6dd	-0.047049392
187	0xbe09dc18	-0.13462865
188	0x3e39dbaf	0.18150209
189	0xbda32a05	-0.07966999
190	0xbd861730	-0.065473914
191	0xbb926236	-0.004467274
192	0x3de67221	0.11252237
193	0xbe6da917	-0.23209034
194	0x3c36e62d	0.011163277
195	0x3e3b25e4	0.18276173
196	0xbe2117e5	-0.15731771
197	0x3eaf7e35	0.34275976
198	0xbea3d2a9	-0.31996658
199	0x3cb0b4bc	0.021570556
200	0xbcd1c578	-0.025606856
201	0xbf4ebff2	-0.80761635
202	0xbed05f63	-0.40697774
203	0x3e165a84	0.14682966
204	0xbe22a6eb	-0.15883987
205	0xbd65ed5e	-0.056134574
206	0xbdc5e0b9	-0.09662003
207	0x3e4c8723	0.19973426
208	0x3cd04b16	0.025426429
209	0x3e5e8d8c	0.21733683
210	0x3c4b850a	0.012421856
211	0xbe8a6dc3	-0.27036867
212	0x3eac4dcc	0.33653104
213	0xbeb6fee8	-0.35741353
214	0xbf8ffe8b	-1.1249555
215	0x3e000390	0.12501359
216	0x3f0f4c06	0.5597538
217	0x3e562373	0.2091196
218	0xbe0fcdbc	-0.14043325
219	0xbf625274	-0.88407063
220	0xbf7b0d14	-0.9806683
221	0x3eea9a7f	0.45820996
222	0xbe8b0da6	-0.2715885
223	0xbf705e5a	-0.9389397
224	0x3e5d4305	0.21607597
225	0x3eb01b66	0.34395903
226	0x3ddc4bb4	0.10756627
227	0x3e26702c	0.16253728
228	0x3f1075c2	0.56429684
229	0x3d926950	0.07148993
230	0xbf22f64c	-0.6365707
231	0x3eb2c4a7	0.3491566
232	0x3e8c364c	0.27385175
233	0x3ed1c5b4	0.40971148
234	0x3c533353	0.012890655
235	0x3e085444	0.13313395
236	0xbf95b928	-1.169713
237	0xbc8bfe42	-0.017089013
238	0x3e229f2e	0.15881035
239	0x3d7352d5	0.059405167
240	0x3da28089	0.079346724
241	0x3e4fe057	0.20300423
242	0xbe713f6a	-0.23559347
243	0x3e5acaf0	0.21366477
244	0xbe8b239c	-0.27175605
245	0xbf0d46e8	-0.5518632
246	0x3e5ea1c2	0.21741393
247	0xbd9714c7	-0.0737701
248	0x3eba0bd1	0.3633714
249	0xbe3ba347	-0.18324004
250	0xbef740fd	-0.4829177
251	0xbe3c8eb0	-0.18413806
252	0x3dbe2439	0.09284253
253	0xbedff682	-0.43742758
254	0x3e4435c2	0.19161132
255	0xbe7ab443	-0.24482827
