models/models_for_presentation/lying_down_right_model.tflite (tflite, 461776 bytes, 10 tensors)

sequential_5/conv1d_15/BiasAdd/ReadVariableOp f4 [32]
0	0xbdf3ba6b	-0.11900791
1	0x3cfdfe8f	0.031005172
2	0xbda993ea	-0.082801655
3	0xbdac7f3d	-0.08422706
4	0xbe0c1960	-0.13681555
5	0xbe053164	-0.13007122
6	0xbe18ce53	-0.14922456
7	0xbd9fc44e	-0.07801114
8	0x3cd7143a	0.026254762
9	0xbd8a703d	-0.06759689
10	0xbd87770f	-0.066145055
11	0xbd2e6918	-0.042580694
12	0x3d8f3538	0.069925725
13	0xbe1d6b55	-0.15372975
14	0x3d081c46	0.03323009
15	0xbe18b7d6	-0.14913878
16	0xbcfe77df	-0.031063018
17	0xbd678b22	-0.05652917
18	0xbe176b6c	-0.14787072
19	0xbde5f684	-0.1122866
20	0xbe096454	-0.13417178
21	0xbdc7a6e6	-0.0974863
22	0x3d21f010	0.039535582
23	0xbe0f7f55	-0.14013417
24	0xbc0a41ac	-0.008438509
25	0xbe0cc9b0	-0.13748813
26	0xbe185fce	-0.14880297
27	0xbe5b9297	-0.21442638
28	0xbd9ca8f5	-0.076494135
29	0xbbf3bc9f	-0.007438257
30	0xbe070d7e	-0.1318874
31	0xbda101b0	-0.0786165

sequential_5/conv1d_16/BiasAdd/ReadVariableOp f4 [64]
0	0xbe2b0ca3	-0.1670404
1	0xbdaa9e2e	-0.08330952
2	0xbe0e8eaa	-0.1392161
3	0xbd8be65d	-0.06831048
4	0xbd83f6b7	-0.064435415
5	0xba211fd1	-0.00061464036
6	0xbc5cbcc9	-0.013472744
7	0xbcfd4435	-0.030916313
8	0xbcd0c020	-0.025482237
9	0xbe030551	-0.12794997
10	0xbd6f2377	-0.05838343
11	0xbd3020d7	-0.04300007
12	0xbdce6bc3	-0.10079148
13	0xbe141abc	-0.14463323
14	0xbdd8d0b9	-0.10586686
15	0xbd7ed86a	-0.062218107
16	0xbe4433ae	-0.19160339
17	0xbd9cb061	-0.07650829
18	0x3c3468ac	0.011011284
19	0xbdace6ec	-0.08442482
20	0xbd35574a	-0.0442727
21	0xbdfbed5c	-0.12301132
22	0xba51fdfb	-0.00080105633
23	0x3b7cefba	0.0038595037
24	0xbd1dcb3d	-0.0385239
25	0xbc997ce9	-0.01873632
26	0x3dd747d8	0.1051175
27	0xbd922716	-0.07136361
28	0xbe02ec41	-0.12785436
29	0xbda8d38a	-0.08243473
30	0xbe25824f	-0.1616299
31	0xbdfa1a9d	-0.12212107
32	0xbd96a404	-0.07355502
33	0xbccbee65	-0.024893949
34	0xbd4582cd	-0.048220444
35	0xbc8f1528	-0.017466143
36	0xbdcc84be	-0.09986256
37	0xbd2bb979	-0.041924927
38	0xbe261031	-0.16217114
39	0xbdc5892e	-0.096453056
40	0xbe5d2408	-0.21595776
41	0xbdcf70d7	-0.10128944
42	0xbe0507e9	-0.12991299
43	0xbb2e2c3f	-0.0026576666
44	0x3d25350f	0.040333804
45	0xbd8dbe4e	-0.06921063
46	0xbd14e005	-0.036346454
47	0xbdc19087	-0.094513945
48	0xbe81765c	-0.25285614
49	0xbdc0c2bc	-0.09412143
50	0xbd406c4f	-0.04697829
51	0x3cadd51f	0.021219788
52	0xbdfc9daf	-0.12334763
53	0xbd8977aa	-0.06712277
54	0xbdbf8624	-0.09351757
55	0xbda8eca7	-0.08248263
56	0xbdd7a99d	-0.10530398
57	0xbccbf15a	-0.024895359
58	0xbe06d99b	-0.13168947
59	0xbd4eeeb0	-0.0505206
60	0xbd87559d	-0.06608126
61	0xbcda91e6	-0.026680898
62	0xbe2ce982	-0.16885951
63	0xbd28e8a2	-0.04123748

sequential_5/conv1d_17/BiasAdd/ReadVariableOp f4 [128]
0	0xbe430b16	-0.19047198
1	0xbd8b08bd	-0.06788776
2	0xbd23f4ae	-0.040028267
3	0xbd53e027	-0.05172744
4	0xbd8c549e	-0.06852077
5	0xbd41c0e1	-0.047303084
6	0xbd917904	-0.0710316
7	0x3de8ae37	0.11361354
8	0xbc4f76fe	-0.012662647
9	0xbe1010ff	-0.14068983
10	0xbd572c1c	-0.0525323
11	0xbe4188ca	-0.18899837
12	0xbd38d930	-0.045129
13	0x3d8243d2	0.06360592
14	0xbdc474cd	-0.095925905
15	0xbd277dc9	-0.040891442
16	0xbcac98c7	-0.021068944
17	0xbe13bb6e	-0.14426968
18	0xbb9f9c0d	-0.0048708976
19	0xbd0310b7	-0.031998362
20	0xbe717eee	-0.23583576
21	0xbe1113c3	-0.14167695
22	0xbc8ecdfc	-0.017432205
23	0x3d131dd7	0.03591713
24	0x3d2daacb	0.04239921
25	0xbdfc7b02	-0.123281494
26	0xbd0bc037	-0.034118857
27	0xbe6f69ab	-0.23380153
28	0xbdd2cde4	-0.10293177
29	0xbd3757d0	-0.04476148
30	0xbdf78af3	-0.12087049
31	0xbd833378	-0.06406301
32	0xbd039c2a	-0.03213135
33	0xbe575b48	-0.21030915
34	0xbe16c898	-0.14724958
35	0xbe4ea42b	-0.20179813
36	0xbd03568e	-0.032064967
37	0xbe19f873	-0.15036182
38	0xbdcf998d	-0.10136709
39	0xbd32b092	-0.04362542
40	0x3c8d06d8	0.017215177
41	0xbda3adbb	-0.07992121
42	0x3d9cab70	0.076498866
43	0xbe2affa4	-0.16699082
44	0xbd2394c1	-0.039936785
45	0xbe11c656	-0.14235815
46	0xbe4d1b3e	-0.20029923
47	0xbd79a449	-0.06094769
48	0xbd3b0821	-0.04566205
49	0xbcf6f53b	-0.030146232
50	0xbe570d2e	-0.21001121
51	0xbd08fe00	-0.03344536
52	0xbdcf3eeb	-0.101194225
53	0xbd53f562	-0.051747687
54	0xbdfef3f2	-0.124488726
55	0xbe033c8a	-0.12816063
56	0xbe003140	-0.12518787
57	0xbe42c19f	-0.19019173
58	0xbd0f61cc	-0.035005376
59	0xbd6113dd	-0.054950584
60	0xbd74dc06	-0.059780143
61	0xbd313200	-0.043260574
62	0xbd2994aa	-0.041401543
63	0xbd0dec58	-0.034649223
64	0xbd8abb10	-0.067739606
65	0x3dc9ad6c	0.09847531
66	0xbcce2aae	-0.025166836
67	0x3d21c9c6	0.039499067
68	0xbd891814	-0.06694046
69	0x3d523012	0.051315375
70	0xbd4e2ab8	-0.05033371
71	0x3ca78202	0.020447735
72	0xbb9c7df7	-0.0047757584
73	0xbd48dbd7	-0.04903778
74	0xbd8900a9	-0.06689579
75	0xbd163024	-0.036667004
76	0xbd684f84	-0.056716457
77	0xbd997e6b	-0.074948154
78	0xbe06d1fe	-0.13166043
79	0xbdd1cf79	-0.102446504
80	0xbd434811	-0.04767615
81	0xbd5dc7a4	-0.05414547
82	0xbc485b3c	-0.012228783
83	0xbe0afbeb	-0.13572662
84	0xbd248b65	-0.040172
85	0x3d2115cc	0.039327428
86	0xbe202a4d	-0.15641136
87	0xbd6af952	-0.057366677
88	0xbd0d43bb	-0.03448842
89	0xbd570da4	-0.052503243
90	0xb9a7add4	-0.00031982234
91	0xbddbdc01	-0.10735322
92	0xbd039da5	-0.032132763
93	0xbda06616	-0.07831971
94	0xbd4e8e96	-0.05042895
95	0x3d3b794d	0.04576998
96	0xbe12186d	-0.1426713
97	0xbe297320	-0.16547823
98	0xbd299a63	-0.041407
99	0xbd258f8e	-0.040420108
100	0xbd196c74	-0.037456945
101	0x3c219e09	0.009864339
102	0x3d755a55	0.0599006
103	0xbc9fc057	-0.019500894
104	0xbdf047c2	-0.11732437
105	0x3d3883e7	0.045047667
106	0xbdfd1542	-0.1235757
107	0xbd809517	-0.06278437
108	0x3cb21ef7	0.02174328
109	0xbe1d0393	-0.15333395
110	0xbe64efc6	-0.22357091
111	0xbd0e3d91	-0.034726683
112	0xbc09cf14	-0.008411188
113	0xbd7e05dc	-0.062017307
114	0xbd03a9a6	-0.03214421
115	0xbd1aa5e7	-0.037755873
116	0xbdbf9998	-0.093554676
117	0xbda7b57a	-0.08188911
118	0xbd0a9bf7	-0.033840146
119	0xbddef13a	-0.10885854
120	0xbd615b29	-0.055018578
121	0xbd49be30	-0.049253643
122	0xbd08da80	-0.033411503
123	0x3c6cd936	0.014456084
124	0xbb143af8	-0.0022618156
125	0x3cde86ec	0.027163945
126	0xbe0ad5f1	-0.13558175
127	0x3e044193	0.1291564

sequential_5/conv1d_15/Conv1D f4 [32, 1, 3, 3]
0	0xbd7bc43b	-0.061466437
1	0xbd162bb6	-0.03666278
2	0x3e0b5ea5	0.13610323
3	0xbe2db844	-0.16964823
4	0x3e372bda	0.17887822
5	0xbdf4dd8a	-0.11956318
6	0x3daae83e	0.08345078
7	0x3dbb2fc9	0.09139974
8	0xbe7399e7	-0.23789178
9	0x3e947e39	0.2900255
10	0x3ecaeb0b	0.3963245
11	0xbe9e3a98	-0.30904078
12	0xbe795474	-0.24348623
13	0x3e423af9	0.18967809
14	0x3dec2802	0.115310684
15	0x3e52d985	0.2059079
16	0x3c4d6a5c	0.012537565
17	0xbe7879a2	-0.24265149
18	0xbdc631fd	-0.09677503
19	0x3d1a3e91	0.037657324
20	0xbe138ecd	-0.14409943
21	0xbd5baf66	-0.05363407
22	0x3e7d203b	0.24719326
23	0xbe8385ef	-0.2568812
24	0xbddba7bb	-0.107253514
25	0x3e196072	0.14978197
26	0x3beacf7a	0.0071658464
27	0xbe6aff3b	-0.22948925
28	0x3dedb4da	0.1160676
29	0x3d3d2baf	0.046184238
30	0x3e5b120f	0.21393608
31	0x3eb5d34e	0.35512775
32	0xbe887ac9	-0.26656178
33	0xbe4b8b15	-0.19877274
34	0x3e25e00a	0.16198745
35	0xbdf8e34e	-0.1215273
36	0x3e48c606	0.1960679
37	0x3e65cd56	0.2244161
38	0x3e4f629d	0.20252462
39	0x3bebfa56	0.007201473
40	0x3e5b9fb0	0.21447635
41	0xbead9022	-0.33899027
42	0x3e0bd79b	0.13656466
43	0xbec7661d	-0.38945094
44	0xbd4c44ab	-0.049870174
45	0xbd43d51c	-0.04781066
46	0x3e33a666	0.17543945
47	0x3dbd1053	0.09231629
48	0x3e03013a	0.12793437
49	0x3de4babe	0.11168431
50	0xbc3fc446	-0.01170451
51	0xbda3a2a5	-0.07990006
52	0xbe800e74	-0.25011027
53	0xbe18c7bc	-0.14919943
54	0xbdd20986	-0.10255723
55	0xbe0b58de	-0.13608119
56	0xbe2257ab	-0.15853755
57	0x3d922119	0.07135219
58	0xbdb3ca7a	-0.08778854
59	0xbe04f6a8	-0.12984717
60	0x3dc2aa70	0.095051646
61	0xbcd2dfc4	-0.025741465
62	0x3db3e248	0.08783394
63	0x3d9bed4b	0.076136194
64	0xbed59946	-0.417185
65	0x3e24d71e	0.16097686
66	0xbe4aa326	-0.19788799
67	0x3e86bb00	0.26314545
68	0x3ea6e17c	0.32593906
69	0x3e0268ae	0.12735245
70	0x3e157194	0.14594108
71	0xbeada56e	-0.33915275
72	0xbd3ad9c6	-0.04561784
73	0xbd98931b	-0.07449933
74	0xbd65dbf4	-0.056117967
75	0xbd992d5c	-0.07479355
76	0x3e06ad09	0.13151945
77	0xbe856a6c	-0.26057756
78	0xbe15fc30	-0.14646983
79	0x3b7208e9	0.003693158
80	0xbe95d256	-0.29262036
81	0xbca72232	-0.020402048
82	0x3f1b9dbe	0.6078757
83	0x3d161c2b	0.036647957
84	0xbdb87dd5	-0.090083756
85	0xbed238c1	-0.41058925
86	0xbd584479	-0.052799676
87	0x3e50a68c	0.20376033
88	0xbf344481	-0.7041703
89	0x3cdb6f75	0.026786545
90	0xbdba1470	-0.090859294
91	0x3d23808c	0.039917514
92	0xbed2a8b1	-0.41144326
93	0xbe990eee	-0.29894203
94	0x3e3d4603	0.18483739
95	0xbc974a01	-0.018467905
96	0xbd81a6cd	-0.06330643
97	0x3e3198f5	0.17343505
98	0xbe0a4e9d	-0.13506551
99	0x3ca16112	0.019699607
100	0x3ec33273	0.38124427
101	0x3eb87b42	0.36031538
102	0xbd98867d	-0.074475266
103	0xbe204621	-0.15651752
104	0x3e7b5b96	0.24546656
105	0x3d9707b4	0.07374516
106	0xbe6dcdad	-0.2322299
107	0xbf05a7ca	-0.5220915
108	0x3de73036	0.112884924
109	0xbd9b1b06	-0.07573514
110	0xbe5816a5	-0.21102388
111	0x3d1eeeb2	0.038801856
112	0x3dff68b4	0.124711424
113	0xbf12bd98	-0.5732055
114	0x3e8cd3a4	0.2750522
115	0xbe29b2ee	-0.16572163
116	0xbeee6e34	-0.46568453
117	0x3e40ec0a	0.18840042
118	0x3f0b5120	0.5442066
119	0xbeefd70b	-0.46843752
120	0x3e865732	0.262384
121	0xbe16ef12	-0.14739636
122	0x3e130297	0.14356457
123	0xbe9584e8	-0.29202962
124	0xbecf518e	-0.4049191
125	0x3ed461b4	0.41480792
126	0xbdf71824	-0.12065151
127	0x3dcad6fe	0.09904288
128	0xbee30703	-0.44341287
129	0x3e8a0dd0	0.26963663
130	0x3e768204	0.24073035
131	0xbda3e3ab	-0.080024086
132	0xbe29ab54	-0.16569263
133	0xbe9b2390	-0.3030057
134	0x3f07f703	0.53111285
135	0xbd986b01	-0.074422844
136	0xbe1b76be	-0.15182015
137	0xbc19f8f0	-0.00939773
138	0x3d0f953f	0.03505444
139	0x3b174cdf	0.002308659
140	0xbd8b24a7	-0.067941
141	0x3dc7f6bb	0.09763857
142	0xbe188213	-0.1489337
143	0xbe9263f9	-0.28591898
144	0xbddbf517	-0.107401066
145	0x3ed36f17	0.41295692
146	0xbd169c5e	-0.036770217
147	0x3e1d86c6	0.15383443
148	0x3ec4f588	0.38468575
149	0xbe28371d	-0.16427274
150	0xbe648df9	-0.22319783
151	0x3ea62069	0.32446602
152	0xbdd7dfdd	-0.105407454
153	0xbda36be9	-0.079795666
154	0xbdb47f6b	-0.088133655
155	0x3b3a460d	0.0028423101
156	0x3dcd1094	0.10012928
157	0x3e0524b6	0.13002285
158	0x3e3b63de	0.18299815
159	0x3e4ba510	0.19887185
160	0xbf1897fc	-0.5960691
161	0xbeeaaaa1	-0.45833305
162	0xbe32fae6	-0.17478523
163	0xbe2b24aa	-0.16713205
164	0xbcb57153	-0.022148764
165	0xbcee9ef5	-0.029128531
166	0x3d51d6db	0.051230293
167	0xbe69e16e	-0.22839901
168	0x3dbd8438	0.09253734
169	0x3da65c1d	0.08123038
170	0x3e0cf97c	0.13767046
171	0x3c7d3b31	0.015456007
172	0xbf0dfcfc	-0.5546415
173	0xbe8d4fb7	-0.2759988
174	0x3e27031e	0.16309783
175	0x3ebe276d	0.37139454
176	0x3e2cf3cd	0.16889878
177	0x3dd4f6c1	0.10398627
178	0x3f37751f	0.7166309
179	0x3dea9395	0.1145393
180	0xbe942610	-0.2893529
181	0x3ed152b6	0.40883416
182	0x3d9a7bb4	0.07543126
183	0xbddf30ca	-0.10897978
184	0xbd812f39	-0.06307835
185	0x3dc460c3	0.09588768
186	0x3e84d52e	0.25943893
187	0x3cd4fc2a	0.025999147
188	0x3de40a78	0.11134809
189	0xbe91e182	-0.2849236
190	0xbe051a2f	-0.1299827
191	0x3e4402f0	0.19141746
192	0x3df9d408	0.12198645
193	0x3dc7dbe5	0.097587384
194	0x3e824939	0.2544649
195	0x3de79b23	0.11308887
196	0x3c618961	0.013765664
197	0xbef49f5c	-0.47777832
198	0x3e87debf	0.2653713
199	0xbee59d17	-0.44846413
200	0x3dbdd869	0.092697926
201	0xbcc356a7	-0.02384503
202	0xbde542b5	-0.11194364
203	0xbeabb6f8	-0.33538032
204	0xbdaf49f6	-0.08559029
205	0x3c81056b	0.015749654
206	0xbed87d88	-0.42283273
207	0xbd964a92	-0.07338442
208	0xbe7366a9	-0.2376963
209	0x3db01200	0.08597183
210	0xbe52b19d	-0.20575567
211	0x3e8a98e4	0.2706977
212	0xbeacc6d2	-0.33745438
213	0x3eb22c91	0.34799626
214	0xbcc12414	-0.023576774
215	0x3e3fdf21	0.1873746
216	0xbce2924e	-0.027657654
217	0xbde71fa0	-0.11285329
218	0xbd785e32	-0.060636707
219	0xbe16381f	-0.14669846
220	0xbca9b0ae	-0.02071413
221	0xbe924fd8	-0.2857654
222	0xbd2de16c	-0.042451307
223	0x3e2b49c8	0.16727364
224	0xbe75291d	-0.23941465
225	0x3e3e9375	0.18610938
226	0x3f195310	0.5989237
227	0xbda86155	-0.082216896
228	0x3e02e058	0.12780893
229	0x3e03f1f0	0.1288526
230	0x3e10bec7	0.14135276
231	0xbe8933f2	-0.26797444
232	0xbf33eafc	-0.7028043
233	0x3e4b2e38	0.1984185
234	0xbe0ca1be	-0.13733575
235	0x3c2e0955	0.010622342
236	0x3d805b40	0.062674046
237	0x3db899d0	0.090137124
238	0x3d2502b5	0.040285785
239	0x3dc6d026	0.0970767
240	0xbe815116	-0.25257176
241	0xbdf0869f	-0.11744427
242	0xbe07166e	-0.1319215
243	0xbddba7b8	-0.10725349
244	0x3f033128	0.5124688
245	0x3e960987	0.29304144
246	0x3e71d247	0.2361537
247	0xbebdfced	-0.3710703
248	0x3dadc2e4	0.08484438
249	0xbe83954c	-0.25699842
250	0xbf0187f4	-0.50598073
251	0x3dba8b92	0.09108652
252	0x3df0b5b9	0.11753411
253	0x3ed31cbc	0.4123286
254	0xbe653e87	-0.22387134
255	0xbc16d966	-0.009207105

sequential_5/conv1d_16/Conv1D f4 [64, 1, 3, 32]
0	0x3e3b43c7	0.18287574
1	0xbe80520c	-0.25062597
2	0x3cdc1d5d	0.02686947
3	0x3e3da6b3	0.18520622
4	0xbf98754b	-1.1910795
5	0x3e0af5c1	0.1357031
6	0x3e172482	0.1476002
7	0x3e065be2	0.13120988
8	0x3cd1b5bc	0.025599353
9	0x3dd5a312	0.10431494
10	0x3de8eeba	0.113736585
11	0x3d19ff38	0.03759691
12	0x3e0615e7	0.13094293
13	0xbcb03529	-0.021509724
14	0xbd56c550	-0.052434266
15	0xbdb2851b	-0.08716794
16	0xbe2cb720	-0.16866732
17	0xbd9f7288	-0.07785517
18	0x3d97cd14	0.074121624
19	0xbf091e00	-0.535614
20	0x3e2331b7	0.15936933
21	0x3e4752be	0.19465157
22	0xbe271d4b	-0.16319768
23	0x3d9960f8	0.074891984
24	0x3df180ee	0.117921695
25	0x3da02249	0.078190394
26	0xbe847f62	-0.25878435
27	0x3ea1ddab	0.31614432
28	0xbebffc9a	-0.37497407
29	0xbc565fb5	-0.013084342
30	0x3da9a13d	0.08282707
31	0xbe2dce59	-0.16973247
32	0x3e017646	0.12642774
33	0xbe3eae74	-0.18621236
34	0x3db184f4	0.08667937
35	0x3c8c9e19	0.01716523
36	0xbf14071f	-0.57823366
37	0xbc9cee3f	-0.019156573
38	0x3c76101f	0.015018492
39	0xbd4e28d5	-0.05033191
40	0xbd620415	-0.055179674
41	0x3cd281a6	0.025696587
42	0x3e193247	0.14960586
43	0x3d43083a	0.047615267
44	0xbd98862b	-0.074474655
45	0x3d552884	0.05204059
46	0xbda15c70	-0.07878959
47	0xbdba9c56	-0.0911185
48	0xbd8facce	-0.07015382
49	0xbe180244	-0.14844614
50	0x3c859080	0.016304255
51	0xbcd54ad5	-0.02603666
52	0x3e444882	0.19168285
53	0xbea9b6a1	-0.33147147
54	0xbe888a4c	-0.26668012
55	0xbe80e4ce	-0.25174564
56	0x3e31e1c2	0.17371276
57	0x3d483d43	0.04888655
58	0xbdca50e6	-0.098787114
59	0x3e7d5186	0.2473813
60	0xbe6bd762	-0.23031381
61	0x3d86c05b	0.06579658
62	0xbd872fcc	-0.066009134
63	0xbeb47a16	-0.35249394
64	0x3e672c2f	0.22575448
65	0xbd58b9fd	-0.052911747
66	0x3e1f0a60	0.15531301
67	0x3e1d09b1	0.15335728
68	0xbf3d6ac6	-0.7399105
69	0x3dc68726	0.09693746
70	0xbb3adde9	-0.0028513616
71	0xbbfd8c79	-0.007737693
72	0xbb7bcb10	-0.0038420595
73	0x3e489c10	0.19590783
74	0x3d60b8af	0.054863628
75	0x3dbcc08b	0.09216412
76	0x3dd0a423	0.101875566
77	0x3c6a205f	0.014289944
78	0xbdc1b082	-0.09457494
79	0xbe5f645e	-0.21815631
80	0xbe7e2002	-0.24816898
81	0x3d200394	0.039065912
82	0x3d553e55	0.052061398
83	0xbf068415	-0.5254529
84	0x3e810be2	0.25204378
85	0x3ed6ba03	0.4193879
86	0xbdb31909	-0.087450095
87	0x3d9a0d83	0.075221084
88	0x3d1b0c23	0.03785337
89	0x3e20886b	0.1567704
90	0xbe3a6fb7	-0.18206678
91	0x3ec9d753	0.39422092
92	0xbe7034c6	-0.23457631
93	0x3d8fb110	0.07016194
94	0xbd233a7d	-0.0398507
95	0xbeb85929	-0.36005524
96	0x3db97925	0.090563096
97	0xbe4b66ef	-0.19863485
98	0xbda31e8c	-0.07964811
99	0x3ca9a2aa	0.020707447
100	0xbc849dfb	-0.016188612
101	0x3e15c5a0	0.14626169
102	0xbd504127	-0.050843384
103	0x3e65df68	0.22448504
104	0xbe6c890f	-0.23099159
105	0xbe1d4dda	-0.1536173
106	0xbe67e65f	-0.22646473
107	0x3ebb9414	0.36636412
108	0x3e72cb89	0.23710455
109	0xbd1758dc	-0.036949977
110	0xbea62fb4	-0.3245827
111	0x3e0d71a8	0.13812888
112	0x3e01d8b1	0.12680317
113	0x3e7569fc	0.23966211
114	0xbe48bc38	-0.1960305
115	0x3c05a73e	0.008157549
116	0xbefaff65	-0.49022976
117	0x3ed9a39b	0.42507634
118	0x3e9d6b38	0.30745864
119	0x3e794549	0.24342836
120	0xbe3d0b2c	-0.18461293
121	0xbb784069	-0.0037880188
122	0xbd78c6c7	-0.060736444
123	0x3d23da4d	0.04000311
124	0xbe485e5f	-0.1956725
125	0x3ea0b3ee	0.31387275
126	0xbe3d9199	-0.18512572
127	0xbdb0aeff	-0.08627128
128	0xbd86e866	-0.06587295
129	0xbe4252df	-0.18976925
130	0xbe5a3aed	-0.21311541
131	0x3c5cd91d	0.013479498
132	0xbdd75c5b	-0.10515662
133	0x3de74d72	0.112940684
134	0xbe146935	-0.14493258
135	0x3ebb2da2	0.36558253
136	0x3c010b65	0.007876252
137	0xbed8094e	-0.421946
138	0x3cb38f7e	0.021919008
139	0xbe632d8c	-0.22185344
140	0x3d9d3bb3	0.07677402
141	0x3e8d9a43	0.27656755
142	0x3e8c7568	0.27433324
143	0x3d00c84a	0.03144101
144	0x3e34280f	0.17593406
145	0x3d022c63	0.03178061
146	0xbd40135c	-0.046893463
147	0x3e9df3bc	0.30850017
148	0x3e9b69d7	0.30354187
149	0x3d0229c6	0.03177812
150	0x3de6160e	0.11234675
151	0xbe0eb068	-0.13934481
152	0xbe5a8422	-0.21339467
153	0xbcddd380	-0.02707839
154	0x3d5d3d97	0.054013815
155	0xbeab911f	-0.33509156
156	0xbd582b26	-0.052775525
157	0xbe683f56	-0.2268041
158	0xbe8412c2	-0.2579556
159	0x3e1cbdff	0.15306853
160	0xbe0c2989	-0.1368772
161	0xbead7b90	-0.33883333
162	0x3d467a6f	0.048456606
163	0xbd58b658	-0.05290827
164	0xbd97fc57	-0.07421177
165	0x3c6c12de	0.014408795
166	0x3db31fd9	0.08746309
167	0xbd6c87a7	-0.057746556
168	0xbca112d7	-0.019662304
169	0x3d97454b	0.073862635
170	0xbd256294	-0.040377215
171	0x3d9e3204	0.077243835
172	0xbe16954d	-0.14705391
173	0xbe1452a3	-0.14484648
174	0x3db223d6	0.086982414
175	0xbe13cf7c	-0.14434618
176	0xbdb06046	-0.08612113
177	0xbbaa1fd4	-0.0051917825
178	0xbe0f4567	-0.13991319
179	0xbdb86c7b	-0.09005066
180	0x3e63acb3	0.22233848
181	0x3dbc235e	0.09186433
182	0x3e13bb36	0.14426884
183	0x3d62751b	0.05528746
184	0x3c6a1239	0.014286571
185	0x3e9419ad	0.2892584
186	0x3d8bcb1a	0.06825848
187	0x3e0d9ec1	0.13830091
188	0xbe43f201	-0.19135286
189	0xbd92dc59	-0.07170934
190	0xbd95a903	-0.07307627
191	0x3cf9979b	0.030467799
192	0xbd37f29c	-0.044909105
193	0x3c058e61	0.008151622
194	0xbe1a6eb0	-0.15081286
195	0xbe258cc7	-0.16166984
196	0xbd46e59d	-0.04855882
197	0xbcaeadfe	-0.0213232
198	0x3ceac429	0.02865799
199	0xbdf2f31c	-0.11862776
200	0x3e083245	0.13300426
201	0xbe300ee3	-0.17193179
202	0xbd893ce9	-0.06701071
203	0x3d69001d	0.056884874
204	0xbc96bdc9	-0.018401043
205	0xbe0a6fa4	-0.1351915
206	0xbdba9430	-0.09110296
207	0xbd98bfa4	-0.074584275
208	0xbe32adee	-0.17449161
209	0xbe680bb2	-0.22660711
210	0xbbb5aa59	-0.0055439887
211	0xbe7228ac	-0.23648328
212	0xbd98f9c3	-0.07469513
213	0x3d41e3e3	0.04733647
214	0xbd22fe03	-0.039793026
215	0x3c9b2ad9	0.01894133
216	0xb9f68bd3	-0.00047024954
217	0x3d3fdc06	0.04684069
218	0xbc4aa612	-0.012368696
219	0xbd1762a7	-0.036959317
220	0xbd8fce4a	-0.070217684
221	0x3b1ec4dd	0.0024226226
222	0xbdb9d474	-0.09073725
223	0xbdf1d71f	-0.11808609
224	0x3cc63b79	0.02419828
225	0x3c5f63a3	0.013634595
226	0xbcae17a7	-0.021251513
227	0xbe34c959	-0.17654933
228	0xbe807831	-0.250917
229	0xbd9c87fa	-0.07643123
230	0x3d3adf50	0.045623124
231	0x3db215ca	0.08695562
232	0xbd4b191c	-0.049584493
233	0xbe27e123	-0.16394477
234	0x3c6abcb4	0.014327217
235	0x3c4eee22	0.0126300175
236	0x3de3bc4f	0.111199014
237	0xbe15537d	-0.1458263
238	0xbda1c716	-0.07899301
239	0xbe2914a7	-0.16511784
240	0xbda3aaa5	-0.07991532
241	0xbe83c03d	-0.25732604
242	0xbe0b994e	-0.136327
243	0xbe2d1f02	-0.1690636
244	0xbde77484	-0.113015205
245	0xbcf236e6	-0.029567193
246	0x3d9c836a	0.07642253
247	0xbe569228	-0.20954192
248	0x3c1e7303	0.009670976
249	0x3dbd9b65	0.09258155
250	0xbda82c7f	-0.08211612
251	0x3d86aac6	0.06575541
252	0xbd9592d5	-0.073033966
253	0xbd63f71a	-0.055655576
254	0xbdc6d75e	-0.09709047
255	0xbe00889d	-0.12552114

sequential_5/conv1d_17/Conv1D f4 [128, 1, 3, 64]
0	0xbeb48868	-0.3526032
1	0x3c2436f1	0.010022865
2	0x3c49b1d6	0.012310466
3	0x3e84c85d	0.25934115
4	0x3da3e4c1	0.08002616
5	0x3bddb2c7	0.0067656967
6	0x3de9cfa8	0.114165604
7	0x3d64b686	0.05583813
8	0x3d7372d3	0.059435677
9	0x3ea05bdf	0.31320092
10	0xbbc53a1c	-0.00601889
11	0xbc6dc6f9	-0.014512771
12	0x3e52355d	0.20528169
13	0xbe09f252	-0.13471344
14	0xbed43c35	-0.41452184
15	0x3d0793eb	0.03310005
16	0x3d0cf989	0.034417663
17	0xbc9d43c3	-0.01919735
18	0xbd554709	-0.052069698
19	0xbd5bb0ff	-0.053635594
20	0x3db016e1	0.08598114
21	0xbda81c19	-0.08208484
22	0x3e52f5bd	0.20601554
23	0x3d8574a3	0.06516387
24	0x3ca1a495	0.0197318
25	0x3d980584	0.07422927
26	0xbcb317b4	-0.021861888
27	0x3de5213e	0.11187981
28	0x3e1ea6b6	0.15493283
29	0x3e6ef0cd	0.23334046
30	0x3e7e9858	0.24862802
31	0xbe80101b	-0.25012287
32	0xbd3fbb3b	-0.046809416
33	0x3e4e9bb3	0.20176582
34	0x3dfc36bc	0.12315127
35	0x3e11b7d6	0.14230284
36	0x3d696f4c	0.056990907
37	0x3e0fe8cd	0.1405365
38	0x3ecae2dc	0.39626205
39	0x3e9609f4	0.2930447
40	0xbf1dc3f8	-0.6162715
41	0xbe8efc88	-0.2792704
42	0x3e8622a0	0.26198292
43	0xbe0c3b63	-0.13694529
44	0x3ed2376c	0.4105791
45	0xbd9d899b	-0.07692262
46	0xbe6a8b31	-0.2290466
47	0xbdb0b348	-0.08627945
48	0xbe9065cc	-0.28202665
49	0x3ec546a8	0.3853047
50	0x3d0dad70	0.03458923
51	0x3eab6455	0.33474985
52	0x3ecee96a	0.40412456
53	0x3be0d735	0.006861592
54	0xbebe3134	-0.37146914
55	0x3cb3a956	0.021931332
56	0x3e2b13fe	0.16706845
57	0xbe8d61b0	-0.27613592
58	0xbe791cf4	-0.24327451
59	0x3cad1d4c	0.021132134
60	0x3d1c096e	0.03809493
61	0x3d4ac4b5	0.049504
62	0x3dea3cf1	0.11437405
63	0x3d59ebda	0.05320344
64	0xbda59aea	-0.08086188
65	0xbe2900cc	-0.1650421
66	0xbdfcac61	-0.12337566
67	0xbca22eb2	-0.019797657
68	0x3c383931	0.011244104
69	0xbe79e6ca	-0.24404445
70	0x3e66a770	0.2252481
71	0x3d77110f	0.060319003
72	0x3dce7868	0.100815594
73	0xbf13a776	-0.576774
74	0x3d36174a	0.044455804
75	0x3dceae34	0.1009182
76	0x3e396c05	0.18107612
77	0xbf1183fd	-0.56842023
78	0xbe5e2e7c	-0.2169742
79	0x3cf91e5b	0.030409982
80	0x3e9e9676	0.30974168
81	0xbdcd375a	-0.10020323
82	0x3e140611	0.14455439
83	0x3cbaf2be	0.022820827
84	0x3ded2a7e	0.1158037
85	0xbcced552	-0.025248203
86	0xbe7409f3	-0.2383192
87	0x3e1b3788	0.15157902
88	0x3d843e73	0.06457224
89	0xbd40e224	-0.047090665
90	0x3e258d4a	0.16167179
91	0xbdc489c9	-0.09596593
92	0x3d86cda2	0.0658219
93	0x3e27e537	0.16396032
94	0x3ec7c60c	0.39018285
95	0x3cc4a51a	0.024004508
96	0xbe03bfb6	-0.128661
97	0x3ef3996f	0.47577998
98	0xbe4c5221	-0.19953205
99	0xbdd77f6c	-0.10522351
100	0xbdaa60be	-0.08319233
101	0xbe29f1c7	-0.16596137
102	0xbe1cc12b	-0.15308063
103	0x3e924cd0	0.28574228
104	0x3d8b8632	0.06812705
105	0xbeb8cbeb	-0.36093077
106	0xbca6ec79	-0.02037643
107	0x3d71100b	0.05885319
108	0xbedd0ff1	-0.43176225
109	0xbcbb4584	-0.022860296
110	0xbe594af0	-0.21219993
111	0xbce529e5	-0.027974078
112	0xbef19afc	-0.47188556
113	0x3f241fd3	0.6411106
114	0xbc08cd12	-0.008349674
115	0xbea3a66e	-0.31962913
116	0x3f0600dc	0.5234506
117	0x3d0f1723	0.034934174
118	0xbe464ec5	-0.19365986
119	0xbd96c627	-0.07362013
120	0x3e1f87cd	0.15579148
121	0xbe17efc8	-0.14837563
122	0xbd5c9dfa	-0.053861596
123	0xbd446e4a	-0.047956742
124	0xbdf97dec	-0.12182221
125	0x3dacc564	0.08436087
126	0x3e3bb948	0.18332398
127	0x3dbb924c	0.09158763
128	0xbe95f86c	-0.29291093
129	0x3e69cf13	0.22832899
130	0xbb61f210	-0.0034476556
131	0x3e950f83	0.29113397
132	0xbd0c5b85	-0.034266967
133	0x3e0c505e	0.13702533
134	0x3c2e3dc5	0.010634844
135	0x3cdc51d9	0.026894497
136	0xbd2e5d69	-0.04256955
137	0x3c50c846	0.012743061
138	0x3d83d649	0.06437356
139	0xbc089b3f	-0.008337795
140	0x3e833e8b	0.25633654
141	0xbef2a67c	-0.47392642
142	0xbea159bb	-0.3151377
143	0x3d91ab7b	0.071127854
144	0x3e7200b3	0.23633079
145	0xbd88b4b4	-0.066750914
146	0x3d90ebfd	0.07076261
147	0x3d7feef2	0.062483735
148	0x3e735e10	0.23766351
149	0xbbcb8d93	-0.0062119453
150	0xbb53d09b	-0.0032320383
151	0x3e4695d2	0.1939309
152	0xbcfa8301	-0.030580046
153	0x3e217db0	0.15770602
154	0x3d0b9e93	0.034086775
155	0x3de62734	0.11237946
156	0x3ea337e3	0.31878576
157	0x3e64181b	0.2227482
158	0x3ea9e4ca	0.33182365
159	0x3d4713ec	0.048602983
160	0xbd50e8f7	-0.051003423
161	0x3e3ece4c	0.18633384
162	0x3dd7f102	0.105440155
163	0x3da7374c	0.08164844
164	0xbb9301d1	-0.0044863005
165	0x3e90c79e	0.28277296
166	0x3eff0fb2	0.49816662
167	0x3e8cdc30	0.2751174
168	0xbea0f02b	-0.31433234
169	0xbf30cfc6	-0.6906704
170	0x3e858887	0.26080725
171	0x3d95829d	0.07300303
172	0x3dbb5f27	0.09149008
173	0xbe4d74ab	-0.20064037
174	0xbe311f4c	-0.17297095
175	0xbd8c6a61	-0.06856228
176	0xbf0db022	-0.5534688
177	0x3f1c8b05	0.61149627
178	0x3d862cba	0.065515
179	0x3eb1e1c9	0.34742573
180	0x3eb7976f	0.35857722
181	0x3cd6e049	0.026229994
182	0xbf03cca6	-0.51484144
183	0x3d2e2eea	0.04252521
184	0x3d83a9db	0.06428882
185	0xbe27afcd	-0.16375656
186	0xbe0cf3a1	-0.13764812
187	0x3ca49f1c	0.0200954
188	0x3ea48d9a	0.32139283
189	0x3dca1de5	0.09868983
190	0x3dab346f	0.0835961
191	0x3ddda96b	0.108233295
192	0x3d758002	0.05993653
193	0x3d3c666b	0.04599611
194	0xbd5cb1ff	-0.053880688
195	0x3b7ccff2	0.0038576094
196	0x3d36cb34	0.044627383
197	0x3b755b36	0.00374384
198	0xbe2facd0	-0.17155766
199	0x3c907b3b	0.017636886
200	0xbcd8cb50	-0.026464134
201	0xbb4290a3	-0.002968826
202	0x3d9c9975	0.07646457
203	0xbce5f8e6	-0.028072786
204	0xbcbaad5a	-0.022787739
205	0xbd4649f1	-0.04841036
206	0xbd58ac71	-0.052898828
207	0xbd2a9735	-0.04164811
208	0x3d35bde6	0.044370554
209	0x3d871301	0.065954216
210	0xbcf538f9	-0.029934393
211	0x3d2855a7	0.04109731
212	0xbc41ab16	-0.011820575
213	0xbbce60b7	-0.0062981504
214	0x3d6fe2f2	0.05856604
215	0xbd320f6c	-0.04347174
216	0x3d8a9b47	0.06767898
217	0x3bced8e3	0.006312476
218	0xbdf15a9d	-0.11784861
219	0x3d940c4d	0.07228909
220	0xbd6ff3fe	-0.0585823
221	0xbd0bf780	-0.03417158
222	0xbd0e457f	-0.034734245
223	0xbd38c950	-0.04511386
224	0x3c87382f	0.016506283
225	0xbc3ded68	-0.011592247
226	0xbdd1ac4a	-0.1023794
227	0xbd60aab9	-0.054850314
228	0x3dbae363	0.09125402
229	0x3d93ccae	0.07216774
230	0xbd2e5b58	-0.04256758
231	0x3dab6a29	0.08369858
232	0xbd7b5297	-0.06135806
233	0x3da30c32	0.079613104
234	0x3d43b340	0.047778368
235	0xbc3dd16c	-0.011585575
236	0xbc2c9e72	-0.010535823
237	0xbdb63b94	-0.088980824
238	0xbdf03015	-0.11727921
239	0xbd2d0c58	-0.0422481
240	0xbb74d8fa	-0.0037360773
241	0x3da5fe1a	0.08105107
242	0x3dcafa3e	0.09911011
243	0xbd900ce0	-0.07033706
244	0x3d37e49b	0.04489575
245	0x3d0dc233	0.03460903
246	0x3dd1f925	0.10252599
247	0xbdfeb10a	-0.12436111
248	0xbdb2c0f9	-0.08728213
249	0xbd4d4974	-0.05011888
250	0x3ba16a7a	0.004926023
251	0xbc2a3a40	-0.010389864
252	0xbd8883d2	-0.06665768
253	0xbd30feeb	-0.04321186
254	0xbdc8e438	-0.09809154
255	0xbd15d047	-0.036575582

sequential_5/dense_11/BiasAdd/ReadVariableOp f4 [6]
0	0x3e23bec1	0.15990736
1	0x3e2f1673	0.17098407
2	0xbe0a5288	-0.13508046
3	0x3d2a455a	0.041570045
4	0xbe48e609	-0.19619001
5	0xbdcd7eff	-0.10033988

sequential_5/dense_10/BiasAdd/ReadVariableOp f4 [64]
0	0xbe47d57a	-0.19515029
1	0xbda3217f	-0.07965373
2	0x3edc53dd	0.43032733
3	0xbdf8c306	-0.12146573
4	0xbe9d53c2	-0.30727965
5	0x3e7d2d23	0.2472425
6	0xbde1514c	-0.11001834
7	0xbe048ba0	-0.12943888
8	0x3e321b1c	0.17393154
9	0xbc9a299e	-0.018818673
10	0xbd949ba8	-0.072562516
11	0x3e85daa9	0.26143387
12	0x3e9ab3ed	0.30215397
13	0x3f1705ee	0.58993423
14	0x3c850e9a	0.016242314
15	0xbd5c11e2	-0.053727992
16	0xbdedec7a	-0.1161737
17	0xbd171672	-0.03688664
18	0x3e1b3030	0.15155101
19	0xbd4728d0	-0.048622906
20	0xbc1d8070	-0.009613141
21	0xbdd84840	-0.105606556
22	0xbe2c343e	-0.16816804
23	0xbe28fba2	-0.1650224
24	0xbe2e18a9	-0.17001595
25	0xbc453ae3	-0.0120379655
26	0xbea26b70	-0.31722593
27	0xbe281d9f	-0.1641755
28	0x3e9a9392	0.30190712
29	0x3d279b20	0.040919423
30	0x3ec2f6da	0.38078958
31	0x3eebaa66	0.4602844
32	0xbdd7cc08	-0.10536963
33	0x3e18cdf9	0.14922322
34	0x3ead63e5	0.33865276
35	0x3e62b88e	0.22140715
36	0xbd77707b	-0.060410004
37	0xbe4bbcc2	-0.19896224
38	0x3e83f231	0.25770715
39	0xbed28a6e	-0.41121238
40	0x3ed134eb	0.40860686
41	0x3e8415d9	0.25797918
42	0xbe509e60	-0.20372915
43	0x3e9f5e7d	0.31126776
44	0x3e7aa60f	0.24477409
45	0xbe308e58	-0.172418
46	0xbd6b7e52	-0.057493515
47	0x3efbde86	0.4919321
48	0x3b7ea391	0.0038854817
49	0xbe4313f6	-0.19050583
50	0xbd96bed2	-0.07360615
51	0xbe381069	-0.1797501
52	0x3eb5b3ac	0.3548864
53	0xbedd9dc6	-0.43284434
54	0xbe27019e	-0.1630921
55	0xbcd03b6b	-0.025418958
56	0x3ef46868	0.47735906
57	0xbd92b856	-0.071640655
58	0x3eadff8b	0.33984026
59	0x3e8ad0bb	0.27112374
60	0xbe0e7bd6	-0.13914427
61	0x3ebba995	0.36652818
62	0xbe1e7f3c	-0.15478224
63	0xbdcbeea5	-0.09957627

sequential_5/dense_10/MatMul f4 [64, 1280]
0	0x3ec43b95	0.38326707
1	0x3cdddf9d	0.027084166
2	0xbc4ffa52	-0.012693958
3	0xbd65b711	-0.05608279
4	0x3e307823	0.17233329
5	0xbcdf60e8	-0.027267888
6	0x3e179de3	0.14806323
7	0xbd4e2626	-0.05032935
8	0x3e586cf7	0.21135317
9	0x3e34dc81	0.1766224
10	0x3e4c8c2c	0.19975346
11	0xbbf6b1d6	-0.007528524
12	0xbd169171	-0.036759797
13	0xbe7cbf2c	-0.24682301
14	0x3e8413c9	0.25796345
15	0x3e22f94a	0.15915409
16	0xbcc1cdb4	-0.023657657
17	0xbd9d3461	-0.07676006
18	0xbf06a3cb	-0.5259368
19	0xbe044220	-0.1291585
20	0xbe06dd0a	-0.13170257
21	0x3dc6c7cf	0.09706079
22	0xbeafeb10	-0.34359026
23	0x3dfc11a7	0.123080544
24	0xbe3ac9bc	-0.18241018
25	0x3d85a858	0.0652625
26	0xbda46042	-0.08026172
27	0xbd8a2e3f	-0.06747102
28	0xbaf30eea	-0.0018543873
29	0x3d095ffd	0.033538807
30	0xbe8237ac	-0.254331
31	0xbd2aa7d0	-0.041663945
32	0xbe2d8af1	-0.16947533
33	0x3cd12809	0.025531786
34	0x3e5872c3	0.21137528
35	0x3e27a57e	0.16371724
36	0xbd014243	-0.031557333
37	0x3e5decc9	0.21672358
38	0x3d997ea1	0.07494856
39	0x3d88dcf3	0.06682768
40	0x3c7e37e8	0.015516259
41	0x3e0f8278	0.14014614
42	0x3c21e1e0	0.009880513
43	0xbd84175a	-0.064497665
44	0x3d02cf73	0.03193612
45	0xbe2a0a31	-0.1660545
46	0x3e42f243	0.19037728
47	0xbd0acd4d	-0.033887196
48	0xbd9f0166	-0.077639386
49	0x3dc1304f	0.09433042
50	0xbdf2f6e1	-0.11863495
51	0xbe14a28c	-0.14515132
52	0x3dbb862e	0.09156452
53	0x3d024c40	0.031811
54	0x3e7dc4ae	0.24782059
55	0x3d280c8f	0.0410276
56	0x3e302aa1	0.17203762
57	0xbdcf9cb2	-0.10137309
58	0x3c657220	0.01400426
59	0xbd77a92a	-0.06046406
60	0xbd9c956a	-0.07645686
61	0xbd9c6cc9	-0.076379366
62	0x3d33e6fc	0.043921456
63	0x3cfa3d43	0.03054679
64	0x3e6bfb10	0.23044991
65	0xbd68f4b1	-0.05687398
66	0xbd1c06bb	-0.038092356
67	0xbe87754c	-0.26456678
68	0x3d872881	0.065995224
69	0x3d220fb2	0.03956575
70	0xbd84d3be	-0.06485699
71	0x3e86adbe	0.2630443
72	0x3d62b471	0.055347864
73	0x3debe4f8	0.11518282
74	0x3ebe8fe1	0.37219146
75	0xbc8caa2c	-0.017170988
76	0xbd7d1602	-0.061788566
77	0x3de0a4e5	0.10968951
78	0x3e710a38	0.23539054
79	0xbde2c90c	-0.11073503
80	0x3d79768a	0.060904063
81	0xbd561166	-0.052262686
82	0x3efa4c92	0.48886544
83	0x3dbda75e	0.092604384
84	0xbcffdab4	-0.031232215
85	0x3e0b482b	0.13601749
86	0x3e4906a9	0.19631447
87	0x3c5c82eb	0.013458948
88	0xbd317741	-0.04332662
89	0x3e266c22	0.16252187
90	0x3b35c372	0.0027734903
91	0xbc78b4a3	-0.015179786
92	0x3decb849	0.11558587
93	0xbec11b2b	-0.3771604
94	0x3e32a706	0.17446527
95	0x3db7ffb5	0.08984319
96	0xbdfebeb0	-0.124387145
97	0xbe3d5066	-0.18487701
98	0xbbd8886a	-0.0066080587
99	0x3d6a3dbd	0.057187784
100	0x3d804eff	0.06265067
101	0x3e126930	0.14297938
102	0xbd376f06	-0.044783615
103	0x3bf5c840	0.0075006783
104	0x3cd54ea6	0.026038479
105	0xbe8e4480	-0.27786636
106	0x3de1bf41	0.11022807
107	0x3e65c3e2	0.22438005
108	0xbcf840ea	-0.030304391
109	0xbc773cbf	-0.015090167
110	0x3d995e88	0.074887335
111	0x3e5d2b3a	0.21598521
112	0x3d5ac51d	0.053410638
113	0xbd41279e	-0.047156923
114	0xbc29b529	-0.010358133
115	0x3d1a3c1b	0.037654977
116	0x3e83a5fc	0.25712574
117	0x3e739005	0.23785408
118	0x3d6c0dc9	0.057630334
119	0x3ec24259	0.37941244
120	0x3d3c5aea	0.04598514
121	0x3d11007f	0.035400864
122	0x3d42e519	0.047581766
123	0xbdfe5b7f	-0.12419795
124	0xbd9db40e	-0.07700358
125	0xbea22c89	-0.31674603
126	0x3e62f28d	0.22162838
127	0xbea72e49	-0.326525
128	0x3d5cf7e2	0.053947337
129	0x3d61bf68	0.05511418
130	0xbe8c88b7	-0.27448055
131	0x3d3cc9c7	0.046090867
132	0x3ce679df	0.028134285
133	0x3d49963b	0.049215537
134	0x3dc5cc5f	0.09658121
135	0xbca96b29	-0.02068098
136	0x3e8bb737	0.2728822
137	0x3dab590b	0.08366593
138	0x3e037065	0.12835844
139	0xbd030b5a	-0.031993248
140	0xbcbc0e3c	-0.022956006
141	0x3c1b6cd0	0.009486392
142	0x3d24fc9f	0.04027998
143	0x3ca6312c	0.020287119
144	0xbe2c11f1	-0.16803719
145	0x3df2b7ef	0.11851489
146	0xbe8a88f6	-0.27057618
147	0xbeb33285	-0.3499948
148	0xbdd1ba9e	-0.102406725
149	0x3d5b2650	0.053503335
150	0xbea95bce	-0.33077854
151	0x3daaedbd	0.08346126
152	0xbe62f7aa	-0.22164789
153	0x3b505c6f	0.0031793376
154	0xbd27ca09	-0.04096416
155	0x3b5185e3	0.0031970672
156	0xbd4f8df1	-0.050672475
157	0x3e12299e	0.14273688
158	0xbe947a1d	-0.28999415
159	0x3d296436	0.041355334
160	0xbebd6ff8	-0.36999488
161	0x3e67c521	0.22633792
162	0x3e4e6db6	0.20159039
163	0x3e5ad5d1	0.21370627
164	0x3cdfb1cb	0.027306458
165	0x3e2ea0cc	0.17053527
166	0xbc0734c3	-0.0082523255
167	0x3e7072aa	0.23481241
168	0x3dc3e0fd	0.095643975
169	0x3d71d773	0.05904336
170	0x3e162289	0.14661612
171	0xbd1e18f8	-0.03859803
172	0xbcca63ff	-0.024705885
173	0xbe4ef0cf	-0.20209049
174	0x3ebae3b7	0.36501858
175	0xbd5d87a2	-0.054084428
176	0xbc38560a	-0.011250982
177	0x3e1ca50e	0.15297338
178	0xbebf4ed3	-0.37364826
179	0x3ea9b9c2	0.33149534
180	0x3e34ef65	0.17669447
181	0xbdc3b55b	-0.09556075
182	0x3dbf5e5c	0.093441695
183	0xbdca35b1	-0.09873522
184	0xbd690a9a	-0.056894876
185	0x3e304e7c	0.1721744
186	0xbd360457	-0.044437733
187	0xb8c4a80e	-9.377311e-05
188	0x3c8819ec	0.016613923
189	0xbd72c0d1	-0.059265915
190	0xbd2b53c9	-0.04182795
191	0xbd265581	-0.040608887
192	0xbd8655e2	-0.065593496
193	0xbde48e60	-0.111599684
194	0x3cfd9594	0.030955113
195	0xbe1d91ba	-0.15387622
196	0x3ddeaa3b	0.10872313
197	0xbc1432d0	-0.009045318
198	0xbdb8262f	-0.08991658
199	0x3e1510c0	0.14557171
200	0x3e62eff2	0.22161844
201	0x3e2e9e2a	0.17052522
202	0xbd89664c	-0.06708965
203	0x3c1fb12d	0.009746832
204	0x3d3ba466	0.04581108
205	0x3e0d4560	0.13795996
206	0x3d96e26c	0.07367405
207	0x3c9d6877	0.019214852
208	0xbe490794	-0.19631797
209	0x3d76efee	0.06028741
210	0x3ec4f8ac	0.38470972
211	0x3e13f69c	0.14449543
212	0xbd37de00	-0.04488945
213	0x3e3f2c56	0.18669257
214	0x3e10e0d0	0.14148259
215	0x3d3377e2	0.0438155
216	0xbc475474	-0.012166131
217	0xbdd75b7a	-0.10515495
218	0x3e61ec61	0.22062828
219	0x3cfa56a7	0.030558897
220	0x3e7318f6	0.2373999
221	0xbf05bfd9	-0.5224586
222	0x3d9df0cd	0.07711945
223	0x3d64a083	0.05581714
224	0xbe1238dc	-0.14279503
225	0xbdfd2878	-0.123612344
226	0x3d4ec385	0.05047943
227	0x3d17a6b1	0.037024204
228	0x3d33ba99	0.043879125
229	0x3c85bf7d	0.01632666
230	0x3bb78735	0.0056008347
231	0x3d5bec3c	0.053692088
232	0x3d932891	0.07185472
233	0xbea3bb20	-0.31978703
234	0x3ee13d24	0.4399196
235	0xbdec002c	-0.1152347
236	0xbe7bd995	-0.2459472
237	0x3d8215bc	0.06351802
238	0x3cdce598	0.026964948
239	0x3eb293d0	0.34878397
240	0xbe700795	-0.23440392
241	0x399f9af2	0.00030442287
242	0x3d15749c	0.03648816
243	0x3c196690	0.009362832
244	0xbe023a1c	-0.1271748
245	0x3d6fbe00	0.058530807
246	0xbcbcf662	-0.023066703
247	0x3e6655ab	0.22493617
248	0x3c88402f	0.016632168
249	0x3ea38727	0.3193905
250	0x3e088cfc	0.13335031
251	0x3dcba2ad	0.09943137
252	0x3eecb840	0.46234322
253	0xbe559e40	-0.20861149
254	0x3dc35bcd	0.09538994
255	0xbe8a2ae6	-0.26985854

sequential_5/dense_11/MatMul f4 [6, 64]
0	0xbf52abf1	-0.8229361
1	0x3df8735c	0.12131378
2	0xbe918d79	-0.28428248
3	0x3e9af461	0.3026457
4	0xbe594e89	-0.21221365
5	0xbf0ed31a	-0.55790865
6	0x3e6de8aa	0.23233286
7	0x3e17ade2	0.14812425
8	0x3dec2ea0	0.115323305
9	0xbe0aedac	-0.13567227
10	0xbe18ba51	-0.14914824
11	0x3e887701	0.26653293
12	0x3ec27659	0.37980917
13	0x3d7cdacc	0.0617321
14	0xbec5bfc7	-0.38622877
15	0x3ef64e91	0.48106816
16	0xbe36ec68	-0.1786362
17	0x3e1cbef3	0.15307216
18	0x3f28ec63	0.659857
19	0xbe145f03	-0.14489369
20	0xbd08b856	-0.03337892
21	0x3c208ff1	0.009799943
22	0xbea92846	-0.3303854
23	0xbdd63a86	-0.10460381
24	0xbebe3c60	-0.37155437
25	0xbc8b3d05	-0.01699687
26	0xbde3d377	-0.11124318
27	0xbea2519d	-0.3170289
28	0x3ec83421	0.3910227
29	0xbe96210a	-0.29322082
30	0xbf3290d1	-0.6975222
31	0x3e47fe4c	0.195306
32	0xbe7561f9	-0.23963155
33	0x3db9ceae	0.09072624
34	0x3d49ed09	0.04929832
35	0x3c82bca3	0.01595909
36	0xbd8af2f0	-0.06784618
37	0x3e056808	0.13027966
38	0xbdd20a30	-0.10255849
39	0xbd05e13a	-0.032685496
40	0x3e65fd0e	0.22459814
41	0x3ebb64bc	0.36600292
42	0x3e179333	0.14802246
43	0x3e29cb74	0.16581517
44	0xbf3a0711	-0.7266703
45	0xbf3a0853	-0.7266895
46	0xbe6720eb	-0.22571151
47	0x3ec9f081	0.39441302
48	0x3e04be89	0.12963308
49	0xbdfa5b7f	-0.12224483
50	0x3e20ebc9	0.15714945
51	0xbe34cf30	-0.17657161
52	0x3e0fbf82	0.14037898
53	0xbd13c2a5	-0.0360743
54	0x3e51fa47	0.2050563
55	0xbea80a82	-0.32820517
56	0x3e169160	0.14703894
57	0x3e231e45	0.15929516
58	0x3d9760d7	0.073915176
59	0xbf4325b7	-0.76229423
60	0x3e4cd00b	0.20001237
61	0x3ec67c0a	0.3876651
62	0x3ecbd546	0.39811152
63	0x3ddddf78	0.10833639
64	0xbe50af3e	-0.2037935
65	0xbe4203f5	-0.18946822
66	0x3ed6dd5e	0.41965765
67	0xbe43deb4	-0.19127923
68	0xbf49241c	-0.78570724
69	0x3e8fa135	0.2805268
70	0x3e16f342	0.14741233
71	0x3de35fcc	0.11102256
72	0x3e868780	0.26275253
73	0x3c9c0f24	0.019050188
74	0x3d774042	0.060364015
75	0xbd6c76b6	-0.0577304
76	0xbf327f28	-0.69725275
77	0x3ec01bbe	0.37521166
78	0xbf0422ae	-0.51615417
79	0xbe743eaa	-0.2385203
80	0xbe2a7913	-0.16647749
81	0xbd7b95c2	-0.061422117
82	0xbe178023	-0.14794974
83	0xbe43e821	-0.19131519
84	0x3e06bfa3	0.13159041
85	0xbdb7f0d7	-0.089814834
86	0x3e03e545	0.12880428
87	0xbe94f9bb	-0.2909678
88	0xbeebab53	-0.46029148
89	0x3f05518c	0.52077556
90	0xbead5d34	-0.3386017
91	0x3d3ff35e	0.046862952
92	0xbe5b996e	-0.21445248
93	0x3f1e1836	0.6175569
94	0xbec68cce	-0.387793
95	0x3e5b6702	0.21426013
96	0xbebe26ac	-0.3713888
97	0xbec78d26	-0.38974875
98	0xbf2151e0	-0.63015556
99	0x3e63c510	0.22243142
100	0xbd2ec0c9	-0.042664323
101	0xbd5d8a07	-0.05408671
102	0xbd6b4fc0	-0.057449102
103	0xbf3a3eb9	-0.7275196
104	0x3e8aa872	0.2708164
105	0xbf138cdb	-0.57636803
106	0xbe83cb04	-0.25740826
107	0x3df704a5	0.12061433
108	0x3cb00e6a	0.021491248
109	0x3e9cd8ef	0.30634257
110	0xbe7da13c	-0.24768537
111	0x3e768064	0.24072415
112	0x3e8b119c	0.27161872
113	0xbeba2a8a	-0.3636058
114	0xbd78febf	-0.06078982
115	0x3ec3900f	0.38195845
116	0x3e5b43bc	0.21412557
117	0x3e67f42d	0.2265174
118	0xbda280ef	-0.079347484
119	0x3ee1cb8d	0.4410061
120	0x3e6e1293	0.23249273
121	0xbda98dec	-0.082790226
122	0x3e9d14cd	0.30679932
123	0xbe825141	-0.25452617
124	0x3e84b4df	0.25919244
125	0x3d89c9f2	0.06727971
126	0xbdb86731	-0.09004057
127	0x3e75886e	0.23977825
128	0x3eac4d29	0.3365262
129	0xbeaecf4f	-0.3414254
130	0xbff3f9c0	-1.9060593
131	0x3e0732f6	0.13203034
132	0x3e0551c4	0.13019472
133	0xbec25859	-0.3795803
134	0x3e4787b8	0.19485366
135	0x3d99be56	0.07507007
136	0xbefec5af	-0.49760196
137	0xbf1ab0bc	-0.60425925
138	0xbe159631	-0.14608075
139	0xbf9b231e	-1.2120092
140	0xbf3c6573	-0.735923
141	0xbf9a54de	-1.205715
142	0x3f1340a1	0.5752049
143	0xbe5626f3	-0.20913295
144	0x3d719ba9	0.05898634
145	0x3e4a3c7c	0.19749635
146	0xbecb4e76	-0.39708298
147	0xbe76380b	-0.24044816
148	0xbcab27fc	-0.02089309
149	0x3e92ebb9	0.28695467
150	0x3eb7192b	0.3576139
151	0x3e0158bb	0.12631504
152	0xbe722f82	-0.23650935
153	0xbe7f07ec	-0.24905366
154	0x3e29d0e5	0.16583593
155	0x3c09f89f	0.008421092
156	0xbfa58021	-1.2929727
157	0xbe969be5	-0.29415813
158	0xbf71d845	-0.94470626
159	0x3e038763	0.12844615
160	0xbefabe60	-0.4897337
161	0x3d90b47b	0.07065674
162	0xbf4b7841	-0.7948037
163	0xbf78a34f	-0.9712419
164	0x3e77f2ed	0.24213763
165	0x3d990f0b	0.07473572
166	0xbe5021d9	-0.20325412
167	0x3e04b2de	0.12958857
168	0xbefc236c	-0.49245775
169	0xbf1382a5	-0.5762122
170	0x3e7bfc96	0.24608073
171	0xbe3143ab	-0.1731097
172	0xbe733de5	-0.2375408
173	0xbed4898a	-0.41511184
174	0x3df692db	0.12039729
175	0xbf28deae	-0.6596478
176	0xbd5f2436	-0.054477893
177	0xbe82b4ae	-0.25528473
178	0x3d8062e2	0.062688604
179	0x3e9bfefb	0.30467972
180	0x3dcef011	0.10104383
181	0xbebb8f0f	-0.36632583
182	0x3e5320ca	0.20617977
183	0x3c226e34	0.00991397
184	0xbf939e73	-1.153273
185	0x3e2924c2	0.16517928
186	0x3e6e74e3	0.23286776
187	0xbecb4b58	-0.3970592
188	0x3d512593	0.051061224
189	0xbf7e42af	-0.993205
190	0x3d90bbf5	0.070671
191	0x3e4c4c05	0.19950874
192	0x3e0770e4	0.13226658
193	0x3d170595	0.036870558
194	0x3f4452e9	0.7668901
195	0xbe0c388a	-0.13693443
196	0xbf061d86	-0.523888
197	0x3daffe4d	0.08593426
198	0xbdd8d4c5	-0.105874576
199	0x3e4461e3	0.19177966
200	0x3d6029e8	0.054727465
201	0xbe7034b7	-0.23457609
202	0xbd0f2b6f	-0.03495353
203	0x3e70105f	0.23443745
204	0x3eb5f3fa	0.35537702
205	0x3ec6142c	0.38687265
206	0x3e954c1d	0.29159632
207	0xbcd46832	-0.02592859
208	0xbfae9e1b	-1.3642
209	0xbe60be03	-0.21947484
210	0x3ea95390	0.33071566
211	0xbe1e7bee	-0.15476963
212	0xbf60a1b8	-0.87746763
213	0xbf29ba1f	-0.66299623
214	0xbf7d18c0	-0.9886589
215	0xbf9c448b	-1.2208418
216	0x3e84f258	0.25966144
217	0x3c6389fb	0.013887878
218	0xbf1248d7	-0.57142395
219	0xbe4d2e68	-0.20037234
220	0x3e140688	0.14455616
221	0x3cfa909e	0.030586537
222	0x3f53876d	0.8262852
223	0x3eaebc55	0.3412806
224	0xbd9d8789	-0.07691867
225	0x3e98909b	0.29797825
226	0x3e6026ae	0.21889755
227	0xbe2384db	-0.15968649
228	0xbd84231b	-0.06452008
229	0xbe4677e9	-0.1938168
230	0x3f4ecd31	0.8078185
231	0x3e5745d5	0.21022733
232	0xbc280517	-0.01025512
233	0x3eec87a9	0.4619725
234	0x3e96f8fd	0.29486838
235	0x3d9c1e55	0.07622973
236	0x3f86e79c	1.0539432
237	0xbf1d46ef	-0.6143636
238	0xbe1aedda	-0.15129796
239	0x3dbc5d25	0.091974534
240	0xbee8db61	-0.45479873
241	0x3dc3e686	0.09565453
242	0x3d97a13e	0.074038014
243	0xbeac2deb	-0.33628783
244	0x3e496a9f	0.19669579
245	0xbe2a0a47	-0.16605483
246	0xbdcc484a	-0.099747255
247	0x3e2a3edb	0.1662554
248	0x3e232838	0.15933311
249	0xbf4c526c	-0.79813266
250	0x3e002945	0.12515743
251	0x3e467850	0.19381833
252	0xbe56c0f6	-0.20972046
253	0x3d4f72fe	0.050646774
254	0xbc7cf270	-0.015438661
255	0xbf5b25eb	-0.85604733
