models/models_for_presentation/moving_classifier.tflite (tflite, 461684 bytes, 10 tensors)

sequential_1/conv1d_3/BiasAdd/ReadVariableOp f4 [32]
00000000: ba94 a5bd d617 29be e6ba 8c3d 9075 82be
00000010: 236e debd 0828 08be 16e3 c0bc 0e3d 7ebe
00000020: e150 053e 83b0 c2bd c0e1 12be b387 3bbd
00000030: f832 62be 5907 e5bd 10f8 6fbd e8af 5b3b
00000040: 8cfd 8dbd 519e 8d3d e410 7bbd a4e3 30be
00000050: 1815 113d 0278 febe 8040 74bc 844e 08bd
00000060: 8389 70bd d693 e8bd 56dd 673e ab2d 133c
00000070: ac78 f5bd 1d02 d0bd 2072 3bbe 67ce bb3c
-0.08085008 -0.16512999 0.068715855 -0.25480318 -0.10860851 -0.1329652 -0.023545783 -0.24827978
0.13019134 -0.09506323 -0.1434393 -0.04578371 -0.22089756 -0.11183042 -0.05858618 0.0033521596
-0.06933126 0.06914962 -0.061295405 -0.17274338 0.035420507 -0.49700934 -0.014907956 -0.033278003
-0.05872489 -0.113563225 0.22643027 0.008983056 -0.11985907 -0.10156653 -0.18305254 0.022925569

sequential_1/conv1d_4/BiasAdd/ReadVariableOp f4 [64]
00000000: 2fa9 e8bd 277c 09bc 7d1e 16be d66d acbd
00000010: 57be 51bd c7e0 b4bb 0f6c e73b e46f 47be
00000020: 0e7b b0bc c4e3 0bbd 4dbf 2dbd 6899 05bd
00000030: 4c93 1bbe c536 20be ce91 5dbd 2890 febd
00000040: 2e55 52bd 9706 a5bd 9765 20be b43e aebd
00000050: 9d68 e8bd de37 c9bd 52d1 54bd 5bd6 5fbd
00000060: 8b5c f3bd a697 9dbd 29b2 fbbd cc8b debd
00000070: 1575 0dbe 5bc3 1abe cff7 38bd b742 a1bd
00000080: 7951 8a3d 0592 a9bd 9f68 d4bd 8531 48bc
00000090: 79af 97bd 14be 9dbc 720e 1ebe 407d 0ebd
000000a0: 443d c7bc 670d 08be 319a fdbd 38f4 5bbd
000000b0: 59d5 62bd 31af 63bd 1947 f1bb 7e0f 1abe
000000c0: 8eaf e1bc f82a f6bd c383 42bd 64e5 4ebe
000000d0: 3699 88bd 6ecf ff3c e6f5 b6bc ae16 6b3c
000000e0: e26c 0fbc b961 4bbd 2630 9dbd fc42 cdbd
000000f0: fac2 c2bd 5636 d8bd 5b4c 08bd 0a98 3b3d
-0.11360394 -0.008391417 -0.14660068 -0.08419387 -0.051206913 -0.0055199596 0.007062442 -0.19476277
-0.021543052 -0.03415276 -0.042418767 -0.032617003 -0.15192908 -0.15645893 -0.05409413 -0.124298394
-0.051350765 -0.080578975 -0.15663753 -0.085080534 -0.113480784 -0.09825109 -0.051957436 -0.054647785
-0.118828855 -0.0769494 -0.12289841 -0.10866508 -0.13814195 -0.15113585 -0.045158204 -0.07874053
0.06753821 -0.08279804 -0.103715174 -0.012218838 -0.07406516 -0.019255675 -0.15435198 -0.034787416
-0.024321206 -0.13286363 -0.12382925 -0.053699702 -0.055379245 -0.055586997 -0.007363212 -0.15044972
-0.027549531 -0.120199144 -0.04748894 -0.20204693 -0.06669848 0.03122684 -0.02233405 0.014348669
-0.008753987 -0.049653742 -0.07675199 -0.10022542 -0.09509845 -0.10557239 -0.033275943 0.045799293

sequential_1/conv1d_5/BiasAdd/ReadVariableOp f4 [128]
00000000: 8a7c 80be 93a9 22be 765a d4bd ee1d f1bd
00000010: 1c20 f7bd 38c3 20bd 87a8 5dbe 80e3 23be
00000020: beeb 6dbe 9b88 ecbd 51d9 2cbe 8de3 35bd
00000030: 9ca4 8ebd 2630 e3bc a8c2 c5bd 1b0d a93d
00000040: 863d f1bd d28a 8bbd c0e7 be3d b0f8 b23d
00000050: a302 07be 7b58 48be 571b 01be 2b15 4b3d
00000060: 75e8 203d 7657 12be 7166 eabd 278d 85bd
00000070: c04e 43bd c19b 88bd b9d0 073d f714 02bd
00000080: 73e6 3abd f281 0bbd 24e3 7d3d 24fe 84be
00000090: 41d3 39be 7527 cabc f056 4a3c 5b77 95bb
000000a0: ff9c 87bd 31d4 17be 03eb cbbd ef8c 3fbe
000000b0: 696c 02be f8ac 143e 67d2 ab3d a415 35ba
000000c0: 6781 1c3d 641f 1c3e 75f1 e83c 53e8 0ebe
000000d0: 3487 66bd c820 c8bd 0ee1 8ebd 2574 893d
000000e0: 248a cb3d a5de 28be bb68 23bd 4114 cfbd
000000f0: 51d3 e3bd ccae 983b 16f8 923d adda c1bd
00000100: 89df 21be 8580 d4bd 3fbe e6bc a5ee a0bd
00000110: 9000 92bd 9a05 09be 901f 4dbe c4cf 87be
00000120: 77b8 2ebe c304 0e3e 3fb1 d9bd 2649 2bbd
00000130: baac 143d 3607 8fbd e5c7 cabc a282 afbd
00000140: 53b0 4d3d d880 6fbb 3d60 66be 3b20 363d
00000150: 3dec a8bd 9679 d3bd 3100 38bc c220 35bd
00000160: 813b 04bd efd6 423c 2527 76bd fa61 a4bc
00000170: 6bab 9e3c 31a9 b63d 521e a0bd 8685 b1bd
00000180: c085 533d a467 26be a950 a5bc c372 4abd
00000190: 4656 083d 308c f3ba 151c 12bd 181d b33c
000001a0: e6e8 cabd 4665 0fbe 1d48 66bd d3ea 1bbe
000001b0: c329 78bd ca52 353d 446f 10be d8b8 8bbd
000001c0: 0e57 d8bd aa36 21be 7271 553d 106f 24bc
000001d0: 4441 f13d 338f 083d 5b0b 89bc 8753 723d
000001e0: 25b6 743d d06b 68be 4775 87bd c76a 0abd
000001f0: 6c10 b9bd 8c00 20be 5f98 c2bd 0b4d e83c
-0.25095016 -0.15885 -0.103688166 -0.11773287 -0.12066671 -0.039248675 -0.2164632 -0.16004753
-0.2323446 -0.11549493 -0.16879775 -0.044406462 -0.069649905 -0.02773292 -0.09656268 0.08254453
-0.11779313 -0.06813587 0.093215466 0.087388396 -0.131846 -0.19565003 -0.12608086 0.049580734
0.03928419 -0.14291176 -0.114453204 -0.06521063 -0.047682524 -0.06670333 0.033158038 -0.031758275
-0.04562993 -0.034059472 0.061984196 -0.25975144 -0.18146993 -0.024677018 0.012349829 -0.0045613474
-0.066217415 -0.14827038 -0.09956934 -0.18706106 -0.12736668 0.14519107 0.083897404 -0.0006907827
0.038209345 0.1524635 0.028435448 -0.13955812 -0.056281283 -0.097718775 -0.069765195 0.06711606
0.099384576 -0.16491182 -0.0398948 -0.10111285 -0.1112429 0.0046595093 0.07176225 -0.09465537
-0.15807928 -0.10376076 -0.028166888 -0.07858018 -0.071290135 -0.13381043 -0.20031571 -0.265257
-0.17062555 0.13869004 -0.1062951 -0.041817807 0.036297537 -0.06983797 -0.02475352 -0.08569838
0.050216984 -0.0036545303 -0.2249765 0.04446433 -0.08248184 -0.10325925 -0.011230514 -0.044220693
-0.03228331 0.0118920645 -0.060095925 -0.02006625 0.019368848 0.089189894 -0.07818283 -0.08668046
0.051641226 -0.16250473 -0.020180063 -0.04942585 0.0332854 -0.0018581208 -0.035671312 0.021864459
-0.09907703 -0.14003477 -0.056221116 -0.15226297 -0.060586702 0.044268407 -0.14104944 -0.068223655
-0.10563479 -0.15743509 0.052110143 -0.010036245 0.117800266 0.03333969 -0.016729048 0.05916169
0.05974402 -0.22697377 -0.06614166 -0.033793237 -0.09036335 -0.15625209 -0.09501719 0.02835705

sequential_1/conv1d_3/Conv1D f4 [32, 1, 3, 3]
00000000: 9644 e7be edba 99be 44a3 193e 87b3 243e
00000010: 54aa b83d 2f7c 83bd 770f 363e ee97 f73d
00000020: fc02 f0bd 8afc 48bd 7e04 013e 6eb3 57be
00000030: 4cf8 96be adec 913e 38e3 4dbd ee34 1fbe
00000040: 6795 d13e 7f61 c73d 8ffb 4e3e e07c 563e
00000050: f276 e6be 753b 933c 4915 26be 1240 7dbe
00000060: e23d bf3e fec3 d8bd 867f 42be 3ce4 27bd
00000070: 799c a2be 0725 663d 2326 cfbd 9751 25be
00000080: 37dc 5fbc a5cc b5bb 1b33 31bd f73b 33be
00000090: 9e9e a53d 9199 303d 79b1 96be d527 adbd
000000a0: 5f02 77be 640f 123e 1f3e babd 4969 04bc
000000b0: 491f e23e ecbb 8dbe 0119 833d a975 7b3e
000000c0: 3e6c cc3e 8cd4 9bbe 8233 a7be bc6a 89be
000000d0: 18a1 573d d535 fdbc a82e 51be 2a52 643e
000000e0: 995e f4be 9a55 9cbd 92ca 88be bc65 47be
000000f0: 9cf1 4c3e e2e6 c5bb 2bf1 e73e 8b37 0a3e
00000100: b2de 23be 4e86 83be 7b14 32be 4aac 1cbe
00000110: cf57 bebe 2600 27be b56d 18be ced5 893d
00000120: 04fe e73e dc2f bd3e 2a10 38be 5c43 d1bd
00000130: d982 1cbd e0c1 a83e 115f b0be e545 13be
00000140: 23ee 01be a816 5c3e 266d 92be 4ffe 7f3e
00000150: 5a34 7c3e 2798 18be cb53 5cbd 19bf f339
00000160: e700 8f3e e94f 42be bd50 e13d bcee 1a3e
00000170: db37 403e 30e3 0c3e 3fab 87bd 1ca3 c1bd
00000180: 2987 833e 2c3a 0bbe be4f ec3d 7e4b 9c3e
00000190: 5741 573e caec b5bd c142 ffbe f9fb cf3d
000001a0: b48d b1be 2803 923e 4dcc b4bc 1fb3 aebd
000001b0: 719d 703e 5aab 613b 492b aebd 4f0d 5a3e
000001c0: 1eb8 9cbd 5e27 d83c a945 393d 0bd1 7dbe
000001d0: c095 073d 6dec e13e 6865 2b3e 2ccc a23e
000001e0: fc86 94be e6fb c03e a389 3bbe 9193 1cbe
000001f0: 662f 7dbe f3cf 7b3e 3cae f43c 1c96 923e
00000200: 3702 cabe f6e8 ab3e bb5a 07be 63f8 993e
00000210: ee88 9ebe a361 29be b523 323e 5dc9 9bbc
00000220: 71fc d5bd f323 d4bd 3ccf 613e 52c9 be3d
00000230: b3bd e03c a1d0 10bf 6e07 933d 7cab 943e
00000240: c2b0 4b3d 9fca eabd 8f2f efbe 8243 53bd
00000250: cfc5 7dbd cc8d 4cbf 8cbb 84be c933 4cbe
00000260: 34e1 39bf 7e73 2ebe 133d 4e3e 1ec0 7f3e
00000270: 5c9a 593e 58c6 b93d 46c3 2dbe 60cd 24be
00000280: 56ba 2bbe 1862 babe 23d5 b63e bd16 13be
00000290: d061 513e 4fe7 893c 7a58 05be 017b b73e
000002a0: 48b9 c4be 33c8 653e 3d06 153e ea00 90be
000002b0: d6f9 1c3e 0fac c0bc c694 9ebe fe91 07be
000002c0: bd76 d5bd eb6c d7be dc2f 83be 588a 1d3e
000002d0: affd 4a3d b1d1 c2bc 2642 55be 98c5 be3e
000002e0: a360 04bd 0ba6 a7be 4c14 733e 2c2c 7f3e
000002f0: 590e 9fbe be36 183e 3e1f 47be 9c2d 20be
00000300: 7e79 cf3c 5e9a 6bbe 3128 d33d d0d1 dfbb
00000310: a8f3 96be a295 82bd 1832 c03d ed01 75be
00000320: 53ef 5d3e d080 2ebe f761 5ebe b504 dcbd
00000330: 89dd 01be a2e3 b63e ce88 e3be f073 6d3e
00000340: 1be1 87bc 1bf4 c3be 8e85 26be 06fb 893e
00000350: ea51 e3be 915e 6cbe 73c3 8ebc d1d5 59bd
00000360: 5dc1 5e3e 7461 c03e d5e7 0ebe fcb3 8e3e
00000370: b86b 903e 4679 80be 6f06 a63e ddce 6ebd
00000380: 12b5 21be 7c4c 1fbe 8ef2 dc3e 4f25 dd3e
00000390: 2e5c 5dbe d011 ea3e 0321 af3e 89e2 a63d
000003a0: aec9 8b3e 8267 883e 43a1 b6be ebc5 cbbd
000003b0: 0175 e83e edc3 413c 5f30 863d 4f52 9ebe
000003c0: 6722 843e 0631 893e 60cf 9dbe 6fe0 6abe
000003d0: a2ab 1ebe afde 053e 76fd 92be 369c 873e
000003e0: 192c 1b3f 3cf7 2f3e 1d1b ffbd 472f a13e
000003f0: a04b 543e 077b 33be 5588 bc3d 6615 e03e
-0.45169514 -0.30025426 0.15003687 0.16084109 0.090168625 -0.064201705 0.17779337 0.12089525
-0.11719319 -0.049068965 0.1259937 -0.2106454 -0.2948631 0.28500882 -0.05026552 -0.15547535
0.40934297 0.09735393 0.2021315 0.20946074 -0.45012623 0.017972687 -0.16219057 -0.24731472
0.373519 -0.105842575 -0.18993959 -0.040989146 -0.31760004 0.056187656 -0.10114696 -0.16144405
-0.013663343 -0.005548077 -0.04326163 -0.17503344 0.080868945 0.043115202 -0.29432276 -0.08454863
-0.24121998 0.14263684 -0.0909388 -0.008081743 0.44164494 -0.27682436 0.064012535 0.24556603
0.39926332 -0.30435598 -0.32656485 -0.26839244 0.052643865 -0.030909458 -0.20427954 0.22296968
-0.47728422 -0.07633515 -0.2671705 -0.19472402 0.20014042 -0.0060394863 0.45301184 0.1349775
-0.1600292 -0.25688404 -0.17390625 -0.15300098 -0.37176368 -0.1630865 -0.148856 0.06730233
0.45310986 0.36950576 -0.17974916 -0.10217926 -0.038210724 0.32960415 -0.3444753 -0.14382131
-0.12688498 0.21493018 -0.285989 0.24999355 0.24629346 -0.14901792 -0.05379085 0.0004649095
0.27930376 -0.18975796 0.11001728 0.15130132 0.18771307 0.1375854 -0.066244595 -0.09454939
0.25689057 -0.1359641 0.11538647 0.30526346 0.21021019 -0.088830546 -0.49855617 0.10155482
-0.34678423 0.28518033 -0.022070074 -0.085302584 0.23497559 0.003443441 -0.0850435 0.2129414
-0.07652305 0.02638596 0.04523245 -0.24786775 0.033101797 0.4412569 0.16737902 0.31796396
-0.29009235 0.37692183 -0.18314223 -0.15290667 -0.24725112 0.24591045 0.029868238 0.2863015
-0.39454815 0.33576173 -0.13218205 0.30072317 -0.30963844 -0.16541152 0.17396434 -0.019016916
-0.1044854 -0.10358419 0.2205171 0.093157426 0.027434206 -0.5656834 0.071791515 0.29037082
0.049729116 -0.11464428 -0.46715972 -0.051578052 -0.061956223 -0.79903865 -0.25924337 -0.1994163
-0.7260926 -0.17036244 0.20140485 0.2497563 0.2125029 0.09071034 -0.16969022 -0.1609397
-0.167703 -0.36402965 0.35709485 -0.14364143 0.20447469 0.01683393 -0.13022032 0.35836032
-0.38422608 0.22439651 0.14553161 -0.28125697 0.1532968 -0.023519544 -0.3097288 -0.13239285
-0.10423038 -0.42075285 -0.2562245 0.15384805 0.049558338 -0.02378163 -0.20826015 0.37260127
-0.032318722 -0.32743868 0.23738211 0.24919194 -0.31065634 0.14864632 -0.19445512 -0.15642399
0.025326487 -0.23008105 0.103104 -0.0068304315 -0.2948277 -0.063761964 0.093845546 -0.23926516
0.21673326 -0.17041326 -0.21717058 -0.10743085 -0.12682165 0.35720545 -0.4444031 0.23188758
-0.01658683 -0.38272175 -0.16261885 0.26949328 -0.44398433 -0.23082949 -0.017427182 -0.053182427
0.2175345 0.3757435 -0.13955624 0.27871692 0.28207183 -0.25092524 0.32426783 -0.05830275
-0.15791729 -0.1555652 0.43153805 0.43192527 -0.21617195 0.45716715 0.34204873 0.08148677
0.27302307 0.2664147 -0.35669908 -0.09949859 0.45401767 0.0118264975 0.06552195 -0.3092217
0.25807497 0.26795214 -0.30822277 -0.22937177 -0.1549516 0.13073228 -0.28709 0.26486367
0.6061416 0.17184156 -0.12456343 0.31481382 0.20731974 -0.175274 0.09205691 0.43766326

sequential_1/conv1d_4/Conv1D f4 [64, 1, 3, 32]
00000000: 9ead 1dbe 17ee 083d 6d5f 1e3e d3b2 8cbe
00000010: 0c52 c73c 888b 803d fcbf 28bd 3403 bdbd
00000020: 5f75 21bd 4296 7bbe cc9f 2dbd 44c2 7b3e
00000030: f3e2 5cbe 261d be3e 4c45 42bd 4537 43bd
00000040: f0e6 663d e218 c63d 4b55 7d3d bae8 4abe
00000050: 30b5 343e 4bdc 93be 2434 843c 6164 493c
00000060: 38b8 743e d59c cd39 18c6 f2bd 9262 133e
00000070: f6e0 87bd 73b9 613d c5e2 c43d bfc7 803e
00000080: 0672 bcbd 520a a9bd 6be4 0b3e d0a4 9abe
00000090: 3a9a 3abd 530f 72be 7456 ca3d 9728 c03d
000000a0: b83e 51bd 7507 23be 5b34 89bd 26cd bb3d
000000b0: b6d8 c53a e546 193d 2217 7ebe ad56 ddbd
000000c0: afbe f03d ce13 e9bc 60cf 153c befd 9abd
000000d0: 891d a3bc a646 a9be ccc0 213c 55dc 623e
000000e0: 8b53 0f3e b257 75bd 86fe 833d e691 d93c
000000f0: 5391 d7bd 7281 e43c 606e 7b3d 7552 1d3e
00000100: 306d 70be adce c1bd e63a 3dbd 14c8 0cbe
00000110: 5630 fdbe 8a46 32be b38d 47be 8728 55be
00000120: 7c4e 74bd 0c70 88be 9fc6 5fbe 0f0d 783d
00000130: 5d45 47be 27c2 793e bbe5 65be b4c0 35be
00000140: d1d3 8e3d 083c a0ba 438a a53c 1dc0 72be
00000150: 3c92 0ebd d7cf 87be 03f3 6dbe fc92 d73d
00000160: acb6 f93d 08d6 a13b 197e dcbd 69c5 783d
00000170: 6783 743d cf7c 06be 96ce 33bd fc02 423e
00000180: 596b db3d 3e4e b73e 03d1 c9be 49f3 2b3e
00000190: 56b1 853e ee03 ebbc dcad f8bd a694 42bd
000001a0: ca28 ebbe 77b5 2b3e 3e07 2e3c 8c18 0d3e
000001b0: 7ae3 2f3e 772f 4a3e 0128 b0bd c26b 373e
000001c0: b1ce eebd 6234 bbbe 2e35 883e ecec 3d3e
000001d0: 652e b0bd 91ff b93d df31 0b3e 1ca6 ce3d
000001e0: ff76 0dbe 93fd 2b3e 62e6 42be fcaf 9e3e
000001f0: e404 d4bc 4199 2e3e ee9d 81bd 22df 423e
00000200: 93b8 533d 6837 b23d 9116 d6be cd0b 283d
00000210: bed8 2d3b d1ea 47be 45c8 a23d a6ed 15be
00000220: eca7 27be ca9b de3c 21df b9bd f4b7 06be
00000230: 5c23 94be 3ff9 1a3e 4440 1cbe 81b3 d8bd
00000240: 3e1b a6be ffa2 2dbe 1359 d8bc e2c1 35bc
00000250: ab91 183e e9d1 d53d 497a a8bc 94e1 22be
00000260: c624 a4bd 15f7 593d c7cc 9ebc 3d0f 813d
00000270: 0915 61be 419d bebd aac3 9e3d 79fb 49be
00000280: 3519 1e3e 2103 6e3e 14df fcbd 0676 61bd
00000290: c4b8 84be 60e0 913d 389c 8dbe cb12 8dbe
000002a0: 57c9 20be ab27 eb3d 6305 93bd 0b18 7dbd
000002b0: 6776 82be 1a53 dabe 31d5 c4be 2d60 8dbe
000002c0: ec69 eabe c69f 6bbc 17a0 15be c9f9 cdbd
000002d0: 90af c23c b504 40be 26b0 343e f6e5 6fbe
000002e0: 8baa 41bd 8679 0cbe b87f 8f3d 7c8e adbd
000002f0: 070a 50bd 8c8c 513d 628e eb3d 59aa fdbc
00000300: 4377 08bf 8ba4 463d 64a5 7b3e 2304 05be
00000310: 2c97 b2bc f5b5 3abe d9e2 07be f2a0 753d
00000320: b79d 7cbd 636a 00be 1803 3b3d a4e5 a7bd
00000330: 31c6 14bc 5f60 0ebe 52dc 45be b98d a9be
00000340: 882d 493e 037b 153e b223 3abe 9701 b4bd
00000350: 4cb0 363d ff80 aebd 3271 c0be 9d6e be3d
00000360: fa8b e9bd 0dd8 9f3c 5011 12bf a511 5fbe
00000370: 36b8 763d 8235 913d b480 ff3c ca5c e1bd
00000380: 556b 04be a52c f53d 08e0 833d 57ab 89bd
00000390: d45e cabc 5934 50bd fe6e 04be ece6 193e
000003a0: 35a6 afbe f060 273c a259 08bc 6cc4 e2bd
000003b0: 97f9 f63d 6018 c23e 9962 12bc 61ed 95bd
000003c0: f2b7 783a cd96 57be 6a0c 813d 62ee e43d
000003d0: de16 c73c 870a a93d dc2c 6dbd d8e5 9e3e
000003e0: 0cd2 3abe 46fa cb3d f871 0fbf 61ac 71b9
000003f0: 05f5 3d3e a40b 063e 8615 783e d3ec 713d
-0.15398261 0.033430185 0.1546609 -0.27480182 0.024331115 0.062766135 -0.041198716 -0.092291266
-0.039418574 -0.24569038 -0.042388722 0.24585825 -0.2157095 0.37131613 -0.047429368 -0.04766013
0.056372583 0.09672715 0.06184892 -0.1981534 0.17647243 -0.28879008 0.016138144 0.012291999
0.23898399 0.00039217496 -0.1185419 0.1439307 -0.06634705 0.0551085 0.09613565 0.25152394
-0.09201436 -0.082539216 0.13661353 -0.30203867 -0.04555724 -0.23638658 0.09879771 0.09382742
-0.051085204 -0.15920813 -0.06699439 0.09169988 0.0015094492 0.037421126 -0.24813512 -0.10807548
0.1175512 -0.028451826 0.00914368 -0.07567929 -0.019911544 -0.33061713 0.0098726265 0.22154362
0.13996713 -0.059898086 0.06445031 0.026558828 -0.10525765 0.027893756 0.06138456 0.15363486
-0.23479152 -0.094632484 -0.046198748 -0.13748199 -0.4945094 -0.17409721 -0.19487648 -0.20816241
-0.05964516 -0.26647985 -0.21853112 0.06055933 -0.19460054 0.2439047 -0.22450916 -0.17749292
0.069739945 -0.0012224922 0.02020753 -0.23706098 -0.03480743 -0.26525757 -0.23237233 0.10526082
0.12193045 0.0049388446 -0.10766239 0.06073514 0.059695628 -0.13133548 -0.043898188 0.18946451
0.10713834 0.35801882 -0.39417276 0.16792025 0.2611186 -0.028688397 -0.12142536 -0.047505043
-0.45929557 0.16768442 0.010621844 0.13778895 0.17176619 0.19744669 -0.0860138 0.179122
-0.11660517 -0.36563402 0.26603073 0.1854741 -0.08602599 0.090819485 0.13593243 0.100902766
-0.13814925 0.1679595 -0.19033197 0.3099364 -0.025881238 0.17050649 -0.06328951 0.19030431
0.051689696 0.08701974 -0.41814092 0.04102688 0.0026526893 -0.19523169 0.07948355 -0.14641437
-0.16372651 0.027173895 -0.090757616 -0.1315611 -0.28933227 0.15134142 -0.1525889 -0.10581113
-0.3244266 -0.1695671 -0.026409661 -0.011093589 0.14899318 0.10440428 -0.020566123 -0.15906364
-0.080148265 0.05321415 -0.019384755 0.063017346 -0.2198068 -0.093073376 0.07752164 -0.19724835
0.15439303 0.23243381 -0.12347236 -0.055044197 -0.25922215 0.07122874 -0.27658248 -0.275534
-0.15701805 0.114821754 -0.07178762 -0.061790507 -0.2548096 -0.42641526 -0.38443902 -0.2761244
-0.45783937 -0.014381355 -0.1461185 -0.10057408 0.023765355 -0.18751796 0.1764532 -0.23427567
-0.047281783 -0.13718233 0.07006782 -0.08474442 -0.050790813 0.051159427 0.11501767 -0.030965017
-0.5330698 0.048496764 0.2457481 -0.1298986 -0.0218006 -0.18233474 -0.1327013 0.059967943
-0.061673846 -0.12540583 0.045657247 -0.08198097 -0.009080456 -0.1390395 -0.19322327 -0.33115938
0.19646275 0.14597706 -0.18177679 -0.08789366 0.044601724 -0.08520698 -0.3758636 0.092984416
-0.114036515 0.0195122 -0.57057667 -0.21784075 0.06023427 0.07090284 0.0311893 -0.11004026
-0.12931569 0.11971406 0.06439215 -0.067221336 -0.02470342 -0.050831173 -0.12932965 0.15029496
-0.34306493 0.010215983 -0.008322151 -0.11072621 0.12059324 0.37909222 -0.00893464 -0.07320667
0.0009487859 -0.2105362 0.06301196 0.111782804 0.024302896 0.08253961 -0.05790411 0.31034732
-0.18244189 0.09959845 -0.5603328 -0.00023047767 0.18550499 0.13090378 0.2422696 0.059063744

sequential_1/conv1d_5/Conv1D f4 [128, 1, 3, 64]
00000000: aa4f 953e 4078 6c3d 3a7b eabc 103a 813d
00000010: 46bd 73bb 042c 3cbe 6d68 37bd 9cd9 5cbe
00000020: 9efc 503b 66c4 e93d e8b1 103c 7fbf 163d
00000030: 6aac 05bd acd8 f8bc 2693 d83c 9cea 8bbe
00000040: 5402 58bc a680 18bd 45d0 963e a581 1c3e
00000050: 817e 5e3e 57f6 113e 3a12 72bd 2a36 07be
00000060: 47ce 70bc 2339 86bd ed35 16be 4dfa 3bbd
00000070: 63af cbbd d262 843e ccd8 bf3d e62e f8bc
00000080: 6368 60bd 67cc 19bc a4c5 1bbe 79e8 153e
00000090: dccc ad3d fc91 c83d d0ef 32bd a10d 9b3c
000000a0: 082b 4cbe a24c 263e 5d2d f53e 16d1 68bd
000000b0: 80b6 00be 016b d1bc ef39 5ebd c995 ed3d
000000c0: f2e6 ac3c ac36 433e 541d 58be a66e 513d
000000d0: c96a a4bd 9fe0 33be db95 08bd 6b4a babd
000000e0: 77e7 2bbe 2623 5b3e 7d86 803d dc98 1bbe
000000f0: 9411 81bd 3340 b83d 5ba6 a8bd baee 40be
00000100: 11da a33d d1aa 933d 80e5 393d 57f7 b73c
00000110: 326b e73d b7e2 593d 744a a93d fbd8 1bbe
00000120: 56f5 7ebc fe1d eb3d d03d bc3d 507f 34bc
00000130: 44bd 6dbd a8e6 5c3d 5fee a3bb 725a 24bd
00000140: caff 1ebe fd78 993d 55d5 093e 3b45 8a3d
00000150: a311 a73d f550 b83c 87ad 223d 34a1 54bd
00000160: 715c d73d e8d1 9a3d c948 6b3c 1079 dfb9
00000170: 8f07 ddbd 3b81 783d 7125 4b3d 1fa7 8b3d
00000180: 6832 1fbd 1d8e 1abc 1be0 1fbe 7c6d 813c
00000190: 49a5 e33d aef7 3cbb 33c5 2cbe 1954 52be
000001a0: 2f23 46be dcee 173e bbed 7b3e 599f b3bd
000001b0: 9be8 083d ed7c d43b 61b2 18bd 6f9f 863d
000001c0: d119 5ebd ea41 233e 85ec 5dbe 95f5 2b3e
000001d0: 323e 58bd 7bac 44be cf5b 443c ee41 febd
000001e0: 11c9 bebd c00b c3bc a4a3 94be c95a df3c
000001f0: 7d94 a23c c90b 14bd 3cb0 10bd c555 28bd
00000200: 4f1e 6cbb 2f4e 203e bc0f 1d3e 1359 733d
00000210: fdf0 303c 5496 2cbd 62fa 20be 678c 72bd
00000220: 7896 353d 32cd 813d c242 813d ad6e fbbc
00000230: 90fe 4cbd 823b 2e3e 1ad5 38bd 660d cfbd
00000240: dae6 1fbc 60e5 b7bd fb9d 643b 4eb8 383e
00000250: 1f9e 113e 8a95 323e 2b44 19bc 287a 02bd
00000260: d518 b6bd 9269 c3bc a420 c8bd 96b7 8d3c
00000270: 37dd 04be 4fa6 673d 9e27 23bd 7a65 0ebe
00000280: 3f05 13be 3a3b 6bbe 6b3b 743d a3ea 203e
00000290: 4adb d93b 8b59 143e 6f27 77bd 9437 c2bc
000002a0: c0a8 873b eb6c 103d 9bc7 a93d ea65 583d
000002b0: 7377 7bbd 67a1 e3bd 8e40 23be 94fd 103e
000002c0: 8d33 a83b e837 973e a98e 9d3d b132 633c
000002d0: 01db 53bd d217 02be 7374 2ebc 9d51 8bbc
000002e0: 23ff 803c fdce 173e a2bc 57be d830 53be
000002f0: 74a4 933d b5ea cf3c c6d7 b13d dca4 0bbe
00000300: 07bb f9bd bb31 e3bc cd9a e6bd 9bea 2f3e
00000310: 2722 853d bb25 933d 3d6a 9e3d f803 bdbd
00000320: 271c 6b3e 57e9 a53d 5fcf 6bbd 47cc 9e3d
00000330: 0eb0 2a3d 483a 103d 7826 313e 6ed6 263d
00000340: 6fa1 c53d 7b4d 123d 19e3 18be fdfc 02bd
00000350: 54a2 9e3b 64fe 05be 7f41 033c bc01 2b3e
00000360: 5c97 2dbd d021 553b 55ae fabd abf0 913d
00000370: 6842 ecbc 6715 e0ba 762a 0b3c d98d 3f3e
00000380: 7d58 4fbe 1ae5 723e e804 f3bd de17 18be
00000390: 7dec 5a3e 8607 d2bd 5eee 27bd 8693 0cbd
000003a0: c8e9 64be 28a7 a73d 92ec 1cbd c9cc 6abe
000003b0: 7fd6 aebd 8e41 8fbe f62d 19be d913 29bd
000003c0: 3b77 d33b 9f5d a2bd f783 a2be d425 39bd
000003d0: 4ef3 5bbe f676 36be 6c8d d23c c62a 00be
000003e0: 28ec 67be adc0 373d 9f68 06be 0593 0c3d
000003f0: e973 d73d 9146 23bd 4200 2b3d 1fd9 993c
0.2916234 0.057731867 -0.028623212 0.06309903 -0.0037191673 -0.18376166 -0.044777323 -0.21567386
0.0031888853 0.11414413 0.008831479 0.03680372 -0.03263513 -0.030376755 0.026437353 -0.2732743
-0.013184149 -0.037232064 0.29455772 0.1528383 0.21727945 0.14254127 -0.059099413 -0.13204256
-0.014697618 -0.06553867 -0.14669009 -0.045893002 -0.09945562 0.25856644 0.093675226 -0.0302958
-0.05478705 -0.009387112 -0.15212113 0.14639463 0.084863394 0.09793469 -0.043685734 0.018927397
-0.1993829 0.1624017 0.47886172 -0.056840025 -0.12569618 -0.025563719 -0.05425447 0.11600835
0.021106217 0.19063824 -0.21104938 0.051130913 -0.0802818 -0.17566155 -0.03334604 -0.09096225
-0.16787516 0.21400127 0.062756516 -0.1519503 -0.06302181 0.0899662 -0.08234855 -0.18841067
0.08000577 0.07210315 0.045384884 0.022456808 0.11299743 0.053194728 0.08266154 -0.1521949
-0.015561422 0.1148033 0.09191477 -0.011016682 -0.058041826 0.05393091 -0.0050027813 -0.040125318
-0.15527263 0.0749378 0.13460286 0.06751486 0.08157661 0.02249954 0.03971627 -0.051911548
0.10515679 0.07559568 0.014360615 -0.00042624073 -0.10792457 0.06067012 0.049596254 0.06818985
-0.03886643 -0.0094332965 -0.15612833 0.015799277 0.1111551 -0.0028834152 -0.168721 -0.20539893
-0.19349359 0.14837211 0.24602406 -0.087706275 0.033424955 0.006484619 -0.03727949 0.06573378
-0.05422384 0.15943113 -0.21672256 0.16792901 -0.05279369 -0.19206421 0.0119847795 -0.12414919
-0.09315694 -0.023809314 -0.29031098 0.02726497 0.019846195 -0.03614405 -0.03532432 -0.04109742
-0.0036028808 0.15654825 0.15338033 0.05941112 0.010799644 -0.04213555 -0.15720513 -0.05921593
0.04433295 0.06337966 0.06311561 -0.030692423 -0.050047457 0.17014888 -0.045125104 -0.101099774
-0.009759629 -0.08979297 0.0034884203 0.18039057 0.14220475 0.17439857 -0.009354631 -0.03185478
-0.08891455 -0.02385405 -0.09771851 0.017299455 -0.12975012 0.05655509 -0.039832704 -0.13905898
-0.1435747 -0.22971812 0.059626978 0.15714507 0.0066484557 0.14487283 -0.06034034 -0.023708142
0.0041399896 0.035260122 0.08290025 0.052831568 -0.061393213 -0.111147694 -0.15942594 0.14159232
0.0051330985 0.2953484 0.07693226 0.013867066 -0.05172253 -0.12704399 -0.010647881 -0.01700669
0.015746659 0.14825054 -0.21068051 -0.20624101 0.07209101 0.025380472 0.08683734 -0.13637108
-0.12193876 -0.027733674 -0.11259995 0.17179339 0.06500655 0.07184931 0.07735107 -0.092292726
0.22959958 0.08101147 -0.05757081 0.077538066 0.041671805 0.03521183 0.17299831 0.04073184
0.09649932 0.035718422 -0.14930381 -0.03197955 0.0048411284 -0.13085324 0.008011221 0.1669988
-0.042380676 0.0032521375 -0.122402824 0.07125982 -0.028840259 -0.0017096222 0.00849401 0.18706454
-0.202486 0.23720208 -0.1186617 -0.14852855 0.21379276 -0.10255341 -0.04099881 -0.034320377
-0.22354805 0.081861794 -0.03831155 -0.22929682 -0.08537006 -0.27979702 -0.14958939 -0.041278694
0.0064534224 -0.07928013 -0.31741306 -0.04520209 -0.21479532 -0.17818817 0.0257022 -0.12516317
-0.2264868 0.044861484 -0.13125847 0.034319896 0.10520155 -0.03986222 0.041748293 0.01878029

sequential_1/dense_3/BiasAdd/ReadVariableOp f4 [6]
00000000: 685e a33d 0aef b43e 0b79 b1be 48c7 04be
00000010: 285a fcbd 7391 bfbd
0.07976991 0.35338622 -0.3466266 -0.12966645 -0.123218834 -0.09353914

sequential_1/dense_2/BiasAdd/ReadVariableOp f4 [64]
00000000: 5f58 27bd 6ec0 94bd 1c68 f1bd 8872 b0bc
00000010: d0fe f5ba d57e 4dbe c735 793e 2ba2 823d
00000020: a7dd f43e ca8c abbe c91e 893d 9490 59b9
00000030: a2ec 3dbc 6bfc 26be 97b3 68be 4502 15be
00000040: e840 853e 4502 19bd a47e 2bbd 229b 183d
00000050: 0f8e 993d ffe3 40be 3a6d fabd db9c e03c
00000060: 2148 9a3e 3ac8 40be ecdb 3e3c 40c1 2dbe
00000070: af6a c13d 273e 3f3e 46f4 8bbe 03de 32be
00000080: d7ca debd c3fc ef3a 6f66 503e 6b4e d5bd
00000090: b905 2e3e 3d25 e03d 7a6b 89be e43d fdbc
000000a0: 8b23 5b3e e11c 65be 85b3 1bbd bbb8 1d3e
000000b0: 76bf 123f 4143 eebd 1112 a8bc 7c5f 4fbe
000000c0: 9920 133f 3253 963c 10b4 9f3e b590 cc3e
000000d0: 1a8b db3b d673 8ebd bb70 73be 9dc5 7a3e
000000e0: 8ed1 e7bd 7501 f5bd 3dd6 cc3e 0127 65be
000000f0: 36be b1bc 7b46 c33d 1119 82be 386a e03d
-0.04085576 -0.072632656 -0.117874354 -0.021538988 -0.0018767957 -0.20067914 0.2433692 0.06378587
0.47825357 -0.3350585 0.06695325 -0.00020748592 -0.011592062 -0.16307227 -0.22724758 -0.14551647
0.26026082 -0.03735568 -0.04186882 0.03725732 0.07497799 -0.18836974 -0.122278646 0.027418545
0.30133155 -0.1882638 0.011649113 -0.1696825 0.094441764 0.18676053 -0.27334803 -0.17467503
-0.108785324 0.0018309582 0.20351575 -0.10415348 0.1699437 0.10944603 -0.2683981 -0.0309133
0.21400277 -0.22374298 -0.038013 0.154025 0.57323396 -0.116339214 -0.020516427 -0.20251268
0.57471615 0.018350217 0.31192064 0.39954153 0.006699932 -0.06955688 -0.23773472 0.24489446
-0.11319266 -0.119631685 0.400072 -0.2237816 -0.021697145 0.095349275 -0.2540975 0.109577596

sequential_1/dense_2/MatMul f4 [64, 1280]
00000000: e23d 893d 6301 0a3e 443b 0abe eb8a 9b3d
00000010: 85b5 9cbd 1119 d33d 078e ad3d f237 af3d
00000020: 369d 94bd 1ff9 73bd 4323 fa3d 4820 ea3d
00000030: c4ab 0c3d 8b97 7d3d 75cd b23c 9a01 03bd
00000040: 2128 2e3c 78e6 18be 77ea 273e eccb 0bbe
00000050: 814a 1cbe 8089 4e3d 6871 b53d 5eb5 91bd
00000060: d731 6ebe c128 553e 912c 72bd a32a d6bc
00000070: 41d5 0fbd 102b 31be c94e 92bd 0917 81be
00000080: dcb7 7ebd 6682 6b3d 0758 723d 760c 5f3d
00000090: 0bd7 b43d 617d 6a3e f68a b5bd 372c efbd
000000a0: 60fd 6cbe 01a1 193e a5c7 f8bc 6bf6 3b3e
000000b0: e6b3 2b3d 04f9 bfbd ad05 ac3d b6f6 ccbe
000000c0: 5399 773c d2ed c73c a8fe 11be 65c9 52be
000000d0: 0123 d7bd faeb c33d c492 26be 3100 00be
000000e0: a356 4dbd 83db f93d 0869 143e 2469 cbbd
000000f0: f5a2 76be a0fc 053e fd0e f73c 752b 24bd
00000100: 4f94 98bb b77d f43d 728a 77be 8608 80bc
00000110: 4c4d 83be 8503 403d 48c6 b33d 41a3 423e
00000120: 3c00 29be 2594 9d3e 3686 7cbe 5e64 6ebd
00000130: c908 8bbc 6855 243d 38fd 88bd 7ec9 24bc
00000140: 9c93 3ebd 4488 2dbd 53c2 11bd 7176 633c
00000150: 9605 75be 2206 0e3e 9a2e 12be 71d2 203d
00000160: f768 273e 231b f9bd 7ac0 df3c 0f59 66be
00000170: 018f 703e 41f7 883d 581e 8abc f691 153c
00000180: 65cb 2fbe e2e2 4b3e 7caf a5bd 7ee0 1bbe
00000190: b66b 4b3d bc04 84be 03ad 743d a56f 4cbe
000001a0: 50d7 6b3b 2bf0 453e 4fb2 3bbe 6d77 a5bd
000001b0: 1e29 0e3e aa42 95be 5eeb 0a3e 61de 393e
000001c0: 40b6 2a3e 19dc 123e 06b2 88be 4954 b43d
000001d0: 1f3b 64be e2a2 d23d 21fb 113e 52c7 fb3d
000001e0: dafb bbbc 41af 293d b5a9 db3c 4104 6bbc
000001f0: 2d03 763d 068b 0fbe 0f29 f1bd 6892 acbd
00000200: 7dee 1d3d 3b70 203e 1b68 1abe e7fb 093c
00000210: 87e8 1b3e 8916 9fbc 9967 903e 8603 5b3d
00000220: 600a 02bd f5f1 823d 10b9 ed3c 1805 1c3d
00000230: 1ebf 4c3d 2f91 6eb8 046c c5bc b4ad a9bd
00000240: d3ce 1cbe 13a8 0d3e c7c4 473d e434 c9bb
00000250: f977 1fbe bc0e 0c3e c6a5 043d 472b a7bd
00000260: 60bf 50be 0108 6fbd 863a f6bd 02ba 0c3d
00000270: 7edd 1bbd f0fb 853d fbf4 5c3e d4bf 52be
00000280: 3d2b 9fbd 05e2 c8bc 64f8 883a b15d 00bd
00000290: d96f 02bd ac71 aebd 966d 28bd 6bc7 823d
000002a0: 9f2f 90bd 46de 833e dad7 a5be dbab 093e
000002b0: 4db6 263e 700f a9ba 2878 753d 801d 52be
000002c0: 5cc9 fcbc 3d9b 8dbc 2cfb 36bc bd1e 4cbe
000002d0: 39d4 f8bd e7a1 1e3d 0180 fe3b e770 a2be
000002e0: 1baf 87bd fefa db3d 5ed8 843d 598f 0ebe
000002f0: 58b8 9ebe 5fb2 983d 9723 f6bd 9bec c83d
00000300: c65d 933d cb60 2a3e df85 f53b 7e36 8d3d
00000310: 0ed5 0bbe 81c8 183e beb2 ab3d f0a5 babc
00000320: 2ea2 61be b93f 633e 0cc9 f5bd 36da 98bc
00000330: 0e32 b2bc c248 debb e522 5f3d 4cd9 a23d
00000340: 2ec8 96be df0f 6f3d 1814 08be 41d5 523e
00000350: 1c11 f73c e786 a43c 2991 7ebe 3614 f63c
00000360: ad2d 363e f834 a5bd d7bf 553d c8fa 57be
00000370: aee0 ec3d 589a f0bc 659a 40bd 18c9 8abe
00000380: 96e8 4bbe f121 383e c2d0 9f3d 9653 e03d
00000390: 814b 533c 30dd 00be d336 97bd ff60 64be
000003a0: 7129 c03d b591 a13d fac4 6dbd 2c97 f83d
000003b0: f6d6 3dbc 5463 0fbe 65b2 a3bd 50b5 d13d
000003c0: 7ea5 ad3d c0d5 9e3d edd7 a6be de59 213e
000003d0: b581 8ebd a4e2 933d 6a22 a03c 80e3 5e3e
000003e0: 71e8 643e bb73 9a3d 857d 983d 56b4 973d
000003f0: e70b e23b 7263 95be e61c 2fbe 53ca afbc
0.06701256 0.13477091 -0.1349917 0.07594856 -0.076518096 0.103075154 0.08474355 0.085555926
-0.07256548 -0.059563752 0.12213757 0.114319384 0.034343496 0.0619121 0.021826485 -0.03198395
0.010629685 -0.14931667 0.16398035 -0.13652009 -0.15262796 0.0504241 0.08859521 -0.07114671
-0.232612 0.20816328 -0.059124533 -0.026143378 -0.035115484 -0.17301583 -0.07143933 -0.25212887
-0.06218706 0.057497405 0.05916598 0.054455243 0.08830079 0.22899391 -0.08864395 -0.11678355
-0.2314353 0.15002824 -0.030368635 0.1835572 0.04191961 -0.09373668 0.0839952 -0.40031976
0.015112239 0.024405394 -0.142573 -0.20584638 -0.10504723 0.09566493 -0.16266924 -0.12500073
-0.05013145 0.12200072 0.14493191 -0.09932163 -0.240856 0.1308465 0.030158514 -0.040080506
-0.0046563516 0.11938041 -0.24173906 -0.015629064 -0.2564491 0.046878356 0.087780535 0.19007589
-0.16503996 0.30777088 -0.24660572 -0.058201186 -0.016971963 0.040120512 -0.06688923 -0.010057805
-0.04652749 -0.04236628 -0.035585713 0.013883219 -0.23927912 0.13869527 -0.1427559 0.039263193
0.16348635 -0.12163379 0.02731346 -0.2249491 0.23492052 0.06687785 -0.016860172 0.009129038
-0.17167433 0.19910768 -0.080901116 -0.15222356 0.049663268 -0.25784862 0.05973531 -0.19964464
0.003598649 0.19329898 -0.18329738 -0.08079419 0.13882872 -0.29152423 0.13566348 0.18151237
0.16671085 0.14341773 -0.2669832 0.088051386 -0.22288178 0.10284974 0.14255954 0.12293877
-0.02294724 0.0414269 0.026814321 -0.014344276 0.060061622 -0.14017877 -0.117754094 -0.08426362
0.03855752 0.15667813 -0.15078776 0.008421875 0.15225421 -0.019419925 0.2820404 0.053470157
-0.031748176 0.06393806 0.029018909 0.038090795 0.04998695 -5.6878835e-05 -0.024099357 -0.08285084
-0.15313272 0.13833646 0.048771646 -0.0061403383 -0.1557311 0.13677496 0.032384656 -0.081625514
-0.20385504 -0.058357242 -0.12022881 0.03435708 -0.03805303 0.06542194 0.21577828 -0.20580989
-0.07771919 -0.024521837 0.0010450003 -0.03133935 -0.031844947 -0.08517775 -0.041120134 0.06385692
-0.07040333 0.2575552 -0.32391244 0.13444464 0.1628048 -0.0012898277 0.059929043 -0.20519066
-0.030857734 -0.017285937 -0.0111682825 -0.199336 -0.12149853 0.03872862 0.007766724 -0.31726763
-0.066251956 0.10741232 0.06486581 -0.1392187 -0.31000018 0.074558966 -0.12018507 0.09810754
0.0719562 0.16638486 0.0074927653 0.06895159 -0.13655493 0.14920236 0.08383702 -0.022784203
-0.22034523 0.22192277 -0.12001237 -0.018658739 -0.021752384 -0.0067835758 0.054476637 0.07951602
-0.294496 0.058364745 -0.13288915 0.20589162 0.030159526 0.020083858 -0.24860062 0.030038934
0.17790861 -0.080667436 0.052184906 -0.21091759 0.11566292 -0.029370472 -0.047022242 -0.27106547
-0.19912943 0.17981698 0.07803489 0.10953443 0.0128964195 -0.12584376 -0.07383504 -0.22302626
0.09382904 0.078891195 -0.05804918 0.12138209 -0.011586895 -0.14002734 -0.079930104 0.10239661
0.08478831 0.07755613 -0.32586613 0.15756938 -0.069583334 0.07220963 0.01954766 0.21766472
0.22354294 0.07541605 0.07445816 0.07407443 0.0068983915 -0.29177433 -0.17100868 -0.02145878

sequential_1/dense_3/MatMul f4 [6, 64]
00000000: 0c89 0b3d 6d85 993e e5a0 103d ae52 793e
00000010: 7e22 a53e 6f43 00be d492 1bbe 2695 cabe
00000020: 945e 943e 7d82 5f3e 926a 65bd a6c8 0abe
00000030: fa4d d03d 7cd3 b5bd c985 2c3d 2037 be3d
00000040: 9030 233e 4301 483e a811 22bd 47a8 313f
00000050: 63f0 ad3e 05b5 aabe 9aac c8be a4dd 25bf
00000060: 3829 653e 1f5c 873c 2d2a 973d cfd7 5ebe
00000070: ec65 6e3e f6c6 583e 2814 e83d 4eb0 acbe
00000080: d756 fe3d b676 b8be 60a5 7f3e f4bc 633d
00000090: 623b 6cbb 48ed 01bf fedb 4e3e b547 383f
000000a0: 8eca 023e 0098 30be 06d5 90be dbc8 35be
000000b0: ec19 c53c ec6b af3c ca39 823e 11ba 93bd
000000c0: ae13 603e f992 693e 0363 a4be 3e29 bdbe
000000d0: 8826 4f3e 16c7 d0be bd07 d0bd 4978 03be
000000e0: d2bd bf3d d05c 23be 67c2 c53d 792f 3bbe
000000f0: 9c16 4b3e d88a 563e d320 3abe 7490 c1be
00000100: f4d2 a13e d95a b7be 0273 5dbe 02b0 ba3d
00000110: a949 b3be c226 e2bc 5db0 b33e 6fcf fc3d
00000120: 734a a13e be06 48bf baee 74be e7cf 883e
00000130: 39e7 353c 8ad5 b7bd 54cc 99bc 8484 2fbe
00000140: f7c7 ff3d 7aaf a5be f340 5f3d 9a0e 02bf
00000150: d2de c8be b156 6abe 1981 11be 9828 483e
00000160: 0c10 703e 2248 f73d 0916 b33c 086b 89be
00000170: 7896 b73e 2e7a 393e f966 39bf a024 66be
00000180: 8116 62be 14cf 483e a505 513d 1a7c bcbe
00000190: 1de1 c2bb fcde ba3e 5a0e 4cbf 3c42 53bf
000001a0: 6c4c a53e d694 3dbf e60b 41be ea2a 183f
000001b0: cff2 f63e 41f0 09be 2633 46bf 4cef bbbd
000001c0: 7bb7 923e b918 85bc 3edf 713e 7961 233f
000001d0: cae7 aabd 3d77 683d 7652 f3be 516e 7b3e
000001e0: 0545 1a3e 7b51 0e3e 47cc 7c3d f7a8 41be
000001f0: 23c7 f4bc 21e2 fc3d e396 cbbe 24ac af3d
00000200: 46eb 693e 71d8 aabc 4443 86be 6cdb 593e
00000210: 73bc 33be b4e0 503e 1b91 eebe 5fda 37bf
00000220: 6a32 3ebe f98f 03be e42f 07be 45f0 373d
00000230: c14e e9be bf6c b5be 1e54 9e3e 3acf d0be
00000240: ac99 853d 9151 003e 5417 adbd e51d 20be
00000250: 5fdb efbe 04f4 d83c 7307 1b3e 43cb 74be
00000260: dde9 e7be de51 823e c803 d3be 920e c53c
00000270: 6b30 123d 333b 663d aae3 38be e851 9b3c
00000280: 4f32 913d 0103 cdbc 16fa 473e 53e5 133e
00000290: 5ce0 0cbf c415 94be e845 7a3d 3414 80be
000002a0: 76b0 ccbc 79af 303e 3a1e 04be a392 3ebd
000002b0: 0639 13be bab1 12be c3a6 8fbe 2e4e 71be
000002c0: f96c aabe a5be 4e3e a172 c7be a589 09bf
000002d0: 705e 303d ae91 eb3d 713f 1bbd 28de a9be
000002e0: 7c1b aa3d 3776 573e 0343 ac3c 142b b33e
000002f0: 067e 4b3e 5e68 263e 79a8 b0be 99a6 c9be
00000300: 9fbc 1b3e 60aa d13e 9184 d4be f375 523e
00000310: ce5c 1abd aa94 a1be 2355 7f3e 4fe8 a23e
00000320: 95d3 b93d bc88 a03e 4597 fabd 913f 23be
00000330: 9ebf d23d 9765 96bd f028 01be 336f 323a
00000340: b6aa c5bd 2d7e 99bd 9d82 853d 8565 3abe
00000350: 317e 653e d432 683e 2f0f 953d 08c1 193e
00000360: 1f88 223e db44 a63d 412f 323e e66d 143e
00000370: f93a b23e b17a bbbe ce83 023e 4f7b e0bd
00000380: 49ad b9be 89cc 84bb 1524 69be 3eee 843d
00000390: b8b2 64bd d033 f03e 960a 2b3d 7948 71be
000003a0: 9be7 b5be df3d 0b3e 6c09 bc3d 77d5 7b3e
000003b0: 4858 b4bd 9b8d 37be a120 dbbe a0d5 62be
000003c0: f6f0 2dbf abc6 e2be 1932 53be f554 93be
000003d0: ea2c bf3e fbf6 5c3d e8d0 883e 456a 873e
000003e0: 43e8 52be 1fac 05be 8fdc 10bf 7866 b0be
000003f0: 059a 5cbe 310a 09bf 8ad2 603e 4a1e b03e
0.034066245 0.29984608 0.03530969 0.24347946 0.32252878 -0.12525724 -0.15192729 -0.39566916
0.28978407 0.21827121 -0.056009836 -0.13553104 0.10171123 -0.08878228 0.042119775 0.09287858
0.15936494 0.19531731 -0.03956762 0.69397396 0.33972463 -0.33341232 -0.39194185 -0.6479132
0.22379005 0.016523419 0.07381091 -0.21762012 0.23281068 0.21169648 0.113319695 -0.3372826
0.12418907 -0.3602807 0.2496543 0.05560012 -0.0036046137 -0.5075269 0.20201108 0.71984416
0.12772581 -0.17245483 -0.28287524 -0.17752402 0.024060212 0.021413766 0.25434715 -0.07213224
0.21882507 0.22809972 -0.3210679 -0.36945528 0.20229542 -0.4077689 -0.10157726 -0.12838854
0.09362377 -0.15953374 0.0965622 -0.18279828 0.19832844 0.20951402 -0.18176584 -0.3780552
0.31606257 -0.358115 -0.21625903 0.09115602 -0.35017136 -0.027606372 0.35095492 0.12344252
0.31502113 -0.7813529 -0.23919192 0.26721117 0.011102491 -0.08976276 -0.018774189 -0.17140394
0.12489312 -0.3236044 0.0545053 -0.5080353 -0.39232498 -0.22884633 -0.14209403 0.19546735
0.23443621 0.12074305 0.021861093 -0.2683947 0.35856986 0.18113014 -0.7242275 -0.22474909
-0.22078897 0.19610244 0.051030774 -0.36813432 -0.0059472458 0.3649825 -0.797094 -0.8252294
0.32284868 -0.7405523 -0.18852195 0.5944048 0.48232123 -0.13470556 -0.77421796 -0.09176502
0.2865561 -0.01624714 0.23620316 0.63820606 -0.083449915 0.05675434 -0.4752385 0.24553801
0.15065391 0.1389827 0.06171825 -0.18912111 -0.029880112 0.12347818 -0.39763555 0.08577755
0.22843656 -0.02085516 -0.26223195 0.21275109 -0.17552356 0.20398217 -0.46595082 -0.7181758
-0.18573919 -0.1284789 -0.13201863 0.044906873 -0.45567897 -0.3543453 0.3092355 -0.407831
0.06523451 0.12531115 -0.08451715 -0.15636404 -0.46847054 0.026483543 0.1513956 -0.23905663
-0.4529561 0.25453085 -0.41213822 0.0240548 0.035690706 0.0562088 -0.18055597 0.018959954
0.07089674 -0.025025846 0.19528994 0.14442949 -0.55029845 -0.28922856 0.061101824 -0.25015414
-0.024986487 0.17254438 -0.12902156 -0.046526562 -0.14377221 -0.1432561 -0.28056917 -0.2356498
-0.33286265 0.20189913 -0.38954642 -0.53725654 0.043058813 0.115023956 -0.0379023 -0.33177304
0.083060235 0.21041189 0.021028047 0.34993804 0.19872293 0.1625075 -0.34503534 -0.39384916
0.15208672 0.40950298 -0.4150739 0.20552807 -0.03768616 -0.31558734 0.24934821 0.31817862
0.09073559 0.3135432 -0.122358836 -0.15942217 0.10290454 -0.073435955 -0.12613273 0.0006806731
-0.09651701 -0.07494769 0.06519053 -0.18202789 0.2241142 0.2267564 0.07278287 0.15015042
0.15872239 0.08118602 0.17400838 0.14495048 0.34810618 -0.36617044 0.12745592 -0.10961019
-0.3626502 -0.004052703 -0.2276767 0.064907536 -0.055834502 0.4691453 0.041758142 -0.23562802
-0.35528263 0.1359782 0.091814846 0.24593149 -0.08805901 -0.17925112 -0.4279833 -0.22151804
-0.679458 -0.44292197 -0.2062458 -0.28775755 0.37338954 0.053946476 0.26721883 0.26448265
-0.20596413 -0.1305394 -0.56586546 -0.34453177 -0.21543129 -0.53531176 0.21955314 0.3439811
