models/models_for_presentation/sitting_standing_model.tflite (tflite, 461944 bytes, 10 tensors)

sequential_1/conv1d_3/BiasAdd/ReadVariableOp f4 [32]
000000 9c c6 49 be 0a db cb bd 79 08 d7 bd a0 cc 20 be
       -0.1970467 -0.09953888 -0.10499663 -0.15703058
000010 d1 49 42 be cb dc 8c be 1d 96 06 3c 74 bf 59 bd
       -0.18973471 -0.27512202 0.008214501 -0.0531611
000020 1b 18 34 be a1 ef 81 be 68 0f c7 bd 60 07 93 3d
       -0.1758732 -0.25378135 -0.097197354 0.07179141
000030 c9 9a 5f be 71 06 e3 3b 01 d0 9a be 44 97 9f be
       -0.2183639 0.006928258 -0.3023682 -0.31170094
000040 ab cb 8c be 34 c9 ee bd a5 0a a6 be be 00 29 3c
       -0.27499136 -0.1165947 -0.32429996 0.010315118
000050 9a fb 1e be 31 67 20 be ca be 25 ba 86 dd 31 be
       -0.15525666 -0.15664364 -0.000632268 -0.1736966
000060 d7 92 ca be 77 ae 70 3d 0b c7 2e be 5a 0a 2c 3b
       -0.39565155 0.058760133 -0.17068116 0.0026251287
000070 ac 9b c8 bd 9a 57 cf bc bf 24 67 be cf c6 62 be
       -0.09795317 -0.025310326 -0.22572611 -0.22146152

sequential_1/conv1d_4/BiasAdd/ReadVariableOp f4 [64]
000000 77 9a fa 3d 44 71 31 be 5d dc cb bc 8d 97 b1 3d
       0.12236493 -0.17328364 -0.02488535 0.08671484
000010 e0 18 9b bd 21 a3 ae bd 60 7f 1f be 59 49 51 be
       -0.07573104 -0.08527208 -0.15575933 -0.20438136
000020 92 a0 ca bd 33 9f 74 be d5 cb 7e be 4d 2c 89 3d
       -0.098939076 -0.23888855 -0.24882443 0.06697903
000030 f8 1f ea bd a3 a2 49 bd aa a6 3c be 87 04 21 be
       -0.11431879 -0.049227368 -0.18422952 -0.15724383
000040 30 b5 87 3c 65 b4 cb bd 99 2a 88 bd f2 5b e2 bc
       0.01656589 -0.09946517 -0.0664875 -0.027631734
000050 e2 a2 9a bd 8e bb 91 be ef 75 93 be 7d 5b 83 be
       -0.07550599 -0.28463405 -0.28800914 -0.25655738
000060 a2 49 ec bd f8 af e2 bd 0e 79 25 be ef ad 32 be
       -0.11537482 -0.110687196 -0.1615946 -0.17449163
000070 e9 dd ef bd a8 c7 81 bd d5 57 9c bd ab 2b b1 be
       -0.11712248 -0.063369095 -0.0763394 -0.3460363
000080 0a 7f 2c be b9 c4 0b 3c 1c 5d 43 be 5a e4 ab bd
       -0.16845337 0.008530789 -0.19078487 -0.08393164
000090 a6 e3 f1 bd 43 e4 75 be 0b 92 6e 3c 9e 5d 67 bc
       -0.118109986 -0.24012856 0.014561187 -0.014121441
0000a0 e3 e6 89 be 74 53 05 3b eb c7 da 3d d0 4e 3e 3e
       -0.26933965 0.0020343931 0.106826626 0.18584752
0000b0 57 0c ce bd a4 38 ab bd f6 ee 11 be e0 ab 43 be
       -0.100609474 -0.08360413 -0.14251313 -0.19108534
0000c0 21 31 4f bd 33 0d 7d bd 25 d8 25 be 73 2a 7a be
       -0.050583962 -0.061780166 -0.16195734 -0.24430256
0000d0 f1 b3 cf be 8a 88 8c bd 92 1d 77 be 5f b9 fb bc
       -0.40566972 -0.0686198 -0.24132374 -0.03072804
0000e0 63 dd 83 bd 67 ce 11 be 85 82 fc bc 94 c5 1c bc
       -0.064387105 -0.14238892 -0.030823955 -0.009568591
0000f0 7d 4c 66 be 28 40 bb bd ce bd 5c bd a2 e8 d3 bc
       -0.22490115 -0.09143096 -0.05389195 -0.025867764

sequential_1/conv1d_5/BiasAdd/ReadVariableOp f4 [128]
000000 5e d0 cc bc 4c 28 8b bd 4e 7a 03 3d 3f 72 27 bd
       -0.025001701 -0.067947954 0.03209906 -0.040880438
000010 87 94 0b bd b3 06 8b be e6 19 3c bc d7 65 6c bd
       -0.034077194 -0.2715355 -0.011480784 -0.05771431
000020 52 92 91 be 36 44 20 bd 89 9a 5c 3d 1a 5c 40 be
       -0.28431946 -0.03912755 0.053858314 -0.18785134
000030 2a 33 f8 bc cb 89 8b bd 9d 6f 59 3c d3 db 78 bc
       -0.030297834 -0.06813391 0.01327124 -0.015189129
000040 79 27 c0 bd da a1 f3 bd e1 1d ba bd 67 90 06 be
       -0.09382529 -0.11896105 -0.0908773 -0.13141023
000050 f8 2b ea bd 66 0f 7e bd f6 71 48 bc d9 43 af bd
       -0.114341676 -0.062026404 -0.012234202 -0.08557863
000060 93 b1 11 be 3a e9 8d bd cb b8 b2 bd 65 8a 72 be
       -0.14227895 -0.0692925 -0.08726653 -0.23685606
000070 e3 51 11 be 21 24 8e 3d fb 32 9b bd a2 2a 35 be
       -0.14191394 0.06940485 -0.07578083 -0.17692044
000080 84 e5 4a bc 3c 54 00 be c2 39 80 be f4 dd 94 be
       -0.012383822 -0.12532133 -0.25044066 -0.29075587
000090 5c 30 7d bd 4e 8c 78 be 67 1c c3 bd d6 89 3f bd
       -0.061813697 -0.24272272 -0.09526902 -0.04676231
0000a0 8c 64 d0 bd 55 b1 80 be 91 8c 94 3d 3a e1 aa 3c
       -0.10175428 -0.25135294 0.072533734 0.02085935
0000b0 7b 4d b7 bd 22 37 ff bb ab f5 79 bd f7 b4 d6 bd
       -0.08950325 -0.0077885548 -0.061025303 -0.10483735
0000c0 47 b5 53 bd 6f 5c 56 bd 9e 57 9a be 2c 8d 9d be
       -0.05168655 -0.052334245 -0.30144972 -0.30771768
0000d0 69 ab 88 bd a8 11 16 be 65 d7 7e be 29 e8 4b be
       -0.06673319 -0.14655173 -0.24886854 -0.19912781
0000e0 6a c5 cd bc 87 20 b5 bd 00 30 2f bd d2 f2 4e bd
       -0.025118548 -0.08844095 -0.042770386 -0.05052454
0000f0 fa 19 f1 be 51 26 b1 bd 85 51 b8 bc 1b 67 8d 3d
       -0.4709013 -0.086498864 -0.022499809 0.069044314
000100 9d 19 1a 3e c6 ce 41 be 4e de 81 be a1 b8 c8 bc
       0.15048833 -0.18926534 -0.25364918 -0.0245021
000110 9e 1e 04 be 25 59 8b bc f4 38 c9 bd dc 6c 4e bd
       -0.12902305 -0.01701028 -0.09825316 -0.050396785
000120 04 15 bd 3d 13 bb 6b be f4 82 be bd 8b 13 62 be
       0.09232524 -0.23020582 -0.09302321 -0.22077768
000130 41 9d b5 bd b4 48 60 be ef 4b 78 bd 37 d8 09 bd
       -0.088678844 -0.21902734 -0.06061929 -0.033653464
000140 6e 35 c4 bd ec d2 fb bd a4 39 0f be 4b 85 8a bd
       -0.095805034 -0.122960895 -0.13986832 -0.06763705
000150 9b df 66 be dd aa 27 bd ad 8c 1b bc 25 53 4a bd
       -0.22546236 -0.040934432 -0.009493989 -0.0493957
000160 65 bb 7c 3d 87 e4 9e 3c f1 8c ff bd 75 79 c3 bd
       0.06170215 0.01939608 -0.12478054 -0.095446505
000170 c1 b4 48 bd 49 ed 76 be 9e b1 f7 bd 50 8c a4 bd
       -0.049000505 -0.24113955 -0.12094425 -0.08034575
000180 24 0f b1 bd 92 0a 1f be 91 9a 3d be 88 33 86 bd
       -0.08645466 -0.15531376 -0.18515994 -0.065527976
000190 47 f0 a6 bd 81 55 e6 bd 70 18 a6 bd a2 86 42 be
       -0.08151298 -0.11246777 -0.0811013 -0.18996671
0001a0 10 ba af bd 15 fa 8f ba 98 c8 19 be f8 cf b0 bd
       -0.085804105 -0.0010984564 -0.15017927 -0.08633417
0001b0 a0 87 9b bd 71 72 94 bd 72 e0 72 bc a9 5f 0f bd
       -0.07594228 -0.072483905 -0.01482402 -0.035003338
0001c0 da c9 98 bd 95 71 1c bd 2e 87 9e bd 39 33 45 bd
       -0.07460375 -0.038194258 -0.07740627 -0.048144553
0001d0 9a 2a dc 3d b0 3e 93 3b 1b 90 d2 bd fe 5e ac bd
       0.10750313 0.004493557 -0.10281392 -0.08416556
0001e0 93 70 6e be d1 49 a1 bc de 3a 5f 3c dd bb 45 bd
       -0.23285131 -0.019688519 0.013624875 -0.048274864
0001f0 f0 30 09 bc db 93 1f be 79 e1 71 bc 75 db 80 be
       -0.008373484 -0.15583746 -0.0147632295 -0.25167432

sequential_1/conv1d_3/Conv1D f4 [32, 1, 3, 3]
000000 40 0b 43 3e 71 05 86 3e 95 2d 15 bf 87 7a 1b bd
       0.1904726 0.26176026 -0.5827268 -0.037958648
000010 71 4a 28 be f4 47 17 3f 71 4b 4d be 86 00 a3 be
       -0.16434647 0.59094167 -0.2004831 -0.31836337
000020 3f e4 a2 3d 44 b6 a2 3e 37 dd bb bc f0 cd c3 be
       0.07953691 0.31779683 -0.022932632 -0.38243055
000030 95 02 d9 3e 1a da 37 3e 67 1a f6 be 06 77 14 3f
       0.42384782 0.17954293 -0.48067018 0.57994115
000040 1c 31 c8 3c bf 6a b0 be 40 c6 0a be 11 8c 70 be
       0.02443748 -0.3445644 -0.13552189 -0.23490931
000050 e3 d4 14 bf 8d f7 4d 3f b4 ae 73 3b d1 c9 ef 3d
       -0.5813734 0.8045586 0.0037182989 0.11708415
000060 4b 89 2f bf c6 c9 f7 3d 0e 09 04 3f 84 bb 06 be
       -0.6856887 0.12099032 0.51576316 -0.13157469
000070 bf 8d 04 3e f7 5c 27 bf a1 39 d4 3c 9c 5e 56 bd
       0.12944697 -0.6537623 0.025906386 -0.05233632
000080 1d 59 17 bf 7d 29 94 bd 06 f1 55 3e 44 3b 08 bf
       -0.5912035 -0.07234476 0.20892724 -0.5321543
000090 a1 50 00 3f 45 d7 7f 3e 97 1e 60 bd 06 9e 80 3e
       0.5012303 0.24984463 -0.054716673 0.25120562
0000a0 c5 e5 11 be e7 6e c1 be a7 9b b3 bc b2 4e 6a 3e
       -0.14247806 -0.37779924 -0.021924807 0.22881582
0000b0 a3 7f be be 55 33 4f 3f 17 33 f1 bc 9d dc 5e 3e
       -0.37206754 0.809377 -0.029443307 0.21763845
0000c0 46 8e 22 3f 7a 83 2e 3c cc ac 25 3e fc db a3 3e
       0.6349834 0.010651464 0.16179198 0.32003772
0000d0 3c 3d 25 3e 8b f1 5e 3e 21 13 bb be 07 f3 bf be
       0.1613664 0.21771829 -0.36538032 -0.37490103
0000e0 95 7a 85 3e 15 0d db 3d 53 be a5 bd b8 8c c5 3d
       0.26070085 0.106958546 -0.08092942 0.096459806
0000f0 b2 f9 8b 3e 4e 6e ec 3e cb dc a3 be 9a 28 2b be
       0.2733894 0.46177906 -0.3200439 -0.16714707
000100 75 41 06 3e 45 1f 0b be b2 77 75 3d cc 22 c9 3c
       0.13110907 -0.13586147 0.059928603 0.024552725
000110 0d 56 1b be 5c e6 80 bd 6e 91 5e 3e f6 88 e9 bd
       -0.15169545 -0.062939376 0.21735165 -0.11403076
000120 c6 20 f2 3e da 9a c1 3d 1e 1e 8e be ed 57 36 3f
       0.4729063 0.09453364 -0.27757353 0.71227914
000130 0c ce cb bc 9d ba b8 be 2b 51 2d 3f 5b 70 73 3e
       -0.024878524 -0.36079875 0.6770198 0.23773329
000140 8b a1 a3 be 17 e9 f2 bd 82 fb f3 3d 23 06 83 be
       -0.31959185 -0.118608646 0.11913206 -0.2559062
000150 50 ad a9 bd 8a c1 d1 3d b4 cb 87 be 0a a5 d1 bd
       -0.0828501 0.10241993 -0.265226 -0.10236557
000160 6e 05 32 3e 8d e6 d9 be 10 25 1b 3f 32 7b 22 be
       0.17384884 -0.4255871 0.6060343 -0.15867308
000170 fb c1 4b 3e 22 ee a1 bd df b0 71 be c3 a6 b7 be
       0.19898216 -0.07906748 -0.23602627 -0.35869417
000180 8f a9 30 3f 1a 6c 85 3e f1 3f 58 3e 39 fb bf be
       0.69008726 0.26059037 0.21118142 -0.37496355
000190 4b 9c af be d4 69 11 3f a7 b8 fa 3d 82 f5 37 3e
       -0.3429893 0.56802106 0.12242251 0.17964748
0001a0 0e 79 e8 bd a7 ff 98 3e 4f 79 55 3e 70 0e e5 be
       -0.11351214 0.29882547 0.20847057 -0.44737577
0001b0 01 e9 43 be 8e 27 15 3e ad 14 1f bf b3 01 4d be
       -0.19131853 0.1456587 -0.62140924 -0.2002018
0001c0 7a 2d 0a be e7 27 c4 be 60 34 05 3e d5 a5 44 3e
       -0.1349391 -0.38311693 0.1300826 0.19203885
0001d0 e5 67 7d be ad 95 9a 3c 87 72 77 3e 2c 94 76 3e
       -0.24746664 0.0188702 0.24164782 0.2407996
0001e0 41 09 97 3e 2e 7c 8f be f0 27 48 bf e1 65 77 bd
       0.29499248 -0.2802443 -0.7818594 -0.060399894
0001f0 02 27 13 be ad 1b 73 bf 64 01 94 be b7 d1 f1 bd
       -0.14370349 -0.94964105 -0.2890731 -0.11807578
000200 e5 dd a5 bc 65 83 59 be ac 62 dc bd 44 24 e6 be
       -0.02024741 -0.2124153 -0.10761008 -0.44949543
000210 9e d8 73 bd cb d2 03 be b5 78 93 be 2d 13 14 be
       -0.059532754 -0.1287338 -0.2880303 -0.1446044
000220 65 e2 4c 3e a4 f8 59 be 65 99 49 3d 9c 2e 56 bd
       0.20008238 -0.21286255 0.049218554 -0.052290544
000230 26 19 1c bf 04 1f 52 be fe a7 27 3e 17 25 d7 be
       -0.60975873 -0.20519644 0.16372678 -0.42020485
000240 13 da 24 3f 6e 07 30 3e f8 e6 09 3e 5b 01 c7 3e
       0.64395255 0.17190334 0.13467014 0.38868222
000250 f1 19 4a 3e fb 2f f3 be 61 9b 00 3f 63 8d c7 bc
       0.19736458 -0.47497544 0.5023709 -0.02435941
000260 49 1a c1 be 4a 02 e6 3c f3 d8 b1 be a5 e2 87 3e
       -0.37715366 0.028077263 -0.34735832 0.26540104
000270 f0 7f 90 3b a2 25 79 3e 1b 35 8b 3e 9a 5f f8 bd
       0.0044097826 0.24330762 0.27188954 -0.121276096
000280 87 1d 8f 3e 39 9a 16 3e 27 64 2b 3d 22 81 a0 3d
       0.27952215 0.14707269 0.04184356 0.0783713
000290 f1 24 e7 3e 99 89 8e be 39 ff 66 3e d9 22 cb 3d
       0.45145372 -0.27839354 0.22558297 0.09918756
0002a0 a2 e6 85 be 6f 37 3f 3d 02 c6 8a 3e 64 85 a6 3d
       -0.2615252 0.046683725 0.27104193 0.08130911
0002b0 27 4f 38 3f e0 20 38 bd ea 11 b2 be 35 55 48 be
       0.71995777 -0.044953227 -0.34779292 -0.19563754
0002c0 4c 97 e2 bd 13 83 42 3e 6c 81 06 bf 6b 8c 20 3e
       -0.11064014 0.18995313 -0.5254123 0.15678565
0002d0 dd ad c9 3e 1e 6a f6 bd 29 4b 80 bd bf ce dd 3d
       0.3939046 -0.12031959 -0.06264336 0.10830449
0002e0 2e 9e 9d 3d 51 53 3e 3e fe 79 b9 be 05 1b 3a 3e
       0.07696186 0.1858647 -0.36225885 0.1817437
0002f0 aa 50 18 bf 0e 3d 47 3f d7 52 9d be 73 c8 c2 3d
       -0.59498084 0.7782754 -0.30727264 0.09510889
000300 83 83 d1 bd f7 d6 81 3e 08 81 bf bc ee 99 cd be
       -0.10230162 0.25359318 -0.023376957 -0.40156502
000310 d1 7f 10 3d a1 db e4 3d 32 a6 68 be c2 d0 89 3e
       0.035278145 0.111747034 -0.22719648 0.26917082
000320 a1 5e 3a 3e 58 d0 0d 3f 04 c9 15 3e 55 45 f8 3d
       0.1820016 0.5539603 0.14627463 0.12122599
000330 11 32 bf be 92 ff d7 be 71 12 91 be 39 c3 50 3f
       -0.37342885 -0.42187172 -0.28334382 0.81547886
000340 96 95 75 3e 80 d2 b0 bd a9 5d 13 bf 09 91 1e be
       0.23982844 -0.086339 -0.5756479 -0.15485014
000350 b8 8c 26 bd ab 96 a1 be 73 fb b3 3d 20 56 11 bf
       -0.040661544 -0.31560263 0.087881945 -0.5677204
000360 ce 39 81 bf b7 8e 87 be 1e d9 16 bf 7c 14 df 3e
       -1.0095766 -0.2647607 -0.58925045 0.43570316
000370 34 79 81 be d9 f2 4d 3e f4 43 43 3f 66 98 a8 3d
       -0.25287783 0.2011217 0.76275563 0.08232193
000380 ed 4c 12 3f e0 99 6d be 1b 3d 77 bd e7 92 53 3f
       0.5714863 -0.2320323 -0.06036101 0.8264603
000390 0a 98 91 be 61 36 a4 3d 7b 73 1c 3d 08 a7 06 3f
       -0.2843631 0.080181845 0.03819607 0.5259862
0003a0 86 ff 70 3c 27 30 58 bf e1 49 06 3f 0d bf 7e be
       0.014709359 -0.84448475 0.5245648 -0.24877568
0003b0 3d 7b a8 3c ac 1e f7 3e fd f8 97 b9 d4 26 d6 3d
       0.020566577 0.48265588 -0.00028986475 0.104566246
0003c0 a3 72 3c be 52 fd a9 3e 39 7f de 3e d2 df 53 3e
       -0.18403105 0.3320108 0.43456438 0.2069085
0003d0 c9 11 05 3f 88 ef 63 3e 0c 15 a6 be 6c ea 8e be
       0.51980263 0.22259343 -0.32437932 -0.27913225
0003e0 2a 3f ed 3e e7 9a 9d 3d 0e 8a 6d be 5b 9b 29 bf
       0.46337253 0.07695561 -0.23197195 -0.6625268
0003f0 60 8a 2e 3f 2a dd a7 3e 4f 38 30 bf 16 f6 40 be
       0.68179893 0.32785922 -0.6883592 -0.18843874

sequential_1/conv1d_4/Conv1D f4 [64, 1, 3, 32]
000000 05 12 0f 3f ac 9c b2 bc d9 94 b3 3e 4b b1 34 3e
       0.5588687 -0.021803223 0.350745 0.17645757
000010 7e b2 f8 be 89 96 e1 3e fd d2 1c bc d8 cc 7c be
       -0.4857368 0.44060162 -0.009571788 -0.24687517
000020 dd fa 86 be 6d 14 ac be 28 58 99 bd 31 75 46 3d
       -0.26363268 -0.33609334 -0.074875176 0.048451606
000030 94 21 7a bd 6b 20 0c 3f 75 41 da bd 9e db bb be
       -0.06106718 0.54736966 -0.10657016 -0.36690992
000040 21 7a 4c bd 9e ac f9 3e 84 c4 10 3e 12 fb e0 b9
       -0.04992116 0.4876451 0.14137465 -0.0004291167
000050 9e 3c 8f bb 73 14 12 3e ad 9d 20 3e 5b 05 05 bf
       -0.00437124 0.14265613 0.15685149 -0.51961297
000060 08 f3 0e 3f 51 9c 29 3d 80 72 63 3e 48 55 7c 3e
       0.55839586 0.04140884 0.22211647 0.24641907
000070 7d 59 59 be f9 b0 1a 3f ad 16 7b be be 76 81 bd
       -0.21225543 0.6042629 -0.24520369 -0.063214764
000080 70 28 41 3c d2 95 0a 3d 56 ae 9a bd 3b 44 b1 3d
       0.011789426 0.033834286 -0.07552783 0.08655592
000090 4a 03 b0 bd 41 32 8f 3e eb 1e bc 3e 07 ce fc bd
       -0.08594377 0.27968028 0.3674234 -0.12343984
0000a0 a4 6d 70 bd cb c5 5b be d7 f1 82 bd ee 82 ca 3e
       -0.05869831 -0.21462171 -0.063937835 0.39553016
0000b0 4f 9c a3 be db a1 63 3d 24 93 00 bf 0c 2d 8c be
       -0.31955191 0.05557428 -0.5022452 -0.27378118
0000c0 54 9f cc bd 14 cd 09 be 36 a1 2d be 32 f9 d9 be
       -0.09991327 -0.13457137 -0.16956028 -0.42572933
0000d0 d8 c8 fc bd 8f 56 e1 3d d0 43 4a 3e c5 47 f4 bd
       -0.123429954 0.11002838 0.19752431 -0.119277515
0000e0 ed 28 2c bf 2f c3 d3 bd 02 e5 e8 3d 04 e4 ae bd
       -0.6724995 -0.10339963 0.11371805 -0.08539584
0000f0 7f 8c 0e bf f0 22 b2 be c2 61 ad be 6c bb 50 be
       -0.5568313 -0.3479228 -0.33863646 -0.20383996
000100 cd f5 7b bf ee 64 b1 3e 67 9a 1f bf 3e 04 2c 3e
       -0.9842194 0.34647316 -0.62344974 0.16798493
000110 b3 fe 12 bd 1c 90 e8 3d 78 7f a5 3a 29 cb b8 bd
       -0.03588743 0.11355612 0.001262649 -0.09023125
000120 fd 91 43 3d 3a 43 96 be 0d f1 f1 be 53 bf 15 3f
       0.047746647 -0.29348165 -0.4725422 0.5849506
000130 70 ed 2a 3d 9c bb 9e 3c d6 3e 65 be ff ce 21 3b
       0.041730344 0.019376568 -0.22387251 0.002469003
000140 88 2f 82 3d 41 37 fc be b8 ba 24 bf 30 44 83 3e
       0.06356722 -0.49260905 -0.6434741 0.2563796
000150 d3 f7 a0 3d 09 d6 b1 be 38 25 da be 17 3b 60 bc
       0.07859769 -0.34733608 -0.4260652 -0.013685963
000160 6a 30 0f bf b3 68 07 3f 8b 9e 84 be 2b 9c 3e bc
       -0.5593325 0.52894133 -0.2590221 -0.011633913
000170 80 7b 90 be 5e 21 65 bf ae 6c 05 bf 34 6a 50 be
       -0.28219223 -0.8950404 -0.5211896 -0.20353013
000180 e0 c0 9a 3d fc 19 e1 bd dd 15 c7 bd 0e 67 60 be
       0.07556319 -0.10991284 -0.09720967 -0.21914312
000190 bf 57 16 be 7a 2e 08 bf 8a d7 a3 be d9 f1 04 3e
       -0.1468191 -0.5319592 -0.3200038 0.12982883
0001a0 d7 36 9e be ff 44 78 3b 88 5d cc bd 26 fc 04 be
       -0.30901214 0.0037882922 -0.09978777 -0.12986812
0001b0 26 7d 48 be 0f aa ab 3e 3b 88 2f be 85 0e 11 3e
       -0.1957899 0.33528182 -0.17141812 0.14165695
0001c0 d9 c5 45 bf 82 c8 6b 3e 5d 85 d0 bd 91 e7 81 3e
       -0.77255017 0.23025706 -0.10181687 0.25371984
0001d0 09 e5 00 be 4c f8 0e bf ee 94 29 3d 0c 0b cb be
       -0.1258737 -0.5584762 0.041401796 -0.39656866
0001e0 37 3f 07 bd 01 68 2d be aa bd 4a bf 3d 86 46 3e
       -0.03301927 -0.16934206 -0.79195654 0.19387145
0001f0 dc 88 1e 3c 03 a7 b7 3e 23 47 aa 3d 4b c1 b0 bc
       0.0096761845 0.35869607 0.083143495 -0.021576544
000200 d6 0b 9d bd a5 47 08 bf 64 0a be bc eb 1f fa bd
       -0.07668273 -0.5323432 -0.023198314 -0.12213119
000210 36 04 05 be aa ae d8 be 62 6b 34 3e 4e af 8c bd
       -0.12989888 -0.42320758 0.17619088 -0.06869374
000220 cb 07 27 bf ee a7 0d 3e 19 0f 2e bc 52 2e 53 bc
       -0.65246266 0.13833591 -0.010623717 -0.012889462
000230 67 7e c4 bd c0 53 4e 3e 68 2f 55 be 2f 9c 0f be
       -0.09594422 0.20149136 -0.20818865 -0.14024423
000240 9b 63 d7 be 40 46 dd be 09 51 26 be d0 f4 22 be
       -0.4206818 -0.4321766 -0.1624185 -0.15913701
000250 ed 14 10 be 86 2a 90 bf 23 51 a8 be ae d7 17 be
       -0.14070483 -1.1262977 -0.32874402 -0.14828369
000260 78 7e b0 b8 a9 03 35 be 56 71 78 bf f9 63 fb be
       -8.4158906e-05 -0.17677177 -0.97047937 -0.4909971
000270 95 78 95 3e 72 b9 ef 3e 13 02 d5 be 9b fc 38 bd
       0.2919356 0.4682117 -0.41603145 -0.04516278
000280 af 83 0f be 35 c5 c6 bd 5f aa 96 be f2 80 7f be
       -0.14015077 -0.09705583 -0.29426858 -0.24951532
000290 2a 51 d9 3d fa 49 67 3d a9 36 97 3e 49 97 b2 bd
       0.10611184 0.056467034 0.2953389 -0.087202616
0002a0 2d 08 80 be 6e bc 12 bd 8f bb 37 be ac 1b d4 3e
       -0.25006238 -0.03582423 -0.17942642 0.41427362
0002b0 48 45 2b be 4a 76 d0 3e 3b fa f2 bd 48 49 11 bd
       -0.16725647 0.40715247 -0.11864134 -0.035470277
0002c0 b6 45 09 bf 5f a8 0b 3f 85 0d 70 3e 58 04 ca bd
       -0.53621995 0.5455379 0.23442657 -0.0986411
0002d0 14 19 5d be 59 02 80 be 9c 37 c5 3e 8e 1a 5b be
       -0.21591598 -0.2500179 0.3851899 -0.21396849
0002e0 3d b7 8f be ff 37 f2 3e 89 34 d7 be 30 d7 0f 3e
       -0.28069487 0.47308347 -0.4203227 0.14046931
0002f0 19 4b 19 bf 9e cf c2 be be 58 5a 3d e9 aa b3 bd
       -0.59880215 -0.38049024 0.053307287 -0.08772833
000300 a1 cb 6b be 00 4b 13 3e aa 12 a0 3e 13 c7 55 3e
       -0.23026897 0.14384079 0.3126424 0.20876722
000310 7e ea 18 bd 3c b0 b0 be c6 b2 94 3d cf b9 42 be
       -0.037333004 -0.34509456 0.07260661 -0.19016193
000320 c9 3e 24 3e 41 b9 66 bb ed 1d 30 3e 3e 07 10 3e
       0.16039576 -0.0035205635 0.17198916 0.14065263
000330 7d 71 26 3e 0e 62 fa 3d 6e 26 82 3e 26 60 92 3d
       0.1625423 0.12225734 0.25419945 0.07147245
000340 91 93 b4 3b 03 fa 17 3e 48 79 cc bd f5 60 43 be
       0.0055107553 0.14841466 -0.0998407 -0.19079955
000350 de 0c df bc 50 94 79 3d 1a 63 f9 be 7b 3d 14 be
       -0.027227815 0.060932457 -0.4870842 -0.14476578
000360 09 a8 b5 3d 32 9c 4a be 74 4b d5 bd 87 3c 29 bf
       0.08869941 -0.19786146 -0.10414782 -0.6610798
000370 dc 72 ba 3e ca 26 3d be be 1e 30 bd 82 94 a8 3d
       0.36415756 -0.18471828 -0.042998068 0.082314506
000380 80 1f ce 3e f6 cc 8f bd a1 24 aa bb 9f 9a 33 be
       0.40258408 -0.07021515 -0.005192355 -0.17539452
000390 04 38 71 3e 45 51 88 bc 18 64 d3 be 6d 67 a0 bd
       0.23556525 -0.016640315 -0.41287303 -0.07832227
0003a0 66 69 52 bd 4e 98 47 bd e6 a8 61 be bb e3 3e bf
       -0.051370047 -0.048729233 -0.22037086 -0.7456624
0003b0 bc f1 69 3d 3a 67 e7 be a7 44 2f 3d db 1b a9 3d
       0.0571153 -0.45195943 0.04279008 0.08257266
0003c0 87 4f dc 3d 79 61 0e be e1 a9 a6 3d 31 9f 03 3f
       0.10757356 -0.1390437 0.081378706 0.5141478
0003d0 62 9e 9d 3d ed 3b ed bd 3f d9 88 3e 78 e4 a1 3e
       0.07696225 -0.115836956 0.26728246 0.3161962
0003e0 76 96 e5 3e 68 08 b8 be d2 f9 d9 bd 3e 25 be 3e
       0.44841355 -0.35943913 -0.106433526 0.3713779
0003f0 f9 31 c7 3e ca c6 05 bf 35 14 c4 bb 97 22 18 3e
       0.38905314 -0.52256453 -0.005983854 0.14856945

sequential_1/conv1d_5/Conv1D f4 [128, 1, 3, 64]
000000 4d 34 09 3e a5 da f4 be b4 20 15 be 47 09 4d 3e
       0.13398857 -0.47823063 -0.14563257 0.2002307
000010 d0 2e b6 3b 16 f2 82 3d 21 d0 3c be e0 2c 24 3d
       0.0055597797 0.063938305 -0.1843877 0.04008186
000020 d4 69 fb bc 01 89 b0 3d 05 94 1d be 73 67 f9 3e
       -0.030690111 0.086198814 -0.15388496 0.48711738
000030 a4 78 09 3d cf 7e 1f bd 1c 76 19 bf b2 fc 61 3d
       0.033562317 -0.038939293 -0.59945846 0.05517263
000040 69 76 b0 3e 3c e6 30 3e 5e a3 36 bd 42 45 53 3d
       0.3446534 0.17275327 -0.044589393 0.05157972
000050 eb 71 eb bb 00 6e 13 be 65 90 76 be 72 fd 49 be
       -0.007185211 -0.1439743 -0.2407852 -0.19725588
000060 4f bd 40 3d b1 03 40 bd 94 9d 07 be 1e 4b c3 3d
       0.04705554 -0.04687852 -0.13243705 0.09535812
000070 6c d4 71 3e 52 73 c3 3d 2d a7 c1 3e f6 81 17 bf
       0.23616189 0.0954348 0.37822857 -0.5918268
000080 1f 1a 66 bf 77 c6 c5 be 0d da 94 3d fa 38 00 bc
       -0.8988361 -0.3862798 0.072681524 -0.007826084
000090 53 a6 5f 3d 2d 66 52 bf d3 6c a1 bf a9 d1 ca be
       0.05460198 -0.8218716 -1.2611336 -0.39613083
0000a0 57 4e 10 bf 16 ef 18 3e c6 40 3e 3e a6 82 ab 3e
       -0.5636954 0.14934954 0.18579397 0.33498114
0000b0 e6 c0 18 3d 53 a3 86 3c 1a 66 9d 3e 9b d0 86 bf
       0.037293337 0.016435301 0.3074196 -1.0532411
0000c0 30 4a 85 3d 31 5e 04 bd da 64 53 3d 40 f1 70 be
       0.06508291 -0.03231639 0.05160985 -0.2352953
0000d0 b5 c2 09 bf 21 25 8a 3d 17 08 a9 3e ad 5c 51 3e
       -0.53812724 0.06745363 0.33013985 0.20445509
0000e0 35 7b df bd 98 41 db bd d1 31 f0 3e 92 4f 0e bf
       -0.10912172 -0.107058704 0.46913007 -0.55590165
0000f0 51 f7 b1 bd 2f d7 c5 bd c0 50 bf 3a 9d 6a 07 bf
       -0.0868975 -0.09660184 0.0014596209 -0.52897054
000100 42 09 4f be 3a 1f 05 be 93 dc ad bc 19 5e 08 3e
       -0.20218375 -0.13000193 -0.021223342 0.13317145
000110 64 f8 f9 3d ba 51 ea bc e3 ae 00 bc 9f f7 65 3d
       0.1220558 -0.028603423 -0.007854196 0.056144353
000120 a3 9e 78 bd ac 91 32 be 62 87 e4 bd cc ee 66 3e
       -0.060698163 -0.17438382 -0.11158635 0.22552031
000130 82 f6 d1 bd 63 35 a8 bd 3c cf 43 3e 47 b7 82 bd
       -0.10252096 -0.08213308 0.19122022 -0.06382614
000140 67 34 66 bf bc b2 d3 bd 0d d6 97 3d 60 53 fc bd
       -0.8992371 -0.10336825 0.07413874 -0.1232059
000150 e0 f7 e3 3c 2a c7 b9 bb 64 0d ef bd aa 49 87 be
       0.027828157 -0.005669494 -0.11672476 -0.2642339
000160 1b f4 a9 bd 21 54 9e bd 29 47 76 be d7 20 23 be
       -0.082985125 -0.0773089 -0.24050583 -0.15930496
000170 25 1a a6 be df 0d a4 bd e5 43 e2 3e ea 69 14 bf
       -0.32441822 -0.08010458 0.44192424 -0.5797411
000180 38 08 77 be 80 53 e5 3e 67 5d 99 3d 0d 1a 7d bc
       -0.24124229 0.44790268 0.07488518 -0.0154481055
000190 44 19 66 3e bd 3b c0 be cf 9d 03 3f 4d 0c 07 be
       0.22470576 -0.37545577 0.5141267 -0.13188286
0001a0 06 2c 12 bf 7e 1b a3 be c5 20 6d 3e c8 e1 8d be
       -0.57098424 -0.31856912 0.23157032 -0.2771132
0001b0 ab 58 c5 bd e0 f7 bb bd 1e ab a0 bc 52 49 05 bf
       -0.09636053 -0.09178138 -0.019612845 -0.52065
0001c0 92 e1 c3 3c a7 98 f0 bc 92 fe 63 3c 43 d7 b0 be
       0.023911271 -0.029369665 0.013915675 -0.34539232
0001d0 c6 18 7e 3e fc 71 40 3e e7 59 63 3e 24 0f bc bd
       0.24814138 0.18793482 0.22202264 -0.09182575
0001e0 dc 97 98 bd 44 db 76 be 0b 14 39 3c 8e 80 e3 3e
       -0.0745084 -0.2410708 0.0112962825 0.44434017
0001f0 1f 4f 62 bf e3 97 0d bd 20 a4 58 3d 8a 40 01 bd
       -0.8840198 -0.03456868 0.052890897 -0.03155569
000200 c5 cb fa be ab 86 b1 bd db 17 d5 3b 63 19 a1 be
       -0.4898359 -0.08668264 0.006503088 -0.3146468
000210 fe eb b9 3d 1f 27 4e bd 42 18 db bd 35 39 11 3e
       0.09078215 -0.050330278 -0.10697986 0.14181979
000220 87 7a 14 be 7d 64 23 3e 21 29 9f be 80 a5 05 bf
       -0.14499865 0.15956302 -0.31086066 -0.5220566
000230 d8 01 8a bd ec d5 59 3d d7 0b 1c bc eb 0f 37 be
       -0.06738633 0.053182527 -0.009524307 -0.17877166
000240 96 0f 32 3e 09 de 08 3d 17 94 46 bd 6c 9d d8 3d
       0.17388758 0.033414874 -0.048481073 0.10576901
000250 56 b3 c8 bc bf d6 99 3d 9c d3 e5 3e f2 2c 95 bf
       -0.024499577 0.07511663 0.44888008 -1.1654341
000260 43 69 2f 3e ee 5a c6 bc 67 e6 e1 be e2 dc 39 3d
       0.17129998 -0.02421328 -0.44121096 0.045376666
000270 b0 74 85 bd c6 7b 11 39 2b 75 58 bf 84 2e 83 3d
       -0.06516397 0.00013874387 -0.84553784 0.064053565
000280 a0 97 84 be b0 46 ce be d5 04 fc 3d 55 ce 34 3d
       -0.2589693 -0.40288305 0.12305609 0.044142086
000290 ec 1d fd 3d 25 37 0c bd fa f0 03 3f f0 91 88 3d
       0.12359223 -0.034232277 0.51539576 0.0666846
0002a0 ce ce fc be cd 8d 06 bb 46 df b1 be 7b 7b 0e be
       -0.4937653 -0.0020531297 -0.34740657 -0.13914292
0002b0 d4 e3 35 bc 2c c5 4c bd 89 45 d4 bb e2 0f 7e be
       -0.011101682 -0.049992725 -0.006478016 -0.24810746
0002c0 fc 1a c5 3d 37 23 c6 3d 90 fa 23 3d f7 23 9b be
       0.096242875 0.096746854 0.040033877 -0.30300876
0002d0 03 f3 bb be cb ad 13 3d 4b c0 b0 3e ae 52 c2 bd
       -0.3670884 0.036054414 0.34521708 -0.09488426
0002e0 c7 71 3c bd fe 19 3f bf 98 6c 90 be 60 2e f2 be
       -0.046006944 -0.74649036 -0.2820785 -0.47301006
0002f0 99 62 40 bf ed 39 9d 3e 22 b6 c3 3d d9 45 3d 3e
       -0.7515045 0.30708256 0.095562235 0.18483676
000300 45 2c c6 bd 37 45 e3 bd e4 e8 87 3e 81 cc 64 3e
       -0.096764125 -0.11097186 0.2654487 0.22343637
000310 ed e3 92 3d b3 2c a4 bb 53 c7 1a be 43 3e 98 bd
       0.0717238 -0.0050102114 -0.15115099 -0.074337505
000320 ff 6c f0 3c a6 7e ba be 7f 5d 56 bd 26 24 ac be
       0.029348848 -0.3642475 -0.05233526 -0.3362133
000330 0d f2 36 bd 88 ff 34 3d e9 38 ef bd 20 6f a7 3d
       -0.04466443 0.044189006 -0.116807766 0.08175492
000340 6b d6 ae bc c9 22 47 3d c8 84 9c 3d 0a 8f f6 3d
       -0.021342477 0.048617158 0.076425135 0.12039001
000350 de ba 6b 3a 07 6b 5a bf 0f 61 37 be 01 7f 15 bd
       0.0008992384 -0.8531956 -0.17908119 -0.036498073
000360 1c 17 88 3e cb a6 86 3c 79 cb 25 3e 41 bd 74 3d
       0.2658013 0.016436955 0.161909 0.0597508
000370 f2 d7 ef 3c 3d 9a 66 bd 58 0f 0f bf a1 80 54 bf
       0.029277775 -0.056299437 -0.5588279 -0.8300877
000380 0b 5f 10 bf 5d 61 29 3f 1c ea 11 3e de e7 4f bd
       -0.56395024 0.6616419 0.14249462 -0.050758235
000390 60 4d 91 bd e4 cb 9c be dd 86 19 bf 6f 3b 1e bf
       -0.07094836 -0.30624306 -0.5997141 -0.6180944
0003a0 e5 f3 48 3e 77 b5 a4 be 0d fa 7b be ab 12 7c be
       0.19624288 -0.32169697 -0.24607106 -0.24616496
0003b0 aa ec 4d 3d 16 2f c2 3d 60 b1 1d bd 82 af 87 be
       0.05027453 0.09481637 -0.038499236 -0.2650109
0003c0 4f e1 a0 3d 7b 75 db bc 11 e0 2d 3e 8c 7a 80 be
       0.07855474 -0.026789417 0.16980006 -0.25093496
0003d0 46 ab 85 bb f5 5c 33 3c 78 d8 86 be c0 0e a0 be
       -0.0040792553 0.010947456 -0.26337028 -0.31261253
0003e0 2e cf 69 3d 8b 96 a0 be c1 63 bc bd da 41 88 3e
       0.057082348 -0.31364855 -0.09198714 0.2661274
0003f0 4b 23 6e be 7d 23 2d 3f 5e 8e 00 be 61 99 a4 3e
       -0.2325565 0.67632276 -0.12554309 0.3214827

sequential_1/dense_3/BiasAdd/ReadVariableOp f4 [7]
000000 a8 7a ae be d6 de 8d be 49 58 a0 bd 36 1f fb 39
       -0.34077954 -0.27709073 -0.07829339 0.00047897705
000010 8e 38 39 3e be 0f 3b 3e e6 1f 6c 3e
       0.1808798 0.18267724 0.23059043

sequential_1/dense_2/BiasAdd/ReadVariableOp f4 [64]
000000 67 7e 8d 3e 33 d1 95 be bc d6 f0 3e 3e 4e 68 3f
       0.276355 -0.2926117 0.4703883 0.9074439
000010 54 a7 24 3f f7 86 1c b9 0f a4 01 3f a1 37 b4 3c
       0.6431782 -0.00014927598 0.5064096 0.021999182
000020 40 38 1d 3e 6d 94 cd 3e 63 6f f5 3d 11 04 3e be
       0.15353489 0.40152302 0.11984136 -0.18556239
000030 eb dc 43 3f ed 83 8c be 9d 50 db 3e 73 10 07 be
       0.7650897 -0.274444 0.4283494 -0.13189869
000040 f8 11 35 be a1 78 aa 3e 8e df 21 3f dd 7d 00 be
       -0.17682636 0.33295158 0.6323174 -0.12548013
000050 d9 a6 17 be 87 f1 90 be 0a 60 9e 3e ce e7 f8 3e
       -0.14809741 -0.2830927 0.30932647 0.48614353
000060 4c 29 7d 3e 3b 77 fb 3d a2 25 b8 be 1a 75 90 bc
       0.24722785 0.12278601 -0.35966212 -0.017633963
000070 4a fc a6 be d6 6a 8d 3e 01 4a 93 be 13 98 08 be
       -0.32614356 0.27620572 -0.28767398 -0.13339262
000080 a4 95 43 bd 58 1e bb be c8 f7 23 3f 47 04 62 be
       -0.04775013 -0.36546588 0.6404996 -0.22071944
000090 62 ef 58 3f 69 31 20 3e b8 1e 71 bd 04 12 ba 3e
       0.8474027 0.15643848 -0.058867186 0.3634187
0000a0 ab 5d 96 bd 1b fc 9c 3e 96 a1 b2 bd 4f d5 00 be
       -0.073420845 0.3066109 -0.08722226 -0.12581371
0000b0 9b 9f 01 be 6d ad 31 3f 1b 65 7b 3e 34 1a bd be
       -0.12658541 0.6940525 0.24550287 -0.36934054
0000c0 93 e0 17 3e bc 45 b5 be 85 e1 c6 bb db 6f 59 3e
       0.14831762 -0.35404766 -0.0060693645 0.21234076
0000d0 cf f5 81 be 1d fa b8 be 2b ba 89 3e 71 cb 09 bf
       -0.2538285 -0.3612832 0.26899847 -0.5382605
0000e0 87 3d 12 3f 3e 6b b0 bd 77 6a 6c 3e a9 ab 1f bf
       0.57125133 -0.08614205 0.23087488 -0.6237131
0000f0 68 be 43 3e c9 e5 06 be 79 63 7f be b3 37 23 3e
       0.19115603 -0.13173594 -0.2494029 0.15939216

sequential_1/dense_2/MatMul f4 [64, 1280]
000000 ff 8f 11 be a4 3c 40 bb 4d ea 13 3e 4f e3 a9 3e
       -0.14215086 -0.002933302 0.14444847 0.33181235
000010 17 67 a4 bd 67 6b ee 3d 15 1a c2 3d cf ff ac bd
       -0.08027475 0.11641579 0.09477631 -0.08447229
000020 4e 82 94 3e 3c fe bc 3d a3 05 e0 bd 27 4a 48 3e
       0.29005665 0.09228179 -0.10938575 0.19559537
000030 4f 47 05 bd 57 c6 26 3d 3c 74 44 bd f8 b3 22 be
       -0.03253871 0.040716495 -0.047962412 -0.15888965
000040 01 42 a4 be df 12 cc 3d a2 34 16 3d 40 83 b2 bd
       -0.32081607 0.09964537 0.03667129 -0.0871644
000050 a4 e1 a3 3c 8e 45 28 3b 7f 18 c8 3d cf 70 cb bd
       0.020005055 0.0025676223 0.09770297 -0.09933626
000060 99 62 0f 3f 41 cd 6f 3e 45 d4 2c 3e 0e 3e 65 3d
       0.56009823 0.23418142 0.1687785 0.055967383
000070 fc 87 09 3e 2d 86 e0 bd 35 ad 07 bd 44 c0 e7 b9
       0.1343078 -0.10963092 -0.033124167 -0.00044203002
000080 2a c9 cf ba e8 be e8 bd 43 04 7b 3e db 40 9e 3e
       -0.0015852798 -0.113645375 0.24513344 0.30908856
000090 36 8d 67 3e bb 15 34 3e 3e 5d f7 3d 81 22 24 3f
       0.22612461 0.17586415 0.120783314 0.6411515
0000a0 7a ee 0a be 78 68 ef 3d 84 3d 72 3d 3e 4f 82 3d
       -0.13567534 0.11689848 0.059140697 0.063627705
0000b0 e2 b4 3f bc a7 66 89 be dd 9c 69 3b f5 e1 ca bb
       -0.011700841 -0.2683613 0.0035646476 -0.006191487
0000c0 e3 83 8d bd 26 ca 0b 3d 1c 97 d4 be 5c dd 57 bd
       -0.06909921 0.03412833 -0.41521537 -0.05270134
0000d0 a5 60 08 3d 4e 4b 0c 3e f4 ef fc 3d 61 85 88 3d
       0.033295292 0.13700601 0.12350455 0.06666065
0000e0 95 66 cd bd 96 ad c6 3c 5b c9 37 3e 53 19 47 3d
       -0.100293316 0.024252694 0.17947905 0.048608135
0000f0 29 a7 8e 3e 65 39 94 bd 6c b6 0d 3d 1f 77 e5 bd
       0.27861908 -0.0723751 0.0345978 -0.11204361
000100 5f f9 8b be a6 af a5 3e 90 bf 20 be 61 6b eb 3c
       -0.27338693 0.32360572 -0.15698075 0.028737726
000110 ad 91 dd 3d 2a 9b 84 3b 07 c8 7c bd 7c 1b 8a 3b
       0.10818801 0.0040468173 -0.0617142 0.004214702
000120 e7 b8 52 be cf 79 09 3e dd b6 32 bd ed 45 03 3e
       -0.20578347 0.13425373 -0.043631423 0.12819643
000130 f2 4f 04 3d f8 26 4a be 4c 8f 71 3d 90 d4 78 3d
       0.032302804 -0.19741428 0.05897455 0.06074959
000140 b7 44 ae bc 4e 3f b0 3e 4a 7d 39 3c c7 93 48 3d
       -0.021273 0.34423298 0.011321375 0.048969056
000150 87 80 44 bd 79 69 c4 3d 84 5f ee 3d 8f 9c 84 3e
       -0.047974136 0.0959043 0.11639312 0.25900695
000160 57 be 75 bd 70 35 bf bd 31 81 5c 3d f5 c9 28 be
       -0.059995975 -0.09336364 0.053834144 -0.1648329
000170 3a 2b 02 3d a2 3b 1d 3f 0a 50 80 3c d2 aa d6 3d
       0.031779505 0.6141912 0.015663166 0.104818
000180 9b 2c 23 3e 61 c9 e8 3c a3 2e 9c 3e cc e5 ce 3c
       0.15934984 0.028416337 0.3050433 0.02525606
000190 32 c8 2b bd a8 87 05 3e 60 cf b8 3d 8a 11 0f 3e
       -0.041938968 0.1304003 0.09023929 0.13971534
0001a0 5b 8a f4 3b 62 a3 3c be 29 85 8a 3e 03 a8 57 bd
       0.0074627823 -0.184217 0.27054718 -0.052650463
0001b0 b9 1a 96 3d 96 a1 30 3e 62 74 d0 bd d3 9e e6 bd
       0.07329316 0.1724914 -0.10178448 -0.11260762
0001c0 3a fa 07 bc b7 2f ae 3d 2c 11 91 3e 4a 09 f5 3e
       -0.008299405 0.08505195 0.28333414 0.4785865
0001d0 bd c7 e8 bd 6e ee 58 bc 01 bc a5 3c fd b8 09 3d
       -0.11366222 -0.01324044 0.020231249 0.033623684
0001e0 d3 d0 46 3e ff 87 26 be 12 26 02 3e 49 50 e4 bc
       0.19415598 -0.16262816 0.12709835 -0.027870314
0001f0 9a e5 91 be 56 d0 2b 3e 32 49 27 3e e8 b5 82 be
       -0.28495485 0.16778693 0.16336516 -0.25529408
000200 ca 3c 06 3e 93 9b c9 3d ff 53 9b bd b4 ac 2e 3c
       0.13109127 0.098441266 -0.0758438 0.010661293
000210 e9 24 59 3d 40 b4 a7 3e a0 a6 44 be d1 34 b8 3e
       0.053013716 0.32754707 -0.19204187 0.35977796
000220 6d fa 22 3c 23 cc a9 3d 34 c8 c7 bb 67 4f fd 3c
       0.0099474015 0.08290889 -0.006096864 0.030921651
000230 7c 51 90 3e fb 27 20 3d 75 26 05 be 3a db 2f 3e
       0.28187168 0.03910063 -0.13002951 0.17173472
000240 70 55 b5 3d 4d 5c f1 ba ef 89 45 bd f0 25 d6 3d
       0.088541865 -0.0018414349 -0.048227247 0.10456455
000250 22 64 48 bd dc d7 04 bc 49 f0 29 bd 6d e7 8d bc
       -0.04892362 -0.0081081055 -0.04148892 -0.017322266
000260 f5 e1 45 3e 81 c0 91 3e 2f 7b 11 bd 19 cb 91 3d
       0.19324477 0.2846718 -0.035517868 0.07118816
000270 4b b7 39 3e ca 03 69 bd 37 0d 5e 3e 2c 07 dc bd
       0.18136327 -0.05688838 0.21684729 -0.107435554
000280 04 e3 31 be f3 c2 5f 3d eb 18 7a bc 25 e2 89 3c
       -0.17371756 0.054629277 -0.01526473 0.016831467
000290 7a b8 b0 3e 4a 9f 6a 3e 18 44 16 3a 1f 51 21 3f
       0.34515744 0.22912326 0.00057321927 0.63014406
0002a0 37 af 92 bc 71 fd a5 bd 50 1d 6c 3d 56 0b 52 3d
       -0.017905815 -0.08104981 0.057645142 0.051280342
0002b0 86 c3 a5 3c a0 6b 17 be e7 3b 56 3c 73 94 98 3e
       0.020234834 -0.1478715 0.013075805 0.29800758
0002c0 2b cf aa bd 40 c8 24 bd ec 01 4f bc 04 1d fe bd
       -0.083402954 -0.040230036 -0.012634736 -0.12407878
0002d0 70 ee aa 3d ac 03 75 bd ce 30 b6 3c f4 a2 c1 bd
       0.083462596 -0.059817955 0.022240069 -0.09454909
0002e0 5f 27 07 be d5 b1 c5 bc 97 d5 a4 3d 1b fe f1 3d
       -0.13198613 -0.024132648 0.080485515 0.11816045
0002f0 69 52 cb 3e 49 31 03 3e c1 ca d8 3d 21 ae 87 bd
       0.3971131 0.1281177 0.10585547 -0.06625009
000300 a2 bd 28 bb 72 fb de 3e e6 2c 08 3e 1a 3e 1d 3c
       -0.0025747796 0.43551213 0.13298377 0.009597326
000310 ad 03 be 3e 8d c2 3a be 9d 00 51 3d a8 35 c6 3c
       0.3711218 -0.18238278 0.051025975 0.024195507
000320 0c 5a fb be dc 8f 3b 3d 24 a5 b2 3d 93 85 71 3e
       -0.49092138 0.045791492 0.08722904 0.23586111
000330 47 53 04 3d 99 de c7 bb d7 9b ee bc b2 e1 9a bc
       0.032305982 -0.0060995338 -0.029127045 -0.018906448
000340 b0 dd c6 3d ac 07 24 be f4 51 52 3c 24 ef 42 3b
       0.09710252 -0.16018552 0.012836922 0.002974459
000350 71 d2 30 be 09 ae 83 3e ab 65 a0 3d be b2 40 3e
       -0.17267777 0.25718716 0.078318916 0.18818185
000360 4a d5 44 3e 16 48 f0 bd a6 55 15 3d ea 9a f6 3c
       0.19221988 -0.11732499 0.036458634 0.030103166
000370 14 94 ca 3c ad e3 27 3e 7f de de 3d b7 50 47 3e
       0.024728812 0.16395445 0.108822815 0.19464384
000380 51 e0 c4 3e d3 f7 43 3e ce f3 c4 3e a0 a8 a5 3b
       0.3845239 0.19137506 0.38467258 0.005055502
000390 05 99 03 bd 8d 0f ee bd 13 ce f8 bd d7 ea 98 be
       -0.032128353 -0.1162406 -0.121486805 -0.2986667
0003a0 8a 7d 9a 3c 05 d1 97 be 66 ea 34 3e 8c b9 78 bd
       0.01885869 -0.29651657 0.17667541 -0.060723826
0003b0 a5 11 52 3d 76 e5 da 3c 28 ac a3 bd e5 e1 6b 3e
       0.05128636 0.026720744 -0.079918206 0.2303539
0003c0 0d ce 06 bd 52 cf ab 3d d2 d8 88 3d a6 07 0b 3f
       -0.03291135 0.083891526 0.0668198 0.54308546
0003d0 00 24 2a 3d 44 84 c6 3e 1f d4 ba 3d 25 83 85 3b
       0.04153824 0.38772786 0.0912249 0.0040744715
0003e0 61 46 0e 3d ee 1d 56 3e a6 d3 62 3d 1d 84 36 bd
       0.034735087 0.20909855 0.055377625 -0.044559587
0003f0 2f b6 b4 3d 63 c3 22 3e 71 8b 9b ba 8d d1 02 bf
       0.08823811 0.15894847 -0.0011867118 -0.51101

sequential_1/dense_3/MatMul f4 [7, 64]
000000 23 2e 0a be a6 6c b4 3d 1d da 62 bf 7d 24 8f bf
       -0.13494162 0.088097855 -0.88614064 -1.118301
000010 bf 72 e6 be 48 d2 9f be fd a6 73 bf 6c 44 b6 3d
       -0.4500942 -0.3121512 -0.9517668 0.08899769
000020 35 34 cd be de e0 06 3e ff 13 de 3d 89 6f 1a bf
       -0.40078893 0.13171718 0.10843658 -0.6032644
000030 a4 0b b1 be fd 24 85 be f7 8b a6 bf 33 c0 d3 bd
       -0.34579194 -0.26004782 -1.3011464 -0.103393935
000040 4f 05 e0 be 42 3e 33 3e f3 28 ba be 21 a1 c1 be
       -0.4375405 0.17504218 -0.36359367 -0.37818244
000050 0c d4 21 be d1 68 72 3e b6 45 11 bf 5c c9 be be
       -0.15803546 0.23672797 -0.56746995 -0.37263
000060 8c b2 c9 3d 4e af 24 bf 67 27 80 3d 7d 57 a0 bc
       0.09848508 -0.64329994 0.062575154 -0.019572968
000070 46 c6 98 3e 9e fa 76 bf e3 f2 73 3e d9 18 1d 3e
       0.2983877 -0.9647616 0.23823123 0.1534151
000080 d8 0a 36 3e d8 f1 82 3e 36 80 80 bf 34 20 1e be
       0.17777574 0.25575137 -1.0039127 -0.15441972
000090 f5 5a dd bf 45 f9 a6 be 5e 77 38 3e 7c 7d 00 bd
       -1.7293383 -0.32612053 0.18014285 -0.03136967
0000a0 56 ba 83 be e3 78 e0 bf 68 61 cc bd 6d 07 c8 3d
       -0.257281 -1.7536892 -0.09979516 0.09767041
0000b0 c4 1a 45 3e d8 4a 7b c0 75 ef 82 3d 3e 38 25 3e
       0.19248492 -3.926443 0.06393329 0.16134736
0000c0 6d 5c 30 3e 83 21 0f be 0a 93 36 3e c0 59 b4 3e
       0.17222758 -0.13977627 0.17829528 0.35224724
0000d0 f1 2c d5 3d f0 12 f0 3d ef 23 d1 be 17 2c f9 3d
       0.104089625 0.11722362 -0.40847728 0.121666126
0000e0 2c 43 5a bf 2a b8 a2 be a8 91 5d 3d 53 f7 a5 3d
       -0.85258746 -0.3178113 0.054093987 0.08103814
0000f0 2c 64 b6 3d 2d 87 5c 3d 73 dc 33 bf 96 7f b2 be
       0.08905825 0.05383985 -0.70258254 -0.34862965
000100 eb 48 e1 bf 27 b2 76 3e 9d 5f 82 3e e7 43 a3 be
       -1.7600378 0.24091397 0.25463572 -0.31887743
000110 75 8f 16 bf 3b ea 6d bf b7 7c ec bf 2a dc 3a 3e
       -0.5881265 -0.9293553 -1.847556 0.18248048
000120 cf a2 62 3e 93 d1 1d 3e 21 f3 51 3e 03 a6 f6 be
       0.22132419 0.15411977 0.20502903 -0.48173532
000130 bb dc c2 bf 31 9d 2d 3d 6d c0 8b bf 46 ac 26 be
       -1.5223612 0.042386238 -1.0918099 -0.16276655
000140 e4 7d 9d 3d b0 3c d2 be 44 20 15 bf a3 c1 8d be
       0.07690027 -0.41061926 -0.5825236 -0.27686796
000150 2f 86 20 be 99 58 ab 3e 5e 9a 3c 3f 04 da 25 3f
       -0.15676187 0.33466032 0.73673046 0.6478579
000160 f4 69 5f bf 9e ed c6 3e 7b 7a 4f 3b ab 58 c3 be
       -0.87271047 0.38853163 0.0031658697 -0.38153586
000170 6f a9 29 3e 72 dc 80 bf 55 1a 0a 3e 52 5f 32 be
       0.1656854 -1.0067275 0.13486607 -0.17419174
000180 1c b7 9e 3e 11 57 21 bf ef 54 23 be 07 9a 7b be
       0.30999076 -0.6302348 -0.15950368 -0.24570476
000190 1a 64 a0 3d b9 e8 b0 3d c6 42 24 be f2 5b 8b bf
       0.07831593 0.08638138 -0.16041097 -1.0887434
0001a0 69 11 3a be 04 7e dd bf 5d 08 63 be d0 23 21 be
       -0.18170704 -1.7304082 -0.22171159 -0.15736318
0001b0 05 1a ec bd 1b 19 17 bf 63 ca 89 bf 1b 8f 0e 3e
       -0.115284 -0.5902268 -1.0764889 0.13921778
0001c0 ca 78 60 3c 20 47 56 3e 93 c3 57 3e 59 74 99 bf
       0.013700673 0.2092557 0.210707 -1.1988631
0001d0 dd e1 ee be 47 ff cc bd ac e5 cf bf 53 c8 25 3e
       -0.46656695 -0.10009628 -1.6241965 0.16189699
0001e0 b3 a4 40 bf 47 cf 0f 3e 53 81 a7 bf 21 66 53 3e
       -0.7525131 0.14043914 -1.3086342 0.20644428
0001f0 75 2a aa bf 70 d7 a9 3c d8 35 5c be 48 e3 ba bc
       -1.3294207 0.020732611 -0.21504915 -0.022813454
000200 db 2b 8a 3e 3d 44 ff be e5 fd a6 3d 28 c5 cc 3a
       0.26986584 -0.4985675 0.08153895 0.0015622722
000210 12 23 f8 3e d8 3a c1 be 1f ea 6b 3e 61 ce 01 bf
       0.48464257 -0.37740207 0.23038529 -0.50705534
000220 19 5f c3 be 98 f1 41 bb 22 f2 45 be 09 ce f6 3d
       -0.3815849 -0.0029593464 -0.19330648 0.12051017
000230 64 ef c9 3e a4 ef e4 3d 02 90 3c 3f f0 01 ba 3d
       0.39440453 0.1117852 0.7365724 0.09082401
000240 4a 50 55 be 7b 4d ec be c2 75 09 3e ec 8a 2d 3e
       -0.20831409 -0.46152863 0.13423827 0.16947526
000250 0c ac 27 be a4 26 ff be fb 64 10 3d 8e 7c a5 3e
       -0.16374224 -0.49834168 0.035252552 0.3232159
000260 b0 78 35 3e 0b 47 1f 3e 15 94 0d bf a9 3e 9c 3d
       0.1772182 0.15554444 -0.5530408 0.07629139
000270 1e c0 31 bd 4a e9 3c 3f 3f 9a 0f bf 89 d3 23 be
       -0.043396108 0.7379347 -0.56094736 -0.15998663
000280 e1 4b 07 3f f3 d6 69 3e dd 0f 72 3d b9 38 4f 3e
       0.5285016 0.22835903 0.05909716 0.20236482
000290 a2 07 d4 3d 6e 9b dd be 62 c7 8d be 6d ce d8 bd
       0.10353018 -0.43282646 -0.2769118 -0.105862476
0002a0 34 44 81 be 7d f1 ac 3f e3 5a 85 bd 5f 5f 42 be
       -0.25247347 1.3511196 -0.06511476 -0.18981694
0002b0 ab 94 72 3e 92 8b dd 3e 71 31 ee be 27 8a 26 bf
       0.23689525 0.43270546 -0.46522096 -0.65054554
0002c0 f3 2c 86 bf 25 09 c1 3d e2 a2 24 bf ae 48 52 3e
       -1.0482467 0.09425572 -0.6431104 0.20535538
0002d0 ad a7 0e 3e fa 50 f1 3e 87 d6 0d 3f e6 e5 46 be
       0.1393115 0.47132093 0.5540547 -0.19423637
0002e0 d9 05 58 3e a0 b3 3e be 8a a7 be 3d b0 93 0d 3e
       0.2109598 -0.18623209 0.09309299 0.1382587
0002f0 88 a4 b8 3e 89 b1 e7 bd 74 de d7 3c 1a e8 03 3e
       0.36063027 -0.11313159 0.026351191 0.12881508
000300 af 96 0a 3f 3c e5 c8 3e 60 49 84 3b 78 28 43 3e
       0.54136175 0.39237392 0.0040370673 0.19058406
000310 2c 95 02 be 98 0b d4 bd bc d0 ab 3e 4d 67 35 bf
       -0.12752217 -0.10353774 0.3355769 -0.7086075
000320 4c 3f 89 3e 00 9e 84 3e b8 9d be bd a8 ba 79 be
       0.26806104 0.25901794 -0.09307426 -0.2438761
000330 05 6d cd be bb 66 4f be 37 19 4e be 6d 5b 97 3c
       -0.40122238 -0.20254032 -0.20126806 0.018476212
000340 42 56 21 3f 12 fd 5e 3e 94 44 a0 bd d8 7f d5 be
       0.63022244 0.21776226 -0.0782558 -0.416991
000350 1c 58 10 3e 00 be 21 3e 4b 67 18 3e 1f 1f e5 be
       0.14096111 0.15795135 0.14883153 -0.44750306
000360 b0 07 09 bf e1 c1 2c bc ba 80 8b bf 40 49 00 be
       -0.53527355 -0.010544271 -1.0898659 -0.12527943
000370 21 cc 95 bd 14 cd 8f bf a9 01 65 be 83 1c d4 3d
       -0.07314325 -1.123446 -0.22363915 0.10357001
000380 44 73 af be 04 1d 28 bf d1 5e 8c 3e 67 b3 6e be
       -0.34267628 -0.65669274 0.2741609 -0.23310624
000390 e3 b3 dd 3e a6 39 07 3d 15 86 ab ba 0b 42 b8 bc
       0.43301305 0.033013962 -0.0013086224 -0.02249243
0003a0 d2 b0 fa bd 9d 3d 74 be 4f e1 79 3e 2e 00 2e be
       -0.12240757 -0.23851629 0.24402355 -0.16992256
0003b0 5e d3 88 3e 22 92 05 bf b6 02 22 3f 39 ea 1c 3e
       0.2672376 -0.52176106 0.63285387 0.15323724
0003c0 b2 77 1b be d9 27 40 3e d2 d6 d3 bd a5 ab 24 3e
       -0.15182379 0.187652 -0.10343708 0.16081102
0003d0 a8 18 d7 3e 05 80 5e 3e c2 da db 3e 47 9f 08 3e
       0.42011 0.21728523 0.42940336 0.1334201
0003e0 8d 71 9a 3d e7 d8 ee bd 89 72 e1 3e fb c0 38 bf
       0.07541189 -0.116624646 0.44032696 -0.72169465
0003f0 3d 31 93 3e f0 8e e0 bd 3b 58 f8 bb 4a 68 4d 3e
       0.28748503 -0.10964763 -0.0075788773 0.20059314
