models/models_for_presentation/stationary_or_moving.tflite (tflite, 314712 bytes, 11 tensors)

sequential/conv1d/BiasAdd/ReadVariableOp f4 [32]
000000 9a af 49 be 3e c4 80 be fe a4 5c be c7 b2 fb be
       -0.19695893 -0.2514972 -0.21547315 -0.49159834
000010 fe 4a 79 bd c4 71 45 be e8 17 c9 be 14 6e e5 be
       -0.060862534 -0.1928168 -0.39276052 -0.44810545
000020 29 ea d6 bd 81 9e 89 be e2 fe 42 be 3e a8 60 be
       -0.10493881 -0.2687874 -0.19042543 -0.2193918
000030 09 02 33 be 84 47 58 be 04 03 aa bd 3a 4c 87 bd
       -0.17481245 -0.21121031 -0.083013564 -0.06606336
000040 97 ce 02 be 5a 30 54 bd 74 32 10 be d8 02 e2 be
       -0.1277412 -0.051803924 -0.14081746 -0.44142795
000050 58 2a 26 be 0f 9e fb bd b1 62 63 be 44 22 ba be
       -0.1622709 -0.12286007 -0.22205617 -0.36354268
000060 b0 8a b9 be 13 41 6d 3e b9 e5 46 be de d3 62 bb
       -0.36238623 0.23169355 -0.1942357 -0.0034611146
000070 2b c6 30 be be 0f 87 be 72 51 0f be a0 e1 cd be
       -0.17263095 -0.26379198 -0.13995913 -0.402112

sequential/conv1d_1/BiasAdd/ReadVariableOp f4 [64]
000000 3a df c4 bd e4 f7 69 be 5c 34 01 be 6e db 8a bd
       -0.096128896 -0.22848469 -0.1261763 -0.06780134
000010 b6 c5 f5 bd d1 9b e8 bd 96 52 05 be 52 4a 18 bd
       -0.12000601 -0.113578446 -0.13019785 -0.037180252
000020 45 44 23 be e0 2a a0 be 16 e6 8c be 4e 1e 4e be
       -0.15944012 -0.3128271 -0.27519292 -0.20128748
000030 d4 5c 0c be 7c 9b 8b be 98 ea 92 be 35 b0 ec bd
       -0.13707286 -0.27267063 -0.28694606 -0.11557046
000040 12 76 23 be a8 59 81 be 99 97 95 be c9 4b f1 be
       -0.15963009 -0.25263715 -0.29217222 -0.47128132
000050 df bc b4 bd d6 e9 ef bd 01 a9 48 be bb 33 61 bd
       -0.08825087 -0.117145225 -0.1959572 -0.054980975
000060 53 16 82 3d 20 e8 4f be 48 aa 4c be 1a 53 d9 bd
       0.06351914 -0.20303392 -0.19986832 -0.106115535
000070 fa b9 10 be e8 28 54 be e2 d3 cf bd a2 de df 3c
       -0.14133444 -0.2071873 -0.10147835 0.02732784
000080 f2 dc f5 bd 38 32 73 be c2 60 10 be 21 86 81 be
       -0.120050326 -0.23749626 -0.1409941 -0.25297645
000090 d9 bb 56 be 2f b7 42 bd c4 d6 5e bd 73 3a 83 be
       -0.20970096 -0.04753798 -0.054404035 -0.2563053
0000a0 21 01 9a be 81 48 45 bc 51 39 d2 bd 53 fa 6d be
       -0.30078986 -0.012041212 -0.102648385 -0.23240022
0000b0 71 26 c1 bd d0 b9 7d be f0 17 7b be e9 af 30 be
       -0.0943116 -0.24777913 -0.2452085 -0.17254604
0000c0 10 76 64 3b 69 18 23 be 22 f1 15 bd 02 82 be be
       0.003486041 -0.1592728 -0.036606915 -0.37208563
0000d0 70 7c f6 bd ed 74 80 be 49 c5 b5 be 4e 7c 07 be
       -0.12035453 -0.25089207 -0.3550208 -0.13231012
0000e0 ea 0f 44 be 13 06 0d be 1e dd 57 be b3 cf a5 bd
       -0.19146696 -0.13771848 -0.21080443 -0.08096256
0000f0 0f bc 81 be f9 96 a5 bd b9 04 b5 3b af 73 79 be
       -0.2533879 -0.080854364 0.0055242446 -0.24360536

sequential/conv1d_2/BiasAdd/ReadVariableOp f4 [64]
000000 5f f4 9e bd 40 e2 35 bd 8b 65 2f be f7 31 0f bd
       -0.07761454 -0.044405222 -0.1712858 -0.03495976
000010 18 2f b0 bd 55 8d 93 bd fb dd 9b bd 7f d2 d8 bd
       -0.086027324 -0.07204691 -0.07610699 -0.10587024
000020 bd 32 a2 bd ae 6b 0c bd f1 40 43 bd cd a0 a7 bd
       -0.07919834 -0.03428238 -0.047669355 -0.08184967
000030 de 39 6d bd 17 c2 a4 bd ff db b5 3d 7e fa 09 be
       -0.057916515 -0.08044832 0.088798515 -0.13474461
000040 08 19 dd bd ac 5e 51 bd 6a f2 8f bd cb 7e 1c be
       -0.1079579 -0.051115677 -0.07028659 -0.15282743
000050 3c 78 a8 be 76 47 a8 bd db 7c 91 bd b6 aa 89 bd
       -0.32904232 -0.08216755 -0.071038924 -0.06722014
000060 49 78 41 be d3 d2 46 bd 12 97 f9 bd 43 40 25 3c
       -0.18893541 -0.0485409 -0.121870175 0.010086122
000070 9a 4f b5 bc d0 3f ad bd 76 f3 2f be da af ef bd
       -0.022132684 -0.08459437 -0.17182717 -0.11703463
000080 79 84 bc bd 8c 76 31 be 6c dd a1 bd c8 e3 a1 bd
       -0.09204955 -0.17330378 -0.07903561 -0.07904774
000090 b6 68 a8 bd c4 c3 10 bd 9f a8 b5 bd 75 fe 9b bd
       -0.08223097 -0.035342947 -0.088700525 -0.07616893
0000a0 71 15 2b be a8 c3 82 bd 9e 5f 31 bc 97 ff 0f bd
       -0.16707398 -0.06384975 -0.01082602 -0.03515586
0000b0 30 54 cc bd 0a 0a 5f be 80 2b e7 bd 5d b9 a0 bc
       -0.09976995 -0.21781173 -0.11287594 -0.019619638
0000c0 a2 d5 eb bd 6b 00 cc 3d 40 c8 73 be 0f ec 95 bd
       -0.115153566 0.09961017 -0.23806858 -0.07320415
0000d0 85 d9 10 be c7 88 3c bd ff 6a a3 bd 8c d4 1f bd
       -0.14145477 -0.04602888 -0.07979392 -0.03902106
0000e0 9b 6a 1f 3d 3e 9b 23 3e 2c 67 80 bd 41 fb 9b bd
       0.038920026 0.15977189 -0.062696785 -0.07616282
0000f0 9e 9c 7f be f0 ba b9 bd ca 92 89 be 4b 2e 5d bd
       -0.24962088 -0.090688586 -0.26869804 -0.053999227

sequential/conv1d_3/BiasAdd/ReadVariableOp f4 [128]
000000 2e fa 40 be 65 d9 5e be 77 f8 18 be 15 5a e2 bd
       -0.18845436 -0.21762617 -0.14938532 -0.11052338
000010 8d c2 2e be 26 ba 16 bf 55 ac e9 be 9f f8 90 be
       -0.17066403 -0.5887779 -0.4563929 -0.28314683
000020 de c1 0a 3e 69 1e 96 be 51 1d 83 be 52 5f 03 bf
       0.13550517 -0.29320076 -0.25608304 -0.5131732
000030 7f 7e b2 3e c7 a0 dd 3b d0 5d a7 bb 99 a6 93 be
       0.34862134 0.006763551 -0.005107619 -0.2883804
000040 cc 76 34 3e 3e 04 38 be c0 e8 7d be 16 7e de be
       0.17623442 -0.17970368 -0.24795818 -0.4345557
000050 5e ad 9a be 01 21 83 be b4 e5 03 be 6e 25 bd be
       -0.30210394 -0.25611117 -0.12880594 -0.3694262
000060 6e 17 ac be 36 77 c5 be f7 7e 34 be 29 fc 74 be
       -0.33611625 -0.38567513 -0.17626558 -0.23924316
000070 3f 5f 3c be 71 be 65 be bd bc 9e be b4 ee ad bd
       -0.18395709 -0.22435929 -0.3100337 -0.08492795
000080 54 b6 4a be e9 27 2e 3e c1 9c 8f bd 16 cb 8c be
       -0.19796115 0.17007412 -0.0701232 -0.27498692
000090 d1 74 9d 3e d4 9a f8 bd 9f 3a cc bc 20 81 a6 be
       0.30753186 -0.12138906 -0.024930296 -0.3252039
0000a0 60 ee 03 be 9e 48 83 bd 51 c3 9f bc fe 06 1f 3e
       -0.12883902 -0.06410335 -0.019502314 0.15530011
0000b0 7e 44 1c 3e ca c1 0a 3e f2 6b 95 3e 5d 9e 84 be
       0.15260503 0.13550487 0.29183918 -0.25902072
0000c0 a9 18 0c be bf 6f 0d bf 8e 6d af be cd 08 93 3e
       -0.13681282 -0.55248636 -0.3426327 0.28717652
0000d0 51 5b 49 3e c9 3c 43 3e 30 07 c4 bd c7 e1 94 be
       0.1966374 0.19066156 -0.095716834 -0.29078504
0000e0 71 41 38 be b7 c8 7c be 4b b8 31 be 54 90 96 3d
       -0.17993714 -0.24685942 -0.17355458 0.07351747
0000f0 f4 71 de bd 7f f4 77 be f0 21 87 3e 41 10 a9 be
       -0.108615786 -0.24214362 0.2639308 -0.33020213
000100 f6 12 37 3e 9c a8 a0 3e af dd 2a be b3 62 83 be
       0.17878327 0.3137864 -0.16686128 -0.2566124
000110 1a f7 9d 3e 96 02 69 3e d1 5f fc bd b5 8a 6b be
       0.30852586 0.22754893 -0.12322963 -0.23002131
000120 07 61 03 3e cc f2 90 3c d6 d4 a6 be f3 08 c8 be
       0.12829982 0.0176939 -0.32584256 -0.39069328
000130 a8 ba 4d 3e f4 2b 16 3e 05 3d d7 bd 35 2d 27 be
       0.20090735 0.14665204 -0.105096854 -0.16325839
000140 87 8e ea bd bd 6b 96 be be e9 81 bd ed 39 6b be
       -0.11452966 -0.29379073 -0.06343411 -0.22971316
000150 57 88 ae be 61 7b 0e 3e ff b5 8c be d4 16 25 bd
       -0.34088394 0.13914253 -0.27482602 -0.040304974
000160 a6 8d 45 be e5 17 77 bd 82 10 14 3d 4b 17 b5 be
       -0.19292316 -0.060325522 0.036148556 -0.35369334
000170 42 e5 89 be d2 55 8d be ed 64 7f be dd d2 81 be
       -0.26932722 -0.27604538 -0.24940844 -0.25356188
000180 79 ad ff bd 15 85 a5 3e 8d bf b9 3d 32 fd 16 be
       -0.12484259 0.32328096 0.090697385 -0.14745024
000190 e0 14 47 be c7 a9 93 bd 04 9c 77 3e 8e 17 a0 be
       -0.19441557 -0.07210117 0.24180609 -0.3126797
0001a0 52 42 a1 be 44 0d bd 3e d5 d2 a1 be 69 9b 65 3c
       -0.3149591 0.36924183 -0.31606165 0.014014103
0001b0 99 96 0c bf c9 32 f4 3d 7c 59 73 be f9 c5 03 bf
       -0.54917294 0.11923749 -0.23764604 -0.5147396
0001c0 3f 70 11 3e 8c 30 77 be bd 8a 3c be 83 9e 64 3d
       0.14202975 -0.24139613 -0.184123 0.05581523
0001d0 4f d0 f1 be 6b 59 da be 43 70 80 be 84 1a 0f be
       -0.4722924 -0.42646345 -0.2508565 -0.13974959
0001e0 db 7a be be 76 56 45 be 98 6b 75 3e 8d 41 89 be
       -0.37203106 -0.19271263 0.23966825 -0.26807824
0001f0 f3 57 b8 3a 15 84 51 be 1b 9e a1 be 50 47 ba bd
       0.0014064297 -0.20460542 -0.31565937 -0.09095633

sequential/conv1d/Conv1D f4 [32, 1, 3, 3]
000000 73 7b cc 3d e8 62 25 3e 36 79 c3 bd a6 70 89 be
       0.099844836 0.16151011 -0.095446035 -0.26843756
000010 ef e3 1e 3e 1f 87 71 be 97 28 70 3d f4 8f f3 bd
       0.15516637 -0.23586701 0.05863246 -0.11892691
000020 71 0c 0a bd dc be 02 be b0 df e3 3d db de f0 3d
       -0.03370327 -0.1276812 0.111266494 0.11761256
000030 61 47 96 bc 27 95 bc 3e 5d 8f 7c 3e 92 f8 93 3d
       -0.018344583 0.36832544 0.24664064 0.072251454
000040 98 8f 94 3e 89 d8 81 bd 91 45 0b 3f d1 fe b6 3d
       0.29015803 -0.06340129 0.54403025 0.08935321
000050 85 d4 18 3e 40 5f 88 3e aa 2b 91 3d 6b 6d a7 3e
       0.1492482 0.2663517 0.070884064 0.32700667
000060 fc ca e8 3e 16 30 ac 3e 26 02 7c 3e 18 b0 9f 3e
       0.45467365 0.33630437 0.24610195 0.31189036
000070 d9 0a 28 be ed e6 ba bd 5d 27 94 3e 7e 0c 2f 3e
       -0.16410388 -0.09126077 0.28936282 0.17094609
000080 7d 04 c6 be 94 83 f8 3c d5 53 85 3e a6 46 91 be
       -0.386753 0.030336179 0.2604052 -0.28374213
000090 58 77 89 be 62 04 07 3e a2 b9 99 3e da a2 ba bd
       -0.26848865 0.13185266 0.3002444 -0.09113093
0000a0 0d 77 51 3e 9d 8a 0d 3f fe b1 3f be 7a 2a 7e 3d
       0.2045557 0.5528963 -0.18720242 0.062052228
0000b0 ab 27 a2 3e 21 88 6a 3e 78 95 55 3e ac 22 1a 3e
       0.3167089 0.22903492 0.20857799 0.15052289
0000c0 54 47 8c 3e 06 2b 25 3e bf 64 0e 3e 8d d2 5c 3e
       0.2739817 0.16129693 0.13905619 0.21564694
0000d0 b6 60 70 3e 04 3d 4a 3e ae b3 65 3d bb c9 13 3e
       0.23474392 0.19749838 0.05607956 0.14432423
0000e0 c3 04 d6 3d e9 10 1c 3e 98 45 ce 3d db ee a2 3d
       0.10450127 0.15240826 0.10071868 0.07955714
0000f0 ce fd 9d bd 42 78 06 be 8e d8 65 bd 7e f8 bc 3c
       -0.07714425 -0.13131812 -0.056114726 0.023067709
000100 24 40 ab 3e 42 1f 3b be e8 4f 34 be 1b 8c 9a be
       0.33447373 -0.18273643 -0.17608607 -0.30185017
000110 67 44 fa bd 63 02 94 bd 2f f0 ce 3c a3 6b 8d bd
       -0.12220078 -0.07227018 0.025261013 -0.06905296
000120 b1 a3 8b bd 6e 84 85 3e d7 c3 94 3d ee 90 54 be
       -0.06818331 0.26077598 0.07263916 -0.20758411
000130 19 56 24 be 0f b9 f4 3e 0a 5d 5b bd b9 6a 08 3f
       -0.16048469 0.47797439 -0.053555526 0.53287846
000140 61 ae 87 3d 8d 1a 63 be c3 3d 06 3f d3 09 50 bc
       0.06625057 -0.22178097 0.5243799 -0.012697655
000150 d0 9c 1f be be ff c0 3e 48 6c 62 3d 60 86 a0 be
       -0.15587163 0.37695116 0.055279046 -0.3135252
000160 cb 2a 25 3f 7f 14 d3 3d c4 e1 03 3f 59 45 b5 3d
       0.6451842 0.10306644 0.51516366 0.08851118
000170 36 a7 8f 3e 26 e3 61 3e 6d 09 88 be cb 72 9a 3d
       0.2805726 0.22059307 -0.2656969 0.07541426
000180 2f d4 12 bf 73 08 31 be f0 86 cf be 4d 08 fd 3e
       -0.57355016 -0.1728838 -0.40532637 0.49420395
000190 dc 83 47 bc d3 32 f1 3d 5f 3f 03 be ca 17 a3 3e
       -0.012177434 0.11777272 -0.12817143 0.31854087
0001a0 b9 35 a1 be 17 2a 05 bd 6f 1a ee 3d be a5 e3 3d
       -0.314863 -0.032510843 0.116261356 0.11115597
0001b0 a6 f0 75 3e 29 99 40 be 01 15 25 3e bc 1d d0 3e
       0.24017581 -0.18808426 0.16121294 0.40647686
0001c0 28 41 54 3e 4f e3 6c 3e 47 46 ab 3e 68 73 a7 3e
       0.2072798 0.23133586 0.33452055 0.32705235
0001d0 16 4f 52 3e 96 af b8 be e4 f0 cb bd ce d5 f4 3d
       0.20537981 -0.3607146 -0.099580556 0.119548425
0001e0 b0 b3 fe bd ed 1a b8 be 42 f6 6f 3e 79 be 38 bd
       -0.124366164 -0.35958043 0.23433784 -0.045103524
0001f0 2d 83 60 bd cf 00 d8 3d d7 b6 c6 3e 1c fb 3e be
       -0.0548126 0.10547029 0.3881137 -0.18650478
000200 e1 e1 fe 3d 95 5a 38 3f e0 a7 e6 bd 75 88 49 3e
       0.12445427 0.7201322 -0.11262488 0.1968096
000210 0c 62 22 3f e7 14 d2 3d ad 79 87 3c 76 26 07 bf
       0.6343086 0.10257893 0.016537512 -0.5279306
000220 8b 34 dc be 2d 64 08 3e 5e b6 9c 3e 7f de da 3d
       -0.43008837 0.13319464 0.30607885 0.10686969
000230 bf 65 1c be 33 94 01 3e 9e 26 91 3e 0d 17 83 3e
       -0.15273188 0.1265419 0.28349775 0.25603524
000240 3c c1 2d bd 78 5e 07 be 00 40 30 3e 78 54 ce bd
       -0.04242061 -0.1321963 0.17211914 -0.10074705
000250 19 58 b8 3d 09 a7 f4 3e 65 7a 08 3c 6f 39 26 3f
       0.09001178 0.47783688 0.008329962 0.64931387
000260 8a dc a8 bd 9c 1c e8 be 53 cc 47 3d a7 72 04 bf
       -0.082451895 -0.45334327 0.048778843 -0.51737446
000270 bf 51 70 be 39 dd 17 3d 40 5b f9 be bf 0d d6 bd
       -0.23468684 0.03707621 -0.4870243 -0.104518406
000280 1d 9d a7 be 01 11 34 bf 94 c9 24 3e c0 4f 01 3e
       -0.32737055 -0.70338446 0.16092521 0.12628078
000290 a0 30 a9 3d e2 8e ba 3d 81 8e 51 3e bb 00 ac bd
       0.082612276 0.09109284 0.20464517 -0.08398577
0002a0 c9 33 2f 3e 9c ac a8 3e c7 5e bf 3d 2d a6 9b be
       0.17109598 0.3294419 0.09344249 -0.3040022
0002b0 71 56 56 bd 82 8e b5 3d a0 9a 99 bc 6f d1 26 3e
       -0.05232853 0.08865072 -0.018750489 0.1629083
0002c0 ef 31 54 be 1f 55 f2 bd 0a d9 2b bf b5 bd 9a bd
       -0.20722173 -0.11832642 -0.6712805 -0.07555715
0002d0 43 68 10 3f 93 46 83 bd 8d 91 c0 be cf d0 6c 3f
       0.5640909 -0.06409945 -0.37611046 0.92506117
0002e0 77 8d 82 bd 09 26 3a be 9c dc f9 3e b0 32 ba 3d
       -0.063746385 -0.18178572 0.48801124 0.09091699
0002f0 50 22 92 bd 58 d6 10 3f db 7d a1 3e f7 57 c8 be
       -0.07135451 0.5657706 0.31541333 -0.39129612
000300 b3 40 49 3f 36 05 13 3e eb 81 59 3e 67 cb d7 3e
       0.7861435 0.14357457 0.21240966 0.4214737
000310 03 84 4d 3e 5a 0f 91 bc b0 0b 4a be 43 db df 3e
       0.2006989 -0.017707516 -0.19731021 0.4372197
000320 25 09 25 3e 4f cb 48 be 9f 4d f2 3e 03 b0 6a 3d
       0.1611677 -0.19608806 0.47324845 0.057296764
000330 62 0f 84 be 03 4d 15 3f 8a d6 27 3e 41 9b 99 3e
       -0.25792986 0.58320636 0.16390434 0.30001262
000340 72 1d a6 bd 13 78 1e 3e be 1f 93 3e c2 96 20 3e
       -0.08111085 0.15475492 0.28735155 0.1568251
000350 1b 6a a9 bd 81 8d e5 bb ab 16 fe 3d 4e d3 37 be
       -0.08272191 -0.007005394 0.12406667 -0.179517
000360 e7 79 8d 3c 77 08 96 3e 17 7f a3 be 8a c2 dd 3e
       0.017270042 0.29303333 -0.319329 0.43312484
000370 be 45 a7 bd e1 67 7f 3d d3 a2 de 3c 21 4a 58 bd
       -0.08167599 0.062354926 0.02717725 -0.05280507
000380 d6 0f 13 3e 09 fa 16 3f f8 2b 22 3e 13 f5 e8 be
       0.1436151 0.58975273 0.15837085 -0.45499477
000390 9e 6c 5c be a3 96 aa 3e 7d 16 58 3c 72 71 00 bf
       -0.21525809 0.33318052 0.013188955 -0.50173104
0003a0 d3 6f 84 be 30 b0 00 3f 72 06 42 3e af 60 83 3e
       -0.25866565 0.5026884 0.18947771 0.256597
0003b0 78 6f ee be cc 02 04 be 44 5a fd 3c 98 46 64 be
       -0.4656942 -0.12891692 0.030926831 -0.22292554
0003c0 ea a7 9f bd f2 20 a6 3e 80 68 f2 be e3 25 eb be
       -0.07795699 0.3244701 -0.47345352 -0.45927343
0003d0 36 23 a3 3e fd e7 24 be c9 02 00 be 0c 44 2c 3e
       0.318628 -0.16104122 -0.12501062 0.16822833
0003e0 73 50 ea bd 0f 3f 0a 3f 8c cf ef be 16 78 4c 3e
       -0.11441126 0.5400247 -0.46838033 0.19967684
0003f0 15 23 72 3e cf a4 13 3e 6c b5 83 3e 1a ed 47 3e
       0.23646195 0.14418338 0.2572435 0.19524041

sequential/conv1d_1/Conv1D f4 [64, 1, 3, 32]
000000 61 0f 83 3d 5b 19 4b 3d f1 c6 67 bb 61 d1 05 bd
       0.06399418 0.049584728 -0.003536638 -0.032670382
000010 df ec 53 3d 7d 56 61 be eb ef 48 3d 22 79 ca bc
       0.05173957 -0.22005649 0.04905693 -0.024715964
000020 8f 33 cc bd 0b 65 dc 3d 1c ba cd bd 77 49 0b be
       -0.099707715 0.1076146 -0.10045263 -0.13602243
000030 0d 72 22 be 4a 0b 10 3d 4b 63 dc 3d b6 fd 96 bc
       -0.1586382 0.035167016 0.10761126 -0.018431526
000040 6a 00 7c 3d ec 14 f3 bd 7d 3e 8e bd 25 b5 e5 3c
       0.061523832 -0.11869225 -0.069455124 0.028040478
000050 be 46 9e bd a9 b6 a9 bb 0b bc 81 bd 97 20 a3 3d
       -0.07728337 -0.0051792455 -0.063346945 0.079652004
000060 1a c8 b7 bd ee 07 07 be 1f 02 d2 bd b9 d7 25 be
       -0.08973713 -0.13186619 -0.10254311 -0.16195573
000070 04 34 70 bd 98 dd e3 bd 2a 95 b2 bd 6a bf 04 be
       -0.058643356 -0.1112625 -0.08719857 -0.12963644
000080 07 9f 15 be 49 57 93 3d b4 2f 29 bd fe 79 b2 bd
       -0.14611445 0.07194383 -0.04130526 -0.087146744
000090 6c 27 b2 bd d3 a7 83 bd 54 74 68 be 60 35 9a 3d
       -0.086989254 -0.06428494 -0.22700626 0.07529712
0000a0 1e d8 81 bd 1a 7d 5c 3d 72 3b d0 bd f9 7d 6c 3b
       -0.06340049 0.053830244 -0.10167588 0.0036085828
0000b0 bb b1 2a be 97 e6 93 bd 41 32 2d 3d 41 66 ae 3c
       -0.16669361 -0.07221716 0.042284254 0.021288993
0000c0 ee ac 16 3b 09 fa 08 be 58 65 b6 ba 06 36 65 3c
       0.0022991258 -0.13376631 -0.0013915701 0.013989931
0000d0 eb 73 3e bd e9 18 aa bb d0 6b 25 bd 18 f6 00 be
       -0.046497267 -0.005190958 -0.04038602 -0.12593877
0000e0 21 d7 44 be 05 b3 af bd d7 ad d2 3d df bb 34 be
       -0.1922269 -0.08579067 0.102870636 -0.17649792
0000f0 18 29 88 bc c6 6f 28 be ef 67 5a 3b 20 96 02 be
       -0.016621158 -0.16448888 0.003332611 -0.1275258
000100 8b b3 b5 bd 62 eb dc bd a1 58 2f bd fe 85 d6 bc
       -0.08872136 -0.10787083 -0.042809132 -0.02618694
000110 7b 8c b8 bd 94 5f ca 3c ff 5c 0e 3d 3a f1 10 be
       -0.090111695 0.024703778 0.034756657 -0.1415452
000120 13 b2 3d 3d dc a2 61 3d 57 41 26 be 43 b3 0e bb
       0.046312403 0.055086955 -0.16235863 -0.0021774329
000130 fb 2a 90 3c fc 9c 60 3c 57 89 72 bd 9f 57 e6 bd
       0.01759862 0.013709303 -0.05921301 -0.11247181
000140 5b ed ad 3d 7d f9 4e bd cd ef f2 bd 1f 47 70 3d
       0.084925376 -0.0505309 -0.118621446 0.058661576
000150 b1 d1 a5 3d 8b 75 ab bd e4 0d 02 be 8c 45 b4 3c
       0.08096636 -0.08372029 -0.12700611 0.022005819
000160 34 24 8d bd f0 aa 17 bc be c4 cc bc ce 9c bb bd
       -0.06891671 -0.009257063 -0.024996158 -0.091607675
000170 73 5f 1c be 16 68 4c 3d ee 62 b0 bd 84 92 ae 3d
       -0.15270786 0.04990395 -0.08612619 0.085240394
000180 34 00 41 3d 0f 5b 04 bf 7d cf d3 3e 72 4a a3 3e
       0.047119334 -0.51701444 0.41369238 0.31892735
000190 bd db 4f bc b4 93 9e 3e 42 fe a7 bd 67 bf 7e bc
       -0.012686667 0.30972064 -0.08202793 -0.015548564
0001a0 bd 74 9c be db fd bb be c6 bd 27 bb e8 5b a2 3e
       -0.30557814 -0.36717114 -0.0025595292 0.31710744
0001b0 79 a7 fa 3e 51 34 fe 3d ca d1 b6 3e a9 b9 97 3e
       0.48955896 0.12412322 0.3570693 0.29633835
0001c0 90 5b 59 be 0d 13 e9 3d bd 7f 7d 3d 36 f3 b6 3c
       -0.21226335 0.11380587 0.0618894 0.022332769
0001d0 54 27 9e be c0 e8 5a bd 99 77 f7 be 14 74 34 3d
       -0.3088938 -0.053444624 -0.48333433 0.044056013
0001e0 76 c6 9b 3e f8 83 0f be a4 84 a1 be a3 c2 45 3e
       0.3042485 -0.14015186 -0.3154651 0.1931253
0001f0 91 c7 6e 3e d9 81 a7 bc 10 5e a3 3e 65 4e 65 3e
       0.23318316 -0.020447658 0.31907701 0.22393186
000200 ae a7 a0 bb 29 10 76 be 64 1e bf 3e 9e aa e6 3e
       -0.0049028015 -0.24029602 0.37327874 0.45052046
000210 05 0d 88 bd 13 99 c6 3d c7 fb 7d be ae 88 7b bc
       -0.06643108 0.09697165 -0.24803077 -0.015352411
000220 91 36 bb be ca 57 3f be 10 49 4d bd 83 1b a5 3e
       -0.36565068 -0.18685833 -0.050118506 0.32247552
000230 4e 23 b1 3e 61 4d 9e be 82 97 9e 3d 61 a1 15 3e
       0.34597248 -0.3091841 0.077437416 0.14612342
000240 a4 cb 3c be ae 35 29 be 2b 05 e4 3d 87 50 29 bf
       -0.18437058 -0.16524383 0.11133798 -0.661385
000250 fd 7a f7 be 6d 95 68 be c9 87 fa be 10 57 38 3e
       -0.4833602 -0.22713251 -0.4893172 0.18001962
000260 ad e5 2b be 86 aa 80 3b 49 90 76 be 2d 6d f6 bd
       -0.16786833 0.003926578 -0.24078478 -0.120325424
000270 87 5e 08 3e 80 5e 46 be ac 2a 17 3d 51 89 56 be
       0.1331731 -0.19371986 0.03690593 -0.2095082
000280 01 4e 06 3e e4 88 3c be 16 51 ef 3e 6b b0 f4 3d
       0.13115694 -0.18411595 0.4674155 0.119477116
000290 41 29 82 3d a4 a1 12 3e eb 28 54 bd 42 ce 76 bd
       0.06355525 0.14319474 -0.051796835 -0.060255297
0002a0 06 16 2f be cc ae ca 3d d2 eb af be d1 f3 75 bd
       -0.17098245 0.09896621 -0.34359604 -0.060046975
0002b0 6e 92 a8 3e a3 9d 1d be 33 cf 6f bd d6 71 1b 3e
       0.32924217 -0.15392165 -0.05854721 0.15180144
0002c0 cc 11 a2 be 74 9e 4d 3d d5 86 0d bd 19 e3 d0 be
       -0.31654203 0.05019994 -0.034552414 -0.40798262
0002d0 b9 05 ec be b6 97 5c be 87 1a 95 be 12 4c 64 bd
       -0.46098116 -0.21542248 -0.291218 -0.05573661
0002e0 5d c7 03 bd 13 f9 53 3d cf 1b 03 be 7f ce 4b bd
       -0.03217255 0.051751208 -0.12803577 -0.049757477
0002f0 ec 35 9e 3e 5a c2 cf bb b4 03 96 bd 6b 0f 07 be
       0.30900514 -0.006340307 -0.07324925 -0.13189475
000300 c1 c3 87 3e 0b 83 93 3c 4a 1a 71 3e d7 0d 08 3e
       0.26516536 0.018006822 0.23545185 0.1328653
000310 3d 2f 19 bf 52 5e 61 be 03 fd d4 3c d1 ff 25 3c
       -0.59837705 -0.22008637 0.025999552 0.010131792
000320 22 4b 3d 3e 8f bf 21 bd 82 2c 70 3d b1 34 98 be
       0.18485692 -0.039489325 0.058636196 -0.297277
000330 e2 1a 82 3e 47 a0 08 3c 5a d1 a1 3e 24 69 a2 3d
       0.25411135 0.008338994 0.31605035 0.0793021
000340 b7 36 27 3e 16 d3 06 bf 4f 9d 76 be e8 15 08 bf
       0.16329466 -0.5266584 -0.24083446 -0.53158426
000350 a1 62 a5 3e 5d 25 f6 3e 94 a6 85 3d 97 d0 2e 3e
       0.3230181 0.4807538 0.06525913 0.17071758
000360 46 d2 2f 3d 14 d0 15 bf 3b c4 cf 3e 49 45 12 bf
       0.04292514 -0.5852063 0.405794 -0.5713697
000370 b4 b1 ee be f2 b9 a0 3e 33 12 b0 3e 12 45 91 3e
       -0.46619952 0.31391865 0.34388885 0.2837301
000380 4f 43 c6 3d d4 00 da 3c 02 bc 93 bd 96 64 4b 3e
       0.09680807 0.026611723 -0.07213594 0.19862589
000390 3d 02 b9 be 20 1d 97 bd af fc 7d be a2 ce cd bd
       -0.3613452 -0.07378602 -0.24803422 -0.10049178
0003a0 94 32 fd 3d ba 0e c2 bd 40 4f ae be cb d6 e2 3c
       0.12363163 -0.09475465 -0.34044838 0.027690312
0003b0 d3 7c 44 be 42 28 97 be 9f 73 98 3e 7f 74 df be
       -0.19188242 -0.29522902 0.29775712 -0.43643567
0003c0 43 52 6d be 60 ed 95 bf de 8a df bd 3a 68 d0 be
       -0.23175912 -1.1713066 -0.10915159 -0.4070452
0003d0 ee 3c b9 be 04 8a 23 3d 32 2f ac 3d 7d 46 01 be
       -0.36179298 0.039926544 0.08407439 -0.12624545
0003e0 5d 8c 2f 3e ec 05 14 bd ba 53 a3 3e 43 10 34 bd
       0.17143388 -0.03613846 0.31899816 -0.04396082
0003f0 3d 62 ea be 3a 08 a7 3e f2 71 40 3e 0c 5c 8b 3d
       -0.45778075 0.32623464 0.18793467 0.06804666

sequential/conv1d_2/Conv1D f4 [64, 1, 3, 64]
000000 7b 16 f9 bd a4 d4 62 be 82 e5 ab 3c ed 1c f1 bd
       -0.12162491 -0.22151428 0.020983461 -0.11773095
000010 d0 43 f5 bc a6 07 33 3d db 12 08 be f1 62 1c be
       -0.029939562 0.043708466 -0.13288443 -0.15272118
000020 29 41 ad bd 32 52 0f be 28 53 24 be 5a 4e 5a 3e
       -0.08459694 -0.13996199 -0.16047347 0.21318951
000030 79 37 93 bd ab c9 05 be 80 78 33 3e 96 ad 1a bd
       -0.07188315 -0.13065211 0.17526436 -0.0377632
000040 80 56 72 bc ac 12 c6 bc ab b8 28 be b9 ab 6a bd
       -0.014791131 -0.024178825 -0.16476695 -0.057292674
000050 bf 81 94 3e 55 6f 15 be 60 24 91 3d 3b bb 00 3e
       0.29005238 -0.14593251 0.07087016 0.12571423
000060 ec 1e 52 be bb 13 9a bd 89 c4 b3 3c f9 b4 8c 3d
       -0.20519608 -0.075232945 0.021944301 0.06870455
000070 e1 f3 fa bd ef ec 95 bd 26 3e c0 3c b9 5b 17 be
       -0.122535475 -0.07320582 0.023467135 -0.14781083
000080 3f 2e 7a bd cc 18 87 bc 33 41 13 3d 71 3a 17 3e
       -0.06107926 -0.016491316 0.03595085 0.14768387
000090 e7 93 c5 bd 1d 2e af bd 49 d2 07 3d 51 6f 41 bd
       -0.09647351 -0.08553717 0.033159528 -0.0472253
0000a0 08 19 1e 3e 12 66 0c be 47 4d b1 3d 61 af 7a bc
       0.15439236 -0.13710812 0.086573176 -0.015300603
0000b0 88 dc 05 be c5 ba 88 bd 60 64 a9 bd 9e c0 5b 3e
       -0.13072407 -0.066762485 -0.08271098 0.21460196
0000c0 c6 d4 1a bd b1 16 87 3e cf 2e bb bd 25 22 83 bd
       -0.037800573 0.263845 -0.091397874 -0.06402997
0000d0 69 64 7d 3c bc 19 42 3e c6 aa 95 bd 34 52 2c bc
       0.015465834 0.1895513 -0.07307963 -0.010517646
0000e0 55 c1 b2 3d 57 3d 56 bd d2 c6 02 3d 38 c8 20 bd
       0.087282814 -0.052304592 0.03192789 -0.039253443
0000f0 b6 a8 5e 3d ba bd e6 3d 72 45 df bd bd 85 18 be
       0.054360114 0.11266656 -0.109019175 -0.14894767
000100 e0 4c 2a 3d 18 de 57 be 46 b2 e1 bd 30 ee a2 bd
       0.04157722 -0.21080816 -0.11020331 -0.07955587
000110 cc 3b 26 bb 7b 3f b1 bd 54 67 d1 bd 4d 72 35 be
       -0.0025365232 -0.08654686 -0.102247864 -0.17719384
000120 44 99 01 bd 74 e8 15 be d8 b0 28 be 0f f6 8f 3d
       -0.031640306 -0.14639455 -0.1647371 0.07029354
000130 77 d6 50 bd 25 04 4f be e2 24 5b 3e fd 81 ec bd
       -0.05098578 -0.20216425 0.21400788 -0.11548231
000140 25 77 b4 3c 86 da 75 bb ab 08 3c be 07 75 3a be
       0.022029469 -0.0037514283 -0.18362682 -0.18208705
000150 d1 08 15 3e 13 aa 59 3d 99 05 19 3d a6 36 03 bd
       0.14554144 0.05314071 0.037358854 -0.03203454
000160 1a 69 23 be a2 21 9a 3d 38 5c cd bd 86 61 51 3e
       -0.15958062 0.07525946 -0.10027355 0.20447358
000170 76 ff 0c bd 01 a1 91 bd ec 13 f2 bd d7 e2 4e bd
       -0.034423314 -0.07110787 -0.11820206 -0.0505093
000180 90 1f ea bd f3 3c e3 3c 6a a3 01 be 93 e2 d3 3d
       -0.11431801 0.027739024 -0.12659994 0.1034595
000190 f0 d5 96 bd 7e e0 52 3d 8d 87 01 be 82 9c 25 bd
       -0.07365024 0.051483624 -0.12649365 -0.04043246
0001a0 57 0d 7d 3e 5c 98 40 bc 04 0a 71 3d 68 eb c5 bc
       0.2471212 -0.011755075 0.058847442 -0.024160102
0001b0 ab eb 87 bb 1f 68 e4 ba bb e7 2f bd ef f4 1c 3e
       -0.004147967 -0.001742605 -0.042945605 0.1532781
0001c0 6a 17 24 be 5d 68 c5 3e 2f dd 06 be 00 53 8a 3d
       -0.16024557 0.38556185 -0.13170312 0.06754112
0001d0 4b 17 c6 3c 27 0c 92 3e 33 c8 69 bd 69 34 7e bc
       0.024181029 0.28524897 -0.05707569 -0.015515425
0001e0 59 a4 21 3d a1 45 1e 3e 6c 2c ae 3c 58 02 68 3d
       0.039463375 0.15456249 0.021261416 0.05664286
0001f0 b2 7a d0 bd 94 e8 b7 bd f4 1a 46 3c 1f 11 0c 3d
       -0.10179652 -0.08979908 0.012091387 0.034196015
000200 e0 c3 8c bd b7 57 24 be 52 cc dc 3d 9d ca b1 bd
       -0.06873298 -0.16049086 0.107811585 -0.086812235
000210 65 89 04 bd fc 16 b8 3d b5 5e b5 bd 50 86 f5 3c
       -0.032357592 0.08988759 -0.088559546 0.029971272
000220 8b aa b4 bd 99 f1 69 be 42 97 19 bd 81 b1 1d 3e
       -0.08821591 -0.22846068 -0.037497766 0.15399744
000230 ce 60 58 3d 8f b3 a5 be bb 33 22 3c 6c c5 4f bd
       0.052826695 -0.32363555 0.009900029 -0.050725386
000240 ae 13 1e be e6 77 2e be 7d c8 d2 bd 4a 18 c4 bd
       -0.15437195 -0.17037925 -0.10292146 -0.09574945
000250 26 e1 54 3e a9 5e 30 3d 4b d5 a6 3b d8 35 fb 3d
       0.20789012 0.043059025 0.0050913445 0.12266129
000260 e8 2e 15 be 46 03 f8 3c 9f 52 77 be 05 11 90 3d
       -0.14568675 0.030274998 -0.24152611 0.07034496
000270 79 e5 d9 bd 23 95 eb bd ad ee 9a bd b4 54 90 3d
       -0.106394716 -0.11503055 -0.07565055 0.07047406
000280 34 23 9f 3c 70 e0 69 bd 51 dd 71 bd 9d 28 86 3e
       0.019425966 -0.057098806 -0.059048954 0.2620286
000290 ac f1 1c be 13 f7 71 3d 73 57 c3 bd 76 34 66 be
       -0.15326566 0.05907352 -0.09538164 -0.2248095
0002a0 26 8c b3 3e 50 70 ae bd 97 88 3f bd db 1f ed 3c
       0.35067862 -0.08517516 -0.04676112 0.028945854
0002b0 be 5c e2 bd 96 5a 06 be 35 3f a2 bd b1 56 f3 3d
       -0.110528454 -0.13120493 -0.07922212 0.118817694
0002c0 e7 17 f1 bc b8 9c 58 3e 7e 83 87 3d b5 64 28 bd
       -0.029430343 0.21153533 0.06616877 -0.041111667
0002d0 7c e2 d5 3d c4 07 9f 3e 7b ff fc 3c a4 15 5a bd
       0.10443589 0.31060612 0.030883541 -0.053243294
0002e0 79 bd 66 3d b3 c6 f4 bb 1b af f5 3c 6a 08 01 bd
       0.05633304 -0.007469976 0.029990723 -0.031502165
0002f0 b3 b3 9e 3b 2a b6 56 3d 0a 55 6a 3d c0 10 e9 bc
       0.004843199 0.05241982 0.057210006 -0.02845037
000300 33 44 73 bd 7e a1 8b 3c 5a b3 0d bb 0d 9e 85 bd
       -0.05939121 0.017044779 -0.0021621794 -0.065242864
000310 bf e9 a5 bd 24 73 be 3c db 8c df bd 32 42 c4 3d
       -0.08101224 0.023248263 -0.10915538 0.09582938
000320 29 72 aa bd b9 ea dc bd 80 55 85 3d 97 be b6 3c
       -0.083225556 -0.10786957 0.065104485 0.022307677
000330 4a 66 04 bb 1f 16 d2 3c 70 0b 98 bd 2d 6e 03 be
       -0.002020257 0.025645314 -0.074240565 -0.12834997
000340 3c 23 d5 3d 82 99 5a bd 42 ca b3 3d 58 e6 1d be
       0.10407111 -0.053369053 0.08778812 -0.154199
000350 c6 d1 11 bd e8 41 56 bd d4 60 2e 3d f1 a5 63 bd
       -0.035600446 -0.052308947 0.04257281 -0.055578176
000360 de a1 96 bd 73 16 90 3d 43 08 74 bd b1 ef f4 bd
       -0.073550925 0.07035532 -0.05957819 -0.1195978
000370 7d ed b0 bc 19 12 ef bc f9 68 2c 3d 95 b5 51 bd
       -0.021597618 -0.029183434 0.042092297 -0.05119856
000380 8d 20 ad bd 35 10 64 3d ca d6 44 3d 7b ef 26 bd
       -0.08453474 0.05567952 0.0480564 -0.04075573
000390 07 2d 22 be 23 fd ab 3c c2 5f 40 bd c6 35 96 bd
       -0.15837489 0.020994728 -0.04696632 -0.07334475
0003a0 e9 50 95 bc 0a 5b 5b 3d 05 e5 2c 3b 50 7a 73 bd
       -0.018227058 0.05355362 0.0026381623 -0.05944282
0003b0 d1 bb 13 be ae ae 72 3c 45 eb 96 bb 2e 5c 3e bd
       -0.14427115 0.014812155 -0.004605683 -0.04647463
0003c0 bf 2a 91 3d f8 3d ca 3d f9 1e e6 bd a6 aa 41 3d
       0.07088231 0.09875101 -0.11236376 0.047281884
0003d0 01 54 19 bc d4 5b 17 bd 20 27 eb bd be 56 a2 bd
       -0.009358407 -0.03695281 -0.11482072 -0.07926701
0003e0 22 f7 7c 3d f4 02 89 bd dc 4f 37 bd 53 3e eb bd
       0.06175912 -0.066900164 -0.044753894 -0.11486497
0003f0 a6 be 6c 3b 3f da 62 3d 1b fd f1 bc b5 97 09 be
       0.0036124378 0.055383917 -0.029539635 -0.13436778

sequential/conv1d_3/Conv1D f4 [128, 1, 3, 64]
000000 d5 21 88 3d 2a db 24 3d a8 59 f5 3e 66 d5 87 bd
       0.06647078 0.040248074 0.47919965 -0.066324994
000010 1b fe 6a 3c ac 32 94 bd 07 23 95 bc 96 77 8c be
       0.01434281 -0.072362274 -0.018205179 -0.27434987
000020 08 8d 5c bd 42 35 e6 bd 72 c1 17 bc 09 b6 a7 3e
       -0.053845435 -0.11240627 -0.00926243 0.3275607
000030 3f 3e 12 3c f4 4a 72 3d fe a2 de 3e 64 ef e1 bd
       0.008925973 0.059153512 0.43483728 -0.11031988
000040 41 ba f1 3d 4d 0b fe bc ae 96 1d ba a7 59 9e bd
       0.11803103 -0.031011248 -0.0006011528 -0.077319436
000050 83 91 e0 bc 36 cd 73 bd 52 f9 a8 bd c6 c7 ca bd
       -0.027413135 -0.059521876 -0.08250679 -0.09901385
000060 a8 05 88 3d e7 59 56 bc 90 29 a6 b9 b5 fc db 3d
       0.06641704 -0.013082958 -0.00031692954 0.107415594
000070 60 79 4c bd d7 d8 83 be f9 73 87 bc e0 cf d1 bd
       -0.04992044 -0.25751373 -0.016534792 -0.10244727
000080 c0 ed 2b bd 9d 9e f2 3d c6 28 b3 ba b7 a2 ec bc
       -0.041974783 0.11846659 -0.0013668768 -0.028886182
000090 43 6e 0f 3f 8d 37 25 3d 56 a1 4c bd 7b fa e2 bd
       0.5602762 0.04033618 -0.04995855 -0.110829316
0000a0 77 94 f8 3b 6f 0e c1 bd d3 86 68 bd 00 54 ba bd
       0.0075860578 -0.09426581 -0.056769203 -0.09098053
0000b0 67 01 33 3d d5 b8 26 3e ca ca 47 3d 0c c5 37 bc
       0.04370251 0.16281445 0.04877738 -0.011216413
0000c0 46 5d ff bd d0 3b 3b 3e f8 94 0b bd e2 62 87 3b
       -0.12468962 0.18284535 -0.034077615 0.004131661
0000d0 c0 6d 0b be 42 0f 0a bc 74 8a 25 3d 43 58 79 bc
       -0.13616085 -0.008426489 0.040415242 -0.015218797
0000e0 47 1e ee bb 5b 1d 01 3e ae 84 6c 3d ce 69 90 3a
       -0.007266793 0.12608854 0.05774372 0.001101786
0000f0 2f 9f 8c 3e b5 fe 8f 3d b9 8e 1f be 35 f7 05 3f
       0.27465197 0.070310034 -0.15581788 0.52330333
000100 88 85 03 3e 40 ac 6d 3d 71 c4 cb be b3 2d da bc
       0.12843907 0.0580256 -0.3979831 -0.02663312
000110 7c f1 8b bd b1 63 5a 3d 13 02 8d bd a7 97 b3 3e
       -0.06833169 0.05331773 -0.06885161 0.3507664
000120 3c 00 7d 3d c9 cf 73 3d 28 0b d0 bd 49 91 70 3e
       0.0617678 0.05952433 -0.10158378 0.23492922
000130 a8 14 79 3d 41 92 1d 3e 57 2f 99 3e 20 4e bc 3d
       0.060810715 0.15387823 0.2991893 0.09194589
000140 05 eb 65 3e 3d 73 c0 bc 14 49 ba bb d2 37 e5 bd
       0.22452934 -0.02349245 -0.005684981 -0.111922875
000150 fe cb ff bd 55 31 ad bd b3 c6 28 3d 27 c2 e6 3c
       -0.1249008 -0.08456675 0.04120512 0.02816875
000160 f3 2a 01 3e cc df 99 3c 04 de 60 3d 8c be 02 3d
       0.1261404 0.018783472 0.05489923 0.03192
000170 fb 74 8c 3d d1 0a 4a 3e fc 81 d1 3a 0a 1a 7b bd
       0.0685825 0.19730689 0.0015984173 -0.06130413
000180 20 9c 85 3c bd 9e f3 3d 9a 52 82 bd 40 47 e1 bc
       0.016309798 0.11895511 -0.06363411 -0.027499795
000190 7a ef 73 3e 32 3a 7a 3d dc 0a f2 3c 68 b7 e9 3c
       0.23821822 0.061090656 0.029546194 0.028529838
0001a0 01 f6 14 be da 6e f2 3e ed 59 8d bd 5e 75 44 bd
       -0.14546968 0.47350198 -0.069019176 -0.047963493
0001b0 57 16 42 3d 74 e2 fd 3d 8b ac c9 bc d0 e5 39 3d
       0.047384586 0.12396708 -0.024618408 0.045385182
0001c0 f6 8a a3 3e 10 2f af 3d 29 91 9c bb fb ab 4e 3b
       0.31941956 0.08553898 -0.0047780466 0.0031535614
0001d0 f4 c9 18 be ff e1 ba 3b 77 97 e7 3d 15 3a 59 bd
       -0.14920789 0.0057032104 0.113081865 -0.053033907
0001e0 71 e4 b6 3c db bb ba 3d a4 57 e0 3c d9 da ae bd
       0.022325726 0.09117862 0.02738554 -0.08537836
0001f0 68 e5 a9 3d e5 86 84 3d 9e ac 8b bd 2b 76 05 3f
       0.08295709 0.064710416 -0.068200335 0.52133435
000200 c5 5b 12 3a 15 51 5a 3d 56 d2 3c 3e 35 63 9f bd
       0.0005583133 0.053299982 0.18439612 -0.07782594
000210 9c 3a a7 3d 5b 89 c7 bd a0 71 dc bd 74 20 b5 3e
       0.08165476 -0.09742995 -0.1076386 0.35376322
000220 9e 5e e5 3c 28 0d 33 3d 70 a9 68 bd 15 a8 94 3e
       0.027999219 0.04371372 -0.056802213 0.29034486
000230 74 84 4a 3c 92 5b 9d bd 10 62 e4 3e ac 9d 8f 3e
       0.012360681 -0.07683481 0.44606066 0.28049982
000240 70 73 36 be 61 b5 49 3c 28 28 20 3e 91 98 3f be
       -0.17817473 0.0123113105 0.15640318 -0.18710543
000250 29 f4 a8 bd 8c bc 0d bd 0e 0a 84 3d 7a 24 79 3c
       -0.08249695 -0.03460364 0.0644723 0.015206451
000260 0d ec 60 3d 6b 65 3d 3d 94 78 83 bd ad 74 cd 3d
       0.054912616 0.046239298 -0.06419483 0.1003202
000270 5e f2 2c 3d 40 a2 92 bd 24 b8 2b 3d 3b f0 b6 bd
       0.042223327 -0.07159853 0.041923657 -0.08932539
000280 c6 e5 04 3c df c8 e5 3d c0 ee 76 bd ea 3f cb 3c
       0.008111423 0.11219954 -0.060286283 0.02481075
000290 2e 51 64 3e fd 3e a4 bc 8f cd 8b bd 27 d3 a4 bd
       0.22296593 -0.020049566 -0.068263166 -0.080480866
0002a0 85 1b 23 be 71 1d 10 3f 48 47 9d bd fe a2 b8 bd
       -0.15928467 0.56294924 -0.076796114 -0.09015463
0002b0 f0 0d e2 bc be cb a2 3e 8a 22 a7 3d 27 ce 88 3d
       -0.027594537 0.31796068 0.08160885 0.066799454
0002c0 7e 4a b2 3e 17 b1 6d 3e e6 e0 a2 3c ea 9d bf bd
       0.34822458 0.23212086 0.01988263 -0.093562916
0002d0 c1 fb f2 3c 7b ca 51 bd 15 23 56 3e 4b cf 4e 3d
       0.029661061 -0.05121849 0.2091182 0.05049066
0002e0 15 fe 72 3d 98 e8 af 3d 85 18 0c 3d e6 4c 19 be
       0.059324343 0.085892856 0.03420307 -0.1497074
0002f0 9e 4e 42 bd 39 9d 13 bd 46 31 7a bd d5 3d 8c 3e
       -0.047438256 -0.03603861 -0.061082147 0.27390924
000300 03 c6 75 3e f7 fc 39 bd 05 e8 db bd 48 31 98 3d
       0.24001317 -0.04540726 -0.107376136 0.07431275
000310 98 e6 92 3d b2 ba 14 3d 79 f1 e1 3d a2 67 8f be
       0.071728885 0.03631086 0.110323854 -0.28008753
000320 1c 12 da 3c 78 12 50 3b b6 2b 1b bd af 50 f9 3d
       0.026619963 0.003174929 -0.037883483 0.12173592
000330 03 b5 eb 3d b4 1f 93 ba 99 c7 8f be e4 1f 72 3d
       0.115091346 -0.0011224658 -0.28081968 0.059112445
000340 8a 52 6d 3e 6a de e2 3c 5c 18 bc 3d 78 02 2b be
       0.23176017 0.027693946 0.09184334 -0.1670016
000350 78 37 7d 3e 6b cb bc bc d4 1d 4f 3d d6 60 2c 3d
       0.24728191 -0.023046216 0.050565556 0.042084537
000360 49 d1 91 3d 3c 78 04 bd 40 ba 8f 3e 5d a7 ff bc
       0.07119996 -0.032341227 0.28071785 -0.031207735
000370 07 b5 77 bd c7 17 5c be 6b 35 bc 3e 26 f1 8c bc
       -0.060475376 -0.21493445 0.36759505 -0.017204832
000380 ea 68 53 bd 12 aa a0 3c 5f 31 b3 bd 10 83 93 3d
       -0.051613726 0.019612346 -0.08749651 0.072027326
000390 4d 4a 21 3d 83 35 35 3e c8 cd 50 3c 10 16 46 3d
       0.0393775 0.17696194 0.012744375 0.048360884
0003a0 bb f4 b7 bd 45 5b a6 3e 97 58 94 bd ae de dc 3d
       -0.089822255 0.32491508 -0.0724346 0.1078466
0003b0 6a ac 0e 3d 24 84 fc bd a3 63 32 bd 44 bb a1 be
       0.034832396 -0.12329891 -0.043552052 -0.31588185
0003c0 40 2e 5d 3c 71 6f 24 3e e4 ed 67 3d 2f cf 9e bd
       0.013499796 0.16058137 0.056623355 -0.07754361
0003d0 c5 24 e2 3c 9c 57 9b bc 9b 24 42 bc 28 3d 14 3e
       0.027605424 -0.018962674 -0.011849548 0.14476454
0003e0 9a 5c c2 3e 46 cc 8c 3e 12 7a 2b 3e d3 d8 f2 3b
       0.37961274 0.27499598 0.16745785 0.0074111014
0003f0 ae 43 df 3e ba 52 e7 bc 7e 3e 92 3e 22 61 e5 bd
       0.43606323 -0.02823769 0.28563303 -0.11200167

sequential/dense/BiasAdd/ReadVariableOp f4 [64]
000000 64 f7 e1 3d 8a e5 90 bd ca b9 e9 be d9 66 3f 3e
       0.11033514 -0.07075031 -0.45649558 0.18691577
000010 8d 44 62 bf ca eb 21 bf dd c6 ba bd 59 a4 34 be
       -0.8838585 -0.6325041 -0.091199614 -0.17640819
000020 fb 98 61 3e 32 66 59 3e a0 bc b3 be e5 3e a5 3f
       0.22031014 0.2123039 -0.35104847 1.2909819
000030 22 77 98 3f b5 4e 9e 3e 14 b8 7e 3e a9 9f 0c 3f
       1.1911356 0.30919424 0.24874908 0.5493112
000040 5b b6 51 3f 5d aa 1f 3e d4 bd 19 bc 8c d8 d9 be
       0.8191888 0.15592332 -0.009383637 -0.42548025
000050 29 f6 89 bf e2 ae e0 3e 46 e6 11 bf 60 5e 2e bf
       -1.0778247 0.43883425 -0.56991994 -0.68112755
000060 c4 26 53 3e 30 3e 84 3e ea f9 0b be 3f 39 11 3e
       0.20620257 0.25828695 -0.13669553 0.14181994
000070 bb 0d 7d 3f 20 3d 18 3e 4c e8 0e 3f 7a 2c 41 3f
       0.98849076 0.14867067 0.55823207 0.7545849
000080 5d e5 2a 3f 80 52 05 bf 2f 58 20 3e 1e 68 da be
       0.6675623 -0.5207901 0.1565864 -0.4265756
000090 02 17 1d bf 71 4c 69 3d ec 9c 34 3e 94 2c 0b bf
       -0.6136323 0.056957666 0.17637986 -0.54364896
0000a0 18 3b 4a 3e 1d 2b 29 bf cf 35 b5 be 44 71 9e be
       0.19749105 -0.6608141 -0.35392615 -0.3094579
0000b0 39 92 37 bf 52 a4 8f bf 86 c5 53 be c7 3e 2c bf
       -0.71707493 -1.1222022 -0.20680818 -0.6728329
0000c0 73 d3 e1 be a0 65 de be 3d 78 a7 3d 40 53 01 bf
       -0.44106635 -0.4343691 0.081772305 -0.50517654
0000d0 71 b6 f5 3c 5d 02 b0 be d6 f7 91 3f 7e 77 ad be
       0.029994221 -0.34376803 1.1403759 -0.33880228
0000e0 5e cf 17 bf 9a 36 45 bf b4 90 9a bd 33 3b 60 bf
       -0.5930079 -0.7703644 -0.07547131 -0.8759033
0000f0 65 98 80 be ad 7e 7a be ba 04 ab 3c 9f f3 82 bf
       -0.25116268 -0.24462385 0.020876277 -1.0230597

sequential/dense/MatMul f4 [64, 512]
000000 60 f2 93 be e3 23 7c 3e a7 3f 9e be 1c 15 39 bd
       -0.28895855 0.24623065 -0.30907938 -0.045186147
000010 4c 6b 7c be ec 71 c9 bd 9b 88 ac 3d cb 25 28 3c
       -0.24650306 -0.09836182 0.08424493 0.010262917
000020 a7 f5 88 3e d6 48 10 be 96 ad 59 bc 83 60 5e bc
       0.26749918 -0.14090285 -0.013286015 -0.013572815
000030 80 87 2d 3e e2 71 a9 bd 52 85 3a 3e 80 29 9a bd
       0.1694622 -0.082736745 0.1821492 -0.07527447
000040 f6 7e a5 3d 41 be fa 3d 9b 5e 70 be f2 59 0e bc
       0.080808565 0.12243319 -0.23473589 -0.008688437
000050 b3 8a 28 3e 5c d2 6f be 86 39 69 be c7 98 8a 3e
       0.1645916 -0.2342009 -0.2277585 0.27069685
000060 5c ea eb 3d 88 fa 27 bd ad c0 73 be b7 7d ed bd
       0.1151931 -0.04101041 -0.23803969 -0.11596244
000070 91 c8 21 3f 64 e1 a3 3e 74 7f 1a be 54 94 2a bc
       0.63196665 0.32007897 -0.15087682 -0.010411341
000080 54 79 81 3d cf c6 a8 3e 58 ad ea be 33 db 22 be
       0.0632197 0.3296418 -0.45835376 -0.1590393
000090 f8 7e 24 3d 11 e5 a2 be 36 47 6d 3d 65 c1 73 bd
       0.04016015 -0.3181539 0.05792924 -0.059510607
0000a0 04 77 34 be 6b 7b 11 bf 56 92 0d 3e ee b3 1d 3e
       -0.17623526 -0.56828946 0.13825354 0.15400669
0000b0 54 87 c9 bb b8 1b 5a be 92 03 ab 3e 78 23 fa 3d
       -0.0061501656 -0.21299636 0.3340116 0.122137964
0000c0 79 bb 24 bc 90 9e a9 3d 5b 74 41 be af 97 c0 3e
       -0.010054463 0.082821965 -0.18892042 0.37615725
0000d0 e6 91 5d 3e cc 64 6d 3e 55 e3 99 be 26 ec 22 3e
       0.21637687 0.23182982 -0.30056253 0.15910396
0000e0 f0 30 b6 ba ae ea 86 3e d1 96 a8 bd e8 15 f0 bd
       -0.0013900083 0.2635092 -0.08231891 -0.11722928
0000f0 04 3d 26 3e 65 67 97 3c 06 24 81 3e 8c 04 cb 3c
       0.16234213 0.01848192 0.25222796 0.024782442
000100 77 45 75 3e c4 3a 4e 3d db 93 40 3e 11 bf 95 be
       0.2395228 0.050349012 0.18806402 -0.29247335
000110 3b 25 48 3e ce ce 07 3e c6 78 b3 be 65 7a bc be
       0.19545452 0.13262483 -0.3505308 -0.3681213
000120 06 c4 46 3e 5b ce 2e be b5 60 17 be 47 10 a3 3e
       0.19410715 -0.17070906 -0.14782985 0.31848356
000130 95 ea 4d 3d 07 70 51 bc 19 b5 4f bd 8d f2 b1 be
       0.050272543 -0.012783057 -0.050709818 -0.34755364
000140 b5 36 cf bd f0 09 99 be 3e 43 15 bf fd 6a 98 bc
       -0.101178564 -0.29890394 -0.5830573 -0.018605703
000150 12 bd d1 3e 87 3f f0 3e 1c 77 c2 bd 36 cf e1 be
       0.40964562 0.46923468 -0.094953746 -0.44103402
000160 24 49 eb 3d 50 07 65 3e 65 46 47 bd 26 c7 c5 3b
       0.1148856 0.22366071 -0.048651118 0.0060357032
000170 7f 61 98 3e 39 6a 27 3e 7c 54 5d be 94 8c 2e 3d
       0.29761884 0.16349114 -0.2161426 0.042614534
000180 38 ff e7 bd 12 af 30 3e 8c 37 1a be 94 4c 05 bf
       -0.11327976 0.17254284 -0.15060252 -0.52069974
000190 0e b6 0c be 2d ce 36 be b3 3f f7 ba 21 5a 56 bd
       -0.13741323 -0.17852087 -0.0018863588 -0.052332047
0001a0 62 87 8c 3d 86 0d e2 3b 93 1f 95 be 87 d6 b6 3e
       0.0686176 0.006898585 -0.29125652 0.35710546
0001b0 c1 b7 8a be be aa a8 be bb 7c 73 be 73 52 2c 3d
       -0.27093318 -0.32942766 -0.2377805 0.042070817
0001c0 8c f6 eb 3d b2 d9 c2 bd 42 54 32 be c7 0f 0d be
       0.115216345 -0.09514178 -0.17414954 -0.1377555
0001d0 ad fc 87 bd ff b1 8f be 05 99 2b be 47 85 88 bd
       -0.06639991 -0.28065488 -0.16757591 -0.06666046
0001e0 4a 61 b3 bd e8 30 a5 be 24 a5 d2 3d c1 9b e2 3d
       -0.08758791 -0.32263875 0.10285404 0.11064864
0001f0 eb 26 c7 be a8 b6 27 be 68 a2 a9 3d 68 cb 4b bd
       -0.3889688 -0.16378272 0.0828293 -0.04975453
000200 7e db 81 be 22 13 20 3e db 31 49 be 03 f3 04 be
       -0.25362772 0.15632299 -0.19647925 -0.12983327
000210 f6 85 ee be 47 3a e9 bc 3e fa f7 3d ab 24 36 3d
       -0.4658658 -0.028470172 0.12108277 0.044468563
000220 bc 47 3b 3f f8 40 62 bb a7 a8 38 bd 2b a0 2b be
       0.7315633 -0.0034523588 -0.045082714 -0.16760318
000230 66 64 20 3e ff 87 c2 3d 98 03 a2 3d fa a8 e3 bd
       0.15663299 0.094985954 0.07910842 -0.11116214
000240 68 8e 5e 3e 8c 59 dd 3d d0 8b d3 be 3e 73 48 be
       0.21734011 0.10808095 -0.41317606 -0.19575211
000250 31 81 14 3e 55 cd 60 3d df ac cc bb d8 78 10 3f
       0.14502408 0.05488332 -0.006246194 0.5643439
000260 0e 0c 73 bd 97 94 a7 3e ec b7 56 be da bf 8e 3b
       -0.059337668 0.32730553 -0.20968598 0.0043563666
000270 c1 67 58 be df 53 08 3f 79 7c 80 bc a4 50 22 3e
       -0.21133329 0.5325298 -0.015684353 0.15851074
000280 cb cf 87 bb 16 0f 33 3f d0 80 ec bd fe 8f 72 bc
       -0.004144644 0.69944894 -0.115480065 -0.014804838
000290 fe 88 62 3d 3e ce f5 bc 3d 4e 0c 3e 61 74 c1 be
       0.055306427 -0.03000557 0.1370172 -0.37784103
0002a0 1d 93 93 bc b4 67 37 3d b0 f6 73 3e 30 3f 20 3d
       -0.018014485 0.044776633 0.23824573 0.03912276
0002b0 ed 1e 47 3d c3 aa 4e 3e b8 21 38 3e 61 49 90 bc
       0.048613477 0.20182328 0.17981613 -0.017613115
0002c0 41 0a 6e 3e 5a 45 38 38 03 0e 04 bd 4a bc 61 3d
       0.23246099 4.3933607e-05 -0.032239925 0.055111207
0002d0 61 31 d8 3d 57 b4 35 bc 56 0e 86 be 9d 02 66 bc
       0.10556293 -0.01109036 -0.26182812 -0.014038709
0002e0 46 0e 30 be 2b e6 55 3e 0e 77 e6 be e5 a6 05 3f
       -0.17192945 0.20888583 -0.45012707 0.52207786
0002f0 62 8a 23 be 45 57 f5 3d 85 49 bd 3e d6 9d d0 3c
       -0.15970758 0.11979536 0.36970153 0.025465887
000300 70 af 15 be a5 4a 81 be ea b6 0f be 08 d4 c2 bc
       -0.14617705 -0.25252262 -0.1403462 -0.023782745
000310 ca 52 38 3e 90 76 96 3d aa f3 df be 01 44 9d 3d
       0.18000332 0.07346833 -0.43740588 0.07678986
000320 35 1e 7d 3a 3e 27 d4 bc af 76 19 bd 38 6c b0 3d
       0.0009655685 -0.025897618 -0.0374667 0.08614391
000330 92 8c 21 3e 12 f0 a9 3d 5b 4e 39 3d 3e e6 c3 be
       0.1577628 0.08297743 0.04524074 -0.38261598
000340 0d 78 82 3d 84 a1 a7 be 32 b8 82 3d a3 73 f2 3e
       0.06370554 -0.32740414 0.06382789 0.4735385
000350 65 75 de 3e c9 28 69 3e 33 19 b1 be 46 a1 c8 be
       0.4344894 0.22769465 -0.34589538 -0.39185542
000360 e8 78 8a bc 90 c2 b9 3d 9a d3 91 3e f8 cc 0e 3d
       -0.016903356 0.09070313 0.28481752 0.034863442
000370 94 1a 7c 3d 1d 5a c5 bd 87 fd 88 3e 5b 86 40 3e
       0.061548784 -0.09636328 0.26755926 0.18801253
000380 d0 fb bf 3e 6d 58 a6 3e dc 0c 16 3e 1a 54 4f be
       0.37496805 0.3248934 0.14653343 -0.20246926
000390 11 e6 bd be df bb 1e bf c5 05 7e 3e c5 a5 98 be
       -0.3708959 -0.6200542 0.24806888 -0.29813972
0003a0 6e a0 a1 bd 07 ee 2c 3e ea 9a b2 bd ba e0 89 3e
       -0.07891928 0.16887675 -0.08720954 0.26929265
0003b0 aa c7 a8 be 0d 21 ee 3d 7d 70 0d bd a0 c8 d0 3d
       -0.32964832 0.11627398 -0.034531105 0.10194516
0003c0 8c 9f 72 3e 77 23 9e be 5f d0 93 be a9 c9 eb be
       0.23693675 -0.30886433 -0.28869912 -0.46052292
0003d0 ba b4 cc 3d c7 35 23 bf 61 fe 12 bd 5b d5 82 be
       0.09995408 -0.6375393 -0.035887126 -0.25553402
0003e0 58 07 9d bd 2d a8 0c bc c2 ca 9d 3e fe 6c ab 3e
       -0.07667416 -0.008585018 0.30818754 0.33481592
0003f0 a9 23 68 be 39 3a e7 bd 6c 8a a8 3e 25 36 31 bd
       -0.22669853 -0.11290402 0.32918108 -0.043264527

sequential/dense_1/MatMul f4 [1, 64]
000000 ef 40 76 bd f1 b6 82 bc b5 e6 e4 bd 3e b9 10 be
       -0.06012052 -0.015956374 -0.111768164 -0.14133164
000010 19 4e c6 bc 5b 13 c7 bc c5 24 dc 3c 02 fe d7 bc
       -0.024207162 -0.024301222 0.026873002 -0.026366238
000020 03 18 51 bd 53 7c 4e bd f7 bf 85 3b e0 de 0a be
       -0.05104829 -0.050411534 0.004081722 -0.13561583
000030 a0 ed e8 bd 1a e3 22 3c 08 ee 72 bc 7e 87 07 be
       -0.11373448 0.009941841 -0.014827259 -0.1323528
000040 ae d9 de bd 94 5d 5b bd 3d 35 23 bd bd ff 6e bd
       -0.10881363 -0.05355604 -0.039845694 -0.05834936
000050 d6 7b 66 bd 9b 24 49 bd e6 97 6d 3e 0a 6c a8 bd
       -0.056270443 -0.049107175 0.23202476 -0.08223732
000060 87 b1 ba bd 01 b9 a9 bd 31 c1 6b 3b 7a 70 f8 3c
       -0.09115892 -0.0828724 0.0035973305 0.03032707
000070 4d b5 06 be e4 bb 4a be d6 0a 81 bd 45 d2 17 bd
       -0.13155098 -0.19798237 -0.06300895 -0.037065763
000080 77 81 aa bd 32 c2 4d bd 57 9e 6d bc 3f b7 d8 bd
       -0.08325475 -0.050234027 -0.014503083 -0.105818264
000090 64 46 12 be 78 0b 6c bd 56 f9 73 bd 6a 2c 0c 3d
       -0.14284664 -0.057628125 -0.059563957 0.034222044
0000a0 52 36 1e be 06 78 12 bc f6 74 47 3d b0 32 05 be
       -0.15450409 -0.008939749 0.048695527 -0.13007617
0000b0 8c c9 81 bd 2b 76 e9 bc 1e 2b 81 bc ff 49 4e bc
       -0.0633727 -0.02849873 -0.01576763 -0.012590884
0000c0 18 6c 46 bc 95 dd 31 bc 6e 1e cd bc bf 90 d3 bd
       -0.0121107325 -0.010856052 -0.025038924 -0.103303425
0000d0 69 a8 54 bd 96 fe 38 3e 26 23 ac bd a9 d9 21 bc
       -0.05191842 0.18065867 -0.084051415 -0.009878554
0000e0 ec 98 09 bd 20 a9 4e 3d 18 4c 5d bd 6f 89 03 3d
       -0.033593103 0.05045426 -0.054027647 0.03211349
0000f0 a5 d9 2e bd e5 bc a7 bc d0 6d 5c 3c 84 a8 de bb
       -0.04268803 -0.020475814 0.013453916 -0.006794991
