models/models_for_presentation/stationary_position_classifier.tflite (tflite, 315996 bytes, 12 tensors)

sequential_1/conv1d_4/BiasAdd/ReadVariableOp f4 [32]
0	0xbec68fa1	-0.38781455
1	0xbe6b3716	-0.22970232
2	0xbed8c745	-0.4233953
3	0xbe17db0c	-0.14829654
4	0x3e45eb8c	0.19328135
5	0xbe9325cb	-0.2873977
6	0xbe973474	-0.29532206
7	0xbe9d5939	-0.30732134
8	0xbddc4f30	-0.10757291
9	0xbe9a82a6	-0.30177802
10	0xbe7f963e	-0.24959657
11	0xbe879129	-0.26477936
12	0xbe014a89	-0.12626089
13	0xbe9b381d	-0.3031625
14	0xbe8ba066	-0.27270812
15	0xbebed595	-0.37272325
16	0xbe34c718	-0.17654073
17	0xbe994c47	-0.29941007
18	0xbec876a8	-0.39153028
19	0xbe545614	-0.20735961
20	0xbed7e0ae	-0.42163604
21	0xbd3172cf	-0.04332238
22	0x3e0692ff	0.13142012
23	0xbee167a2	-0.44024378
24	0xbf0fba6f	-0.5614385
25	0xbec161ef	-0.3777003
26	0xbe943292	-0.28944832
27	0xbe272422	-0.16322377
28	0xbeb1212d	-0.34595624
29	0xbeb6d7e4	-0.35711586
30	0xbf025ddc	-0.5092447
31	0xbeb14d30	-0.34629202

sequential_1/conv1d_5/BiasAdd/ReadVariableOp f4 [64]
0	0xbeb67d21	-0.3564234
1	0xbe00af96	-0.1256698
2	0xbea9d67a	-0.33171445
3	0x3ca5b811	0.020229371
4	0xbd84d965	-0.06486777
5	0xbdb39481	-0.08768559
6	0xbdd832c5	-0.105565585
7	0xbe8deb3f	-0.2771854
8	0xbf12129d	-0.5705965
9	0xbdddf9f7	-0.10838693
10	0xbde281c6	-0.110599086
11	0xbe26a07c	-0.16272157
12	0xbe633ddf	-0.2219157
13	0x3e2f9638	0.17147148
14	0xbe2db049	-0.16961779
15	0xbe547b44	-0.20750147
16	0xbe242f12	-0.16033581
17	0xbe499462	-0.1968551
18	0xbe7fff18	-0.24999654
19	0xbdc89b5a	-0.09795256
20	0x3ce82899	0.028339671
21	0xbde193a5	-0.11014489
22	0xbe116b32	-0.14201048
23	0x3ea9e193	0.33179912
24	0xbddd413e	-0.108034596
25	0xbe806cf5	-0.25083128
26	0xbeb1d99e	-0.3473634
27	0xbf0221a1	-0.50832564
28	0xbe823538	-0.25431228
29	0xbdad5ffd	-0.08465574
30	0xbd567853	-0.052360844
31	0xbdc3aacd	-0.09554062
32	0xbdf602d0	-0.12012255
33	0xbe1b6314	-0.15174514
34	0xbd0a752e	-0.033803158
35	0xbd9a167c	-0.0752382
36	0xbe1b7238	-0.1518029
37	0xbe44e7d1	-0.19229056
38	0xbecfbb5b	-0.40572628
39	0xbd72cf59	-0.059279773
40	0xbdb2b4f9	-0.08725924
41	0x3e20f26e	0.1571748
42	0xbe827440	-0.25479317
43	0xbe80627b	-0.25075135
44	0xbcbe0cec	-0.023199521
45	0xbdb69ae4	-0.08916262
46	0xbdb1be86	-0.086789176
47	0xbe1df86c	-0.15426797
48	0x3d94813a	0.072512105
49	0xbe948377	-0.2900655
50	0xbe13d964	-0.14438397
51	0x3e40571f	0.18783234
52	0xbe02c6c3	-0.12771134
53	0xbe9ec7b1	-0.31011727
54	0xbec47d6f	-0.38376948
55	0xbdf34549	-0.118784495
56	0xbec5d780	-0.38640976
57	0xbdf69226	-0.12039594
58	0xbe82a5a7	-0.25517008
59	0xbe647215	-0.22309144
60	0xbeaa55ad	-0.3326849
61	0xbda9df01	-0.08294488
62	0xbe04e7bb	-0.12979023
63	0xbd8c33f6	-0.06845848

sequential_1/conv1d_6/BiasAdd/ReadVariableOp f4 [64]
0	0xbf0255cc	-0.50912166
1	0xbf4baf0e	-0.7956399
2	0xbd9d3441	-0.07675982
3	0xbdc0cb72	-0.09413804
4	0xbf452ce4	-0.7702162
5	0xbe942d90	-0.2894101
6	0xbe1d8285	-0.1538182
7	0xbe7ea31c	-0.24866909
8	0xbea61d87	-0.32444403
9	0xbefa145d	-0.4884366
10	0xbf01a248	-0.50638247
11	0xbe1bae2e	-0.15203163
12	0xbedfec20	-0.43734837
13	0xbed0e0d9	-0.40796545
14	0xbdf8a2be	-0.121404156
15	0xbea2f683	-0.318287
16	0xbeb3028d	-0.34962884
17	0x3defee49	0.11715371
18	0xbf084ff9	-0.5324703
19	0x3c9d5cb9	0.019209253
20	0xbef97ab4	-0.48726428
21	0xbdff35d2	-0.12461437
22	0xbf2b9589	-0.6702505
23	0xbe9d4bf4	-0.3072201
24	0xbf418c64	-0.75604844
25	0xbecfb25c	-0.40565765
26	0xbefa2b5a	-0.488612
27	0xbeb8c9eb	-0.3609155
28	0x3de4b5d4	0.111674935
29	0xbdffede5	-0.12496547
30	0xbe3216a9	-0.17391457
31	0x3e29ed7b	0.16594498
32	0xbf35b907	-0.70985454
33	0xbf03cf17	-0.5148787
34	0xbf2cece5	-0.6754897
35	0x3e8b57b4	0.2721535
36	0xbec7eba9	-0.39046982
37	0xbf2bba57	-0.6708121
38	0xbe2f1b30	-0.17100215
39	0xbe0cf8fd	-0.13766856
40	0xbec7cf4f	-0.3902535
41	0xbe3e7bb2	-0.18601874
42	0x3bd20b6e	0.006410054
43	0xbe9dc711	-0.30815938
44	0xbe45db34	-0.193219
45	0xbed481d9	-0.41505316
46	0xbe8fd646	-0.28093165
47	0xbf0b64fc	-0.54450965
48	0x3d83beec	0.064329
49	0xbda23963	-0.07921102
50	0xbf1af1e9	-0.60525376
51	0xbf0f6974	-0.56020284
52	0xbd8247f0	-0.06361377
53	0xbebbbb1c	-0.3666619
54	0xbf403999	-0.7508789
55	0xbf359b37	-0.70939964
56	0xbf42d8d7	-0.7611212
57	0xbf1d603a	-0.61474955
58	0xbf4c8879	-0.7989574
59	0xbebe6f63	-0.37194356
60	0xbdeca02c	-0.11553988
61	0xbe3b1ad4	-0.18271953
62	0xbebe41ee	-0.37159675
63	0xbee95eab	-0.45580038

sequential_1/conv1d_7/BiasAdd/ReadVariableOp f4 [128]
0	0xbf35b246	-0.7097515
1	0x3d2c2fb3	0.042037677
2	0xbf0dcbe2	-0.55389225
3	0xbf14e1d7	-0.58157104
4	0xbf410282	-0.7539445
5	0xbf481912	-0.78163254
6	0xbe12b1f8	-0.14325702
7	0xbf0eac0e	-0.55731285
8	0xbeac0ea4	-0.3360492
9	0xbe81802d	-0.25293103
10	0xbe50d57a	-0.20393935
11	0xbf6ae98f	-0.9176263
12	0xbcd4c08a	-0.025970716
13	0xbe270fb9	-0.16314591
14	0xbc66f3bc	-0.014096197
15	0xbe3465e4	-0.17616993
16	0xbef6cfed	-0.4820551
17	0xbe64220f	-0.22278617
18	0xbebe5e40	-0.37181282
19	0xbf0ea4bc	-0.55720115
20	0xbec97b29	-0.39351776
21	0xbf45f032	-0.77319634
22	0xbeba39c7	-0.36372206
23	0xbccd2779	-0.025043236
24	0xbe14a70f	-0.14516853
25	0xbaf88593	-0.0018960707
26	0xbea44a8f	-0.32088134
27	0xbf7e4ed0	-0.9933901
28	0xbf0cd2ed	-0.5500935
29	0xbe0392ff	-0.12849043
30	0xbdf7c40d	-0.120979406
31	0xbf0fc1ff	-0.5615539
32	0xbf211671	-0.6292487
33	0xbeb2a71a	-0.34893113
34	0xbf513730	-0.81724834
35	0xbf03db45	-0.51506454
36	0xbe774e71	-0.24151017
37	0xbde7e52e	-0.113230094
38	0xbe44e560	-0.19228125
39	0xbd30dea5	-0.04318108
40	0xbec510e3	-0.38489446
41	0xbe52483b	-0.20535366
42	0x3e08f443	0.13374428
43	0xbfb792b0	-1.434164
44	0xbf10da48	-0.5658307
45	0x3da11a7a	0.07866378
46	0xbec351eb	-0.38148436
47	0xbde85250	-0.11343825
48	0xbe4d8743	-0.2007113
49	0x3e46a7bb	0.19399922
50	0x3e051702	0.12997058
51	0xbe20d640	-0.1570673
52	0xbe27bbd5	-0.16380246
53	0x3bfa7ef7	0.00764453
54	0xbf125dd0	-0.57174397
55	0xbdb6ad7b	-0.089198075
56	0xbf0cac07	-0.5494999
57	0xbf476463	-0.7788755
58	0xbe72b6b3	-0.23702507
59	0xbe3af60a	-0.18257919
60	0xbde29cce	-0.11065064
61	0xbc549747	-0.01297552
62	0x3d6fef87	0.05857804
63	0xbdafa3f4	-0.085761935
64	0x3c80f2f6	0.015740853
65	0xbe5b4962	-0.21414712
66	0xbf36a7a0	-0.71349525
67	0x3da8ff23	0.082517885
68	0xbf08e7ba	-0.53478587
69	0xbf3fcb32	-0.74919426
70	0x3d30a9e4	0.04313077
71	0xbd32716b	-0.043565195
72	0xbf401d07	-0.7504429
73	0x3e729e60	0.23693228
74	0xbf2ff544	-0.6873362
75	0xbd630490	-0.055424273
76	0xbe05b7bc	-0.1305837
77	0xbede6be1	-0.4344168
78	0x3db81d6f	0.08989989
79	0xbe963c53	-0.293429
80	0xbe91d734	-0.284845
81	0xbfa57ebb	-1.29293
82	0xbf214895	-0.63001376
83	0xbd8a71e1	-0.06760002
84	0xbce0dac0	-0.027448058
85	0xbebc5c8d	-0.3678936
86	0xbccb4558	-0.02481334
87	0xbede7f92	-0.43456703
88	0xbeb11817	-0.34588692
89	0xbedb427e	-0.42824167
90	0xbeb1bd59	-0.34714773
91	0xbc735200	-0.014851093
92	0xbf101df3	-0.562957
93	0xbe7dfa8b	-0.24802606
94	0xbf6a9d5c	-0.9164636
95	0x3d3d7321	0.046252374
96	0xbe0eb065	-0.13934477
97	0xbdcdf7ee	-0.100570545
98	0xbd80c73d	-0.06288002
99	0xbdd07c8e	-0.10180007
100	0x3dea16c9	0.11430127
101	0xbe852faf	-0.26012942
102	0xbdb2a161	-0.08722187
103	0x3e07359c	0.13204044
104	0xbdbb5e18	-0.09148806
105	0xbe1bcc41	-0.15214635
106	0xbe935221	-0.28773597
107	0xbde3c397	-0.1112129
108	0xbdd6d7da	-0.10490389
109	0xbeab01f5	-0.3339993
110	0xbdc67c1b	-0.0969164
111	0x3e5b06ed	0.2138936
112	0xbd8d276d	-0.068922855
113	0xbe1393b9	-0.1441182
114	0x3dd3dca8	0.10344821
115	0x3c318cc9	0.010836788
116	0xbf264262	-0.6494504
117	0x3d929577	0.071574144
118	0xbf1593e4	-0.5842879
119	0x3e007078	0.12542903
120	0xbbf96836	-0.0076113
121	0x3c7556e6	0.0149743315
122	0x3dfd1c17	0.12358873
123	0xbf28c9cf	-0.65932935
124	0xbe070888	-0.13186848
125	0xbec3d72a	-0.38250095
126	0xbec8af66	-0.39196318
127	0xbd609e56	-0.0548385

sequential_1/conv1d_4/Conv1D f4 [32, 1, 3, 3]
0	0x3e078a7c	0.13236421
1	0xbe36b208	-0.17841351
2	0x3e6ed9bf	0.23325251
3	0x3df5e27b	0.12006088
4	0x3dd11685	0.102093734
5	0xbd67177b	-0.056418877
6	0x3cb8c82b	0.022556385
7	0xbdb6b35e	-0.0892093
8	0xbe2f46a5	-0.17116793
9	0x3e56a7b9	0.20962419
10	0xbf15343d	-0.58282834
11	0x3d2b227f	0.041780945
12	0x3e6ccbf8	0.23124683
13	0xbe2919e1	-0.16513778
14	0x3e461b93	0.19346456
15	0xbe28e136	-0.16492161
16	0xbf14881a	-0.58020175
17	0x3e408ab9	0.18802918
18	0x3e8bd80f	0.27313277
19	0xbd912cfb	-0.070886575
20	0x3e719121	0.23590519
21	0xbdc5e58b	-0.096629225
22	0xbe4c36f8	-0.19942844
23	0xbdb722a7	-0.08942156
24	0x3db63903	0.08897593
25	0xbe32e4a5	-0.17470033
26	0xbe63b60a	-0.22237411
27	0x3f02d0ef	0.5110006
28	0xbc960119	-0.01831107
29	0xbdb2c1ad	-0.08728347
30	0x3ed9d4e3	0.42545232
31	0xbe803694	-0.2504164
32	0xbe5bc833	-0.21463089
33	0x3ef9d550	0.48795557
34	0xbed841e1	-0.42237762
35	0xbec8f02b	-0.39245734
36	0x3e232c50	0.15934873
37	0xbd9b13ed	-0.0757216
38	0xbb160093	-0.0022888526
39	0xbc237b41	-0.0099781165
40	0xbe77ceb3	-0.24199943
41	0xbeb4a96d	-0.35285512
42	0x3d937348	0.071997225
43	0xbd22fc23	-0.039791238
44	0xbf06eefd	-0.5270842
45	0x3e412bba	0.18864337
46	0xbeddc8a2	-0.43317133
47	0xbc9362ac	-0.017991386
48	0x3dc0091e	0.09376739
49	0xbe935eeb	-0.28783354
50	0x3dc9e5a4	0.098582536
51	0x3e350016	0.17675814
52	0xbebeeacc	-0.3728851
53	0x3e30b113	0.17255048
54	0xbe52e65f	-0.20595692
55	0xbe17b7b3	-0.1481617
56	0xbe96fed3	-0.2949129
57	0x3d6bb55e	0.057546012
58	0xbed44297	-0.41457054
59	0xbd72fb0c	-0.05932145
60	0xbe52479e	-0.20535132
61	0xbef6be5e	-0.48192114
62	0x3dfe2e9e	0.12411235
63	0x3eac4ada	0.33650857
64	0xbe6efeca	-0.23339382
65	0x3cd3fa19	0.025876092
66	0xbde4f585	-0.11179642
67	0xbeb6df3f	-0.35717198
68	0xbd4db309	-0.05021957
69	0x3c64d941	0.013967813
70	0x3e190a22	0.14945272
71	0xbda427fb	-0.08015438
72	0x3e806c38	0.25082564
73	0x3e377a0d	0.17917652
74	0xbdeadafc	-0.11467549
75	0x3ea637bc	0.32464397
76	0xbc57f198	-0.013180159
77	0x3d93e334	0.0722107
78	0x3d956043	0.07293751
79	0x3e23ccce	0.15996096
80	0x3dfc42da	0.123174384
81	0x3e42adeb	0.19011657
82	0x3bfb114c	0.007661974
83	0x3c391265	0.0112958895
84	0xbd14231b	-0.03616629
85	0xbcf60ffc	-0.030036919
86	0x3da48cbf	0.08034658
87	0x3cf7ff24	0.030273028
88	0x3e0adc9b	0.13560717
89	0xbe115094	-0.14190894
90	0x3df8ace9	0.12142355
91	0xbe0c48ff	-0.13699721
92	0xbd9dad3a	-0.07699056
93	0xbe080d43	-0.13286309
94	0x3de50fa0	0.11184621
95	0xbd08d945	-0.03341033
96	0x3d9aff58	0.07568234
97	0x3db3f35a	0.0878665
98	0x3cf10237	0.029420001
99	0x3d139525	0.036030907
100	0x3d9445b3	0.072398566
101	0xbdb8c968	-0.0902279
102	0x3da2bb17	0.07945841
103	0x3d422825	0.047401566
104	0xbbb21e1b	-0.0054357178
105	0xbda7931b	-0.08182355
106	0x3c901495	0.01758794
107	0x3e2cb80a	0.1686708
108	0x3e244086	0.16040239
109	0xbe7792b1	-0.24177052
110	0x3e18b17f	0.1491146
111	0xbc9140e2	-0.017731134
112	0xbecfd259	-0.4059017
113	0x3e81f1cf	0.25379798
114	0x3d32ae0e	0.043623023
115	0xbf0ee7d2	-0.5582248
116	0x3ea24fb2	0.31701428
117	0x3ea68c2d	0.3252882
118	0xbe1c4425	-0.1526037
119	0xbddf11d4	-0.10892072
120	0x3d4c67ac	0.049903557
121	0x3e04c116	0.12964281
122	0x3c5ca6ed	0.013467533
123	0xbe8da48c	-0.27664602
124	0xbe462dec	-0.19353455
125	0x3d263d6e	0.040585928
126	0xbe104bf6	-0.14091477
127	0x3f3e5840	0.7435341
128	0xbd834e33	-0.064114
129	0xbe5645e6	-0.20925102
130	0x3f2a1298	0.6643462
131	0xbd9bb86e	-0.076035365
132	0x3d557daf	0.052121814
133	0x3f776a32	0.96646416
134	0xbeb0a5a4	-0.34501374
135	0x3e00d31c	0.12580532
136	0xbe338093	-0.17529516
137	0xbe50003e	-0.20312592
138	0xbdf0a754	-0.11750665
139	0xbe17aed0	-0.1481278
140	0x3d46273c	0.04837726
141	0x3cad16d8	0.021129057
142	0x3ddc547b	0.10758301
143	0x3d358b93	0.04432256
144	0xbe42b93a	-0.19015971
145	0x3f827230	1.0191097
146	0x3e12e18f	0.14343856
147	0xbe21e40e	-0.15809652
148	0x3f539104	0.8264315
149	0x3e2587e9	0.16165127
150	0xbc412f09	-0.011790999
151	0x3f643220	0.89138985
152	0x3e0fea6b	0.14054267
153	0x3ebfbc65	0.3744842
154	0xbe02fa44	-0.12790781
155	0xbd0bada9	-0.034101162
156	0xbc5ae827	-0.0133610135
157	0x3e26aa3d	0.16275878
158	0xbdd34f0b	-0.103178106
159	0x3e9cae80	0.30601883
160	0x3cc465a4	0.023974247
161	0xbe0b54f1	-0.13606621
162	0x3e2a7a35	0.16648181
163	0xbe9905d9	-0.29887274
164	0xbe251b5d	-0.1612372
165	0xbe70152d	-0.23445578
166	0x3dcd3d3f	0.100214474
167	0x3e35f120	0.17767763
168	0x3e3b3615	0.1828235
169	0x3d4688cc	0.048470303
170	0xbe6a8565	-0.22902448
171	0x3df95186	0.121737525
172	0x3c537434	0.012906123
173	0xbe2680f1	-0.16260125
174	0xbd99090e	-0.0747243
175	0x3eb840a9	0.35986832
176	0x3e0b0a82	0.13578227
177	0x3c6eb424	0.014569316
178	0x3ea5d965	0.3239242
179	0xbe8355ad	-0.25651303
180	0x3e49f007	0.1972047
181	0x3e1a58aa	0.15072885
182	0xbdb9ff84	-0.09081939
183	0xbcbeb5d7	-0.023280067
184	0xbdb5ebb3	-0.08882847
185	0xbb4c12c5	-0.0031139117
186	0x3d98511c	0.074373454
187	0x3e416be1	0.18888809
188	0x3de3b4b2	0.11118449
189	0xbe8d01a3	-0.2754031
190	0xbe40d091	-0.18829562
191	0x3e68a8af	0.22720598
192	0xbe750cf5	-0.23930724
193	0xbe5a4645	-0.21315868
194	0x3d9c6295	0.076359905
195	0xbe32ab2f	-0.17448114
196	0xbe983f27	-0.2973568
197	0x3db043d8	0.0860669
198	0xbe0c4e65	-0.1370178
199	0x3d4b27a0	0.049598336
200	0xbe6d97df	-0.23202465
201	0xbe9f83d1	-0.31155255
202	0x3dff7bca	0.12474783
203	0xbeb1e45a	-0.3474453
204	0xbe836fa1	-0.25671104
205	0x3e491a41	0.19638921
206	0xbe875910	-0.26435137
207	0xbe2bb9a1	-0.1677003
208	0xbe807c49	-0.25094822
209	0x3d19f2aa	0.037584938
210	0x3e1973a6	0.14985523
211	0xbe41c3b5	-0.18922313
212	0xbe1c69b9	-0.15274705
213	0xba487dbe	-0.00076481316
214	0xbe0569f1	-0.13028695
215	0x3dff5f22	0.12469317
216	0xbda28b8a	-0.07936771
217	0xbea9a164	-0.33130944
218	0xbddebd13	-0.10875907
219	0xbe93e675	-0.28886762
220	0xbe35704a	-0.17718616
221	0xbe4520b2	-0.19250754
222	0x3e506017	0.20349155
223	0xbe8373e4	-0.25674355
224	0xbd2cadac	-0.042157814
225	0xbdb11d93	-0.08648219
226	0xbbf134e3	-0.007361041
227	0x3e7fe7b7	0.24990736
228	0x3e212ae4	0.15739018
229	0xbd83d51d	-0.064371325
230	0xbe07ce4e	-0.13262293
231	0xbea17379	-0.3153341
232	0xbe6766da	-0.22597829
233	0xbd638c31	-0.05555362
234	0x3e25d310	0.16193795
235	0x3dced812	0.10099806
236	0xbe3a964b	-0.18221395
237	0xbcd94313	-0.026521241
238	0xbdf5f4ab	-0.12009557
239	0xbc70d3f3	-0.01469897
240	0xbd94b05e	-0.07260202
241	0x3d6499ed	0.055810858
242	0x3ded5e55	0.11590258
243	0x3e199bff	0.15000914
244	0xbe86909f	-0.26282212
245	0x3e5b69d4	0.21427089
246	0xbb21cc94	-0.0024688588
247	0xbe3cc808	-0.18435681
248	0x3e83f37e	0.25771707
249	0xbe3f8610	-0.18703485
250	0xbebf27b7	-0.37334988
251	0x3e5e9a59	0.21738566
252	0x3e019c31	0.12657239
253	0x3e38f29b	0.18061297
254	0xbe64cc67	-0.22343598
255	0x3d911ab1	0.07085169

sequential_1/conv1d_5/Conv1D f4 [64, 1, 3, 32]
0	0x3e389848	0.1802684
1	0x3d2e27d7	0.042518463
2	0xbeacddab	-0.3376287
3	0xbd9d129f	-0.07669567
4	0xbba11d2c	-0.0049168076
5	0xbd31d1b6	-0.043412887
6	0x3c1c8b19	0.009554648
7	0x3f273f85	0.653313
8	0xbe5c5329	-0.21516098
9	0x3dc6338c	0.096778005
10	0xbcee0858	-0.029056713
11	0x3d9c0a0e	0.07619105
12	0x3c7476c7	0.014920897
13	0x3d1bc40b	0.038028758
14	0xbd78b397	-0.060718145
15	0x3e1c8252	0.15284088
16	0x3da18b79	0.078879304
17	0x3e760139	0.24023904
18	0x3e54cd28	0.20781386
19	0xbdb0848f	-0.086190335
20	0xbe022958	-0.12711084
21	0xbd81620c	-0.06317529
22	0xbf0a10d6	-0.5393194
23	0x3c83ff83	0.016113048
24	0x3dd146bd	0.102185704
25	0x3dc7f7e6	0.0976408
26	0xbe43ee6b	-0.19133918
27	0xbe1c1f49	-0.1524631
28	0xbeb31de2	-0.34983736
29	0x3e05e5c7	0.13075934
30	0xbe6221b5	-0.2208317
31	0x3c7bc0fc	0.015365835
32	0x3e4870e5	0.19574316
33	0x3d5a0560	0.053227782
34	0xbeb30b63	-0.34969625
35	0xbe0be9a4	-0.13663346
36	0xbe256e89	-0.16155447
37	0xbdcbbc70	-0.09948051
38	0x3dab3d3f	0.08361291
39	0x3f069e22	0.5258504
40	0xbeeb1b21	-0.45919135
41	0x3d41ef3c	0.047347292
42	0x3e4457c2	0.19174102
43	0xbd010dc8	-0.031507283
44	0x3d32a6c4	0.04361607
45	0x3d433d29	0.04766575
46	0x3c35be63	0.011092755
47	0x3e73c274	0.23804647
48	0x3d71b117	0.059006777
49	0x3e75ac64	0.23991543
50	0x3e7e6385	0.24842651
51	0xbd99a49e	-0.07502101
52	0xbd1c3181	-0.038133148
53	0x3d824dc4	0.06362489
54	0xbeca6b9d	-0.39535227
55	0xbda3cc28	-0.07997924
56	0xbd945b4a	-0.072439745
57	0x3e88d4b2	0.26724774
58	0xbe80fa80	-0.25191116
59	0xbe173e0b	-0.14769761
60	0xbeaf6fcf	-0.3426499
61	0x3de49cbe	0.11162709
62	0xbe72e343	-0.23719506
63	0x3d256be8	0.04038611
64	0x3d80e5f2	0.062938586
65	0xbda80306	-0.08203702
66	0xbe8fd6dd	-0.28093615
67	0xbe34cd05	-0.17656334
68	0x3d99ac5b	0.07503577
69	0xbdcf6567	-0.10126763
70	0x3c15756d	0.009122235
71	0x3f05cf56	0.52269495
72	0xbebae30a	-0.36501342
73	0x3e098e53	0.13433199
74	0xbc996425	-0.01872451
75	0x3e4c44b0	0.19948077
76	0xbdc972c2	-0.098363414
77	0x3dc082d8	0.093999565
78	0xbdabd357	-0.08389919
79	0x3e39d586	0.18147859
80	0x3ba92c19	0.0051627276
81	0x3e7d5bf5	0.2474211
82	0x3e2ccbc5	0.16874607
83	0x3d652d19	0.05595121
84	0x3d0d1897	0.03444728
85	0x3d2de79a	0.0424572
86	0xbf258383	-0.64653796
87	0x3dba29a7	0.09089976
88	0x3dfca64f	0.12336408
89	0x3e46e763	0.19424205
90	0xbdec7677	-0.11546033
91	0xbd68c959	-0.056832645
92	0xbed546ed	-0.41655675
93	0x3e98a408	0.29812646
94	0xbe81caad	-0.25349942
95	0x3e0fd1b1	0.14044835
96	0xbdc9061b	-0.09815618
97	0x3c85c135	0.01632748
98	0xbe2e29c4	-0.1700812
99	0x3d6392c2	0.05555988
100	0xbc243400	-0.010022163
101	0x3def3985	0.11680893
102	0xbe36c133	-0.17847137
103	0x3ef26a75	0.47346845
104	0x3dd1dfe0	0.10247779
105	0x3b84249a	0.0040326836
106	0xbc9c1b3b	-0.019055953
107	0x3dc3f096	0.095673725
108	0xbdccfaf2	-0.100088015
109	0x3e0b19fd	0.13584132
110	0x3df9dcb5	0.122003
111	0x3dfc4293	0.123173855
112	0xbe51da26	-0.20493373
113	0x3dd16d6d	0.102259494
114	0x3e312aed	0.17301531
115	0x3b5f07bb	0.0034031707
116	0xbe2ecdef	-0.17070745
117	0xba156ccc	-0.0005700111
118	0xbe325f0e	-0.17419073
119	0xbd2b841e	-0.041874044
120	0x3e724111	0.23657633
121	0x3dcfc837	0.1014561
122	0xbe0dafee	-0.13836643
123	0x3d2c740f	0.04210287
124	0xbd43775d	-0.047721256
125	0xbd9cb569	-0.07651789
126	0x3df47543	0.119364284
127	0x3c3839fa	0.011244291
128	0xbe263ba4	-0.16233689
129	0x3dfbe8ff	0.123003
130	0xbe4830f2	-0.19549921
131	0x3db2632c	0.08710322
132	0xbd2e760d	-0.04259305
133	0x3c30eca5	0.010798608
134	0xbbd43453	-0.006475964
135	0x3ec2780c	0.37982213
136	0xbbce00ef	-0.0062867324
137	0x3e045f10	0.12926888
138	0x3dbb3bc5	0.091422595
139	0xbbc0c731	-0.0058831205
140	0xbdcc472b	-0.09974512
141	0x3e4c3e04	0.19945532
142	0xbda758c6	-0.08171229
143	0x3d13c506	0.036076568
144	0xbe5908ec	-0.2119481
145	0xbaea0ff7	-0.0017857541
146	0x3e297a5f	0.16550587
147	0x3dd2ba64	0.102894574
148	0xbdb8d820	-0.090255976
149	0xbe223187	-0.15839206
150	0xbe407ad1	-0.1879685
151	0xbc34faa7	-0.011046088
152	0x3e81b676	0.2533452
153	0x3e1a994e	0.15097544
154	0xbd8d1937	-0.06889575
155	0x3d1cbcbf	0.03826594
156	0x3dcef148	0.101046145
157	0x3d37903e	0.044815294
158	0x3d95d9ef	0.07316958
159	0x3d470479	0.04858825
160	0xbd0aca0b	-0.03388409
161	0xbdb26a53	-0.08711686
162	0xbd825949	-0.06364686
163	0xbe12e1c4	-0.14343935
164	0x3d929cb0	0.07158792
165	0x3db9f592	0.09080042
166	0xbe181484	-0.14851576
167	0x3e908e36	0.28233498
168	0xbde4b901	-0.11168099
169	0x3da7756a	0.08176692
170	0x3d64beb2	0.055845924
171	0x3d86fed8	0.06591576
172	0x3da450ae	0.08023201
173	0x3ed802e9	0.4218972
174	0x3e2fd6c1	0.17171766
175	0xba527f38	-0.00080298213
176	0xbe74612d	-0.23865195
177	0xbcb27041	-0.021782042
178	0x3dfb7532	0.122782126
179	0x3aaec587	0.0013334014
180	0xbe0801f0	-0.13281989
181	0xbe34f439	-0.17671289
182	0xbdc616ab	-0.09672292
183	0xbdf2a58f	-0.11847984
184	0x3dc4a195	0.09601132
185	0x3dc441d1	0.09582866
186	0x3e081cb2	0.13292196
187	0xbaa55d8e	-0.0012616382
188	0xbd702eb0	-0.058638275
189	0xbe00d69b	-0.12581865
190	0x3de6c630	0.1126827
191	0x3e08d0a7	0.13360845
192	0x3eaaadb4	0.3333565
193	0xbe80cb09	-0.25154904
194	0xbe922689	-0.28545025
195	0x3dc8d8a3	0.09806945
196	0x3ecb0140	0.3964939
197	0xbf53a70f	-0.82676786
198	0x3e81bc76	0.25339097
199	0x3cbced29	0.023062306
200	0xbf2ad591	-0.66732126
201	0xbe4323b0	-0.19056582
202	0xbd9d22ff	-0.076726906
203	0xbdff5e27	-0.1246913
204	0x3d78cb15	0.06074055
205	0x3f14bdf0	0.5810232
206	0xbe4265e7	-0.18984185
207	0x3e357938	0.17722023
208	0x3e473f8c	0.19457835
209	0x3ce5ab06	0.028035652
210	0x3c2e26a6	0.010629332
211	0x3dc411e1	0.09573723
212	0x3da2bafa	0.07945819
213	0xbd4d2244	-0.050081506
214	0xbf82cd3f	-1.0218886
215	0x3e98be92	0.29832894
216	0x3e396fd0	0.1810906
217	0x3e5f51a2	0.21808484
218	0xbe65a89b	-0.22427599
219	0xbe4968ef	-0.19668935
220	0xbe6b2e52	-0.22966889
221	0xbe326870	-0.17422652
222	0x3c96c1a8	0.01840289
223	0x3dfdac1d	0.12386344
224	0x3e5cf352	0.21577194
225	0xbe7936ad	-0.24337263
226	0xbe1ae6f0	-0.15127158
227	0x3de668b6	0.11250441
228	0x3f0dd638	0.55404997
229	0xbf4c2768	-0.7974763
230	0x3e9f155a	0.31070977
231	0x3e5bd07e	0.21466252
232	0xbf47d40b	-0.78057927
233	0xbe40ca64	-0.18827206
234	0x3cff3ab1	0.031155916
235	0x3dfa418b	0.122195326
236	0x3d5b4f07	0.053542163
237	0x3f5733ac	0.8406322
238	0xbec80999	-0.39069822
239	0x3ec47d66	0.3837692
240	0x3e95fb53	0.29293308
241	0x3d7a1f57	0.061065044
242	0xbb984896	-0.004647325
243	0x3e8dd052	0.27697998
244	0xbd969c7f	-0.07354068
245	0x3e18f270	0.14936233
246	0xbf857a09	-1.0427867
247	0x3e97fa5d	0.296832
248	0x3e9789ff	0.2959747
249	0x3e8e039a	0.27737123
250	0xbe491f27	-0.1964079
251	0x3d202318	0.039095968
252	0xbd8fe2fa	-0.07025714
253	0xbdf2b393	-0.11850657
254	0x3dcdf1d2	0.10055889
255	0x3e74ae92	0.23894718

sequential_1/conv1d_6/Conv1D f4 [64, 1, 3, 64]
0	0x3d8a403c	0.06750533
1	0x3e57cd2c	0.2107436
2	0x3e1879f7	0.14890276
3	0x3e3f37b4	0.18673593
4	0xbd9ba63a	-0.076000646
5	0xbe487330	-0.1957519
6	0x3d4cfb94	0.05004461
7	0x3c98016a	0.018555362
8	0x3d0ebb0e	0.034846358
9	0xbe1d2078	-0.15344417
10	0x3dc5c9f3	0.096576594
11	0x3d103e64	0.03521575
12	0x3e82e7e5	0.25567546
13	0xbd802234	-0.06256524
14	0x3d9e88e6	0.07740955
15	0x3e36d749	0.17855562
16	0x3e4933a8	0.19648612
17	0xbd986dc8	-0.07442814
18	0x3eea92b8	0.45815063
19	0xbdb628fa	-0.088945344
20	0x3ea5d21c	0.32386863
21	0xbdb6d7a4	-0.08927849
22	0xbe8e1135	-0.27747503
23	0xbe7991e2	-0.24372056
24	0x3d912211	0.07086576
25	0x3dc24a37	0.094868116
26	0x3e2077d4	0.15670711
27	0xbe2c4785	-0.16824158
28	0xbbb5345e	-0.0055299243
29	0xbd928390	-0.07154
30	0x3d843147	0.064547114
31	0x3d93f86c	0.07225117
32	0xbca05362	-0.01957101
33	0x3da1cbed	0.07900224
34	0xbd42f16f	-0.04759353
35	0x3d84a6d2	0.06477131
36	0xbe926c95	-0.28598467
37	0x3e0cae16	0.13738284
38	0x3e8f77f1	0.28021196
39	0xbd19d8a6	-0.037560128
40	0x3f4235c7	0.7586331
41	0xbf048d0b	-0.51777714
42	0x3e98991f	0.29804322
43	0x3edbb7c7	0.42913648
44	0xbef8143b	-0.48452935
45	0x3e02a618	0.12758672
46	0x3def2b4d	0.11678181
47	0x3da04b4c	0.07826862
48	0x3e94c113	0.29053554
49	0x3d82bc71	0.063835986
50	0x3dd7283e	0.105057225
51	0xbeb681ce	-0.35645908
52	0x3e193f88	0.14965641
53	0xbe0c19dd	-0.13681741
54	0x3e1a13ac	0.15046567
55	0x3f009cdf	0.50239366
56	0xbc2166a2	-0.00985113
57	0xbdc027d7	-0.09382599
58	0x3daa7153	0.08322396
59	0xbec5154e	-0.38492817
60	0x3eccfae0	0.40035152
61	0x3e449950	0.19199109
62	0xbbaf6ad7	-0.0053533125
63	0xbcb13656	-0.021632355
64	0x3e377d10	0.17918801
65	0x3e82e781	0.25567248
66	0x3dc832e0	0.09775329
67	0x3dcb306f	0.09921347
68	0xbdabb26c	-0.08383641
69	0xbdfb0cd0	-0.12258303
70	0x3d29781f	0.041374322
71	0x3e6560eb	0.22400253
72	0x3b248763	0.002510511
73	0xbdfa4402	-0.12220003
74	0x3da41871	0.08012474
75	0xbcb92550	-0.0226008
76	0x3eb2d86e	0.34930748
77	0x3d5af6cd	0.053458024
78	0xbc6a2726	-0.01429156
79	0x3cff82ad	0.03119024
80	0x3e483ef2	0.19555262
81	0xbd140e5b	-0.036146503
82	0x3f2db564	0.67854905
83	0xbe103c7b	-0.14085571
84	0x3da4cfab	0.08047422
85	0xbdbffdb4	-0.09374562
86	0xbe6f3f89	-0.2336408
87	0xbe571c28	-0.21006835
88	0x3d59b881	0.053154472
89	0x3e5cfb3b	0.21580212
90	0x3d41ec69	0.0473446
91	0x3bd05ee6	0.006358969
92	0xbc045989	-0.0080779875
93	0xbdca972b	-0.09892114
94	0x3d83b661	0.064312704
95	0x3e0eaed6	0.13933882
96	0xbe0bb9e5	-0.13645132
97	0x3c4d14bc	0.0125171505
98	0x3c04433b	0.00807267
99	0xbd381e84	-0.044950977
100	0xbefaedbb	-0.490095
101	0x3e4041bb	0.18775074
102	0x3ea9a3c1	0.33132747
103	0x3c9c8492	0.019106183
104	0x3f2ff0c9	0.68726784
105	0xbef4ef9e	-0.47839063
106	0x3e67bda6	0.22630939
107	0x3e658c4a	0.22416797
108	0xbeba90cc	-0.36438596
109	0xbd3860a5	-0.045014042
110	0x3cc9ace9	0.024618583
111	0xbb467ef4	-0.0030288072
112	0x3e5f53ee	0.2180936
113	0x3dafe314	0.085882336
114	0x3dfe815a	0.124270156
115	0xbec29900	-0.38007355
116	0x3e3dfc0a	0.18553177
117	0xbe16c812	-0.14724758
118	0x3de79eda	0.113095954
119	0x3ed6de10	0.41966295
120	0x3def021a	0.11670323
121	0x3d77d01d	0.060501207
122	0x3dc37f9d	0.09545825
123	0xbead769d	-0.33879557
124	0x3ee55dc4	0.447981
125	0x3e940543	0.28910264
126	0x3da53583	0.08066847
127	0x3d382a40	0.044962168
128	0x3e2b8244	0.16748911
129	0x3ec1a63f	0.37822148
130	0xbd47d52a	-0.048787273
131	0x3e7b08ba	0.24515048
132	0xbd73a774	-0.059485868
133	0x3d01719a	0.03160248
134	0xbe166ea1	-0.14690639
135	0x3d84f43e	0.06491898
136	0xbe36f748	-0.17867768
137	0xbd91560a	-0.07096489
138	0xbc922ecd	-0.017844582
139	0xbd8f73ee	-0.07004534
140	0x3edd6afc	0.43245685
141	0xbd66c7ae	-0.056342773
142	0x3cab2e7c	0.020896189
143	0x3d4c8af8	0.04993722
144	0x3e0a7828	0.13522398
145	0xbd4d1ca6	-0.05007615
146	0x3efcb646	0.49357814
147	0x3d879fae	0.06622253
148	0x3e6b9584	0.23006254
149	0xbd998b2c	-0.07497248
150	0xbe2dcfc1	-0.16973783
151	0xbec23da8	-0.37937665
152	0xbe1b0691	-0.15139224
153	0x3e9aac94	0.30209792
154	0x3d7c22d5	0.061556656
155	0xbdf11cca	-0.11773069
156	0x3dc8858e	0.097910985
157	0x3d11ff0c	0.035643622
158	0x3d53dfa8	0.051726967
159	0xbda450c5	-0.08023218
160	0xbe0926db	-0.13393728
161	0x3d968574	0.07349673
162	0xbdfdba51	-0.12389053
163	0xbdf26fce	-0.11837731
164	0xbec77c17	-0.3896186
165	0x3e18d953	0.14926653
166	0x3e966a65	0.29378048
167	0xbd09f4e6	-0.03368082
168	0x3f248d15	0.64277774
169	0xbee66935	-0.45002142
170	0x3e6f16b9	0.23348512
171	0x3e8ce92b	0.27521643
172	0xbecf395b	-0.40473446
173	0xbda64315	-0.08118264
174	0x3cb93696	0.022609036
175	0x3e17ee6a	0.14837041
176	0x3e2e0cd3	0.1699708
177	0x3e21f626	0.15816554
178	0x3e6060a4	0.21911865
179	0xbeb2b2eb	-0.3490213
180	0x3e62e439	0.22157373
181	0xbc8de251	-0.01731983
182	0x3e0281bb	0.12744801
183	0x3ebbb184	0.3665887
184	0x3dc4d9bd	0.09611843
185	0xbcb581fa	-0.022156704
186	0x3e5164de	0.20448634
187	0xbea9f5e4	-0.33195412
188	0x3e3ea8d6	0.18619093
189	0x3cd2ad32	0.025717352
190	0xbd983e9a	-0.07433815
191	0x3d2ec102	0.042664535
192	0x3ea1746e	0.3153414
193	0x3da5d863	0.08097913
194	0xbdcfe46f	-0.10150992
195	0xbe180c0b	-0.14848344
196	0x3db9250f	0.090402715
197	0xbdba1900	-0.090867996
198	0x3bfa8e79	0.0076463786
199	0x3f37e21c	0.7182939
200	0x3e9a3ae6	0.3012306
201	0x3c919d50	0.017775208
202	0x3e058e0e	0.13042471
203	0xbe2308a7	-0.1592127
204	0x3e768d10	0.24077249
205	0x3e357480	0.17720222
206	0x3d7e74cd	0.06212311
207	0xbd0f781e	-0.035026662
208	0xbe64f452	-0.22358826
209	0x3e25f00d	0.16204853
210	0xbd21f5e8	-0.039541155
211	0xbd404ad9	-0.04694638
212	0xbed65bc6	-0.41866893
213	0x3dda92ed	0.10672555
214	0x3efdb92a	0.4955533
215	0xbd672393	-0.05643041
216	0xbdc20a3d	-0.09474609
217	0x3e420dc2	0.1895056
218	0x3dbfce5f	0.09365534
219	0x3e6ae303	0.2293816
220	0x3dcf71c4	0.10129121
221	0xbdb08f8c	-0.086211294
222	0x3af8ef05	0.0018992132
223	0x3d7d983c	0.06191276
224	0x3d2b9a50	0.04189521
225	0xbd60ca6a	-0.054880537
226	0xbdb087b1	-0.08619631
227	0xbdc96e08	-0.0983544
228	0x3ea4d2f7	0.32192203
229	0x3c2deafb	0.010615106
230	0x3ebe6288	0.37184548
231	0x3d973de7	0.07384854
232	0x3de06228	0.10956222
233	0x3cf408b3	0.029789304
234	0x3ea15888	0.31512856
235	0x3e38e91d	0.18057676
236	0xbe69407b	-0.22778504
237	0xbc733d48	-0.014846154
238	0xbe0e15b4	-0.13875467
239	0x3dde2c54	0.10848299
240	0x3b9fb853	0.004874268
241	0x3da80612	0.08204283
242	0xbcbc42c6	-0.022981059
243	0x3d29e9d9	0.04148278
244	0x3eca500d	0.395142
245	0x3ed14743	0.4087468
246	0x3e7131f6	0.23554215
247	0x3e9b755e	0.30362982
248	0x3e86ff3c	0.26366603
249	0x3d79bcbc	0.060971007
250	0x3eacd04c	0.33752668
251	0x3e70b01d	0.23504682
252	0x3f3901e8	0.72268534
253	0x3d825b5c	0.06365082
254	0xbda23e7a	-0.07922073
255	0x3dd6ba0a	0.10484703

sequential_1/conv1d_7/Conv1D f4 [128, 1, 3, 64]
0	0x3e29bd4f	0.16576122
1	0x3eae9def	0.3410487
2	0x3dccc2ea	0.099981144
3	0x3d78f1db	0.060777526
4	0x3ee7eb05	0.45296493
5	0x3e080a9a	0.13285294
6	0xbb133f55	-0.0022468169
7	0x3e25114a	0.16119877
8	0x3e1fdf9d	0.15612645
9	0xbd9a8599	-0.07545013
10	0x3ebb3d38	0.36570144
11	0x3d2529c2	0.040323026
12	0x3e13d5b4	0.1443699
13	0xbe1c02e7	-0.15235482
14	0x3df7555c	0.12076828
15	0xbdb89f24	-0.09014729
16	0x3d3e5c50	0.046474755
17	0xbed0ee20	-0.40806675
18	0xbad9bea3	-0.00166126
19	0xbe053bda	-0.13011113
20	0x3f2b3686	0.6688007
21	0xbca48dac	-0.020087086
22	0x3e3a28b0	0.18179584
23	0x3ec3a1d3	0.382094
24	0xbe1fa60d	-0.15590687
25	0x3e8a9160	0.27064037
26	0xbd6f6a91	-0.05845124
27	0x3e8d1bce	0.27560276
28	0x3db0c96f	0.086321704
29	0xbdcc6d06	-0.09981732
30	0xbe9b8b80	-0.30379868
31	0xbe2dc7c4	-0.16970736
32	0x3cc9a837	0.024616344
33	0xbe87be14	-0.26512206
34	0x3e12735a	0.14301816
35	0x3d0e2553	0.034703564
36	0x3d04ed2b	0.032452744
37	0x3dfaf432	0.12253608
38	0x3cc63ff8	0.024200425
39	0xbdc166a3	-0.094434045
40	0x3e2f9266	0.1714569
41	0xbd396f7c	-0.045272335
42	0x3e9695b4	0.2941109
43	0x3b07da25	0.002072939
44	0xbc52b5a6	-0.012860691
45	0xbd3d3065	-0.04618873
46	0x3e609429	0.21931519
47	0x3ddfb7e9	0.1092375
48	0xbe3f30d7	-0.18670975
49	0x3d19511d	0.03743087
50	0x3eac7f14	0.33690703
51	0x3e4de8af	0.20108293
52	0xbe430225	-0.19043787
53	0x3d88d895	0.06681935
54	0xbd03e83f	-0.03220391
55	0x3ea18714	0.3154837
56	0x3e8cff25	0.2753841
57	0xbdb5cdfa	-0.088771775
58	0x3d2d9f2f	0.042388137
59	0xbd415def	-0.047208723
60	0x3de6c2db	0.112676345
61	0xbde650cb	-0.11245879
62	0x3b9c807e	0.0047760596
63	0xbd840ba6	-0.06447534
64	0xbcbc98e3	-0.02302212
65	0x3ee6aa74	0.4505192
66	0xbc4387bc	-0.011934217
67	0x3d37e4db	0.044895988
68	0x3f0b16ac	0.5433147
69	0x3df01ab1	0.11723841
70	0x3baa2693	0.0051925867
71	0x3e8d0dac	0.27549493
72	0x3d62004b	0.05517606
73	0xbb33b9aa	-0.0027423897
74	0x3e40c92a	0.18826738
75	0xbd8e43ea	-0.06946547
76	0xbcb1cc03	-0.021703726
77	0xbe2be52a	-0.16786638
78	0x3e294a82	0.16532329
79	0xbbb20512	-0.0054327333
80	0xbbd35e51	-0.0064504524
81	0xbed9325a	-0.42421228
82	0x3da2c550	0.079477906
83	0xbe81c04b	-0.2534202
84	0x3f081eac	0.531718
85	0x3da6a102	0.081361786
86	0x3ea872cf	0.32900092
87	0x3ee4184c	0.44549787
88	0xbddaabbe	-0.106772885
89	0x3e366cd1	0.17814948
90	0x3d2138d0	0.03936082
91	0x3da986d8	0.082776725
92	0xbc3cdaf9	-0.0115268165
93	0xbd2c93c7	-0.04213312
94	0xbeae6689	-0.34062603
95	0xbe9f8bce	-0.3116135
96	0x3dd634c0	0.1045928
97	0xbe974a4f	-0.2954888
98	0x3e8e064a	0.27739173
99	0x3da67c27	0.08129149
100	0x3e13205a	0.1436781
101	0x3e2c194c	0.16806525
102	0x3cc90af4	0.024541356
103	0xbe294f9a	-0.16534272
104	0x3e577f2b	0.21044604
105	0xbd9a6cc5	-0.075402774
106	0x3eb53a79	0.35396174
107	0x3dcbc5a9	0.0994981
108	0xbcafbe64	-0.02145309
109	0xbe367a1f	-0.17820023
110	0x3ebfa8d1	0.37433484
111	0x3d32a88a	0.043617763
112	0xbd992f38	-0.074797094
113	0x3c3de29e	0.011589674
114	0x3ecef94a	0.40424567
115	0x3e60525a	0.21906415
116	0xbe0d3b5b	-0.13792174
117	0x3dbd246d	0.09235463
118	0xbd217e40	-0.039427042
119	0x3e22e7a5	0.15908678
120	0x3eaa299f	0.3323488
121	0xbe8d3f34	-0.27587283
122	0x3de4a1f8	0.111637056
123	0x3ca4ff71	0.020141335
124	0x3d8400e9	0.06445486
125	0xbcbdd36e	-0.023172107
126	0xbe098fa1	-0.13433696
127	0xbe46f15a	-0.19428006
128	0x3d94a21b	0.07257482
129	0x3ed8e9bb	0.42365822
130	0x3db048e1	0.086076505
131	0x3da300db	0.079591475
132	0x3f0a0dbe	0.5392722
133	0x3e187977	0.14890085
134	0x3de65d89	0.11248309
135	0x3e924475	0.28567854
136	0x3e0f8707	0.14016353
137	0xbd0e3c74	-0.03472562
138	0x3e75e20a	0.24012008
139	0x3d9a1b94	0.07524791
140	0xbd78e1b8	-0.060762137
141	0xbd69f184	-0.057115093
142	0x3d884a8a	0.06654842
143	0xbdbf6dd7	-0.09347122
144	0x3dadc1c5	0.08484224
145	0xbef5cc45	-0.48007408
146	0xbd4b55bb	-0.049642306
147	0xbe42fbaf	-0.19041322
148	0x3f0ea8e8	0.5572648
149	0xbdc9a985	-0.098467864
150	0x3eaa2580	0.33231735
151	0x3ec71e21	0.38890174
152	0xbe42ed8c	-0.1903593
153	0x3e10890f	0.14114784
154	0x3c7176ad	0.014737767
155	0x3e34e646	0.17665967
156	0x3d43427a	0.04767082
157	0xbd793d27	-0.060849335
158	0xbe948db9	-0.29014376
159	0xbe70998b	-0.23496072
160	0x3dcc66a4	0.09980515
161	0xbe667e5d	-0.22509141
162	0x3e88027a	0.2656439
163	0x3e03b1a0	0.12860727
164	0x3bef9d8a	0.0073124813
165	0x3db20dd9	0.086940475
166	0xbdbf6c9b	-0.09346887
167	0xbdae377a	-0.08506675
168	0x3dd82e22	0.10555674
169	0xbe10462d	-0.1408927
170	0x3ebbc162	0.36670977
171	0x3d040b47	0.032237317
172	0xbd346c00	-0.04404831
173	0xbdd82f86	-0.105559394
174	0x3ec06f56	0.37584943
175	0x3ddc810e	0.10766803
176	0xbe640c07	-0.22270213
177	0xbdb6512a	-0.089021996
178	0x3ea68ffa	0.3253172
179	0x3da43bb7	0.08019202
180	0xbe03ca65	-0.12870176
181	0x3deb3f54	0.11486688
182	0xbe0e3b64	-0.13889843
183	0x3ec70116	0.38868016
184	0x3ec64004	0.38720715
185	0xbe8352f4	-0.25649226
186	0x3e2286b8	0.15871704
187	0xbe05d7d5	-0.13070615
188	0xbd3d9d8f	-0.046292838
189	0x3d13f355	0.03612073
190	0xbd48c26a	-0.049013533
191	0xbda147ef	-0.07875048
192	0x3e0e62f5	0.13904937
193	0x3ed22bab	0.4104894
194	0x3bb951e7	0.0056555155
195	0xbd08400f	-0.033264216
196	0x3e312b2f	0.1730163
197	0xbd8a522f	-0.067539565
198	0xbd9e2a6b	-0.07722934
199	0xbd6f4894	-0.058418825
200	0xbe0ce629	-0.13759674
201	0x3d4fb904	0.050713554
202	0xbe600469	-0.21876682
203	0x3bd00c92	0.0063491547
204	0x3ea488fb	0.32135758
205	0x3e19cb78	0.15019023
206	0xbe64a0ae	-0.2232692
207	0xbdc81b40	-0.097708225
208	0xbd53daf8	-0.051722497
209	0x3cc12473	0.02357695
210	0xbeb7b05d	-0.35876742
211	0xbe812b2f	-0.2522826
212	0xbe3f81c8	-0.18701851
213	0x3d835f24	0.06414631
214	0x3e2f9d25	0.1714979
215	0xbde5965c	-0.112103194
216	0xbc492ea7	-0.012279189
217	0x3d8b1cdd	0.067926146
218	0xbdab5220	-0.083652735
219	0x3df9e479	0.12201781
220	0x3d8b3104	0.06796458
221	0xbdac6d82	-0.084193245
222	0xbee09877	-0.4386632
223	0xbe9a4f56	-0.30138654
224	0x3e991b0c	0.29903448
225	0xbd8c75c7	-0.06858402
226	0xbe6d9d10	-0.23204446
227	0x3c8df6dc	0.017329626
228	0xbe21f303	-0.15815358
229	0xbdd2751e	-0.102762446
230	0xbd523023	-0.051315438
231	0xbd118c15	-0.035533983
232	0xbcef0516	-0.02917723
233	0xbe29cc06	-0.16581735
234	0x3df063bd	0.117377736
235	0xbd98c581	-0.07459546
236	0x3e1112c5	0.14167316
237	0xbd031bfc	-0.03200911
238	0x3eab972e	0.33513778
239	0xbd337e72	-0.04382176
240	0xbe1cc44c	-0.15309256
241	0x3d292504	0.041295066
242	0x3c880e19	0.016608285
243	0x3c424905	0.0118582295
244	0xbde3b03e	-0.111176
245	0x3df062b1	0.11737574
246	0x3e61c2f0	0.22047019
247	0xbcab9b32	-0.020948026
248	0xbdcd1afa	-0.10014911
249	0xbd4c04bf	-0.049809214
250	0xbe210842	-0.15725806
251	0x3dd201de	0.102542624
252	0xbdabe72e	-0.083937034
253	0x3d6517bb	0.055930834
254	0xbd57e1e5	-0.052705664
255	0x3d9f1401	0.07767487

sequential_1/dense_3/BiasAdd/ReadVariableOp f4 [5]
0	0x3e3ce23d	0.18445678
1	0x3efb1f55	0.49047342
2	0x3ddda5b2	0.108226195
3	0x3f42d810	0.76110935
4	0xbfa709af	-1.304983

sequential_1/dense_2/BiasAdd/ReadVariableOp f4 [64]
0	0x3e4129f9	0.18863668
1	0xbf313b1f	-0.69230837
2	0x3c481541	0.012212099
3	0xbefe444c	-0.4966148
4	0xbf04abb5	-0.51824504
5	0x3e62fae2	0.22166017
6	0x3eb5ad4b	0.35483775
7	0xbd63b722	-0.05559457
8	0xbe7cfc90	-0.2470572
9	0xbf38c7a3	-0.7217962
10	0x3e9f4e2a	0.31114322
11	0xbd1e0aae	-0.038584404
12	0xbf875c2f	-1.0575007
13	0xbd2beffe	-0.04197692
14	0xbdafee6f	-0.085903995
15	0x3e447f78	0.1918925
16	0xbf53dff8	-0.82763624
17	0xbe7e1626	-0.24813136
18	0xbe9c96d6	-0.3058383
19	0xbdad8e62	-0.08474423
20	0x3ecaf1fc	0.39637744
21	0x3d00eadf	0.03147399
22	0xbecd0758	-0.40044665
23	0x3e2f5180	0.17120934
24	0x3eb6257d	0.35575476
25	0x3f2ed5e3	0.68295115
26	0xbe8689a6	-0.26276892
27	0xbd1fd904	-0.03902532
28	0x3e5765a5	0.21034868
29	0xbf5d0e27	-0.8634972
30	0x3d53d78a	0.051719226
31	0xbe870067	-0.26367494
32	0xbefe6a45	-0.49690452
33	0xbec2a0d5	-0.3801333
34	0xbf2e2bb2	-0.68035424
35	0xbf1c4546	-0.610432
36	0x3ec564b7	0.38553402
37	0xbe5ea06f	-0.21740888
38	0x3ed3df76	0.41381425
39	0x3d53ae8b	0.05168013
40	0xbe985a13	-0.2975622
41	0xbeffcf5e	-0.49962896
42	0xbd7205ed	-0.059087683
43	0x3f00c132	0.5029479
44	0xbf232c9a	-0.6373993
45	0xbecc4d34	-0.3990265
46	0xbe84a745	-0.25908867
47	0x3e5751ea	0.21027341
48	0xbe9efd25	-0.3105251
49	0x3e8f82eb	0.2802957
50	0xbec3e51f	-0.38260743
51	0x3e568d44	0.20952326
52	0xbf10c9d4	-0.56557965
53	0x3f2ccaaa	0.6749674
54	0xbf118e9a	-0.5685822
55	0x3faada79	1.3347923
56	0xbdb84dfc	-0.08999249
57	0xbdd6dfa8	-0.10491878
58	0xbecf3920	-0.4047327
59	0xbe861b01	-0.26192477
60	0xbf27be4a	-0.65524733
61	0xbea4fca8	-0.3222401
62	0x3df6cde6	0.12050991
63	0xbe279d5b	-0.1636862

sequential_1/dense_2/MatMul f4 [64, 512]
0	0xbd0b4fda	-0.0340117
1	0xbd6f4022	-0.05841077
2	0xbe0d3478	-0.13789546
3	0xbcf244b5	-0.029573778
4	0x3e3ce0cc	0.18445128
5	0x3e728011	0.23681666
6	0x3e994a60	0.29939556
7	0xbc1afe58	-0.009460054
8	0xbe83587c	-0.25653446
9	0xbe64119a	-0.2227234
10	0x3f1d10e5	0.61353904
11	0x3c27d612	0.010243909
12	0xbe908bb7	-0.28231594
13	0x3eb42a92	0.3518873
14	0xbebbd031	-0.36682275
15	0xbe6d88b4	-0.2319668
16	0x3eb9f894	0.36322463
17	0xbeb86024	-0.3601085
18	0x3db502d3	0.08838429
19	0x3f0d1e7d	0.55124646
20	0xbe60bca8	-0.21946967
21	0x3db1d14f	0.086825006
22	0xbdceec0e	-0.101036176
23	0xbeda690c	-0.4265827
24	0x3e0e16bb	0.13875858
25	0x3f6d99f0	0.92813015
26	0x3e1f1227	0.15534268
27	0x3e84de75	0.2595097
28	0x3dcea4c3	0.100900196
29	0x3ec5bc7d	0.38620368
30	0x3e9f6e56	0.31138867
31	0x3d62ca07	0.05536845
32	0xbd938ac3	-0.07204201
33	0xba05227d	-0.00050786865
34	0x3ecdae53	0.4017206
35	0x3f48e01b	0.7846696
36	0xbe83a958	-0.25715137
37	0x3d8599c8	0.06523472
38	0x3ed1b437	0.40957806
39	0xbee92126	-0.45533103
40	0x3dacc5bb	0.084361516
41	0x3c97b439	0.018518554
42	0xbe7597ab	-0.23983638
43	0x3df6faa9	0.120595284
44	0x3f19b9b5	0.6004899
45	0x3e880bf7	0.26571628
46	0xbe79332f	-0.24335931
47	0xbb165c23	-0.0022943101
48	0x3f264e95	0.64963657
49	0xbdbf8eff	-0.09353446
50	0x3ea041e5	0.31300274
51	0xbf28f605	-0.66000396
52	0x3e21c4b3	0.15797691
53	0xbd4ba849	-0.049721036
54	0x3ea25da3	0.31712064
55	0x3e8f98d2	0.2804628
56	0xbe29cf8a	-0.16583076
57	0x3dfeb675	0.12437145
58	0x3e5906aa	0.21193948
59	0xbd83ee71	-0.064419635
60	0x3e3dbcd0	0.18529058
61	0x3ed0a4d5	0.40750757
62	0xbdbdd062	-0.092682615
63	0x3e87b812	0.26507622
64	0x3e5ead83	0.21745877
65	0xbe6cfad2	-0.23142555
66	0xbcbae35c	-0.022813492
67	0xbcde6259	-0.027146505
68	0x3eec582f	0.4616103
69	0xbe1e575c	-0.15463012
70	0x3dc971ff	0.09836196
71	0x3d5069a3	0.050881993
72	0x3e98a496	0.2981307
73	0xbedf4841	-0.43609813
74	0xbc4fa286	-0.012673026
75	0x3d65af1d	0.056075204
76	0xbbe63ba2	-0.0070261518
77	0xbf176de6	-0.59152067
78	0xbd3ee91c	-0.04660903
79	0xbc571ab7	-0.013128928
80	0x3eacd77a	0.33758146
81	0x3f0bba78	0.54581404
82	0xbd9aeba8	-0.07564479
83	0x3ed30fed	0.41223088
84	0xbe877384	-0.2645532
85	0x3e3ef016	0.18646273
86	0x3f0e140c	0.5549934
87	0x3e1b5bcf	0.15171741
88	0x3ecfbeb6	0.40575188
89	0xbe56a753	-0.20962267
90	0xbd62a5eb	-0.055334013
91	0xbe2e40c2	-0.1701689
92	0xbe304a18	-0.17215765
93	0xbe26a54d	-0.16273995
94	0x3e73c588	0.23805821
95	0xbe6b003c	-0.22949308
96	0x3f0914aa	0.53547156
97	0x3de657bf	0.11247205
98	0xbb1b1e70	-0.0023669265
99	0x3f2ccb56	0.67497766
100	0x3ea76f08	0.32701898
101	0xbdf8189f	-0.12114071
102	0x3aa306ec	0.0012437976
103	0x3db107da	0.08644076
104	0xbee154a4	-0.44009888
105	0xbe6cf7d6	-0.23141417
106	0x3e94184f	0.28924796
107	0xbd5ef894	-0.05443628
108	0xbec9742c	-0.39346445
109	0x3d7bf836	0.06151601
110	0x3eadaf76	0.3392293
111	0xbec7d997	-0.39033195
112	0xbce6d00f	-0.028175382
113	0xbe2a8959	-0.16653956
114	0xbdbc9b0f	-0.092092626
115	0x3c452319	0.012032294
116	0xbda4d975	-0.08049289
117	0xbe79df43	-0.24401574
118	0xbeb57c26	-0.3544628
119	0xbda01531	-0.07816542
120	0xbcd1c0d5	-0.025604645
121	0xbcd34c32	-0.025793169
122	0xbdba9ff9	-0.091125436
123	0x3f08e5b8	0.53475523
124	0x3ea1a6c8	0.31572556
125	0xbe6df9eb	-0.23239867
126	0x3f19db7d	0.6010054
127	0x3d7b9c2c	0.061428234
128	0x3d08e7fb	0.03342436
129	0xbeb62cd9	-0.3558109
130	0xbe9de30e	-0.3083729
131	0x3ec17dcc	0.37791288
132	0x3e4ca64d	0.19985314
133	0x3da70c30	0.081566215
134	0x3e7353ed	0.23762484
135	0xbe93ceec	-0.28868806
136	0xbd85e399	-0.065375514
137	0xbe3a90df	-0.18219326
138	0x3f4f932a	0.8108393
139	0xbe8b47a1	-0.27203086
140	0xbe96d1f8	-0.29457068
141	0x3e40701e	0.1879277
142	0x3a908cb9	0.0011028267
143	0x3d6b2206	0.057405494
144	0x3ddea6d9	0.108716674
145	0xbe9dae44	-0.30797017
146	0xbdc40e8f	-0.09573089
147	0x3e4df871	0.20114304
148	0x3c1b11bf	0.00946468
149	0xbde9db5e	-0.11418794
150	0x3e2482e9	0.16065563
151	0xbee206f8	-0.44145942
152	0x3e260dfb	0.1621627
153	0x3f634948	0.88783693
154	0x3e2ec1eb	0.17066161
155	0xbdcc0ea9	-0.09963734
156	0x3e9f9588	0.3116877
157	0xbd83afc6	-0.064300105
158	0xbe401cbd	-0.18760963
159	0xbdf4fa3f	-0.11961793
160	0x3e2e764c	0.17037314
161	0xbd837739	-0.06419224
162	0x3ea30312	0.3183828
163	0x3efe06c9	0.49614552
164	0x3e897656	0.26848096
165	0xbe2d7df6	-0.16942582
166	0x3d164d79	0.036694977
167	0x3e931fd9	0.28735235
168	0xbab9afaa	-0.0014166732
169	0x3eace2ad	0.3376669
170	0xbe35134b	-0.17683141
171	0xbd4d1dd4	-0.050077274
172	0x3d54e334	0.05197449
173	0xbb8da9d2	-0.0043232227
174	0x3e0a4f53	0.13506822
175	0xbee6da85	-0.45088592
176	0x3ea34f2e	0.31896347
177	0xbcc23e0c	-0.023711227
178	0x3cb88fb8	0.022529468
179	0x3d22a373	0.03970666
180	0x3e053dbe	0.13011834
181	0x3e60f498	0.21968305
182	0x3d0c5373	0.03425927
183	0x3e049f67	0.12951432
184	0xbec29bb9	-0.38009432
185	0xbe218ce9	-0.15776409
186	0x3e7bdd07	0.24596034
187	0xbd6b9fe7	-0.05752554
188	0xbd29bd63	-0.04144038
189	0x3f0e4858	0.5557914
190	0xbcbb2ac5	-0.022847543
191	0xbe1d92f2	-0.15388086
192	0x3f1f550a	0.62239134
193	0x3da89012	0.08230604
194	0x3dccf290	0.100072026
195	0xbec38d60	-0.38193798
196	0xbe275123	-0.16339545
197	0x3e59c4d3	0.21266489
198	0xbc8668ab	-0.016407331
199	0xbcccd186	-0.025002252
200	0x3e55a05f	0.20861958
201	0xbeb4f071	-0.35339692
202	0xbdc6b59c	-0.09702608
203	0xbdeb09ce	-0.114764795
204	0x3e9ad16e	0.30237907
205	0xbf4d9e98	-0.8032012
206	0xbe29d283	-0.1658421
207	0xbe39e653	-0.18154268
208	0x3cff7bc6	0.03118695
209	0x3dd4fb17	0.10399454
210	0xbccc1a33	-0.024914837
211	0xbd1cb3e1	-0.038257483
212	0xbe0f4e1a	-0.13994637
213	0x3c8341b0	0.016022533
214	0x3e8ccc58	0.27499652
215	0x3dcad76c	0.0990437
216	0xbd4da394	-0.05020483
217	0xbea81a1b	-0.32832417
218	0x3efef792	0.49798256
219	0xbe2fc815	-0.17166169
220	0xbde581e3	-0.112064146
221	0xbefe62a3	-0.4968463
222	0x3eb5ff22	0.35546213
223	0x3d73c67e	0.05951547
224	0x3ec3a9fa	0.3821562
225	0x3e3343e0	0.17506361
226	0x3ee87ce4	0.45407784
227	0x3f2fbf5a	0.68651354
228	0xbe270dc4	-0.16313845
229	0x3bce52e8	0.0062965043
230	0x3e1f2ec0	0.15545177
231	0xbddea0e9	-0.10870535
232	0x3d3461ec	0.044038698
233	0x3d9163f2	0.07099141
234	0x3e3cd29c	0.18439716
235	0xbe5560a5	-0.20837648
236	0xbf21f530	-0.6326475
237	0x3d4b175e	0.04958283
238	0x3f0130e4	0.50465226
239	0xbe0b214a	-0.13586918
240	0x3e10b4be	0.14131448
241	0xbebba7da	-0.36651498
242	0x3e7f69d1	0.2494271
243	0x3e3c4e2c	0.18389195
244	0x3da9439d	0.08264849
245	0x3c908a60	0.017644107
246	0xbe0458ed	-0.12924547
247	0xbd56efc2	-0.052474745
248	0x3e4448c9	0.1916839
249	0x3dab1a58	0.08354634
250	0x3e2dec17	0.16984592
251	0xbdf8bcbe	-0.12145375
252	0x3e77953a	0.24178019
253	0xbe5e21df	-0.21692608
254	0x3ebcdfc8	0.36889482
255	0x3d45535f	0.048175212

sequential_1/dense_3/MatMul f4 [5, 64]
0	0xbbf2d56e	-0.0074106967
1	0xbccbacf1	-0.024862738
2	0x3cc6cec2	0.024268512
3	0xbe779b65	-0.24180372
4	0xbfa452f7	-1.2837819
5	0xbd8a2fbe	-0.06747387
6	0xbf76ae60	-0.96359825
7	0xc001e410	-2.0295448
8	0xbe895eb0	-0.26830053
9	0xbda2df2b	-0.07952722
10	0xbfd11c8a	-1.6336834
11	0xbd3997dc	-0.04531084
12	0xbeb543f4	-0.35403407
13	0xbeb5b89d	-0.3549241
14	0xbf8a4e3d	-1.0805126
15	0xbf822a87	-1.0169228
16	0xbe098e35	-0.13433154
17	0x3d8611e9	0.06546385
18	0xbda50f13	-0.08059516
19	0xbfd81378	-1.6880941
20	0x3dc2731e	0.09494613
21	0xbf0fe8d7	-0.5621466
22	0xbd90d311	-0.07071508
23	0xbf248635	-0.64267284
24	0xbe5542cf	-0.20826267
25	0xbdfeea46	-0.12447028
26	0xbd8ab861	-0.06773449
27	0xbe052681	-0.1300297
28	0xbe42021e	-0.1894612
29	0xbe23ccce	-0.15996096
30	0xbe159695	-0.14608224
31	0xbff61817	-1.9226102
32	0xbf86ec82	-1.0540926
33	0xbfcfd0f8	-1.6235647
34	0x3d613b2e	0.05498808
35	0xbeb75136	-0.35804147
36	0x3e739a7e	0.23789403
37	0xbead860f	-0.3389134
38	0xbf850335	-1.0391604
39	0xbf628057	-0.8847708
40	0xbe682d39	-0.22673501
41	0xbe749108	-0.2388345
42	0x3dac5213	0.08414092
43	0xbead36c1	-0.33830836
44	0xbca293c6	-0.019845854
45	0xbec02d78	-0.3753469
46	0x3c962c4c	0.01833167
47	0xbf39a416	-0.72516
48	0xbf1b9071	-0.60767275
49	0xbfe5604c	-1.7920012
50	0xbecabb5c	-0.3959607
51	0xbe57e73b	-0.21084301
52	0xbd4d1268	-0.05006638
53	0xbdad6590	-0.08466637
54	0xbce48367	-0.027894689
55	0x3d44df2d	0.0480644
56	0xbe10a60b	-0.1412584
57	0xbf19caf5	-0.6007531
58	0x3e4aebde	0.19816539
59	0xbe5f20c6	-0.21789846
60	0x3e750ce7	0.23930703
61	0xbe7b2a2c	-0.24527806
62	0xbdbee59d	-0.09321139
63	0xbdc9b0f2	-0.09848203
64	0xbd8053af	-0.062659614
65	0xbd4b322e	-0.049608402
66	0x3c74a059	0.014930808
67	0xbeb40746	-0.351618
68	0xbe92a4a4	-0.28641236
69	0xbd69c77f	-0.05707502
70	0xbe15f008	-0.14642346
71	0xbfda7653	-1.706736
72	0xbe356f89	-0.17718329
73	0xbe9a76e1	-0.30168822
74	0xbfa378eb	-1.2771276
75	0xbd9f8335	-0.07788698
76	0xbf051fe8	-0.5200181
77	0xbe6fda43	-0.23423104
78	0xbf09aaeb	-0.53776425
79	0xbfde177b	-1.7350916
80	0xbd157d6a	-0.036496557
81	0x3e083a1a	0.13303414
82	0x3c7e68be	0.015527902
83	0xbf979024	-1.1840863
84	0xbd37e502	-0.044896133
85	0xbd63f244	-0.055650964
86	0xbd0822e9	-0.033236418
87	0xbe02c01d	-0.12768598
88	0xbe6ce22b	-0.23133151
89	0xbe119858	-0.14218271
90	0xbdf3694a	-0.11885317
91	0xbf110afe	-0.566574
92	0xbdd2d228	-0.102939904
93	0xbe66d717	-0.22542988
94	0xbd017bfe	-0.03161239
95	0xbf99308c	-1.196794
96	0xbd91a8ef	-0.071123
97	0xbf444ec9	-0.76682717
98	0x3d57b646	0.052664064
99	0xbef43a37	-0.47700664
100	0x3c21a735	0.009866525
101	0xbe9e7141	-0.3094578
102	0xbe4d1bac	-0.20030087
103	0xbe50541e	-0.20344588
104	0xbe6af269	-0.22944035
105	0xbe60be84	-0.21947676
106	0x3d8b1742	0.067915455
107	0x3c823ef8	0.015899166
108	0xbdd8078f	-0.10548317
109	0xbe9c5628	-0.30534482
110	0x3d14a989	0.036294494
111	0xbdffc03d	-0.124878384
112	0xbf968980	-1.1760712
113	0xba721e32	-0.0009236067
114	0xbe5f7406	-0.21821603
115	0xbeb93e37	-0.3618028
116	0xbd00e41e	-0.03146755
117	0xbdfff4f2	-0.124978915
118	0xbe8359ed	-0.25654545
119	0x3ddd6931	0.10811079
120	0xbe61125e	-0.21979663
121	0xbf3cfc57	-0.7382254
122	0x3e0a9ca0	0.1353631
123	0xbe62522e	-0.22101662
124	0xbda81901	-0.08207894
125	0xbea42234	-0.32057345
126	0xbe8effe7	-0.27929613
127	0x3cc62fd0	0.02419272
128	0xbdbdb13f	-0.09262323
129	0xbe0fb6de	-0.14034602
130	0xbbff44e1	-0.0077901934
131	0xbe9f4cc4	-0.31113255
132	0xbd9c37b7	-0.07627814
133	0xbe114e2d	-0.14189978
134	0xbe201882	-0.15634349
135	0x3c98a4cf	0.018633274
136	0xbe98fe40	-0.29881477
137	0xbd26bb39	-0.040705893
138	0xbe3e81c0	-0.18604183
139	0xbe2c5533	-0.16829376
140	0xbddab592	-0.10679163
141	0xbe8bdf27	-0.2731869
142	0xbf1a24d3	-0.6021244
143	0xbf027f6e	-0.5097569
144	0xbe3163d9	-0.17323245
145	0x3e1e6b4c	0.15470618
146	0xbd5cab9a	-0.05387459
147	0xbd7fe811	-0.062477175
148	0x3e3d5c8b	0.18492334
149	0xbd7c3cb4	-0.06158133
150	0xbe11d3bd	-0.14240928
151	0xbd4fbc9c	-0.05071698
152	0xbee0870c	-0.43853033
153	0xbeed4fab	-0.46349844
154	0xbde197a5	-0.11015252
155	0xbe9e2ca2	-0.30893427
156	0xbdcded4c	-0.100550264
157	0xbe822ee7	-0.2542641
158	0xbcff6418	-0.031175658
159	0x3d28bc36	0.041195117
160	0x3dd01b78	0.10161489
161	0xbd6acfcc	-0.057327077
162	0xbc7d4f9d	-0.015460876
163	0xbe8332a9	-0.25624588
164	0xbe6ca26c	-0.23108834
165	0xbeba5d67	-0.36399385
166	0xbdbf82ef	-0.093511455
167	0xbd8d06b9	-0.06886048
168	0xbebc0456	-0.36722058
169	0xbe2a527d	-0.1663303
170	0x3db11a8c	0.086476415
171	0xbdeefda0	-0.11669469
172	0x3c1f6dba	0.009730751
173	0xbec66464	-0.38748467
174	0x3d1f7701	0.03893185
175	0xbdc65027	-0.096832566
176	0xbe792c96	-0.24333414
177	0xbbeb7b13	-0.0071863024
178	0xbf0c1845	-0.5472453
179	0x3d9f06d7	0.077649765
180	0xbda4dbfa	-0.0804977
181	0xbf05a4c9	-0.5220457
182	0xbda5f1f4	-0.081027895
183	0xbebfd947	-0.37470457
184	0xbe1b49b8	-0.1516484
185	0xbed2d7c2	-0.41180235
186	0x3e75851d	0.2397656
187	0xbe3e677a	-0.1859416
188	0xbe6dab0e	-0.23209783
189	0xbee5de82	-0.44896322
190	0xbf7b3dd3	-0.9814121
191	0xbca2d85f	-0.019878564
192	0xbe0fff92	-0.14062336
193	0xbe86aa05	-0.2630159
194	0xbd4e4053	-0.050354313
195	0xbe867bb4	-0.26266253
196	0xbe7eb84f	-0.24874996
197	0xbd29c0da	-0.041443683
198	0xbdc09ba5	-0.09404687
199	0x3ca468ba	0.020069469
200	0xbeea6885	-0.45782867
201	0x3c741d2b	0.014899532
202	0xbe6324a4	-0.22181946
203	0xbd66130d	-0.056170512
204	0xbe14248c	-0.14467067
205	0xbe9c109e	-0.30481428
206	0xbe399727	-0.18124066
207	0xbe2138f0	-0.15744376
208	0xbdfe0afe	-0.1240444
209	0xbfa1cd59	-1.2640792
210	0xbdf7378e	-0.12071143
211	0xbf5bec7f	-0.8590774
212	0xbe02077a	-0.12698165
213	0xbd9f1fb0	-0.07769716
214	0xbe5996e8	-0.21248972
215	0xbdc54ae6	-0.09633426
216	0xc019276e	-2.3930316
217	0xbe9dc5f3	-0.30815086
218	0xbe0035c9	-0.12520517
219	0x3de17586	0.11008744
220	0xbebf4d6f	-0.37363765
221	0xbe6ce09c	-0.23132557
222	0xbf10e66b	-0.5660159
223	0xbc746015	-0.014915486
224	0x3df18237	0.11792415
225	0xbe030428	-0.12794554
226	0xbf20b27f	-0.62772363
227	0xbeacf858	-0.3378322
228	0x3c777552	0.015103655
229	0xbee87173	-0.45399055
230	0xbdd1e892	-0.102494374
231	0xbe1e1432	-0.15437391
232	0xbebb4b07	-0.3658068
233	0xbeb20a1d	-0.3477334
234	0xbfc62a3a	-1.5481637
235	0xbf7f7ab3	-0.997966
236	0x3d59ff6f	0.053222116
237	0xbe8e57d4	-0.27801383
238	0xbda84a3e	-0.082172856
239	0xbeac6d16	-0.33676976
240	0xbd89a1ea	-0.06720336
241	0x3d7552fe	0.0598936
242	0xbea5e192	-0.3239866
243	0x3e162574	0.14662725
244	0xbebd470c	-0.36968267
245	0xbe74b17a	-0.23895827
246	0xbe08576f	-0.13314603
247	0xbd4b91cc	-0.04969959
248	0xbe5b1da8	-0.21398032
249	0xbeab2ab6	-0.33431023
250	0xbf95b5ef	-1.1696147
251	0xbe73fc9a	-0.23826829
252	0xbdbe5dd5	-0.09295241
253	0xbf038050	-0.51367664
254	0xbde09e8a	-0.10967739
255	0xba8d5306	-0.0010782189
