models/CNN_2.tflite (tflite, 322864 bytes, 8 tensors)

sequential/conv1d/BiasAdd/ReadVariableOp f4 [32]
0	0xbf876d36	-1.0580204
1	0xbe898369	-0.2685807
2	0xbeedb54d	-0.46427384
3	0xbeb59959	-0.35468557
4	0xbed2594e	-0.4108376
5	0xbf37f399	-0.71856076
6	0xbf4f2adf	-0.8092479
7	0xbe4a41b4	-0.19751626
8	0xbeebebc0	-0.460783
9	0xbf41bc5b	-0.7567803
10	0xbe5259e4	-0.20542103
11	0xbee48e51	-0.4463983
12	0xbf2843c0	-0.6572838
13	0xbf66fbb5	-0.90227824
14	0xbf1755c4	-0.5911524
15	0xbe794396	-0.24342188
16	0xbdb88d0a	-0.09011276
17	0xbda5f314	-0.08103004
18	0xbf6e8795	-0.9317563
19	0xbf08133b	-0.53154343
20	0xbf82e26a	-1.0225346
21	0xbe4a763c	-0.19771665
22	0xbfaf962b	-1.3717703
23	0xbe880e1e	-0.2657327
24	0xbf44fe22	-0.76950276
25	0xbfbc1626	-1.4694259
26	0xbf4e3205	-0.80545074
27	0xbf638980	-0.88881683
28	0xbecb983a	-0.39764577
29	0xbf4730e8	-0.77809
30	0xbf49f398	-0.7888732
31	0xbe94a9c6	-0.29035777

sequential/conv1d_1/BiasAdd/ReadVariableOp f4 [64]
0	0x3e953ba5	0.29147068
1	0x3e87b466	0.2650482
2	0xbe2321b2	-0.15930822
3	0xbe1465e6	-0.14491996
4	0x3e3917f7	0.18075548
5	0x3f2dd793	0.67907065
6	0xbf9ab24f	-1.2085665
7	0x3e86a743	0.26299486
8	0x3ce0bd4a	0.02743401
9	0x3e71017d	0.23535724
10	0x3ee440c9	0.44580677
11	0xbee82367	-0.4533951
12	0xbed16713	-0.40898952
13	0xbd99cb30	-0.07509458
14	0xbe030dd8	-0.1279825
15	0xbf2d1bbd	-0.6762045
16	0x3e126277	0.14295374
17	0xbe10dcc0	-0.1414671
18	0xbe29ba0c	-0.16574878
19	0xbea555a7	-0.3229191
20	0xbe405f95	-0.18786462
21	0x3df5dbc3	0.12004807
22	0xbf243ff9	-0.64160115
23	0x3ed4e25b	0.41578946
24	0x3e5d7f3d	0.21630569
25	0xbf634e1a	-0.8879105
26	0xbc9645a5	-0.018343756
27	0x3e45ec80	0.19328499
28	0xbefbfa28	-0.49214292
29	0x3f86a8ea	1.0520298
30	0xbdc08e2e	-0.094021186
31	0x3d049fa1	0.032378796
32	0xbea71e31	-0.32640222
33	0x3e28f491	0.16499545
34	0xbf73125e	-0.949499
35	0xbf47e9ca	-0.7809111
36	0x3ebc756b	0.36808333
37	0xbed74c4a	-0.4205039
38	0xbca961a5	-0.020676443
39	0xbe93c024	-0.2885753
40	0xbf2530e3	-0.6452772
41	0xbe6a0769	-0.22854389
42	0xbe8fb767	-0.28069612
43	0xbecf3f76	-0.40478104
44	0xbea6de2b	-0.32591376
45	0x3e412ed2	0.18865517
46	0x3d023356	0.03178724
47	0x3e7fa991	0.24967028
48	0x3e7b86fc	0.24563211
49	0x3c37aef1	0.011211143
50	0x3e806eeb	0.25084624
51	0x3e84e50b	0.25955996
52	0xbe52b5ca	-0.2057716
53	0xbd73b3cd	-0.059497643
54	0x3ca2cfb6	0.019874435
55	0xbce83020	-0.02834326
56	0xbea3e492	-0.32010323
57	0x3eae0ebe	0.33995622
58	0x3d852ff6	0.065032884
59	0xbdfc8ca7	-0.12331515
60	0xbe110230	-0.1416099
61	0xbe992959	-0.29914358
62	0xbb3937b0	-0.0028261952
63	0xbd6134fb	-0.054982167

sequential/conv1d/Conv1D f4 [32, 1, 3, 6]
0	0x3f0b2bf9	0.5436397
1	0x3f1df32d	0.6169918
2	0xbe893b75	-0.26803175
3	0xbcd87b93	-0.026426112
4	0x3e645635	0.2229851
5	0xbdfc0e83	-0.123074554
6	0x3f516cde	0.81806743
7	0x3ec6cc5e	0.38827795
8	0xbe005ba7	-0.12534963
9	0xbd9c7e68	-0.076412976
10	0xbcf076d1	-0.029353531
11	0xbed815ef	-0.42204234
12	0x3f5aedae	0.8551892
13	0x3e815f89	0.252682
14	0xbd2095cd	-0.03920536
15	0xbd5a16b0	-0.053244293
16	0xbe87652e	-0.2644438
17	0xbe55a189	-0.20862402
18	0xbe0f53a7	-0.13996755
19	0x3ea193a3	0.3155795
20	0x3e612d0d	0.21989842
21	0xbdca7c12	-0.09886946
22	0x3c6284dd	0.013825622
23	0xbe0f8ce7	-0.14018594
24	0xbdf7c7db	-0.12098666
25	0xbc11c827	-0.008897818
26	0x3de0c137	0.10974353
27	0x3e04a97b	0.12955277
28	0xbd317fee	-0.043334894
29	0xbe80e260	-0.2517271
30	0x3e1b7c2f	0.15184091
31	0xbe24a82e	-0.1607978
32	0x3d805303	0.06265833
33	0x3d8a478a	0.06751926
34	0x3db1764f	0.08665144
35	0xbeb1d055	-0.34729257
36	0xbeb67f4f	-0.35644004
37	0x3e3edb82	0.18638423
38	0x3c004380	0.007828593
39	0xbd4576cb	-0.048208993
40	0xbe074489	-0.13209738
41	0x3ea1fcbe	0.3163814
42	0xbef29cc0	-0.47385216
43	0x3e98f152	0.29871613
44	0x3d6f9751	0.058493916
45	0x3d20b695	0.039236624
46	0x3e7b1308	0.24518979
47	0x3e2df5a1	0.16988231
48	0xbef76ad7	-0.483237
49	0x3f1acfbb	0.6047322
50	0x3df783eb	0.12085708
51	0xbe2bc4bc	-0.16774267
52	0x3e022e15	0.12712891
53	0x3d095809	0.033531222
54	0xbe19947e	-0.14998052
55	0x3e9969b0	0.29963446
56	0xbdb1ee53	-0.08688035
57	0x3dd6354d	0.10459385
58	0x3c8cb1f2	0.017174695
59	0x3e539a5b	0.2066435
60	0x3e1fd4f3	0.15608577
61	0xbd94617d	-0.07245157
62	0x3e49caab	0.19706218
63	0x3dc8238d	0.09772406
64	0xbc07e361	-0.008293957
65	0x3d5130aa	0.0510718
66	0x3d80ba3a	0.0628552
67	0xbd903dc0	-0.07043028
68	0x3cfa28c2	0.030537013
69	0x3cd80d2d	0.02637347
70	0xbe8b1291	-0.27162603
71	0x3ecba521	0.3977442
72	0xbce8e058	-0.028427288
73	0x3dfc90fd	0.12332342
74	0x3f1c263e	0.6099585
75	0x3e5c3a03	0.21506505
76	0xbd364725	-0.044501442
77	0xbe91e05d	-0.28491488
78	0x3e636c76	0.22209343
79	0xbdd97b9e	-0.10619281
80	0x3f10cfb5	0.56566936
81	0x3e6542ff	0.22388838
82	0xbd80e36b	-0.062933765
83	0xbcb89249	-0.022530692
84	0x3db21ed3	0.086972855
85	0xbe57d7aa	-0.21078363
86	0x3efab7e7	0.4896843
87	0xbd4f8d40	-0.050671816
88	0x3ce3f8dc	0.027828626
89	0xbdf36add	-0.11885617
90	0xbde5cd0e	-0.11220752
91	0x3e98ddde	0.2985677
92	0xbef1b0cf	-0.47205207
93	0xbd7cbeb2	-0.0617053
94	0xbddf7a60	-0.10912013
95	0x3da87171	0.08224762
96	0x3d3f537b	0.046710473
97	0x3e932474	0.2873875
98	0xbec58ed5	-0.38585535
99	0xbe6c621f	-0.23084305
100	0xbe68adfb	-0.22722618
101	0x3e00db49	0.1258365
102	0xbd7644c2	-0.060124166
103	0x3ee0468e	0.4380383
104	0xbeebb847	-0.4603903
105	0x3c2281cf	0.009918644
106	0xbe572e7f	-0.2101383
107	0x3c1f5956	0.009725889
108	0x3d529d99	0.051419828
109	0x3cb55e5a	0.022139717
110	0x3e6be49c	0.23036426
111	0x3de44df5	0.111476816
112	0xbe031912	-0.12802532
113	0x3d9f2fc4	0.077727824
114	0xbd9ec3b7	-0.077521734
115	0xbe13b35e	-0.14423892
116	0x3f021906	0.5081943
117	0x3e066ed1	0.1312821
118	0x3d1a530c	0.037676856
119	0x3db00b2b	0.0859588
120	0xbc510928	-0.012758531
121	0xbe919de1	-0.28440765
122	0x3eeb2233	0.4592453
123	0x3e804d91	0.25059178
124	0xbc9fa201	-0.01948643
125	0x3e4ffd48	0.20311463
126	0xbcc046fc	-0.023471348
127	0x3dcfe323	0.10150745
128	0xbda01a56	-0.07817523
129	0xbd815bc1	-0.06316329
130	0xbf211c6f	-0.6293401
131	0xbdf68cad	-0.120385505
132	0xbe50e62b	-0.20400302
133	0xbd2eda5a	-0.042688705
134	0xbe20c572	-0.1570032
135	0xbd87018b	-0.06592091
136	0x3e802286	0.2502634
137	0xbdacbf94	-0.08434978
138	0x3e1c3de7	0.15257989
139	0x3ca87726	0.020564627
140	0x3e1d9467	0.15388642
141	0x3dbd526b	0.092442356
142	0x3eb23e9f	0.348134
143	0x3e698391	0.22804095
144	0xbe5b10f1	-0.21393181
145	0xbe5833df	-0.21113537
146	0xbdc6b36c	-0.09702191
147	0x3e204aad	0.15653487
148	0xbd868701	-0.06568719
149	0x3df1a473	0.11798944
150	0xbdb35632	-0.08756675
151	0xbdd538ee	-0.10411249
152	0xbe81afb9	-0.25329378
153	0xbdee5f21	-0.11639238
154	0xbd3ea29b	-0.04654179
155	0x3e06373e	0.1310701
156	0x3d9d3c53	0.076775216
157	0x3c97eb98	0.018544957
158	0xbdad53f4	-0.084632784
159	0xbe7bfbba	-0.24607745
160	0x3e24ffb2	0.16113165
161	0x3db00fb2	0.08596744
162	0x3cc18f60	0.023627937
163	0x3f1544cd	0.58308107
164	0x3ea854e0	0.32877254
165	0xbe8d1af7	-0.27559635
166	0xbdc50b08	-0.09621245
167	0xbeab7a62	-0.33491808
168	0x3e66e867	0.22549592
169	0x3f6052ef	0.87626547
170	0x3ea8a42c	0.32937753
171	0x3d2adba2	0.041713364
172	0xbe0d70f7	-0.13812624
173	0x3e288f00	0.164608
174	0x3e8c40f6	0.2739331
175	0x3f3414c0	0.7034416
176	0x3f0a30a3	0.53980464
177	0x3cdeb02e	0.027183618
178	0xbeb39782	-0.3507653
179	0xbdeafd14	-0.11474052
180	0xbddc301f	-0.10751366
181	0x3d3b65d3	0.045751404
182	0x3db77731	0.08958281
183	0xbe8fb180	-0.2806511
184	0x3ea48eb2	0.32140118
185	0xbebcdca4	-0.36887085
186	0x3db535c6	0.08848147
187	0x3cd361f1	0.025803538
188	0x3c7a4dfd	0.015277383
189	0x3e3cd6c9	0.18441309
190	0xbe95e420	-0.29275608
191	0x3ed350ef	0.41272685
192	0x3da7b133	0.08188095
193	0xbd920997	-0.07130735
194	0xbe32a670	-0.17446303
195	0x3db86ae3	0.09004762
196	0xbdea1c5f	-0.114311926
197	0xbdafac37	-0.08577769
198	0x3ee23279	0.44179133
199	0x3fc4ddc9	1.5380183
200	0xbf169ae9	-0.58830124
201	0x3d1a25ff	0.037633892
202	0x3e2759e4	0.16342884
203	0xbc837663	-0.016047662
204	0x3e8a6228	0.27028012
205	0x3fb0eeaa	1.3822834
206	0xbedd7a38	-0.43257308
207	0xbe19e943	-0.15030389
208	0xbe905d6b	-0.28196272
209	0x3d5fd5c5	0.054647226
210	0xbd71d9f0	-0.059045732
211	0x3fa28b20	1.2698708
212	0xbf120daf	-0.5705213
213	0xbdd7bfc4	-0.10534623
214	0x3e0fe5db	0.14052527
215	0xbe4b978c	-0.1988203
216	0xbea0d269	-0.3141053
217	0x3d1263eb	0.03573982
218	0xbef8dc6f	-0.48605677
219	0xbdcfe34a	-0.10150774
220	0xbe37ec81	-0.17961313
221	0xbd94dc85	-0.07268623
222	0xbe2b9a04	-0.16757971
223	0x3db0fe4e	0.08642255
224	0xbe8b5129	-0.27210358
225	0x3da24dc8	0.07924992
226	0x3e43cb3d	0.19120498
227	0xbd8b42a9	-0.06799824
228	0xbe2ea551	-0.1705525
229	0xbd7222fd	-0.0591154
230	0xbe17f807	-0.14840709
231	0x3e4459b7	0.19174848
232	0x3ca299b3	0.01984868
233	0xbdff5984	-0.124682456
234	0xbd89e8c7	-0.06733852
235	0xbec5f448	-0.38662934
236	0xbec36025	-0.3815929
237	0xbd605b68	-0.05477467
238	0xbca3c495	-0.019991199
239	0xbd35cfac	-0.044387504
240	0xbe13ad62	-0.14421609
241	0xbf06ced7	-0.5265936
242	0xbef0893a	-0.46979696
243	0x3d81783e	0.063217625
244	0xbe3cd735	-0.1844147
245	0xbe8a3ff8	-0.2700193
246	0x3e498255	0.19678624
247	0xbeec9e33	-0.46214446
248	0xbef26d99	-0.4734924
249	0x3e527194	0.20551139
250	0xbe704aee	-0.23466083
251	0x3d3d14b5	0.046162326
252	0x3dbc1966	0.09184532
253	0x3e897182	0.26844412
254	0x3cbff956	0.023434322
255	0xbe5f06ae	-0.21779892

sequential/conv1d_1/Conv1D f4 [64, 1, 3, 32]
0	0x3ed0a045	0.40747276
1	0x3e06a07d	0.13147159
2	0x3eb941cd	0.36183015
3	0xbebf0338	-0.37307143
4	0xbf23683f	-0.6383094
5	0x3eb6df9c	0.35717475
6	0xbdcf79a6	-0.101306245
7	0x3ee6266b	0.44951186
8	0x3e588deb	0.21147887
9	0xbf0bb4b7	-0.54572624
10	0x3d7c2546	0.061558984
11	0x3e8eccdc	0.2789067
12	0xbd89a8dd	-0.06721661
13	0xbe2aca83	-0.16678815
14	0xbe67ffd4	-0.22656184
15	0x3e7db7a7	0.24777089
16	0xbddc4b36	-0.10756533
17	0x3e2af2ea	0.16694227
18	0xbca6a13e	-0.020340558
19	0xbf1418ad	-0.5785015
20	0x3e96f77e	0.29485697
21	0xbfa612ed	-1.2974526
22	0xbf2cf8f6	-0.67567384
23	0xbebfca81	-0.37459186
24	0xbf0dbab8	-0.55363035
25	0x3ec5cf57	0.3863475
26	0xbe63d44e	-0.22248957
27	0xbe255ded	-0.16149111
28	0xbd4ff499	-0.050770376
29	0x3e6f4622	0.23366597
30	0x3da84dd6	0.08217971
31	0xbe0141b4	-0.1262272
32	0xbf237a47	-0.63858455
33	0xbead1068	-0.3380158
34	0x3e379ca7	0.17930852
35	0x3ea08b83	0.3135644
36	0xbe62c6b7	-0.22146116
37	0xbf1cb3d8	-0.6121192
38	0xbdce7a3b	-0.10081907
39	0x3eeb8049	0.4599631
40	0xbf052494	-0.5200894
41	0xbe9850d8	-0.2974918
42	0xbec98419	-0.39358595
43	0x3e431c96	0.19053873
44	0x3e496a5f	0.19669484
45	0xbf3a3a29	-0.72744995
46	0xbe905c34	-0.28195345
47	0x3d8775ea	0.06614287
48	0xbf3082d0	-0.68949604
49	0x3de6b0ab	0.112641655
50	0x3e72ff5f	0.23730229
51	0xbd6c4d8d	-0.057691146
52	0xbdf8a06e	-0.121399745
53	0xbe5afe86	-0.21386155
54	0x3e18b106	0.14911279
55	0xbef21335	-0.4728028
56	0x3e3aa8d4	0.18228465
57	0x3db06713	0.0861341
58	0xbebfbe2f	-0.37449786
59	0x3eb97da6	0.36228675
60	0xbe5950ad	-0.21222182
61	0x3e34816b	0.17627494
62	0xbf1fb5c7	-0.62386745
63	0xbfa77ea5	-1.3085524
64	0xbf67ee9d	-0.9059847
65	0xbf4cfabb	-0.80070084
66	0x3d94e74b	0.07270678
67	0x3f0e84ee	0.55671585
68	0xbf640e60	-0.89084435
69	0xbec3cf44	-0.3824407
70	0xbf0a03ec	-0.53912234
71	0xbe621595	-0.22078545
72	0x3ef14cca	0.47128898
73	0xbe87c156	-0.2651469
74	0x3dade936	0.08491747
75	0xbd3097de	-0.04311358
76	0xbe8c68a8	-0.27423596
77	0x3cdfaa09	0.027302759
78	0xba278948	-0.0006391001
79	0x3da42fb4	0.08016911
80	0xbf7a77af	-0.9783887
81	0x3e366c9d	0.1781487
82	0xbf27ad12	-0.6549846
83	0xbe293704	-0.16524893
84	0xbebfc70d	-0.3745655
85	0xbdf63a9b	-0.12022897
86	0x3e8b12c0	0.27162743
87	0xbf8192c6	-1.0122917
88	0x3d4f83c6	0.05066278
89	0xbf3fcd85	-0.7492297
90	0xbda9fd5e	-0.08300279
91	0x3de0bc49	0.109734125
92	0x3d8b62c6	0.06805949
93	0xbd699ec3	-0.057036173
94	0xbe866c3f	-0.2625446
95	0xbf6753aa	-0.90362036
96	0x3c91fc9e	0.017820653
97	0xbe6b467c	-0.22976106
98	0x3db40cca	0.08791502
99	0xbd43a26d	-0.047762323
100	0xbf5fab48	-0.8737073
101	0xbdee154d	-0.116251566
102	0xbf189ec9	-0.59617287
103	0x3d0e22fa	0.034701325
104	0xbe125666	-0.14290771
105	0x3e2bb660	0.1676879
106	0x3d9a45ce	0.075328454
107	0x3bc703b6	0.0060734404
108	0xbf03f2dc	-0.5154245
109	0xbee40650	-0.44536066
110	0x3e02568a	0.12728325
111	0x3e2e6a80	0.17032814
112	0x3e5e8243	0.21729378
113	0x3d0512b6	0.032488547
114	0x3e0a9bc0	0.13535976
115	0xbf15832e	-0.5840329
116	0xbe867ee6	-0.2626869
117	0xbec661cb	-0.38746485
118	0xbe608690	-0.21926332
119	0x3ed4f7b2	0.41595227
120	0x3e68726e	0.22699901
121	0x3eb630b1	0.35584024
122	0xbf83ceb7	-1.0297459
123	0x3ea8c48f	0.32962462
124	0x3ea076bf	0.31340596
125	0xbf8e601d	-1.1123081
126	0xbd41916b	-0.047257822
127	0x3d94d79a	0.07267685
128	0x3e0efe70	0.13964248
129	0xbda6776e	-0.08128248
130	0x3e8178ee	0.25287575
131	0x3dd4ad22	0.10384585
132	0xbeec372a	-0.46135837
133	0xbeb314e3	-0.34976873
134	0xbea34c63	-0.31894216
135	0xbe2ba0bc	-0.16760534
136	0xbdb88f7d	-0.09011743
137	0xbe2d736c	-0.16938561
138	0xbea8caeb	-0.32967314
139	0x3e4d36a8	0.20040381
140	0xbd7d6fff	-0.061874386
141	0x3dd24a86	0.102681205
142	0xbdc868fe	-0.09785651
143	0xbdb15062	-0.0865791
144	0xbd24bd62	-0.040219672
145	0x3e953dd6	0.2914874
146	0xbeeb943e	-0.46011537
147	0xbfbe3d39	-1.4862434
148	0xbee4852e	-0.44632858
149	0xbe7ba3d1	-0.2457421
150	0xbbf020f3	-0.0073281466
151	0xbe7667bb	-0.24063008
152	0x3e91903b	0.28430352
153	0xbe94ec43	-0.29086503
154	0xbf6189f3	-0.8810112
155	0x3dcd08a0	0.10011411
156	0x3e447332	0.19184569
157	0xbf85bccd	-1.0448242
158	0xbe897d56	-0.26853436
159	0x3e515cb4	0.2044552
160	0x3ec642a2	0.38722712
161	0x3e83a23d	0.25709715
162	0x3e9990c0	0.29993248
163	0x3f065223	0.5246908
164	0xbebfe1ee	-0.37477058
165	0xbde660d4	-0.11248937
166	0x3e762730	0.24038386
167	0x3f0b91e7	0.54519504
168	0x3ebe7828	0.37201047
169	0xbecc3fd0	-0.39892435
170	0x3d43da9e	0.04781591
171	0x3de591ef	0.11209475
172	0x3e9c54ba	0.3053339
173	0x3c56a871	0.013101683
174	0xbd071e95	-0.03298815
175	0xbf424554	-0.75887036
176	0xbf3ce79c	-0.7379091
177	0x3e0bd5ec	0.13655823
178	0xbe8c90ee	-0.27454323
179	0xbdf555c1	-0.11979247
180	0xbf316a9f	-0.69303316
181	0xbdaf9edb	-0.08575221
182	0x3ea19e03	0.31565866
183	0xbeb28cd0	-0.34873056
184	0x3ed79e7f	0.4211311
185	0x3da33bb4	0.07970372
186	0xbdb81cdb	-0.08989879
187	0x3e4395fd	0.19100185
188	0x3e8ecbd5	0.27889886
189	0xbf41f00e	-0.7575692
190	0xbe8e6c6c	-0.27817094
191	0x3c16012c	0.009155553
192	0xbd49a5f0	-0.049230516
193	0xbe5dd78d	-0.21664257
194	0x3eecca34	0.4624802
195	0xbf022b26	-0.5084709
196	0xbf298aac	-0.6622722
197	0xbef12ab0	-0.4710288
198	0xbf3f57cd	-0.7474335
199	0xbace07e8	-0.0015718909
200	0xbd7d826b	-0.061891954
201	0xbea2c8ad	-0.31793728
202	0xbdbda3d9	-0.09259767
203	0x3e9116eb	0.28337798
204	0x3ecf3c06	0.40475482
205	0xbd32e2a7	-0.043673184
206	0x3ed09e90	0.40745974
207	0x3e757877	0.23971735
208	0x3ecec556	0.4038493
209	0x3e9d195f	0.3068342
210	0x3e18bbfe	0.14915463
211	0xbe6ed7a1	-0.23324443
212	0xbd4e337a	-0.05034206
213	0x3e0b4e7a	0.13604155
214	0x3c3939ba	0.011305267
215	0x3e223172	0.15839174
216	0xbf62d19a	-0.88601077
217	0x3de64615	0.11243836
218	0xbf0488df	-0.5177135
219	0x3ea5ce82	0.32384115
220	0xbab8f2d7	-0.0014110458
221	0x3dd35c86	0.10320382
222	0x3ebbe4e8	0.3669808
223	0xbf524c74	-0.8214791
224	0xbd4adbb7	-0.049525943
225	0x3c81d2d5	0.015847603
226	0xbeabee8d	-0.33580437
227	0xbe7aa148	-0.24475586
228	0x3db31602	0.08744432
229	0xbe675047	-0.22589217
230	0xbd650109	-0.05590919
231	0x3eb35229	0.3502362
232	0xbf0e656c	-0.5562351
233	0x3e7b3502	0.2453194
234	0x3e20b512	0.15694073
235	0xbead7f95	-0.338864
236	0xbe4b47b0	-0.19851565
237	0xbe1c9f66	-0.1529518
238	0xbec608f4	-0.38678706
239	0x3c798ab3	0.015230822
240	0xbe4848b0	-0.19558978
241	0xbd8dfa87	-0.0693255
242	0xbea08b54	-0.313563
243	0x3e778834	0.24173051
244	0x3e1443e9	0.1447903
245	0x3e245b4a	0.16050449
246	0xbe5b1b7e	-0.21397206
247	0x3d8fe95e	0.07026933
248	0xbea8f8b9	-0.3300226
249	0x3d826f1a	0.06368847
250	0xbe252ee7	-0.16131173
251	0xbea4a758	-0.32158923
252	0xbc38428e	-0.011246337
253	0xbe01bdef	-0.1267011
254	0x3e5831bf	0.21112727
255	0x3db478ef	0.08812129

sequential/dense/BiasAdd/ReadVariableOp f4 [64]
0	0xbdcf61f4	-0.10126105
1	0x3e359b86	0.17735109
2	0xbf2a0765	-0.66417533
3	0xbe414890	-0.18875337
4	0xbf8061b0	-1.0029812
5	0xbe88b0cb	-0.26697382
6	0xbf9e1a34	-1.2351747
7	0xbf0be839	-0.5465122
8	0xbf646b92	-0.8922664
9	0xbde435c7	-0.1114307
10	0xbdede713	-0.116163395
11	0xbe7a0b0b	-0.24418275
12	0xbf735f2c	-0.95067096
13	0x3e52c351	0.2058232
14	0xbf2e5915	-0.6810468
15	0xbed54a09	-0.41658047
16	0x3f83c902	1.0295718
17	0xbd747723	-0.05968393
18	0xbf229b56	-0.63518274
19	0xbdcbd52e	-0.0995277
20	0xbf59c2c5	-0.8506282
21	0xbf3aed46	-0.730183
22	0x3bc5995d	0.006030245
23	0xbe094f8d	-0.13409252
24	0xbed84bac	-0.42245233
25	0xbccd1301	-0.025033476
26	0xbda2f771	-0.07957352
27	0xbeaa4fbc	-0.33263958
28	0x3ec1faa3	0.37886533
29	0xbf1880cd	-0.59571534
30	0xbf36bb74	-0.7137978
31	0xbf05e754	-0.52306104
32	0xbde86bb5	-0.113486685
33	0x3f0c16a4	0.54722047
34	0xbd998e73	-0.07497873
35	0xbd969ad8	-0.07353753
36	0xbda1e0d6	-0.07904212
37	0xbed1b71f	-0.40960023
38	0xbed6ae8b	-0.4193004
39	0xbf9bee3b	-1.2182077
40	0xbf0802b4	-0.53129125
41	0x3e017f7b	0.12646286
42	0xbf1b5e14	-0.60690427
43	0x3bea133f	0.0071434076
44	0xbea2eb12	-0.3181997
45	0xbe0c8cd9	-0.13725604
46	0xbda7a4cf	-0.081857316
47	0xbf01b036	-0.506595
48	0xbefa72cb	-0.48915705
49	0xbf0430a1	-0.516367
50	0x3e6da7e2	0.23208573
51	0xbd7d6be4	-0.06187047
52	0x3e05a5ca	0.13051525
53	0xbf648695	-0.89267856
54	0x3e962346	0.29323786
55	0xbeca6136	-0.3952729
56	0xbef60d6a	-0.4805711
57	0xbf668883	-0.9005205
58	0xbee731ff	-0.45155331
59	0xbde42f9a	-0.11141892
60	0xbe6c247b	-0.23060791
61	0xbf39a4d2	-0.7251712
62	0xbfa9e2ff	-1.3272399
63	0x3f127ea7	0.57224506

sequential/dense_1/BiasAdd/ReadVariableOp f4 [44]
0	0xc095108e	-4.658271
1	0xbe83939c	-0.25698555
2	0xbd27e5e9	-0.040990744
3	0x3f0a79dd	0.540922
4	0x3f157434	0.58380437
5	0xbef57ec2	-0.4794827
6	0x3c908d5d	0.017645532
7	0xbf2c5333	-0.6731445
8	0x3f4e3d85	0.8056262
9	0x3fdb3263	1.7124752
10	0x3fdd6fff	1.7299803
11	0x3b8831c9	0.0041563255
12	0xbf12fa44	-0.57413125
13	0x3ea4090b	0.3203815
14	0x3ea698db	0.32538494
15	0x3def3ed8	0.11681908
16	0x3e770ac7	0.24125205
17	0x3e874277	0.26417896
18	0xbec428f8	-0.38312507
19	0x3edbd372	0.42934757
20	0xbdf1f491	-0.118142255
21	0xbe1a57e1	-0.15072586
22	0x3f4d7a48	0.8026471
23	0x3ea9b8ba	0.33148748
24	0xbe60b8d2	-0.21945503
25	0xbe7fd048	-0.24981797
26	0xbd4c8398	-0.049930185
27	0xbeda3f4f	-0.42626426
28	0x3da4d66e	0.08048712
29	0xc09e5451	-4.9477925
30	0x3d4b5e43	0.04965044
31	0xbf4ba120	-0.7954273
32	0xbf096a06	-0.53677404
33	0xbe889905	-0.26679245
34	0x3f4ffb5e	0.8124293
35	0xbeedd09d	-0.46448222
36	0xbd1c16b5	-0.038107593
37	0x3ef21f48	0.4728949
38	0x3ef1d141	0.4722996
39	0x3eea67ce	0.45782322
40	0xbe90eba8	-0.2830479
41	0x3e80f1e9	0.25184563
42	0xbed1d047	-0.40979216
43	0x3c862604	0.01637555

sequential/dense/MatMul f4 [64, 1088]
0	0xbd875a3c	-0.06609008
1	0xbd071c2c	-0.03298585
2	0xbd881095	-0.06643788
3	0xbc8dad6a	-0.017294604
4	0x3b39f67d	0.0028375678
5	0x3b0aea4e	0.0021196785
6	0xbc9738e5	-0.018459747
7	0xbd5651fb	-0.052324276
8	0xbd15aa79	-0.03653953
9	0xbbd08f29	-0.0063647223
10	0xbd813d0e	-0.063104734
11	0x3d1f33a0	0.038867593
12	0xbc16fb45	-0.009215181
13	0xbbc3b63c	-0.0059726518
14	0xbc97b37f	-0.018518208
15	0xbd3f05c6	-0.046636365
16	0x3d518436	0.051151477
17	0xbdca4a89	-0.09877498
18	0xbdc6aded	-0.097011425
19	0x3c59ac3c	0.013285693
20	0xbd6e3ae9	-0.05816165
21	0x3d159553	0.03651936
22	0x3ccc0f77	0.024909718
23	0xbc3ed5fa	-0.011647696
24	0xbd72d5ce	-0.05928593
25	0xbdbd6562	-0.09247853
26	0xbd2b5f7d	-0.04183911
27	0xbd0370cc	-0.032089993
28	0x3d528827	0.051399376
29	0xbd848e53	-0.06472459
30	0x3d7fc2cc	0.062441632
31	0xbdb181d8	-0.08667344
32	0xbd082701	-0.033240322
33	0xbd8847c6	-0.06654315
34	0x3cec7a7f	0.028867004
35	0xbc2a6380	-0.010399699
36	0xbd28e641	-0.041235212
37	0xbd2f02bc	-0.042727217
38	0xbc15b93b	-0.009138401
39	0xbd691ef1	-0.056914274
40	0xbd3d5fd6	-0.046233974
41	0x3c56a747	0.013101405
42	0xbd8fbeb8	-0.070187986
43	0xbd79c78a	-0.06098131
44	0xbd2ad917	-0.04171094
45	0xbcd4ac4c	-0.025961064
46	0x3c4517a9	0.012029567
47	0x3d68f3c0	0.056873083
48	0xbc84ef99	-0.01622753
49	0xbd36fd57	-0.044675197
50	0xbcdb9c60	-0.026807964
51	0xbde1fee5	-0.110349454
52	0xbd145cf4	-0.03622146
53	0xbd3f5bd3	-0.04671843
54	0xbd122c99	-0.035687063
55	0x3d1c4542	0.038151987
56	0xbd848538	-0.06470722
57	0xbd37f50f	-0.04491144
58	0xbbac0d1c	-0.005250586
59	0x3c7f407a	0.015579337
60	0x3c185438	0.009297423
61	0xbd9a3541	-0.075296886
62	0xbd236166	-0.03988781
63	0x3cb55eae	0.022139873
64	0xbd1650fc	-0.036698326
65	0x3c8a7176	0.016899806
66	0xb9d7625f	-0.00041081288
67	0xbc4230be	-0.011852441
68	0xbcbb401e	-0.022857722
69	0x3c687e09	0.014190205
70	0xbb67bea6	-0.0035361438
71	0xbd874a3a	-0.066059545
72	0x3d0bfe9b	0.034178358
73	0x3c4387c4	0.0119342245
74	0xbc5ebcad	-0.0135947885
75	0xbb3e1f3e	-0.002901032
76	0x3bec8234	0.00721767
77	0xbce27909	-0.027645605
78	0x3d71dda6	0.05904927
79	0xbd944e49	-0.07241494
80	0xbcced9d5	-0.025250355
81	0xbcd88aec	-0.02643343
82	0xbdbf219d	-0.09332583
83	0xbd50ae2a	-0.050947346
84	0xbccadc41	-0.024763228
85	0xbc76467d	-0.015031454
86	0xbcc66649	-0.024218695
87	0x3c8c1330	0.017098993
88	0x3d86c4e6	0.06580524
89	0xbc1a4c94	-0.009417672
90	0x3d8ca9ef	0.0686835
91	0x3cc92516	0.024553817
92	0xbdab28cd	-0.083573915
93	0xbd493e40	-0.04913163
94	0xbd865aa9	-0.06560261
95	0x3b5fbcfd	0.0034139745
96	0x3b268dc1	0.0025414082
97	0x3ceece24	0.02915103
98	0x3cee0e7d	0.029059643
99	0x3c814a7d	0.01578259
100	0x3d374aa1	0.044748906
101	0x3d396a4b	0.045267384
102	0xbd6722ec	-0.05642979
103	0xbcce1117	-0.025154633
104	0xbccd3547	-0.025049819
105	0xbddb882f	-0.10719334
106	0x3d05dbaa	0.03268019
107	0xbc8a49a8	-0.016880825
108	0xbd004dc2	-0.031324156
109	0xbcb72a89	-0.02235915
110	0xbd90458a	-0.070445135
111	0x3d6b17a5	0.057395596
112	0x3bb9863c	0.005661754
113	0xbdd79057	-0.105255775
114	0xbc23d39a	-0.00999918
115	0xbdc6a825	-0.0970004
116	0xbc8e8f83	-0.017402416
117	0xbc8d0ff9	-0.01721953
118	0xbd47a250	-0.048738778
119	0x3d0b6d2e	0.03403967
120	0xbb6849e0	-0.0035444424
121	0xbd936446	-0.0719686
122	0x3c100be2	0.008791896
123	0xbd23abfd	-0.039958943
124	0xbd9d42d8	-0.07678765
125	0xbd8aa3dc	-0.06769535
126	0xbd19f7e9	-0.03758994
127	0xbd5aedde	-0.053449504
128	0xbce2ac29	-0.027669983
129	0xbd26e4ac	-0.040745422
130	0x3c4d05b5	0.012513568
131	0x3b8ca10e	0.00429166
132	0xbd5e6912	-0.05429942
133	0x3d3afadb	0.04564939
134	0xbd8069ee	-0.062702045
135	0xbd5896e2	-0.052878268
136	0x3b25a48a	0.0025275075
137	0xbdbf4dca	-0.09341009
138	0xbd39db57	-0.045375194
139	0xbd5cea8e	-0.053934626
140	0xbd897d81	-0.06713391
141	0xbd6817c9	-0.05666331
142	0xbcb4728c	-0.022027276
143	0xbd4a589c	-0.04940091
144	0xbc9114e8	-0.017710164
145	0xbd5b19da	-0.05349145
146	0xbdb49b02	-0.08818628
147	0xbc3e53d6	-0.011616668
148	0xbd8cb4c6	-0.06870417
149	0xbd878354	-0.06616846
150	0xbd8058bc	-0.06266925
151	0x3d0747ec	0.033027574
152	0x3d7bf01a	0.061508276
153	0xbcf9fa25	-0.030514786
154	0xbc5bec28	-0.013423003
155	0xbcb4d34f	-0.022073416
156	0xbd77a7c6	-0.060462736
157	0x3c394ce0	0.011309832
158	0x3d89f055	0.06735293
159	0xbd8ad281	-0.06778432
160	0xbc4a2b12	-0.01233937
161	0x3bcfd3c4	0.006342383
162	0x3d6c1594	0.057637766
163	0xbd36683a	-0.044532992
164	0x3b1d3b29	0.002399156
165	0x3b82c3e3	0.0039906367
166	0xbd41f445	-0.047352094
167	0x3c275c23	0.010214838
168	0xbd86d7db	-0.0658414
169	0xbdae44ca	-0.08509214
170	0xbc6ff4a0	-0.0146457255
171	0xbd4d174f	-0.050071057
172	0xbdce75b2	-0.10081042
173	0xbd3bd4e0	-0.04585731
174	0x3cf8fc0e	0.030393627
175	0x3ab52c00	0.0013822317
176	0xbc266883	-0.0101567535
177	0xbbb83101	-0.005621076
178	0xbc3be202	-0.011467459
179	0xbd5964e2	-0.053074725
180	0x3bdbb5db	0.0067050285
181	0x3bc42e9d	0.005987002
182	0x3b88faa9	0.0041802716
183	0xbc91bb4b	-0.017789504
184	0xbd2b5c22	-0.04183591
185	0x3c9b9c23	0.01899535
186	0xbb9c8760	-0.00477688
187	0x3d03e77d	0.032203186
188	0xbd8c39ad	-0.06846938
189	0x3ce490a9	0.02790101
190	0x3bfc8867	0.00770669
191	0xbd32c8a1	-0.043648366
192	0xbd1205ab	-0.035649937
193	0xbd024624	-0.031805173
194	0x3d0a3e15	0.033750612
195	0x3cc28ac9	0.023747819
196	0xbd994e66	-0.074856564
197	0xbd8c8779	-0.06861777
198	0xbd5725df	-0.05252635
199	0x3c5aba49	0.013350078
200	0x3cc28b3d	0.023748035
201	0xbcf8d034	-0.030372716
202	0xbd583872	-0.052788205
203	0xbcae8233	-0.021302318
204	0xbd309d45	-0.043118734
205	0x3c497e23	0.01229814
206	0xbd761d3c	-0.060086474
207	0x3cc7f2fa	0.024407852
208	0x3d3fb2ff	0.046801563
209	0xbd9df719	-0.07713146
210	0xbd98cd26	-0.07461004
211	0xbdb2a82f	-0.08723485
212	0x3cb052b4	0.02152381
213	0xbc2fa5ac	-0.010720652
214	0xbd07da02	-0.033166893
215	0x3bc0f007	0.0058879885
216	0xbd0e2148	-0.03469971
217	0xbcb3d438	-0.02195178
218	0xbcedaa14	-0.029011764
219	0x3d28cde4	0.041211978
220	0xbd0f7c52	-0.03503067
221	0xbcd318d2	-0.025768671
222	0x3d9435f0	0.0723685
223	0xbd8e77e9	-0.06956465
224	0xbd3c5ad8	-0.045985073
225	0xbdd64ac0	-0.10463476
226	0xbd60d584	-0.054891124
227	0xbb97c1c4	-0.004631253
228	0xbd5fa3dd	-0.05459963
229	0xbbbdf8f8	-0.0057975017
230	0xbd83b797	-0.06431501
231	0xbd931f35	-0.07183687
232	0x3ceafbad	0.028684461
233	0x3c01cee4	0.007922862
234	0xbcc642c9	-0.024201768
235	0x3d3fdecb	0.04684333
236	0x3cbf34b0	0.023340553
237	0xbdb51386	-0.088416144
238	0x3cf54ab7	0.029942853
239	0xbc0e3dc7	-0.008681721
240	0xbd889da3	-0.06670692
241	0xbd8ec5ae	-0.06971298
242	0x3c7445a8	0.0149091855
243	0xbd861c22	-0.06548335
244	0xbd96f88a	-0.07371624
245	0x3cc8ca8f	0.02451065
246	0xbd7444c2	-0.059635885
247	0xbddedd84	-0.108820945
248	0xbc976113	-0.018478906
249	0xbceab5a3	-0.028651064
250	0x3b9a518a	0.0047094272
251	0xbd1e8373	-0.03869958
252	0xbdb55793	-0.08854594
253	0xbcf5eec6	-0.030021083
254	0xbd27026c	-0.040773794
255	0x3d446b8e	0.047954135

sequential/dense_1/MatMul f4 [44, 64]
0	0xbe7a6c9c	-0.24455494
1	0xbf342328	-0.70366144
2	0xbdf90b84	-0.121603996
3	0xbf3df2aa	-0.741984
4	0xbf2714b9	-0.65265995
5	0xbe6f4e91	-0.23369814
6	0xbc25caed	-0.010119182
7	0xbf454fb0	-0.7707472
8	0xbf001c81	-0.50043494
9	0xbe84ba3c	-0.25923336
10	0xbd70111a	-0.05861006
11	0xbf365461	-0.712225
12	0xbf03d26f	-0.5149297
13	0xbecd427f	-0.40089795
14	0x3d73cc47	0.059520986
15	0xbeb856e6	-0.36003798
16	0xbfab6d34	-1.3392701
17	0x3bb620e8	0.005558122
18	0xbe4e9680	-0.20174599
19	0x3db4cac9	0.08827741
20	0xbe4b8f16	-0.19878802
21	0xbeb2cff5	-0.34924284
22	0xbdff41ea	-0.12463744
23	0xbdc4f3d4	-0.09616819
24	0x3e5ddc3f	0.21666048
25	0xbea3f5ce	-0.32023472
26	0xbd021648	-0.03175953
27	0xbf78c5e4	-0.9717696
28	0xbf510188	-0.8164296
29	0xbe061cfa	-0.13096991
30	0xbef7797a	-0.48334867
31	0xbf00ccf3	-0.5031273
32	0xbdb6dabc	-0.08928439
33	0xbee031e8	-0.43788075
34	0x3e30f681	0.17281534
35	0xbe38c5e3	-0.18044238
36	0xbb2f17ef	-0.0026717146
37	0xbed9a630	-0.42509604
38	0xbf0793f8	-0.5296016
39	0x3eb95fdc	0.36205947
40	0xbdaf50d4	-0.085603386
41	0xbee5e0c8	-0.44898057
42	0xbde6e61b	-0.11274358
43	0xbf8eef20	-1.1166725
44	0xbfb92d1d	-1.4466892
45	0xc001d669	-2.0287116
46	0xbf3c83a4	-0.7363837
47	0xbf61bc1b	-0.8817765
48	0xbef8cfe7	-0.48596117
49	0x3de37490	0.11106217
50	0xbf4a6b29	-0.79069763
51	0xbd898034	-0.06713906
52	0x3d93a218	0.07208651
53	0xbd340e3a	-0.04395888
54	0xbe8fa3db	-0.280547
55	0xbf2f3c64	-0.68451524
56	0xbc87022c	-0.016480528
57	0xbd58edbf	-0.052961107
58	0xbeebcee3	-0.4605628
59	0xbd659fa4	-0.05606045
60	0xbeb08dc8	-0.3448317
61	0xbecc6d41	-0.39927104
62	0xbd0dad77	-0.034589257
63	0xbfdfafc9	-1.747552
64	0x3e0f7c32	0.1401222
65	0x3caa76bd	0.020808572
66	0xbf8d4f1c	-1.1039767
67	0xbf15e967	-0.5855927
68	0xbfcebb1d	-1.6150852
69	0xbddc11e5	-0.107456006
70	0xbf36ae94	-0.71360135
71	0xbd151e66	-0.036405943
72	0xbededa1e	-0.43525785
73	0xbe26d028	-0.16290343
74	0xbe2a26cf	-0.16616367
75	0xbe530121	-0.206059
76	0xbfa788fa	-1.3088677
77	0xbfe05310	-1.7525349
78	0xbb808611	-0.003922232
79	0xbfad19c5	-1.3523489
80	0x3da1c9d0	0.07899821
81	0xbcde4c01	-0.02713585
82	0xbfa5c40e	-1.2950456
83	0xbe8f99b5	-0.28046957
84	0xbf86732d	-1.0503899
85	0xbf985da4	-1.1903577
86	0xbf154832	-0.58313286
87	0xbfc21d72	-1.5165236
88	0xbdc3556e	-0.09537779
89	0xbefcfaf6	-0.49410218
90	0xbdff2f6e	-0.12460218
91	0xc034ce07	-2.825075
92	0xbf54595a	-0.8294884
93	0xbf358935	-0.70912486
94	0xbdc8aa9b	-0.097981654
95	0xbf4e91ed	-0.80691415
96	0xbe462991	-0.19351794
97	0xbf0d8102	-0.55274975
98	0x3d0d204e	0.034454636
99	0xbd741e8f	-0.059599455
100	0xbce6be74	-0.028166987
101	0xbf58c2db	-0.84672326
102	0xbf7dbb55	-0.9911397
103	0xbe9db0fe	-0.30799097
104	0x3ccb4d9f	0.024817286
105	0xbf5d8ed4	-0.86546063
106	0xbf65dfd7	-0.8979468
107	0xbd23c929	-0.039986763
108	0xbffde081	-1.9834138
109	0xbef25cfa	-0.4733656
110	0xbf8a7f42	-1.0820086
111	0xbf30de81	-0.69089514
112	0x3de3dac2	0.11125709
113	0xc008104a	-2.1259942
114	0x3e0a7801	0.1352234
115	0x3d852f5c	0.06503174
116	0x3b3b9ec9	0.002862858
117	0xbee90c39	-0.45517138
118	0xbd92221f	-0.07135414
119	0xbf24a1dc	-0.6430948
120	0xbf0a6b16	-0.5406965
121	0xbebbbc04	-0.36666882
122	0xbf6de862	-0.92932713
123	0xbda2c23c	-0.079472035
124	0xbd604583	-0.05475379
125	0xbf351029	-0.70727783
126	0xbe8d8bc7	-0.27645704
127	0xbf872717	-1.0558804
128	0xbe19b7f0	-0.15011573
129	0xbf8fd4e9	-1.123685
130	0x3d11ed72	0.035626836
131	0xbe846fb6	-0.2586648
132	0xbf3fc5d7	-0.74911255
133	0xbe7ad40b	-0.2449495
134	0xbf5cec74	-0.862983
135	0xbf13fb39	-0.5780521
136	0xbf4871c8	-0.78298616
137	0x3d9ea0d3	0.077455185
138	0x3df18192	0.11792292
139	0xc0003184	-2.0030222
140	0xbf27549f	-0.65363497
141	0xbffdf0ff	-1.9839171
142	0x3e04cd1a	0.12968865
143	0x3e9b73dc	0.3036183
144	0xbd879801	-0.06620789
145	0xbe006afa	-0.12540808
146	0xbef2bd28	-0.4740994
147	0xbdeaa802	-0.11457826
148	0xbf19a142	-0.60011685
149	0xbf27db5c	-0.6556909
150	0xbed7dd1d	-0.42160884
151	0xbfb31871	-1.3991834
152	0xbf10c2df	-0.5654735
153	0xbe9f9014	-0.3116461
154	0xbde8e5b8	-0.113719404
155	0xc047af57	-3.120077
156	0xbd2ad4dc	-0.041706905
157	0x3dbebf3e	0.0931382
158	0xbc46f3f5	-0.012143125
159	0xbfce0752	-1.6095984
160	0xbe0aa52d	-0.13539572
161	0xbed36f4d	-0.41295853
162	0xbd72da3a	-0.05929015
163	0x3a4f4f56	0.00079082453
164	0xbe30ed9e	-0.17278144
165	0xbf599c06	-0.850037
166	0x3ca40c4a	0.020025391
167	0xbf09fcae	-0.53901184
168	0xbdef5e41	-0.116878994
169	0xc08b02f3	-4.34411
170	0xbfbd0312	-1.4766562
171	0x3e870146	0.2636816
172	0xbfbb1047	-1.4614342
173	0xbf3de840	-0.7418251
174	0xbfa21bac	-1.2664695
175	0xbf2af7d5	-0.6678441
176	0xbf8e2d02	-1.1107485
177	0xbebe5e62	-0.37181383
178	0x3d93d089	0.07217509
179	0xbcff3551	-0.031153353
180	0xbd0f0a4a	-0.03492192
181	0xbfa7e3b4	-1.3116364
182	0xbd7cffb6	-0.061767302
183	0xbdf45ef7	-0.119321756
184	0xbfcec387	-1.615342
185	0xbf3b9d93	-0.73287314
186	0xc00648c7	-2.098192
187	0xbd8fe20f	-0.07025539
188	0xbfbcc8a8	-1.4748735
189	0xbf86dd91	-1.0536367
190	0x3be7ba66	0.007071781
191	0xbf912666	-1.1339843
192	0x3da752cb	0.081700884
193	0x3e7c7959	0.24655665
194	0xbfbc3b26	-1.4705551
195	0xbf8a5e10	-1.0809956
196	0xbfe321ce	-1.7744691
197	0xbf350e5d	-0.7072504
198	0xbfd92610	-1.6964741
199	0xbf1e0a7d	-0.61734754
200	0xbee82dd8	-0.45347476
201	0xbe88e9ad	-0.2674078
202	0x3e469f39	0.19396676
203	0xbea3147f	-0.31851575
204	0xbf1ef6a8	-0.6209512
205	0xbfa2f20c	-1.2730117
206	0xbe02c27f	-0.12769507
207	0xbf95963b	-1.1686472
208	0xbcf44844	-0.029819615
209	0xbe477b9e	-0.1948075
210	0xbe32c76d	-0.17458887
211	0xba07d679	-0.00051818
212	0xbff958fc	-1.9480281
213	0xbf3e4e24	-0.74337983
214	0xbf512e75	-0.8171151
215	0xbfe22463	-1.7667354
216	0xbfa060cb	-1.2529539
217	0xbe837b5d	-0.25680056
218	0xbe7ff041	-0.24993993
219	0xbfc643bb	-1.548942
220	0xbde2877e	-0.11060999
221	0xbf45d286	-0.7727436
222	0xbebcc23f	-0.36866948
223	0xbebb3760	-0.36565685
224	0x3da9da9f	0.08293652
225	0x3e6ec82c	0.23318547
226	0xbd7164c1	-0.058933977
227	0xbe3bbc3b	-0.18333523
228	0xbe85ab28	-0.26107144
229	0xbfa1bfc7	-1.2636651
230	0xbfea6485	-1.8311926
231	0xbfaaf539	-1.3356086
232	0x3d05ee75	0.032698113
233	0x3f0ec218	0.55764914
234	0xbf666b37	-0.90007347
235	0xbeb61605	-0.35563675
236	0xbedefa03	-0.4355012
237	0x3d4712ba	0.048601843
238	0xbfc80da6	-1.5629165
239	0xc00316fd	-2.048278
240	0xbef0b4b4	-0.47012866
241	0xc002062e	-2.0316272
242	0x3e405bb2	0.18784979
243	0xbe81167e	-0.25212473
244	0xbfa6bddc	-1.302669
245	0xbfa8b294	-1.3179498
246	0xbe889307	-0.26674673
247	0xbffb0bac	-1.9612937
248	0xbfb41f57	-1.4072064
249	0xbff76812	-1.9328635
250	0xc0332655	-2.7992146
251	0x3cbb0edc	0.022834234
252	0xbf005698	-0.5013213
253	0xbf9d3af1	-1.2283612
254	0xbfa87ff6	-1.316405
255	0xbe26bbaf	-0.16282533
