models/CNN_1.tflite (tflite, 322864 bytes, 8 tensors)

sequential/conv1d/BiasAdd/ReadVariableOp f4 [32]
0	0xbea7deb0	-0.32787085
1	0xbde9d325	-0.11417226
2	0xbe6d216d	-0.23157282
3	0xbebc3e7b	-0.3676642
4	0xbe015c1b	-0.12632792
5	0xbe9c4163	-0.30518636
6	0xbdd6ded5	-0.104917206
7	0xbeea4375	-0.4575459
8	0xbed89533	-0.4230133
9	0xbe870135	-0.26368108
10	0xbf4377ae	-0.7635449
11	0xbf0ce8aa	-0.5504252
12	0xbd934379	-0.07190604
13	0xbe281c0f	-0.16416954
14	0xbdd0a242	-0.10187198
15	0xbde40b2d	-0.11134944
16	0xbed5fd08	-0.4179461
17	0xbf4109ec	-0.75405765
18	0xbe5bed2f	-0.21477197
19	0xbddbd5f4	-0.10734168
20	0xbe80013f	-0.2500095
21	0xbe412616	-0.18862185
22	0xbe4ded6a	-0.20110098
23	0xbe9f9717	-0.3116996
24	0xbe832441	-0.25613597
25	0xbf03c135	-0.51466686
26	0xbea209cc	-0.316481
27	0xbe55176f	-0.2080972
28	0xbe2e1a34	-0.17002183
29	0xbecf315a	-0.4046734
30	0xbe185205	-0.14875038
31	0xbeddc772	-0.43316227

sequential/conv1d_1/BiasAdd/ReadVariableOp f4 [64]
0	0x3e6a2e9d	0.22869344
1	0xbdb19b43	-0.08672192
2	0xbe108c29	-0.14115967
3	0x3e0a7f15	0.1352504
4	0x3e9af96b	0.30268416
5	0x3ca7417d	0.02041697
6	0xbced16f2	-0.028941605
7	0x3eb87a27	0.36030695
8	0x3d1210c9	0.03566054
9	0xbe8bf4f2	-0.27335316
10	0xbdaee132	-0.08539046
11	0x3e8191b5	0.25306478
12	0x3c6645a4	0.01405469
13	0x3d7b0be9	0.061290655
14	0xbd7d07e5	-0.061775107
15	0x3e380ade	0.17972896
16	0xbd309305	-0.04310896
17	0xbec3a40f	-0.38211104
18	0xbe528a25	-0.2056051
19	0xbe52c1f7	-0.20581804
20	0xbd862f46	-0.065519854
21	0x3e2371de	0.15961406
22	0xbdfaf7e9	-0.12254316
23	0x3e0e0567	0.13869248
24	0xbf290c3b	-0.6603429
25	0x3d82754a	0.06370027
26	0x3ebca504	0.36844647
27	0x3e856a18	0.26057506
28	0x3e07407f	0.13208197
29	0x3e63ed93	0.22258596
30	0x3e928bfd	0.28622428
31	0x3d3b1268	0.04567185
32	0x3e3a3c0c	0.18186969
33	0x3e3304f3	0.17482357
34	0x3d8cf7c4	0.06883195
35	0x3e0c6286	0.13709459
36	0x3cd081c3	0.0254525
37	0x3edcc699	0.43120268
38	0x3eb328fe	0.34992212
39	0x3e38ab72	0.18034151
40	0x3e4476da	0.19185963
41	0x3cf7d924	0.030254908
42	0x3d0a66ce	0.03378945
43	0xbdbd1c88	-0.092339575
44	0xbe957c14	-0.29196227
45	0xbe272d38	-0.16325843
46	0xbee82a06	-0.4534456
47	0xbdb2ddf5	-0.08733741
48	0xbe009c6d	-0.12559672
49	0x3e9fa7f0	0.31182814
50	0xbc41b202	-0.0118222255
51	0xbd358f9c	-0.04432641
52	0x3df16246	0.11786322
53	0x3da12e55	0.07870165
54	0x3cb5cf02	0.022193436
55	0xbec34424	-0.38137925
56	0xbda201dc	-0.07910511
57	0x3db1037a	0.08643241
58	0xbc56329d	-0.013073591
59	0xbe9da665	-0.3079101
60	0x3df677d5	0.12034575
61	0x3ead639d	0.3386506
62	0xbd0fe004	-0.035125747
63	0xbd820ddd	-0.063503005

sequential/conv1d/Conv1D f4 [32, 1, 3, 6]
0	0x3e72af18	0.23699605
1	0xbe4bcebb	-0.1990308
2	0x3e04f5d6	0.12984404
3	0xbe563e61	-0.20922233
4	0xbcdb6728	-0.026782587
5	0x3d7c2d9e	0.06156694
6	0x3e99072b	0.2988828
7	0xbe955cd9	-0.291724
8	0x3e9becbd	0.30454054
9	0x3cab7010	0.020927459
10	0xbd11a3ff	-0.03555679
11	0xbda4e2e7	-0.08051091
12	0xbbc3611c	-0.005962504
13	0xbce9bab3	-0.028531408
14	0x3e8707f0	0.26373243
15	0x3e1aa81b	0.1510319
16	0xbd70decb	-0.058806222
17	0xbe4c4adf	-0.19950436
18	0xbe96990d	-0.29413643
19	0x3cc1008f	0.023559837
20	0xbdb16d74	-0.08663455
21	0xbd8502c6	-0.064946696
22	0x3e81d788	0.2535975
23	0x3da62c8f	0.081139676
24	0xbeb05426	-0.344392
25	0xbd453b0e	-0.048152022
26	0x3d9a9a05	0.07548908
27	0x3dc8cfb8	0.09805244
28	0x3e032884	0.12808424
29	0xbd2a77c1	-0.041618112
30	0xbf01a860	-0.50647545
31	0x3e1922c6	0.14954671
32	0x3db93c7e	0.09044741
33	0x3dae4163	0.08508565
34	0xbe29c6f9	-0.16579808
35	0xbe005bec	-0.12535065
36	0x3e46813d	0.19385238
37	0x3e0b35d5	0.13594754
38	0x3e62d6e4	0.22152287
39	0xbbba3c64	-0.0056834687
40	0xbe7222ad	-0.2364604
41	0x3e86bf6a	0.26317912
42	0x3e284981	0.1643429
43	0xbd6d4669	-0.057928476
44	0x3e96a26c	0.29420793
45	0x3cb372d6	0.021905344
46	0xbe3c2ce1	-0.18376495
47	0x3e564d21	0.2092786
48	0x3c8d9a02	0.01728535
49	0x3b9d401c	0.004798902
50	0x3d8d2614	0.068920285
51	0x3dc45c1c	0.09587881
52	0xbe9c8906	-0.3057329
53	0x3e72dafd	0.2371635
54	0x3db7da66	0.08977203
55	0x3d2fd1be	0.042924635
56	0x3e43f19b	0.19135134
57	0x3e36840a	0.17823806
58	0xbb7ff90c	-0.0039058356
59	0x3e8b4d15	0.27207246
60	0xbd2a5456	-0.041584335
61	0xbe605254	-0.21906406
62	0x3eb59327	0.3546383
63	0xbe2fa877	-0.17154108
64	0x3c8d5d31	0.017256351
65	0xbf0266af	-0.5093793
66	0x3e365952	0.1780751
67	0x3df6300c	0.12020883
68	0x3e9c559e	0.3053407
69	0x3da4df64	0.08050421
70	0xbceaa565	-0.02864332
71	0x3ea1b1a6	0.31580848
72	0x3e9dc1f1	0.30812028
73	0xbee11d02	-0.43967444
74	0xbe043c95	-0.12913735
75	0x3d897b90	0.06713021
76	0x3e4ea4ae	0.20180008
77	0x3cf7123b	0.03016006
78	0x3e801245	0.2501394
79	0xbe2b7854	-0.1674512
80	0xbe963af6	-0.2934186
81	0x3e2c0e31	0.16802289
82	0x3deb8c40	0.1150136
83	0xbdaec8ea	-0.08534415
84	0xbd3074ec	-0.043080255
85	0xbea030ea	-0.31287318
86	0xbdaaa0fb	-0.08331486
87	0xbe1ee82d	-0.15518256
88	0xbe1407cb	-0.14456098
89	0xbe3c8387	-0.18409549
90	0x3e7ca3cb	0.24671857
91	0x3b2bfb0e	0.002624217
92	0x3bb0f84e	0.005400694
93	0xbe0f0669	-0.13967289
94	0xbe167520	-0.14693117
95	0x3edc73b9	0.4305704
96	0x3d299464	0.041401282
97	0xbd53fd94	-0.051755503
98	0xbc9cd60b	-0.019145032
99	0xbd3ef40c	-0.04661946
100	0x3e5f3296	0.21796641
101	0xbe088b33	-0.1333435
102	0x3e152863	0.14566188
103	0xbe529e6a	-0.20568243
104	0xbdbbe20f	-0.09173977
105	0x3d8d0e4c	0.068874925
106	0xbcd12491	-0.025530132
107	0xbea0ec09	-0.3143008
108	0xbd118acc	-0.035532758
109	0x3d5b1524	0.05348696
110	0x3d8d2e5f	0.0689361
111	0x3d941f1f	0.072324984
112	0x3eacf86a	0.33783275
113	0x3e25b05f	0.16180561
114	0x3d832ee9	0.06405432
115	0x3cc60b34	0.024175264
116	0x3c2684ca	0.010163495
117	0xbe3975b8	-0.18111312
118	0x3b09df3b	0.0021037597
119	0xba5bdf27	-0.00083874393
120	0xbe77d02a	-0.24200502
121	0x3e9c51c3	0.3053113
122	0xbe58f354	-0.21186572
123	0xbde721cd	-0.11285744
124	0xbe9a29b1	-0.30109933
125	0xbba105b0	-0.004914008
126	0x3e803474	0.2504002
127	0xbe0937de	-0.13400218
128	0xbdc9f3f9	-0.09860987
129	0x3bd4a4b4	0.0064893607
130	0x3d90d0b9	0.07071061
131	0xbe8115aa	-0.2521184
132	0x3e7ff3db	0.24995367
133	0xbe77365e	-0.24141833
134	0x3e1981e8	0.14990962
135	0x3d9a9cd3	0.07549443
136	0xbe807db9	-0.2509592
137	0x3e93395e	0.28754705
138	0x3e053625	0.13008936
139	0xbe6cbec0	-0.2311964
140	0xbc7b61f0	-0.015343174
141	0xbd275e91	-0.04086167
142	0x3e0f0ab8	0.13968933
143	0xbde6bd6b	-0.11266597
144	0x3f0e952f	0.55696386
145	0xbe08cd65	-0.13359602
146	0x3e051c64	0.12999111
147	0x3dd5115a	0.104037
148	0xbcd9e68d	-0.026599193
149	0xbe399096	-0.18121561
150	0x3f1a9382	0.6038133
151	0xbeae2304	-0.3401109
152	0x3c97406b	0.018463334
153	0xbe148ab9	-0.14506043
154	0xbc921706	-0.017833244
155	0x3df8b5db	0.12144061
156	0x3e643fef	0.22290014
157	0xbeb0eba4	-0.3455478
158	0xbe283583	-0.16426663
159	0x3db1dcc0	0.08684683
160	0x3d0a41cb	0.03375415
161	0xbe61aedf	-0.22039364
162	0x3ed85476	0.4225194
163	0x3ee3a81c	0.44464195
164	0xbf0edc77	-0.5580515
165	0x3d89d20c	0.067295164
166	0xbe4c212f	-0.19934534
167	0x3dda44cf	0.106576554
168	0x3da7b5c4	0.08188966
169	0x3e92f522	0.28702646
170	0xbf0712db	-0.52763146
171	0xbe18bdf3	-0.1491621
172	0x3d1e67e4	0.038673297
173	0xbe49a0b5	-0.19690211
174	0x3de007b5	0.1093897
175	0x3f31e3f3	0.6948845
176	0xbeadff02	-0.33983618
177	0x3d83a154	0.06427255
178	0x3e1c8dc0	0.15288448
179	0xbcb54ed0	-0.022132307
180	0x3f3045bb	0.688564
181	0x3e8f2dcd	0.2796463
182	0x3e83e041	0.2575703
183	0x3d7fe946	0.062478326
184	0x3e840676	0.2578618
185	0xbe02754a	-0.12740055
186	0x3ea3a9be	0.3196544
187	0x3ef965c9	0.48710468
188	0x3e045193	0.12921743
189	0xbd4b9cc3	-0.049710046
190	0xbd85e200	-0.06537247
191	0xbe0e61e4	-0.1390453
192	0x3f20e1c1	0.62844473
193	0x3f0ddedd	0.5541819
194	0x3dee08c8	0.11622769
195	0xbdc439fd	-0.09581373
196	0x3dcfc9a3	0.10145881
197	0xbda34c3f	-0.07973527
198	0x3ddf6c8b	0.10909375
199	0xbdc31586	-0.0952559
200	0x3ef1d409	0.47232082
201	0x3ccd1350	0.025033623
202	0x3dcfb3ed	0.1014174
203	0x3e9118cd	0.28339234
204	0x3e8f2514	0.27957976
205	0xbd9e79b5	-0.077380575
206	0x3e533551	0.20625807
207	0xbd8a95a1	-0.06766821
208	0xbcd26c76	-0.025686484
209	0x3ea10bc6	0.31454295
210	0x3ce0848f	0.027406959
211	0x3c13572e	0.008992953
212	0x3ee1c73d	0.4409732
213	0x3e22599a	0.15854493
214	0x3dc4afcb	0.09603842
215	0x3dd3037d	0.103034
216	0x3e1b5e29	0.15172638
217	0xbdc5d5d2	-0.096599236
218	0xbdb5f693	-0.08884921
219	0x3d0db891	0.034599844
220	0xbeb53697	-0.3539321
221	0xbe943da3	-0.28953275
222	0xbe71c54d	-0.2361042
223	0x3e5fca13	0.21854429
224	0x3d46e2cb	0.04855613
225	0xbe0eab28	-0.13932478
226	0xbbf1a918	-0.007374894
227	0xbca5899b	-0.020207217
228	0x3dd9262a	0.10602982
229	0xbd6d7952	-0.05797703
230	0x3c21abf4	0.009867657
231	0x3dbec464	0.09314802
232	0x3eb60c52	0.35556275
233	0x3e927003	0.28601083
234	0xbe5d3a4c	-0.2160427
235	0x3edd82e3	0.4326392
236	0xbea06cb7	-0.31332943
237	0xbda41383	-0.08011534
238	0x3dd43ced	0.10363183
239	0xbe22e23b	-0.15906613
240	0xbeac8283	-0.33693323
241	0x3efdc278	0.4956243
242	0xbe8546ed	-0.26030675
243	0xbdae3a16	-0.08507173
244	0x3e2f12c2	0.17097
245	0x3e5929e2	0.21207383
246	0xbee8c548	-0.45463014
247	0x3f02fe63	0.51169413
248	0xbe9773d8	-0.2958057
249	0xbd8a9c17	-0.06768053
250	0x3e2e61e6	0.17029533
251	0xbc57413b	-0.013138111
252	0x3f5713ef	0.8401479
253	0x3dc95b6b	0.0983189
254	0xbea77fc5	-0.32714668
255	0x3d8d5c81	0.06902409

sequential/conv1d_1/Conv1D f4 [64, 1, 3, 32]
0	0x3e80052d	0.2500395
1	0xbddccd73	-0.10781374
2	0x3e830975	0.25593153
3	0x3d94a6c4	0.072583705
4	0xbe759cf3	-0.23985653
5	0xbe3d6ddb	-0.18498938
6	0xbddaab42	-0.10677196
7	0xbe600472	-0.21876696
8	0x3e079fae	0.13244507
9	0xbe9a473e	-0.30132478
10	0xbd7d5b1a	-0.06185446
11	0xbe37da6d	-0.17954417
12	0x3d34d7af	0.044151004
13	0x3e5701ce	0.20996782
14	0xbe9825b2	-0.2971626
15	0x3e207f37	0.15673529
16	0xbe715e92	-0.23571232
17	0xbe8b0894	-0.27154982
18	0x3e52bdec	0.20580262
19	0xbe2e2d87	-0.17009555
20	0x3a8555b0	0.0010172632
21	0xbe7b2b96	-0.24528345
22	0x3ba3ce22	0.004998938
23	0xbe658c4e	-0.22416803
24	0xbeddf478	-0.43350577
25	0xbe4e6b1d	-0.20158048
26	0xbddd8892	-0.10817064
27	0x3dc89602	0.09794237
28	0x3e11d4e8	0.14241374
29	0x3d71e837	0.059059348
30	0x3e75acd3	0.23991708
31	0xbf0e3c33	-0.55560607
32	0x3ea184c9	0.3154662
33	0xbe80ec91	-0.25180486
34	0xbde175d7	-0.11008804
35	0xbd8cbcfb	-0.06871983
36	0xbea98468	-0.3310883
37	0xbe0bf6c1	-0.13668348
38	0xbd94d0b5	-0.0726637
39	0xbe250701	-0.16115953
40	0xbe14633d	-0.14490981
41	0xbdcb42f9	-0.099248834
42	0xbe4dc82e	-0.20095894
43	0xbe81e523	-0.2537013
44	0xbcc8c0d0	-0.024506003
45	0x3e893c75	0.26803938
46	0xbea01705	-0.31267563
47	0x3e1ba988	0.1520139
48	0xbe9a3f67	-0.30126497
49	0xbf0149cd	-0.50503236
50	0xbe3adea4	-0.18248993
51	0xbe64071d	-0.22268339
52	0x3ceb5c2b	0.028730473
53	0xbd849e64	-0.06475523
54	0xbd31903a	-0.043350436
55	0xbadaca23	-0.0016692322
56	0xbe25b07f	-0.16180609
57	0xbe34fba5	-0.1767412
58	0xbe069232	-0.13141707
59	0x3d3c02aa	0.04590098
60	0x3dd05db5	0.10174123
61	0x3e667f41	0.22509481
62	0xbe81517a	-0.25257474
63	0xbee9a30d	-0.4563221
64	0x3e5f76f8	0.21822727
65	0xbe8c92f6	-0.27455872
66	0xbe7beac6	-0.24601278
67	0xbe8702c7	-0.26369306
68	0xbdc30647	-0.09522682
69	0x3d93a9ea	0.07210143
70	0x3e2885c1	0.16457273
71	0xbe518dad	-0.20464201
72	0xbd54931e	-0.051898114
73	0xbd30ac0c	-0.043132827
74	0x3c214e76	0.009845367
75	0xbdd8980a	-0.10575874
76	0x3d9be2c9	0.07611615
77	0x3e5c0dab	0.21489589
78	0xbe3c943a	-0.18415919
79	0x3e7d75e3	0.24752001
80	0xbe157fb1	-0.14599492
81	0xbcb1993d	-0.021679515
82	0x3e1b1cf0	0.15147758
83	0xbea108bc	-0.31451976
84	0x3d5350ee	0.051590852
85	0x3dd9ee57	0.10641163
86	0xbdc9a96e	-0.09846769
87	0x3d9d23ec	0.07672867
88	0xbe2dc5b1	-0.16969945
89	0x3dd646a5	0.10462693
90	0x3d85e7e3	0.065383695
91	0x3e326129	0.17419876
92	0xbcae1ee9	-0.021254973
93	0xbdbe1642	-0.09281589
94	0xbebb267c	-0.365528
95	0xbefc2eb7	-0.4925439
96	0xbd662eb6	-0.05619689
97	0x3b2681ca	0.002540695
98	0x3dca3c73	0.09874811
99	0x3dba1219	0.09085483
100	0xbf04d77b	-0.518913
101	0x3e20e6fd	0.15713115
102	0xbdba5db7	-0.09099906
103	0xbe4a568e	-0.1975958
104	0xbef3870c	-0.4756397
105	0x3e6255d8	0.2210306
106	0xbd36ff74	-0.044677213
107	0xbe7168b5	-0.23575099
108	0xbdb79abc	-0.0896506
109	0x3cb4c4b4	0.022066452
110	0x3d2e00c9	0.042481218
111	0xbea7fbee	-0.32809395
112	0xbd646aa6	-0.05576577
113	0x3e06cf01	0.13164903
114	0xbe0bd40f	-0.13655113
115	0x3e870db7	0.2637765
116	0x3e2282da	0.15870228
117	0xbf07ca51	-0.53043085
118	0x3e04c339	0.12965097
119	0x3dff8dd2	0.12478222
120	0xba0b95cc	-0.00053247507
121	0xbd6fedac	-0.05857627
122	0x3db15733	0.0865921
123	0x3dcdb331	0.10043944
124	0xbbc534e6	-0.006018269
125	0xbd6a27c8	-0.057166845
126	0xbd7d64c3	-0.061863672
127	0xbe684ee8	-0.2268635
128	0xbda51e08	-0.08062369
129	0x3dcb8175	0.09936801
130	0xbe80ad46	-0.25132197
131	0x3da78562	0.08179738
132	0x3c124e1a	0.008929754
133	0x3c98c952	0.018650685
134	0x3ea24575	0.31693617
135	0xbe8820a8	-0.26587415
136	0xbed31962	-0.41230303
137	0xbded9938	-0.1160149
138	0xbe3fcc30	-0.18730235
139	0x3d82b50b	0.063821875
140	0x3dcbf131	0.09958113
141	0x3bfba3c2	0.0076794336
142	0x3dcaaef6	0.098966524
143	0xbe4ccabd	-0.19999214
144	0x3e0d0709	0.13772215
145	0xbe43e041	-0.19128515
146	0xbe4df0d9	-0.20111407
147	0x3e5d48d9	0.2160982
148	0x3cd0e328	0.025498942
149	0xbe63b790	-0.22237992
150	0xbeb8c5b8	-0.36088347
151	0xbe26e732	-0.16299132
152	0xbe3d2c07	-0.18473826
153	0xbd32f437	-0.043689933
154	0x3e3ad897	0.18246685
155	0x3da0c39e	0.07849811
156	0xbbb9d7fc	-0.0056714993
157	0xbe1bfef7	-0.1523398
158	0xbe1282a3	-0.14307646
159	0x3dfc0008	0.123046935
160	0xbe9d1251	-0.30678037
161	0xbc69473a	-0.014238173
162	0xbe149c5c	-0.14512771
163	0x3e853f60	0.26024914
164	0xbea05827	-0.31317255
165	0xbe2ea5d0	-0.1705544
166	0x3e780cf7	0.24223696
167	0xbd5bccca	-0.0536621
168	0xbe0efd76	-0.13963875
169	0x3dff67b9	0.124709554
170	0xbdb46799	-0.08808822
171	0xbdf10a1a	-0.11769505
172	0x3e1c8e4b	0.15288655
173	0x3e2a2a5e	0.16617724
174	0x3e24b98e	0.16086408
175	0xbe0ada3f	-0.13559817
176	0xbdc6dbec	-0.097099155
177	0x3e67d279	0.22638883
178	0xbc21ed71	-0.009883271
179	0xbdc66645	-0.09687475
180	0x3e822334	0.25417483
181	0x3dd04933	0.10170212
182	0x3e813d44	0.25242054
183	0x3d710bfc	0.05884932
184	0x3d16ac02	0.036785133
185	0xbd9b18c6	-0.075730845
186	0x3ca5dc27	0.020246578
187	0x3d76c383	0.06024505
188	0x3e775634	0.24153978
189	0xbe670db0	-0.22563815
190	0x3e155f2b	0.14587085
191	0xbe59136a	-0.21198812
192	0x3de4c4d7	0.11170357
193	0xbe5f70a9	-0.2182032
194	0x3d917f0a	0.07104309
195	0x3ea172ed	0.31532994
196	0x3e368ec3	0.17827897
197	0x3e37efb2	0.1796253
198	0x3e1b1c68	0.15147555
199	0x3e914d1a	0.28379136
200	0x3d74eac2	0.059794195
201	0xbd13b29b	-0.036059003
202	0xbeaa1f61	-0.33227065
203	0x3e71c996	0.23612055
204	0xbdab4314	-0.083624035
205	0xbdc50d1d	-0.09621642
206	0xbcb8641c	-0.022508673
207	0xbe0c911f	-0.13727234
208	0x3c8b1a83	0.016980415
209	0x3c3a413b	0.011368091
210	0x3dd46d9b	0.10372468
211	0xbe05cc96	-0.13066325
212	0x3eafc2e4	0.34328377
213	0xbd523b39	-0.05132601
214	0xbcc3554c	-0.023844384
215	0x3e711217	0.23542057
216	0x3e2da0cc	0.1695587
217	0xbd02adf3	-0.031904172
218	0xbf0d4cc8	-0.55195284
219	0xbe4b9517	-0.19881092
220	0xbe04861e	-0.12941787
221	0xbe67ea9d	-0.22648092
222	0x3d9d2594	0.07673183
223	0x3c59e64f	0.013299539
224	0x3e55be25	0.20873316
225	0xbe30f9f0	-0.17282844
226	0xbc66a453	-0.014077264
227	0xbe39b5a4	-0.18135697
228	0x3c7a177f	0.015264391
229	0x3d078773	0.03308816
230	0xbd94513f	-0.07242059
231	0x3de816d5	0.1133248
232	0xbc35d26a	-0.01109753
233	0xbeb2b1ec	-0.3490137
234	0x3d8d4b44	0.068991214
235	0x3dcd75d6	0.10032241
236	0xbea44fd5	-0.32092157
237	0x3e3f3e15	0.18676026
238	0xbde4584b	-0.11149653
239	0xbe7da2f3	-0.24769191
240	0x3cfe6c33	0.031057453
241	0xbbb8f1ea	-0.005644073
242	0x3d1bc21f	0.038026925
243	0xbcd683a3	-0.026185816
244	0xbd7b410b	-0.061341327
245	0xbdcd3bdd	-0.10021184
246	0xbed49e41	-0.41526988
247	0xbde8e721	-0.11372209
248	0x3d9f4276	0.07776348
249	0xbe5d24d4	-0.2159608
250	0xbde9ea49	-0.114216395
251	0x3e893080	0.26794815
252	0xbe5336ba	-0.20626345
253	0x3d904b4f	0.07045614
254	0xbe43e2a8	-0.19129431
255	0x3bacfeb2	0.0052793855

sequential/dense/BiasAdd/ReadVariableOp f4 [64]
0	0xbe23f918	-0.1601299
1	0xbd7352ec	-0.059405252
2	0x3e29cee3	0.16582827
3	0x3e9825ed	0.29716435
4	0xbd1acac2	-0.03779102
5	0xbee4a4af	-0.44656894
6	0xbe9cbf09	-0.30614498
7	0xbd599f25	-0.053130288
8	0x3e2c05cd	0.16799088
9	0xbd219735	-0.039450843
10	0x3d55c43a	0.05218909
11	0xbe54cf98	-0.20782316
12	0xbd871c61	-0.0659721
13	0xbe00ee3f	-0.12590884
14	0xbe57636d	-0.21034022
15	0x3ecea7b9	0.40362337
16	0xbcaa343f	-0.020776866
17	0xbdb7d078	-0.08975309
18	0x3e818778	0.25298667
19	0xbe4389f1	-0.19095589
20	0xbd73e14a	-0.059541024
21	0xbd789a43	-0.06069399
22	0x3e88df80	0.26733017
23	0x3e30f9a2	0.17282727
24	0xbe151933	-0.14560394
25	0x3e5ffd3f	0.2187395
26	0x3e880e6e	0.2657351
27	0x3db4e339	0.08832402
28	0xbde2cb4b	-0.11073931
29	0xbd510123	-0.051026475
30	0xbcfbbe3e	-0.030730363
31	0x3cffc0f5	0.031219939
32	0x3d6e0725	0.058112282
33	0xbe1054c5	-0.14094837
34	0x3ea3ab88	0.31966805
35	0xbdf2e3c9	-0.11859853
36	0xbdc4bd04	-0.09606364
37	0x39819e4c	0.00024722738
38	0xbe976f4e	-0.29577106
39	0xbd14eb94	-0.036357477
40	0xbd727f2e	-0.05920332
41	0x3c9a0288	0.018800035
42	0xbd7c8572	-0.0616507
43	0xbe95da40	-0.29268074
44	0xbd9262ba	-0.07147737
45	0xbe08068f	-0.13283752
46	0xbd8636ba	-0.06553407
47	0x3ed206ff	0.41020963
48	0xbcdd6cc5	-0.027029404
49	0xbe211b89	-0.1573316
50	0xbe8dec9c	-0.2771958
51	0x3d8e1a3f	0.069386
52	0x3c27c94e	0.010240866
53	0xbdd04090	-0.10168564
54	0xbd90ffbc	-0.070800275
55	0xbda7ecaa	-0.08199437
56	0x3d63dfee	0.055633478
57	0x3e1d1c39	0.15342797
58	0xbdfe9ca1	-0.12432218
59	0xbe297127	-0.1654707
60	0xbd261e35	-0.04055615
61	0x3ed49885	0.41522613
62	0x3e8c6cb9	0.274267
63	0xbd230be9	-0.03980628

sequential/dense_1/BiasAdd/ReadVariableOp f4 [44]
0	0xc010bedb	-2.261649
1	0xbc80f8c4	-0.01574362
2	0x3db0d78e	0.08634864
3	0xbd6f5528	-0.05843082
4	0x3d793f07	0.060851123
5	0xbb1eb51e	-0.002421684
6	0x3d20a5b7	0.039220538
7	0xbe4f4ac7	-0.20243369
8	0x3d91b72b	0.07115015
9	0x3edb0aee	0.42781776
10	0x3f024c25	0.5089744
11	0xbb9ad25a	-0.004724783
12	0x3d8c6892	0.06855883
13	0x3e403c4e	0.18773004
14	0x3e55899e	0.20853278
15	0xbe632d1e	-0.2218518
16	0xbe73e8c6	-0.23819265
17	0x3d842d73	0.06453981
18	0x3d9054e7	0.07047444
19	0xbd836554	-0.06415811
20	0x3cfd72ec	0.030938588
21	0xbd819807	-0.06327825
22	0x3eda5488	0.42642617
23	0x3e70ba54	0.23508579
24	0x3d45def7	0.04830834
25	0x3e334763	0.175077
26	0xbde104c9	-0.10987241
27	0xbcf5d86a	-0.03001042
28	0x3dac45f9	0.08411784
29	0xc0024327	-2.0353487
30	0x3e0876b7	0.13326536
31	0xbd8bfc0c	-0.068351835
32	0xbd181db4	-0.037137702
33	0xbcd01d4f	-0.0254046
34	0xbd984f7d	-0.07437036
35	0x3cc90264	0.024537273
36	0x3f17746e	0.5916203
37	0x3e6ecd8a	0.23320594
38	0xbc208caf	-0.009799167
39	0x3de9a992	0.11409296
40	0xbe11e068	-0.1424576
41	0xbe1fc8b4	-0.15603906
42	0x3e4dc276	0.20093712
43	0x3d883f18	0.06652659

sequential/dense/MatMul f4 [64, 1088]
0	0x3d51683b	0.051124793
1	0x3cf6a567	0.030108167
2	0x3de892d7	0.113561325
3	0xbd951e58	-0.07281178
4	0xbd8afc5e	-0.067864165
5	0xbc17aa5a	-0.009256924
6	0x39130f35	0.00014024678
7	0x3d7e946c	0.062153265
8	0xbd63a737	-0.05557939
9	0xbbe896fb	-0.0070980764
10	0x3c6ed2df	0.014576643
11	0xbd19fb29	-0.03759304
12	0xbd9b6f7e	-0.07589625
13	0x3d4ea29f	0.050448056
14	0x3daeed5a	0.08541365
15	0xbd66bb85	-0.056331176
16	0xbc51d3c9	-0.012806841
17	0x3de62919	0.112383075
18	0x3d03b344	0.032153383
19	0xbe21b8e5	-0.15793188
20	0xbdc82c7f	-0.09774112
21	0xbd7372b2	-0.059435554
22	0x3da688d5	0.081315674
23	0x3cf38d15	0.02973036
24	0xbd8f6cae	-0.07003151
25	0x3d754729	0.059882317
26	0xbdfee110	-0.12445271
27	0x3d07691a	0.033059217
28	0xbd2a86ec	-0.041632578
29	0xbd9c4c5f	-0.07631754
30	0x3c97d9c5	0.018536458
31	0x3de4da95	0.11174504
32	0x3d11bc70	0.0355801
33	0xbd9a6602	-0.07538988
34	0x3d6c3b85	0.05767395
35	0xbdb5703d	-0.088592984
36	0xbd6cc652	-0.05780632
37	0xbd5947e5	-0.05304708
38	0x3d1b195e	0.03786599
39	0xbceef8a1	-0.02917129
40	0xbd9f063f	-0.07764863
41	0xbde7c2cb	-0.11316451
42	0x3da10a34	0.07863274
43	0x3c2b13b0	0.010441706
44	0xbcfc676d	-0.030811036
45	0x3d884702	0.06654169
46	0xbd565464	-0.052326575
47	0xbd5e4191	-0.054261748
48	0x3c4f28ba	0.012643987
49	0xbde53e19	-0.11193485
50	0xbd81a740	-0.063307285
51	0xbc7ddf7b	-0.015495176
52	0xbe260e64	-0.16216427
53	0xbdc0381a	-0.093857005
54	0xbd4274ed	-0.04747479
55	0x3c81bac0	0.01583612
56	0xbd60aec4	-0.05485417
57	0xbbf55f4a	-0.007488166
58	0x3d56bce0	0.05242622
59	0xbd99942d	-0.074989654
60	0x3ac17e26	0.0014762327
61	0xbdb1b85c	-0.08677742
62	0x3c2a7591	0.010404007
63	0xbcee8d4a	-0.029120106
64	0xbd10f4e3	-0.035389792
65	0xbcc93f33	-0.024566269
66	0xbda33f76	-0.079710886
67	0xbe082d35	-0.13298495
68	0x3d3641b3	0.04449625
69	0x3d85cd65	0.065333165
70	0xba9fa059	-0.0012178525
71	0xbda14bfd	-0.07875822
72	0xbceec35f	-0.029145895
73	0x3ba04c5b	0.004891915
74	0x3d149106	0.036271118
75	0xbd4523fa	-0.048130013
76	0xbdbf6f8f	-0.0934745
77	0xbe11b40d	-0.1422884
78	0xbdd3f15a	-0.103487685
79	0xbde6d290	-0.1127063
80	0xbdb22b2e	-0.08699642
81	0x3bc97d05	0.0061489367
82	0xbdb5ebfa	-0.088828996
83	0x3cb58da5	0.022162268
84	0xbd9bfb1e	-0.07616256
85	0xbc91470c	-0.017734073
86	0x3ad63b23	0.0016344528
87	0x3ba1adf7	0.0049340683
88	0xbd00aa2a	-0.03141228
89	0xbac185fa	-0.001476466
90	0xbdb19ad3	-0.086721085
91	0x3cd606fc	0.026126377
92	0xbd783354	-0.060595825
93	0x3c0eb07d	0.00870907
94	0xbdad5b46	-0.08464675
95	0xbd281259	-0.041033123
96	0xbd2a6007	-0.041595485
97	0x3cab38f3	0.020901179
98	0xbdea49fc	-0.11439893
99	0xbd82a142	-0.06378414
100	0xbbcbfe76	-0.0062254025
101	0xbd15a805	-0.03653719
102	0xbd15566a	-0.036459364
103	0x3d7c822c	0.06164758
104	0x3c03e440	0.0080500245
105	0xbcc93b1b	-0.024564316
106	0x3d125ec6	0.035734914
107	0xbd868153	-0.065676354
108	0x3ce0917d	0.027413124
109	0x3d066698	0.032812685
110	0xbc95428d	-0.01822021
111	0xbd8ec981	-0.069720276
112	0xbdd6b4fd	-0.104837395
113	0xbd9ca133	-0.07647934
114	0xbc077536	-0.008267691
115	0xbca490bc	-0.020088546
116	0xbddab2b6	-0.10678618
117	0xbdd61ac9	-0.104543276
118	0xbc995190	-0.01871565
119	0xbc1c693f	-0.009546577
120	0x3d6e27a3	0.05814327
121	0x3c862a54	0.016377605
122	0xbde0532f	-0.10953366
123	0x3db3d824	0.0878146
124	0xbcd0510b	-0.02542927
125	0xbda4e8ee	-0.0805224
126	0xbd7a2bfb	-0.0610771
127	0x3d369fa8	0.044585854
128	0xbd8105b7	-0.06299918
129	0xbdcf7583	-0.101298355
130	0xbcdc7852	-0.026912842
131	0xbde18042	-0.11010791
132	0x3cc5f804	0.024166115
133	0x3d0805e7	0.033208754
134	0x3cb406ce	0.021975901
135	0xbdcca6ce	-0.09992753
136	0x3d5e9efa	0.05435083
137	0xbcd6a17b	-0.026200047
138	0x3d517a39	0.05114195
139	0xbc30d235	-0.010792305
140	0x3cb0f530	0.02160129
141	0xbd0a9729	-0.033835564
142	0x3c52a10a	0.0128557775
143	0xbbff1e9a	-0.0077856304
144	0xbd630c7e	-0.055431835
145	0xbd13f52a	-0.03612248
146	0xbd37f6da	-0.04491315
147	0x3e2eb11d	0.17059751
148	0xbd8f4230	-0.06995046
149	0x3d7cbe6a	0.06170503
150	0xb9888334	-0.00026037695
151	0xbdde74dc	-0.10862133
152	0x3c8ca582	0.017168764
153	0xbd90969e	-0.07059978
154	0xbd99aa3d	-0.075031735
155	0xbd9f9710	-0.07792485
156	0xbd7953a3	-0.060870778
157	0xbce125ea	-0.0274839
158	0xbd26e66e	-0.0407471
159	0xbdcca0f7	-0.09991639
160	0xbd69a4c4	-0.0570419
161	0xbddaead7	-0.106893234
162	0x3cbd72c7	0.02312602
163	0xbd191e38	-0.037382334
164	0xbdb5b2a7	-0.08871966
165	0x3cae8fa9	0.021308737
166	0xbd700a47	-0.05860355
167	0xbd3663d2	-0.04452879
168	0xbd914ea7	-0.0709508
169	0x3e23c9fd	0.15995021
170	0xbd6b39e6	-0.057428263
171	0xbd824053	-0.06359925
172	0x3d805a8d	0.06267271
173	0xbd672cb1	-0.056439105
174	0xbd84eac2	-0.06490089
175	0xbd97ddcf	-0.074153535
176	0xbc8177bd	-0.015804166
177	0xbc9b540c	-0.018960975
178	0x3d03e6ed	0.03220265
179	0x3c993119	0.01870017
180	0xbdd244d3	-0.102670334
181	0xbcbe7cf5	-0.023252944
182	0xbe1c9303	-0.15290456
183	0x3cefac5f	0.029256998
184	0xbd56252d	-0.052281547
185	0x3d9eccd6	0.07753913
186	0xbdaf1334	-0.085485846
187	0xbc5df6f8	-0.0135476515
188	0xbda7f3c7	-0.08200794
189	0xbd20c425	-0.039249558
190	0xbaec855d	-0.0018045116
191	0x3c718128	0.014740266
192	0x3d9e3544	0.07725003
193	0x3ca14522	0.019686285
194	0xbd1d651c	-0.038426504
195	0xbd94ce37	-0.07265895
196	0xbcbe06fd	-0.023196692
197	0xbdf89548	-0.12137848
198	0x3c3ee273	0.011650669
199	0x3dc16d2e	0.094446525
200	0x3c4d876c	0.012544494
201	0xbe173b9e	-0.14768836
202	0xbcf7cfdb	-0.03025048
203	0xbd9fb7b9	-0.07798714
204	0xbe169f22	-0.14709142
205	0xbddb48e3	-0.107072614
206	0xbcc45020	-0.023963988
207	0xbcba9239	-0.022774803
208	0x3c105c1c	0.008811023
209	0xbe16a991	-0.14713122
210	0x3ce8d25a	0.028420616
211	0xbd7e8092	-0.062134333
212	0x3c3bec98	0.011469983
213	0x3d52d0e5	0.05146875
214	0x3d3e832f	0.046511825
215	0xbe002aa4	-0.12516266
216	0x3d2c3d37	0.042050567
217	0x3d4d5ae4	0.05013551
218	0xbdd3a665	-0.103344716
219	0xbd9cbab0	-0.07652795
220	0x3d2e450f	0.04254633
221	0x3b0989a3	0.002098658
222	0xbc4b548e	-0.012410296
223	0xbd3025bb	-0.043004733
224	0x3ce19df4	0.027541138
225	0xbd3ca7d9	-0.04605851
226	0xbd13d9c9	-0.036096368
227	0xbd4b71e1	-0.04966915
228	0x3af3f96d	0.0018613763
229	0xbd9932ed	-0.074804164
230	0xbdda23cf	-0.10651361
231	0xbd6227e7	-0.055213835
232	0xbd6f4594	-0.058415964
233	0xbd84435f	-0.064581625
234	0xbd79d317	-0.060992327
235	0x3d89dd3a	0.06731649
236	0xbd48489a	-0.048897363
237	0xbd3fcd40	-0.0468266
238	0xbdb30179	-0.08740515
239	0xbd02eb8e	-0.031962924
240	0x3ca30906	0.019901764
241	0xbe4d78a3	-0.2006555
242	0xbdd919b8	-0.106006086
243	0xbc5915d1	-0.01324983
244	0x3c1128e6	0.008859849
245	0x3c4f27cb	0.012643765
246	0xbc09eaea	-0.008417824
247	0xbddbcf9a	-0.10732956
248	0xbc9dfac9	-0.019284623
249	0xbd810737	-0.06300204
250	0xbe581b6c	-0.2110421
251	0x3d5a89e0	0.053354144
252	0xbded17c3	-0.11576798
253	0xbe0e3be4	-0.13890034
254	0xbdc16e6b	-0.09444889
255	0xbd7bb795	-0.061454374

sequential/dense_1/MatMul f4 [44, 64]
0	0xbd74d4ad	-0.059773136
1	0xbe63d820	-0.22250414
2	0xbe650764	-0.223661
3	0xbf16d4ab	-0.58918256
4	0x3c941dc4	0.0180806
5	0x3e629274	0.2212618
6	0xbd2ac55a	-0.041692115
7	0xbca760d1	-0.020431908
8	0xbe53ecad	-0.20695753
9	0x3d96cb26	0.07362966
10	0xbd07ea6b	-0.033182543
11	0x3d8058f3	0.06266966
12	0xbdd4da88	-0.10393244
13	0xbdf97f00	-0.121824265
14	0x3dab950a	0.08378036
15	0xbef26728	-0.47344327
16	0xbb406464	-0.0029356712
17	0xbd45dedd	-0.048308242
18	0xbe9626ba	-0.2932642
19	0xbc5d4430	-0.013505027
20	0x3cd9b395	0.02657489
21	0xbe55cc09	-0.20878614
22	0xbe951eaa	-0.29124957
23	0xbee72ee1	-0.45152953
24	0x3dd9eeb2	0.10641231
25	0xbe11f94d	-0.14255257
26	0xbe2d5b7c	-0.1692943
27	0xbd9a7ef5	-0.075437464
28	0xbea47e19	-0.32127455
29	0xbe39a584	-0.18129545
30	0xbd826deb	-0.063686214
31	0x3cf758a1	0.030193629
32	0xbc6eba31	-0.014570759
33	0x3c1c3002	0.00953293
34	0x3d8752c7	0.066075854
35	0xbe87a790	-0.26495028
36	0x3e08776d	0.13326807
37	0xbf1e3387	-0.61797374
38	0x3e3267df	0.17422436
39	0x3e3d3571	0.18477418
40	0xbd32ce03	-0.0436535
41	0xbe25dd6b	-0.16197746
42	0xbe00a87f	-0.12564276
43	0x3e5cd746	0.21566495
44	0xbe00fea9	-0.12597145
45	0x3eacf022	0.33776957
46	0xbda9d2ca	-0.08292158
47	0xbe01c408	-0.12672436
48	0xbe304ab1	-0.17215993
49	0xbe18ff8b	-0.14941232
50	0x3e9cba4d	0.30610886
51	0x3d397c44	0.045284525
52	0xbe8fe8b5	-0.2810723
53	0xbe1a7d2d	-0.15086813
54	0xbe3f53e6	-0.18684348
55	0xbe38d35e	-0.1804938
56	0xbdeb80c8	-0.114991724
57	0x3de66ef8	0.11251634
58	0x3d1cd9dd	0.038293708
59	0x3d5adf57	0.05343565
60	0xbd5f6f19	-0.05454931
61	0xbf2f4bd4	-0.6847508
62	0xbf011ddc	-0.50436187
63	0x3d259c7c	0.04043244
64	0xbe1ac543	-0.15114312
65	0xbe41ae5a	-0.18914166
66	0xbe126cc4	-0.14299303
67	0xbddd7d6a	-0.108149365
68	0x3bce6eb9	0.0062998203
69	0xbe63586c	-0.22201699
70	0xbdce4007	-0.10070806
71	0xbe976e6b	-0.2957643
72	0x3e8bdb6d	0.27315846
73	0xbcf83106	-0.030296814
74	0xbebb482b	-0.36578497
75	0xbe40b842	-0.18820289
76	0x3d8ffb76	0.07030384
77	0x3c1a204c	0.009407114
78	0x3e077f7a	0.13232222
79	0xbf14c282	-0.58109295
80	0xbcceb84a	-0.02523436
81	0xbe288da1	-0.16460277
82	0x3bbc1cae	0.0057407236
83	0xbef89078	-0.4854772
84	0xbe10d959	-0.14145412
85	0xbf2d8b49	-0.6779066
86	0x3e848c61	0.2588835
87	0xbf10b43d	-0.5652502
88	0xbe933ba2	-0.28756434
89	0xbd285a2b	-0.041101616
90	0xbc004702	-0.00782943
91	0xbda6ca09	-0.08144004
92	0xbec5f033	-0.3865982
93	0xbe3d1ad9	-0.18467273
94	0x3d5d6e99	0.054060552
95	0xbdcf2e3a	-0.10116239
96	0xbbcc0d01	-0.006227136
97	0xbe71085a	-0.23538342
98	0xbe30509d	-0.17218252
99	0x3ea451d7	0.3209369
100	0xbf271c25	-0.6527732
101	0xbe9626c2	-0.29326445
102	0x3dc05bc2	0.093925014
103	0xbd204a2d	-0.03913324
104	0xbe20cc42	-0.15702918
105	0x3c6721d8	0.01410719
106	0xbe0fbc0c	-0.14036578
107	0x3e08bf11	0.13354136
108	0x3e0bc4a4	0.13649231
109	0xbf1ed5bd	-0.6204489
110	0xbe896528	-0.2683499
111	0xbe937fd3	-0.2880846
112	0x3dd1a6c3	0.102368854
113	0xbe191736	-0.1495026
114	0xbd713dd9	-0.058896873
115	0xbdf46129	-0.11932594
116	0x3e4e0747	0.20119964
117	0xbe96ff9c	-0.2949189
118	0xbce33afb	-0.027738085
119	0x3cc43cd0	0.023954779
120	0xbf9f44ec	-1.2442908
121	0x3e52cc27	0.2058569
122	0xbe52925e	-0.20563647
123	0xbef8ca4e	-0.48591846
124	0xbdfe63fe	-0.12421416
125	0xbe16facb	-0.14744107
126	0xbe8789f2	-0.2647243
127	0x3d12bb99	0.03582344
128	0x3de2fbf2	0.11083211
129	0xbe0ac484	-0.13551527
130	0x3d87de75	0.06634227
131	0xbcd8fa55	-0.026486555
132	0xbe03527f	-0.12824439
133	0xbd4536ec	-0.04814808
134	0xbe524480	-0.20533943
135	0xbe3a1365	-0.18171461
136	0x3e897219	0.26844862
137	0xbe0ea354	-0.13929492
138	0xbf1ffaa5	-0.6249183
139	0xbbe35297	-0.0069373357
140	0xbd55ec47	-0.052227285
141	0xbeac2c74	-0.33627665
142	0xbd68f3b6	-0.056873046
143	0x3d578b2a	0.05262295
144	0xbda8aeb8	-0.0823645
145	0x3e1e9dbe	0.15489861
146	0xbf20ae0e	-0.62765586
147	0xbf075d87	-0.52877086
148	0x3d4d6a02	0.050149925
149	0xbe317031	-0.17327954
150	0xbd0f9e11	-0.035062853
151	0xbefcd21d	-0.49379054
152	0xbe29d9df	-0.16587017
153	0x3d82f04e	0.06393491
154	0x3d8d4ec8	0.06899792
155	0xbeecc9f8	-0.4624784
156	0xbdfe4ca0	-0.12416959
157	0x3cd49cf6	0.025953751
158	0xbe108591	-0.14113452
159	0xbe238a24	-0.15970665
160	0xbf3ef9a2	-0.7459966
161	0xbd591e1f	-0.05300724
162	0x3e0d0a9f	0.13773583
163	0xbc223216	-0.009899637
164	0xbea7874c	-0.3272041
165	0xbec34ebb	-0.38146004
166	0xbf0773bc	-0.5291097
167	0xbe76bd44	-0.24095637
168	0xbd30ed43	-0.04319502
169	0xbcec9521	-0.028879704
170	0xbdd7e8dd	-0.10542462
171	0x3d17bce3	0.03704537
172	0xbe07f184	-0.13275725
173	0xbe0d86b1	-0.13820912
174	0xbcccce93	-0.025000846
175	0xbe474de3	-0.19463305
176	0x3e125b7f	0.14292715
177	0xbf6def0f	-0.929429
178	0x3cca829c	0.024720483
179	0xbec48fd2	-0.38390976
180	0x3caafa21	0.020871224
181	0xbeabc90a	-0.33551818
182	0xbd81a465	-0.06330184
183	0xbd09e634	-0.033666804
184	0xbf96ffbc	-1.1796794
185	0x3d95d51d	0.07316039
186	0xbe109ee5	-0.14123113
187	0xbf366c9e	-0.71259487
188	0x3dd8ac75	0.105797686
189	0xbefc7157	-0.4930522
190	0x3d693155	0.056931812
191	0x3d5330d9	0.051560257
192	0xbd88444b	-0.06653651
193	0xbdccc3db	-0.09998294
194	0xbd8c674e	-0.06855641
195	0xbd58bac5	-0.052912492
196	0x3e0ce9a1	0.13760997
197	0xbfb541f3	-1.4160751
198	0xbf3ee90c	-0.7457435
199	0xbf1d00d2	-0.61329377
200	0xbcbf4c85	-0.023351917
201	0xbddb74ab	-0.10715612
202	0xbf7537f5	-0.9578851
203	0xbeda421b	-0.4262856
204	0x3c5b934b	0.013401817
205	0xbec0ceea	-0.37657863
206	0xbf1b9d82	-0.6078721
207	0x3e77ab15	0.24186356
208	0xbe0ef37f	-0.13960074
209	0xbf4d310d	-0.8015297
210	0x3d160d63	0.03663386
211	0xbe89cef8	-0.26915717
212	0x3e16f2b8	0.14741027
213	0xbf0cc241	-0.5498391
214	0x3ca5a5d1	0.020220669
215	0xbe1c0164	-0.15234905
216	0xbe385626	-0.18001613
217	0xbcee51ba	-0.029091705
218	0x3da54372	0.08069505
219	0xbe3449ab	-0.17606227
220	0xbe55d0d9	-0.2088045
221	0xbd1e4cef	-0.03864759
222	0xbe3a143d	-0.18171783
223	0xbdf5424f	-0.11975538
224	0x3e82e9b1	0.25568917
225	0xbe16b05b	-0.14715712
226	0xbf187900	-0.5955963
227	0x3ea287ee	0.3174433
228	0xbe33b337	-0.17548834
229	0xbd7b90d1	-0.061417405
230	0xbe85bd17	-0.26120827
231	0xbe69fe4d	-0.22850914
232	0xbe3da974	-0.18521672
233	0xbdc13565	-0.09434012
234	0xbca24f5f	-0.019813238
235	0xbf7d2261	-0.98880583
236	0x3d95cac5	0.07314066
237	0xbf3cadcb	-0.7370269
238	0x3d26e7d0	0.040748417
239	0xbcf9f3ae	-0.030511703
240	0x3e2c319e	0.16815802
241	0xbf9863ba	-1.1905434
242	0x3c5b874e	0.013398958
243	0x3defda18	0.1171152
244	0xbe082386	-0.13294801
245	0xbf126043	-0.57178134
246	0x3d19749d	0.037464727
247	0xbd6c454e	-0.05768328
248	0xbe8dffc7	-0.27734205
249	0x3dde1204	0.1084328
250	0xbf1f2ca8	-0.62177515
251	0xbeb16283	-0.3464547
252	0xbd39b581	-0.04533911
253	0x3e9e4629	0.30912903
254	0xbda944a1	-0.08265043
255	0xbe6ca226	-0.2310873
