models/test_model.tflite (tflite, 234596 bytes, 10 tensors)

sequential/lstm/Read_2/ReadVariableOp f4 [256]
000000 bb 1d 33 be 88 de b0 bc 27 cf a2 3c f5 ae 59 3d
       -0.1749181 -0.021590486 0.019874169 0.053145368
000010 5b 03 d4 3d 6e 95 4a bd d6 e2 6b be 5d 12 82 3d
       0.103522025 -0.049458914 -0.2303575 0.06351159
000020 65 ed 13 3b 7f bc 95 3c 75 20 16 3c 7a a8 4e be
       0.0022571918 0.018278359 0.009163012 -0.20181456
000030 2b 93 e5 bc 70 d6 dc bd b3 be 91 3b 35 e1 23 bd
       -0.028024277 -0.10783088 0.004447782 -0.040009696
000040 b7 7c e4 3d c1 07 25 be 75 08 08 3d 5d 8f db 3d
       0.111566 -0.16116239 0.03321119 0.10720704
000050 7b b2 cc 3b ec 98 44 bb 17 07 26 3d 84 11 45 3d
       0.0062468625 -0.0029998375 0.040534105 0.048112407
000060 57 f3 1c 3d 52 7e 0f 3d 3e f6 ec 3d af ec c1 3d
       0.038318004 0.035032578 0.115704045 0.09468972
000070 88 ed 7b 3c c8 18 7e 3b 73 00 42 3e bd fa f9 bc
       0.015376456 0.0038772095 0.18945484 -0.03051507
000080 cc 2a 33 3d d5 d9 d9 bc c5 f9 60 3e 49 ec ea 3c
       0.043741986 -0.026593128 0.2197028 0.028677123
000090 50 4c dd bc 0b 7e 28 3e e6 95 bb 3c 00 ec 89 bb
       -0.027013928 0.16454332 0.022898626 -0.0042090416
0000a0 c0 c4 e8 bd 9b c8 4a bd d4 6a 1d be f5 78 30 3e
       -0.11365652 -0.04950772 -0.15372783 0.17233641
0000b0 47 24 03 3d 6d 52 09 3c b7 f2 c3 bd 36 78 ac 3d
       0.03201702 0.008381468 -0.095677786 0.08421366
0000c0 87 47 df bd 19 6c 1b bd bc 69 37 3c 94 83 7d 3c
       -0.10902315 -0.037944887 0.011194643 0.015473265
0000d0 bb d4 cb 3d e9 e3 aa bc 8c 05 cb bd a2 9f 2a 3e
       0.099526845 -0.02086063 -0.09913167 0.16662458
0000e0 af c9 34 3c be d3 17 be 10 0c 80 3d 25 2f 5d bd
       0.011034413 -0.14826867 0.06252301 -0.05400004
0000f0 6c bf 12 3e e3 59 32 3d e3 90 dd bc 6b 47 f3 3d
       0.14330834 0.043542754 -0.027046626 0.11878856
000100 ca 8e 80 3f 1b 84 86 3f 51 d7 7e 3f 24 05 8e 3f
       1.0043576 1.0509065 0.99547297 1.1095319
000110 d4 9a 9f 3f 24 58 83 3f e7 ba 8b 3f 25 88 8b 3f
       1.2469125 1.0261273 1.0916413 1.0900923
000120 ed 41 80 3f da d8 94 3f f5 eb 96 3f 8e f0 90 3f
       1.0020119 1.1628678 1.1790758 1.1323411
000130 22 23 9f 3f 62 e4 8b 3f d0 b3 8d 3f 4c e7 8c 3f
       1.2432597 1.0929072 1.10705 1.1008086
000140 f4 89 99 3f 4b 67 66 3f 17 c0 85 3f 30 70 8b 3f
       1.1995225 0.9000136 1.0449246 1.0893612
000150 c9 08 99 3f 9c b8 8b 3f eb 20 8e 3f 94 3f 8a 3f
       1.1955806 1.0915713 1.1103796 1.0800653
000160 a3 fc 90 3f 8d 27 95 3f 1c f8 90 3f 78 30 8a 3f
       1.1327099 1.1652695 1.1325717 1.0796041
000170 74 7d 86 3f a6 10 86 3f 82 e3 86 3f 95 78 8c 3f
       1.0507035 1.0473831 1.053818 1.0974299
000180 c4 a0 95 3f 35 04 9a 3f 66 28 99 3f 01 1d 83 3f
       1.1689687 1.2032534 1.1965454 1.0243226
000190 04 cd 98 3f 64 a7 98 3f 64 83 91 3f 22 ee 87 3f
       1.1937566 1.1926084 1.1368222 1.0619547
0001a0 9a 22 7b 3f 23 eb 80 3f 74 f6 93 3f 87 9a 8d 3f
       0.9809967 1.0071758 1.1559587 1.1062783
0001b0 fe e8 91 3f c7 3e 89 3f 6f 16 84 3f 07 8f 87 3f
       1.1399229 1.0722283 1.0319346 1.0590523
0001c0 9c 41 8f 3f 89 1f 87 3f ad de 76 3f 74 5d 97 3f
       1.1191897 1.0556499 0.96433526 1.1825395
0001d0 61 9b 89 3f 77 45 78 3f 1e ad 75 3f c7 44 90 3f
       1.0750543 0.96980995 0.9596728 1.1270989
0001e0 d4 27 8a 3f 49 cb 9c 3f 08 99 88 3f db 3a 6b 3f
       1.0793405 1.2249538 1.0671701 0.9188668
0001f0 0d fb 96 3f 71 b3 84 3f ff 25 83 3f d9 86 91 3f
       1.1795365 1.0367261 1.024597 1.1369277
000200 97 56 d0 bc 2b 43 c0 bc f4 e1 94 bb de 91 86 3d
       -0.025431914 -0.023469528 -0.0045435373 0.06570791
000210 ce e0 e7 3c 2e 65 48 3d bd 0c 4d bd 30 3b 3b bd
       0.028305437 0.048924617 -0.050060976 -0.045710742
000220 95 0e 37 bc e8 32 05 3d 61 18 52 3b 80 6e 03 3e
       -0.01117291 0.03251925 0.0032057988 0.12835121
000230 fa 90 a4 3c 8c 93 a9 3c 1b 03 77 bd b2 61 27 3d
       0.020088661 0.020700239 -0.060305696 0.040864654
000240 9e 63 3b 3a c8 62 2f 3c 32 61 00 bd 63 b9 3a 3d
       0.0007148328 0.010704704 -0.031342693 0.045586955
000250 74 81 35 bd a0 e0 19 bc ee 4c 65 bd bc 2a b7 3c
       -0.04431291 -0.009391934 -0.05598157 0.022359245
000260 2b e9 e1 bd b6 22 01 3d 44 b6 83 bd 0b d0 8f bc
       -0.110308014 0.031527244 -0.06431249 -0.017555257
000270 e8 39 a1 3c 2c 4b 15 3c 1b 8c b3 bc a0 bb 50 b8
       0.019680932 0.009112161 -0.021917393 -4.9765804e-05
000280 8c 2a 0e 3c 42 d9 78 bd 03 47 b7 3c 3a 4c e4 bc
       0.008677136 -0.06075407 0.022372728 -0.027868379
000290 42 4a cc bc f5 82 5b bd 89 02 b5 3d d4 7d cc 3d
       -0.024937753 -0.053591687 0.08838374 0.09984937
0002a0 5e 3e 36 3d 90 50 62 3d 09 f6 8d bd 3d 47 b9 3c
       0.04449307 0.05525261 -0.06931693 0.022616977
0002b0 9d df b2 3c 71 53 87 bc df 2a 15 bd ec 7f 8a 3c
       0.021835143 -0.01651928 -0.03641784 0.016906701
0002c0 a7 9c b1 3c 72 d9 23 bd 02 3d 8b 3c 4c 90 2e 3c
       0.021681143 -0.040002294 0.016996864 0.01065452
0002d0 ae f5 dc 3c 0d 73 60 bc c3 9e c6 3c b2 11 bd 3c
       0.026972618 -0.013699305 0.024245625 0.023079727
0002e0 f5 0e 8e bd 1c 7f 97 bd e8 55 f8 bd a7 9f 90 bc
       -0.069364466 -0.07397291 -0.1212576 -0.017654253
0002f0 10 31 39 3b d5 e4 3c bc 24 1f d5 bc 3b af c0 bd
       0.0028258003 -0.011529167 -0.026015826 -0.094084226
000300 d1 07 bb bc 0b 4c 92 3d 8c 15 20 3d 0f eb 4a 3d
       -0.022830876 0.0714341 0.03908305 0.049540576
000310 fa 06 b1 3d cf d0 42 3d 5c 95 0b 3e 32 ad f0 3d
       0.08643909 0.047562417 0.13631195 0.117517844
000320 34 9f 8e 3d 55 d0 ee 3d bb 30 bb 3d 7d d0 68 3e
       0.06963959 0.1166083 0.09140154 0.22735782
000330 35 42 f7 3d b2 be ba 3d 18 90 05 3e 4c 50 c8 3d
       0.12073175 0.091184035 0.13043249 0.097809404
000340 fe 5a 33 3c 59 76 9e bc 59 2d c4 3d a8 42 ad 3d
       0.010946987 -0.019343542 0.09578962 0.08459979
000350 77 84 14 3e 99 1b 8e 3d ce 9c b6 3d bd f1 06 3d
       0.14503656 0.069388576 0.08916627 0.032945383
000360 17 68 6b 3d e1 11 1b 3e 52 29 1c bd 8c 49 8d 3d
       0.057472315 0.15143539 -0.038125344 0.068987936
000370 33 20 f6 3d ab f9 0a bd 5d a6 c0 3d 9d 00 d9 3c
       0.1201786 -0.03392951 0.09406731 0.02648955
000380 3b 27 2c 3d 7e c2 09 3e 5d 5c 13 3e b9 7d 09 3e
       0.0420296 0.13453099 0.14390703 0.13426866
000390 96 26 27 3e 7d 64 10 3e 32 2a 35 3e 70 99 4c 3d
       0.16323313 0.14100833 0.17691877 0.049951017
0003a0 fc 07 ce 3c 38 51 3a 3d e9 ee d2 3d c6 6b f9 3d
       0.025150292 0.045487612 0.10299475 0.12178759
0003b0 18 45 21 3e 5f 41 dc 3c 95 eb 19 bb ac b1 44 3e
       0.15749013 0.02688664 -0.0023486365 0.19208401
0003c0 4e c7 2c bd ff 2c 81 3d 51 09 03 3b a8 49 2c 3e
       -0.04218226 0.063074104 0.0019994567 0.16824973
0003d0 46 35 d0 bc ee 74 47 3c e7 4b 75 3d a5 ae 35 3d
       -0.025416028 0.012173874 0.05988684 0.044356007
0003e0 5d aa 36 3c e5 af 33 3e e3 6a 01 3e bc 53 71 3c
       0.011149016 0.17547567 0.1263843 0.0147294365
0003f0 15 19 19 3e e6 e5 d3 3d 31 f1 d0 3c 3f a9 73 3d
       0.14950974 0.10346584 0.025505634 0.059487578

sequential/lstm_1/Read_2/ReadVariableOp f4 [256]
000000 aa 9d e5 3c 88 b9 64 bd 86 d0 7e 3c 0c 0e 68 3c
       0.028029282 -0.055841 0.015552646 0.014163505
000010 ab ee 2b bd af 8c 77 3d 83 b3 8d bc cc e8 1f 3e
       -0.04197566 0.0604369 -0.017297512 0.15616149
000020 64 4d 3d 3e 2c 1a e3 3c 08 72 94 bd 94 38 fd bd
       0.18486553 0.02772244 -0.07248312 -0.12364307
000030 1b 4b 90 3e 17 16 f2 3d e0 70 39 be 9b 76 c6 3d
       0.281823 0.118206196 -0.18109465 0.09690591
000040 89 4b 83 bc 2d 1c 06 3d ad 3d c6 3d 9d ac e5 3d
       -0.016027229 0.032741714 0.096797325 0.11214564
000050 e3 42 c4 3d 8e 8d a5 bd a1 85 04 3e 66 e2 8d bd
       0.0958307 -0.0808364 0.129416 -0.06927948
000060 34 b8 56 3e c8 2b 04 3e 63 ff 85 3d bf 9f 99 3a
       0.20968705 0.12907326 0.06542852 0.0011720582
000070 fe b3 6f bc d3 5b a9 3d aa e7 16 3e ae ef 6d 3d
       -0.014630316 0.08269467 0.1473681 0.058089904
000080 a0 ec 41 3e 45 e1 9d 3d 39 30 80 3d 09 6d d6 3d
       0.18937922 0.077089824 0.06259198 0.104700156
000090 3e 2d 28 bd 17 a6 d5 3d 49 0f c0 3d 1a 5b 86 3c
       -0.04105877 0.1043207 0.093779154 0.016400862
0000a0 80 ad 3f 3e 52 53 80 3d 36 f3 10 3e 98 d3 5d 3d
       0.18718529 0.06265892 0.14155278 0.05415687
0000b0 41 c1 ec bc f6 f1 02 3c 45 48 cb 3d a6 7f 54 3b
       -0.028900744 0.007992258 0.09925894 0.0032424717
0000c0 fa b5 41 3d 24 48 03 3d 05 6e 3a 3e 13 e7 50 bb
       0.047292687 0.03205122 0.18206032 -0.0031876012
0000d0 51 70 95 bc 57 6c 0b 3e 3f 59 6d 3d df 95 a5 3d
       -0.018242033 0.13615547 0.05794644 0.08085226
0000e0 1a 24 00 3d 31 c1 11 3e 2d 67 79 3d b8 02 ce bc
       0.03128443 0.14233853 0.06088941 -0.02514778
0000f0 a4 a6 19 bd 93 4a 61 3d 0f 6a d9 3c ae 8d 85 3c
       -0.037512437 0.05500276 0.02653983 0.01630291
000100 7a 27 9d 3f 2c a1 93 3f 40 e6 a1 3f ba fc 92 3f
       1.2277672 1.1533561 1.2648392 1.1483376
000110 40 1e 83 3f 32 db 9b 3f c1 a6 a5 3f 36 d5 b2 3f
       1.0243607 1.2176268 1.2941514 1.3971317
000120 7b 12 97 3f e2 c4 90 3f f1 44 a1 3f a5 51 9b 3f
       1.1802515 1.1310084 1.2599164 1.2134291
000130 ff 63 9d 3f 92 9b 93 3f 55 72 9f 3f 20 50 87 3f
       1.2296141 1.1531851 1.2456766 1.0571327
000140 99 e5 96 3f 6b e9 99 3f 5f 93 a7 3f 83 26 9d 3f
       1.1788818 1.2024359 1.3091849 1.2277378
000150 55 69 9c 3f e2 d9 a0 3f 81 66 8e 3f d3 6b 82 3f
       1.2219645 1.2566493 1.1125032 1.0189155
000160 b2 6e a3 3f 3f 08 a0 3f e4 4e 92 3f 11 88 8d 3f
       1.2768157 1.2502517 1.1430326 1.1057149
000170 e2 bf 9d 3f 98 9e 9c 3f 8e e1 9c 3f ef c4 92 3f
       1.2324183 1.2235899 1.2256334 1.1466349
000180 04 dc a8 3f 3b 2c 8a 3f 5f 30 a4 3f f8 8e ad 3f
       1.3192143 1.0794748 1.2827262 1.3559256
000190 62 cb 92 3f 83 fc 92 3f ba b5 9c 3f bc 32 8e 3f
       1.1468318 1.148331 1.2242959 1.1109233
0001a0 01 3a 9f 3f 5f 71 90 3f 1f 28 a0 3f 92 22 94 3f
       1.2439576 1.1284598 1.2512244 1.157305
0001b0 aa 67 9b 3f 80 6d 9c 3f 1f 1e a4 3f 69 b7 94 3f
       1.2141011 1.2220917 1.2821692 1.1618472
0001c0 d2 c5 93 3f ab 87 a9 3f c3 fb 93 3f 06 0a 8b 3f
       1.1544745 1.3244528 1.1561207 1.0862434
0001d0 a3 82 8c 3f e2 d0 ab 3f 48 8e 92 3f 30 36 a4 3f
       1.0977367 1.3423121 1.1449671 1.2829037
0001e0 40 7c 9d 3f 2f 84 98 3f 16 16 90 3f 55 1e 86 3f
       1.2303543 1.1915339 1.125674 1.0478007
0001f0 23 92 8c 3f 62 e1 a9 3f ba 5e 95 3f 86 42 a5 3f
       1.0982097 1.3271906 1.1669533 1.2910926
000200 47 5b fc bc 9d 36 1a bd 07 0e 91 bd ac 20 23 bd
       -0.030805243 -0.03764974 -0.07082754 -0.03982608
000210 5a 43 a9 bd 70 fe 75 3d 6a a4 10 bd 73 c4 a4 bd
       -0.082647994 0.060057104 -0.035313047 -0.08045282
000220 89 58 7f 3c cd 0c e3 ba 21 08 9c bc f6 a0 7f 3d
       0.015585073 -0.001732254 -0.019046845 0.062409364
000230 6a c6 67 3c 58 c3 78 bd 0a 79 49 bd 3f 0d 95 bd
       0.014146427 -0.06073317 -0.049187697 -0.07277917
000240 71 3c da bb 20 7e 81 3b e8 7f 71 bc 4d ac 21 bb
       -0.006660037 0.003951803 -0.014739968 -0.002466935
000250 5c 89 7b bd 26 44 82 3d df 14 86 bc a9 82 93 bc
       -0.061410293 0.063606545 -0.016367374 -0.01800664
000260 6d 24 1b bd 38 df 3a bd 0a c7 f9 bc ff 24 a4 3c
       -0.037876535 -0.045623034 -0.030490417 0.020037172
000270 5b 65 60 bb 82 c8 31 bd 0d 92 52 bd 61 ed e5 bc
       -0.00342401 -0.04340411 -0.051408816 -0.028067293
000280 a8 d9 e1 3c 5d 37 2c bd d6 e0 35 3c 7e 9d a3 3c
       0.027569607 -0.042044986 0.011100968 0.019972559
000290 b0 63 cd bc cf f0 a5 3b 7b 50 b6 3d 54 75 3e 3d
       -0.025071949 0.005064107 0.08902069 0.04649861
0002a0 a2 a9 fc 3c 4e 07 95 bd b5 20 0a bd b3 53 2e bd
       0.030842606 -0.07276784 -0.033722598 -0.04256029
0002b0 e3 f8 c1 3d 65 0f 3c bd 0e 42 ac 3c 6d 82 f4 3c
       0.094712995 -0.04591312 0.021027591 0.029847348
0002c0 0d c6 04 bc 68 f8 e6 bb fd d2 a0 3d c2 c6 5c bd
       -0.00810386 -0.0070486553 0.07852743 -0.053900488
0002d0 d0 32 73 3c 73 29 04 bc 35 2d 1b 3c 4d a7 ea bc
       0.014843658 -0.008066523 0.009471227 -0.028644228
0002e0 6b e9 37 bd 20 94 a3 3d c2 fb 9e 3d b9 38 84 3d
       -0.04490034 0.07987237 0.07762863 0.064561315
0002f0 ef ef a8 ba 5d 9a f7 bc 47 08 36 bd 57 96 19 ba
       -0.0012888889 -0.030224973 -0.044441488 -0.0005858889
000300 0a 6c bb 3e f5 18 fd 3d e4 77 e9 3e 4e 9d 8e 3e
       0.36605865 0.12358276 0.45599282 0.2785439
000310 ad 8a 31 3e dd 0b 3b 3e 8e 2d 4f 3e f6 9e b6 3e
       0.17338057 0.18266244 0.20232221 0.35668153
000320 52 18 7f 3e 0b 36 49 3e a3 c6 0c 3f ca 1b 06 3f
       0.24911621 0.19649522 0.54990596 0.5238615
000330 fd 7d 87 3e 94 06 85 3e cf 15 11 3e 44 2f 47 3e
       0.2646331 0.2598158 0.14168476 0.19451624
000340 96 9f 44 3e 93 0a af 3e a3 6f 73 3e 97 f4 77 3e
       0.19201502 0.34187755 0.23773055 0.24214397
000350 a1 fd 74 3e a3 97 82 3e f5 b7 23 3e f9 ab 06 3e
       0.23924877 0.25506315 0.15988143 0.1315154
000360 1a 3d a5 3e 8a 7a 03 3f 4a 77 48 3e bc fb 85 3e
       0.3227318 0.51358855 0.19576755 0.2616862
000370 7f f6 16 3e 0f fa cf 3d 93 19 88 3e ba cd c9 3e
       0.14742468 0.10155117 0.26582012 0.3941477
000380 7b f3 15 3e b7 45 9d 3e 10 26 91 3e 30 f8 b5 3e
       0.14643662 0.3071725 0.28349352 0.35540915
000390 5d 2c b3 3e d3 24 69 3e df e6 84 3e a5 b0 4a 3e
       0.34994784 0.22767954 0.2595739 0.19793947
0003a0 40 5a bd 3e a6 2e 67 3e ed 8c 51 3e 0f 84 d9 3e
       0.36982918 0.22576389 0.20463915 0.42483565
0003b0 1c 68 9c 3e be 33 97 3e e2 34 a3 3e d9 f5 22 3e
       0.3054818 0.29531664 0.31876284 0.15914096
0003c0 dd ef 3e 3e 74 19 de 3e aa a5 5a 3e 36 e6 22 3e
       0.18646188 0.43378794 0.21352258 0.15908131
0003d0 ee 55 1d 3e 5a 74 89 3e c1 09 10 3e 2d 82 a7 3e
       0.15364811 0.26846582 0.14066221 0.32716504
0003e0 05 df cd 3e 2f 6d e9 3e 42 06 04 3e cc db 6a 3e
       0.40209213 0.45591113 0.12893012 0.22935408
0003f0 bb 15 c8 3d 40 9f af 3e f9 10 53 3e d2 9f b9 3e
       0.0976977 0.34301186 0.20611943 0.36254746

sequential/dense/BiasAdd/ReadVariableOp f4 [44]
000000 f2 b2 45 3d 01 41 1b 3d 78 87 17 bc 9b e6 e1 bc
       0.04826636 0.03790379 -0.009248607 -0.027575782
000010 7a 0c 84 3d 16 ea 1c bd 79 4c 6c bd 58 75 d1 bc
       0.06447692 -0.03830918 -0.057690118 -0.02556865
000020 40 02 9e 3d 5c d6 d8 bc ca f5 89 bc c4 d4 81 3d
       0.07715273 -0.026469402 -0.016840834 0.0633941
000030 9e 27 19 bd de 7b 27 3c c7 b8 40 bd 9a 45 7f bc
       -0.037391298 0.010222403 -0.047051217 -0.015580559
000040 84 99 76 bc 44 21 41 bb 65 66 57 bd e8 b6 80 3c
       -0.015051249 -0.002946929 -0.052587885 0.015712216
000050 75 3f b7 bd 67 1b 8d bb 67 fc 37 3d 44 02 94 3d
       -0.0894765 -0.004306245 0.044918444 0.07226995
000060 10 a8 83 3d 2c 16 79 bd 7f d3 b5 bb 52 a8 16 be
       0.0642854 -0.06081216 -0.005548894 -0.14712647
000070 9b 84 c5 3d c5 c2 57 be 53 84 bc bc 41 88 0f 3e
       0.09644433 -0.21070392 -0.023012316 0.1401682
000080 ac 02 ac bc 7a 1a 73 bd 81 63 b5 bd 73 d9 a4 bd
       -0.020997368 -0.059351422 -0.088568695 -0.08049288
000090 24 2a af bd 42 b3 96 bc e1 62 74 bc 78 a8 2d bd
       -0.085529596 -0.018396024 -0.014916153 -0.042396992
0000a0 e8 a2 25 3d 21 5a a5 bd e6 fb d8 bd 03 c9 79 bd
       0.040438563 -0.08073831 -0.10594921 -0.060982715

sequential/dense/MatMul f4 [44, 64]
000000 f2 f4 06 3e 52 22 13 bf 64 fc 97 3e ca c2 e5 3e
       0.13179377 -0.57474244 0.29684746 0.44875175
000010 b8 16 d7 3e aa 1e c5 3e f6 5d 2f be 5e 0a a2 3e
       0.4200952 0.38499957 -0.17125687 0.31648535
000020 f4 47 29 bf 20 ef f6 bd 10 82 d4 be 26 01 f1 be
       -0.66125417 -0.12057328 -0.4150548 -0.4707119
000030 0e cf 5a be b0 2a 0b bf e1 66 48 be 6a e0 02 3e
       -0.21368048 -0.5436201 -0.19570495 0.1278092
000040 75 38 17 3f b7 de 9d 3e 6b 15 40 bd 07 26 48 3e
       0.5907052 0.3083398 -0.046895426 0.19545756
000050 94 f5 43 3f 6a f7 ba 3e ad cd 05 bf 93 24 ec 3e
       0.765466 0.36516887 -0.5226696 0.46121654
000060 c7 65 03 3f bd 69 14 bf 97 65 a7 be 6b 88 84 3d
       0.51327175 -0.57973844 -0.32694694 0.06471332
000070 cc 0e c8 be 95 fd bb be 9d 2f 2c be c5 dc e8 3e
       -0.3907379 -0.36716905 -0.16815038 0.45480934
000080 27 16 06 be 6f 4d dc be 1c 06 1f bf a2 6c ee be
       -0.13094388 -0.43027827 -0.621187 -0.46567255
000090 ed fd c2 3e af 1a a4 3e fe 6f 2b be 2b ee 25 bf
       0.38084355 0.32051608 -0.1674194 -0.6481654
0000a0 05 b2 01 3e 11 38 56 be 0c ae 94 be 1d 90 5a 3d
       0.12665565 -0.20919825 -0.29039037 0.053360093
0000b0 91 55 16 3f c4 b6 a7 be 54 20 ca ba 67 39 0e 3f
       0.58724314 -0.32756627 -0.0015421011 0.5555634
0000c0 ce 76 8d 3e e9 b3 05 be 92 0e 34 bd 79 fa 66 be
       0.27629703 -0.13056912 -0.043959208 -0.22556485
0000d0 56 a2 b1 be 94 9a 9f 3e bb f7 35 3f 76 2f 19 3e
       -0.34694165 0.3117262 0.7108113 0.14959511
0000e0 1c f9 e4 be 01 ac 35 3d f0 7a a3 be d4 f5 17 3e
       -0.44721305 0.04435349 -0.3192973 0.1483987
0000f0 a1 7d eb be 09 30 2e 3f ff b6 82 3d 09 7a e4 be
       -0.45994285 0.68042046 0.0638256 -0.44624355
000100 8d 3b 96 bd 19 79 a1 bc 04 cc b8 3e 3d 0f ab bd
       -0.07335577 -0.019711064 0.36093152 -0.08352516
000110 c4 0d 70 be 71 22 82 3c 97 17 3f be a5 13 92 bd
       -0.23442751 0.015885564 -0.18661343 -0.07132653
000120 28 48 0c 3e cf d8 ab 3e c1 f3 cf 3d fb 44 aa 3d
       0.136994 0.3356385 0.10153914 0.08313938
000130 18 00 7d 3e ca 99 19 3e 29 35 b4 be 39 4f 88 be
       0.24707067 0.15000072 -0.35196808 -0.26622942
000140 48 63 67 be e5 28 f8 be 44 cd 6e be f2 ce f7 3d
       -0.22596467 -0.484687 -0.2332049 0.121000186
000150 c1 2d 97 bd 28 ac d1 3e 85 b1 aa be f9 cc 67 3e
       -0.07381774 0.40951657 -0.33338562 0.22636785
000160 6a b8 ac be b1 68 a2 3d 5d 5c 3a 3e 0e f2 61 3e
       -0.33734447 0.079301246 0.18199296 0.22064993
000170 29 60 07 3e eb b9 98 3e 7e c5 ca 3e e6 43 9e 3d
       0.13220276 0.29829344 0.396038 0.07727794
000180 7c e0 96 be 86 65 5f 3c 5c 5b 47 bd f1 13 84 3d
       -0.29468143 0.013635045 -0.04867111 0.06449116
000190 ae 81 87 bb 19 f3 13 3e 47 8f 92 be ea 75 d6 3d
       -0.004135332 0.14448203 -0.28624937 0.10471709
0001a0 13 86 82 be 8f 7b 57 3e 06 12 0a 3e 31 c0 c6 3e
       -0.25492916 0.21043228 0.13483438 0.38818505
0001b0 e0 42 a4 be a2 96 97 3e 5e a7 4b be e1 d5 87 3e
       -0.32082272 0.2960711 -0.19888064 0.26530364
0001c0 de c9 66 3c e0 35 d2 3e 26 1e 38 be f0 b0 66 3e
       0.014086215 0.41056728 -0.1798025 0.22528434
0001d0 1e 51 49 3e c5 3d 4f be be 72 b4 be 0d 1a ce bd
       0.1965985 -0.20238407 -0.3524379 -0.100635625
0001e0 ba 4d 93 3e b9 aa 1f 3e e0 9f a3 be ec 2b a5 3e
       0.28770238 0.1559247 -0.31957912 0.32260072
0001f0 e1 9d e5 3e 04 90 cd 3c c1 6f 9f 3d 45 66 ac 3d
       0.44847015 0.025093086 0.07784987 0.08417944
000200 99 8a 24 be ea 0b a5 3d 5f db d1 be c3 e2 b8 be
       -0.16068496 0.08058913 -0.4098768 -0.36110505
000210 fb 95 0e 3e 7e d5 19 bd 2a 9c 32 be db b1 20 3e
       0.139244 -0.037557118 -0.17442384 0.15692846
000220 4a 60 8e 3d 19 14 b1 bd ba 4d 93 3e 81 70 67 3d
       0.069519594 -0.086464114 0.28770238 0.056503776
000230 81 10 fe 3c 15 a2 b7 3e e3 57 29 3e 13 e8 20 3e
       0.031013729 0.35865846 0.16537432 0.1571353
000240 8b 54 3c bd 83 db 0d 3e 0e 1f 92 be 99 56 b1 3e
       -0.045979064 0.13853268 -0.28539318 0.3463638
000250 c4 6e ae be 06 23 10 bf 65 b9 b0 be 46 4a 9b 3c
       -0.34068882 -0.5630344 -0.34516445 0.018956315
000260 b3 ec 8a be 55 9c 81 3e 42 20 28 3e a7 b0 92 3d
       -0.27133712 0.25314584 0.16418555 0.071626
000270 fe f6 a7 bd 32 5e f2 bc 2e bb af 3e 5a e0 fd 3c
       -0.08201407 -0.029585931 0.34322494 0.030990768
000280 29 d3 b8 be 2b 7a cd bd be c2 3b 3e 4a 4c 7c 3e
       -0.36098602 -0.10033067 0.18336007 0.24638477
000290 97 0a 67 3d 60 af fd 3e bd 40 54 be fc 1e a3 3e
       0.056406584 0.49547863 -0.2072782 0.31859577
0002a0 30 46 a6 bd ea 19 00 be 99 f6 90 bd 4c e2 c9 be
       -0.08118856 -0.12509885 -0.07078285 -0.39430463
0002b0 07 c0 94 be 85 45 65 bb 47 22 9a bc b8 06 25 3e
       -0.29052755 -0.0034984064 -0.018815173 0.16115844
0002c0 91 ac 77 3d 74 8d a3 bc 67 e4 04 3e 67 30 45 3e
       0.060467307 -0.019964911 0.12977754 0.19256745
0002d0 9b 66 93 3e a2 ba 0f 3e 45 62 80 be 47 26 9c be
       0.2878922 0.14036039 -0.25074974 -0.30497953
0002e0 8f 00 7d 3e 34 03 2a bd 35 52 b1 bb 6a db 4d be
       0.24707244 -0.04150696 -0.005411411 -0.20103231
0002f0 b6 f4 96 3e 07 e4 51 bd 3f ea 1f be ba ec 7f 3e
       0.29483575 -0.051242854 -0.15616702 0.24992648
000300 80 6a 7f be a7 e1 ad 3e b8 d8 49 be be c3 4b be
       -0.2494297 0.33961222 -0.19711578 -0.19898888
000310 fd 2b 49 3f 9d 4d 3c be c6 f2 ad be 3f 1c 65 be
       0.78582746 -0.18388982 -0.33974284 -0.22374056
000320 5b ca 8a 3d 5c 7f b9 3d 18 f2 ba 3e db 40 ae 3e
       0.067768775 0.09057495 0.36512828 0.34033856
000330 d6 55 2d 3e 94 3a aa 3c 89 f7 cb 3d 37 57 3b be
       0.16927275 0.020779885 0.09959323 -0.18294989
000340 e3 19 f1 3e 2c 3b 9a be d4 aa 95 3e aa 59 f0 3d
       0.47090062 -0.3012327 0.29231894 0.11735852
000350 ce e1 96 be c2 9b 97 be c9 4e 81 be 84 10 a7 3d
       -0.2946915 -0.2961102 -0.2525542 0.08157447
000360 72 1e 72 be a2 df 27 bd 9a 24 c2 3e 7e c9 07 3e
       -0.23644426 -0.040984757 0.3791855 0.13260457
000370 03 d6 64 be 9d 9b b8 3e e0 06 8f bd 0f c5 8a bd
       -0.22347264 0.36056224 -0.06983733 -0.06775867
000380 ee 9e 80 be 54 3c c7 be e7 09 9b 3e bb ce 52 3e
       -0.25121254 -0.38913214 0.30280992 0.20586674
000390 76 16 20 be ed 0a 32 be be 13 b2 3d 13 8c 96 bd
       -0.15633568 -0.1738698 0.08695172 -0.07350936
0003a0 f9 76 5d be 2a bd ec 3e 06 06 87 be ae 20 88 bd
       -0.21627416 0.4623807 -0.26371783 -0.06646858
0003b0 20 c0 e4 3d 83 6f 98 3e 79 df ce bd 24 0e 06 3e
       0.111694574 0.29772577 -0.10101218 0.13091332
0003c0 03 a1 a3 bd df ca c4 3e 24 26 df 3c 7b 60 63 3e
       -0.07989695 0.38436028 0.027239867 0.22204773
0003d0 92 1d c6 be 47 91 9c be 30 df 09 3e a9 d0 ca be
       -0.38694435 -0.30579588 0.13464046 -0.3961232
0003e0 d5 77 d5 bd 2b 58 d4 3d c2 6b 57 be da 3a 7b be
       -0.10423247 0.10368379 -0.210372 -0.24534169
0003f0 96 2d 79 3d 76 4e bf bc 64 5f 81 3e 9f c4 c6 bd
       0.06083449 -0.023352843 0.2526809 -0.09705471

sequential/lstm/Read_2/ReadVariableOp1 f4 [256]
000000 bb 1d 33 be 88 de b0 bc 27 cf a2 3c f5 ae 59 3d
       -0.1749181 -0.021590486 0.019874169 0.053145368
000010 5b 03 d4 3d 6e 95 4a bd d6 e2 6b be 5d 12 82 3d
       0.103522025 -0.049458914 -0.2303575 0.06351159
000020 65 ed 13 3b 7f bc 95 3c 75 20 16 3c 7a a8 4e be
       0.0022571918 0.018278359 0.009163012 -0.20181456
000030 2b 93 e5 bc 70 d6 dc bd b3 be 91 3b 35 e1 23 bd
       -0.028024277 -0.10783088 0.004447782 -0.040009696
000040 b7 7c e4 3d c1 07 25 be 75 08 08 3d 5d 8f db 3d
       0.111566 -0.16116239 0.03321119 0.10720704
000050 7b b2 cc 3b ec 98 44 bb 17 07 26 3d 84 11 45 3d
       0.0062468625 -0.0029998375 0.040534105 0.048112407
000060 57 f3 1c 3d 52 7e 0f 3d 3e f6 ec 3d af ec c1 3d
       0.038318004 0.035032578 0.115704045 0.09468972
000070 88 ed 7b 3c c8 18 7e 3b 73 00 42 3e bd fa f9 bc
       0.015376456 0.0038772095 0.18945484 -0.03051507
000080 cc 2a 33 3d d5 d9 d9 bc c5 f9 60 3e 49 ec ea 3c
       0.043741986 -0.026593128 0.2197028 0.028677123
000090 50 4c dd bc 0b 7e 28 3e e6 95 bb 3c 00 ec 89 bb
       -0.027013928 0.16454332 0.022898626 -0.0042090416
0000a0 c0 c4 e8 bd 9b c8 4a bd d4 6a 1d be f5 78 30 3e
       -0.11365652 -0.04950772 -0.15372783 0.17233641
0000b0 47 24 03 3d 6d 52 09 3c b7 f2 c3 bd 36 78 ac 3d
       0.03201702 0.008381468 -0.095677786 0.08421366
0000c0 87 47 df bd 19 6c 1b bd bc 69 37 3c 94 83 7d 3c
       -0.10902315 -0.037944887 0.011194643 0.015473265
0000d0 bb d4 cb 3d e9 e3 aa bc 8c 05 cb bd a2 9f 2a 3e
       0.099526845 -0.02086063 -0.09913167 0.16662458
0000e0 af c9 34 3c be d3 17 be 10 0c 80 3d 25 2f 5d bd
       0.011034413 -0.14826867 0.06252301 -0.05400004
0000f0 6c bf 12 3e e3 59 32 3d e3 90 dd bc 6b 47 f3 3d
       0.14330834 0.043542754 -0.027046626 0.11878856
000100 ca 8e 80 3f 1b 84 86 3f 51 d7 7e 3f 24 05 8e 3f
       1.0043576 1.0509065 0.99547297 1.1095319
000110 d4 9a 9f 3f 24 58 83 3f e7 ba 8b 3f 25 88 8b 3f
       1.2469125 1.0261273 1.0916413 1.0900923
000120 ed 41 80 3f da d8 94 3f f5 eb 96 3f 8e f0 90 3f
       1.0020119 1.1628678 1.1790758 1.1323411
000130 22 23 9f 3f 62 e4 8b 3f d0 b3 8d 3f 4c e7 8c 3f
       1.2432597 1.0929072 1.10705 1.1008086
000140 f4 89 99 3f 4b 67 66 3f 17 c0 85 3f 30 70 8b 3f
       1.1995225 0.9000136 1.0449246 1.0893612
000150 c9 08 99 3f 9c b8 8b 3f eb 20 8e 3f 94 3f 8a 3f
       1.1955806 1.0915713 1.1103796 1.0800653
000160 a3 fc 90 3f 8d 27 95 3f 1c f8 90 3f 78 30 8a 3f
       1.1327099 1.1652695 1.1325717 1.0796041
000170 74 7d 86 3f a6 10 86 3f 82 e3 86 3f 95 78 8c 3f
       1.0507035 1.0473831 1.053818 1.0974299
000180 c4 a0 95 3f 35 04 9a 3f 66 28 99 3f 01 1d 83 3f
       1.1689687 1.2032534 1.1965454 1.0243226
000190 04 cd 98 3f 64 a7 98 3f 64 83 91 3f 22 ee 87 3f
       1.1937566 1.1926084 1.1368222 1.0619547
0001a0 9a 22 7b 3f 23 eb 80 3f 74 f6 93 3f 87 9a 8d 3f
       0.9809967 1.0071758 1.1559587 1.1062783
0001b0 fe e8 91 3f c7 3e 89 3f 6f 16 84 3f 07 8f 87 3f
       1.1399229 1.0722283 1.0319346 1.0590523
0001c0 9c 41 8f 3f 89 1f 87 3f ad de 76 3f 74 5d 97 3f
       1.1191897 1.0556499 0.96433526 1.1825395
0001d0 61 9b 89 3f 77 45 78 3f 1e ad 75 3f c7 44 90 3f
       1.0750543 0.96980995 0.9596728 1.1270989
0001e0 d4 27 8a 3f 49 cb 9c 3f 08 99 88 3f db 3a 6b 3f
       1.0793405 1.2249538 1.0671701 0.9188668
0001f0 0d fb 96 3f 71 b3 84 3f ff 25 83 3f d9 86 91 3f
       1.1795365 1.0367261 1.024597 1.1369277
000200 97 56 d0 bc 2b 43 c0 bc f4 e1 94 bb de 91 86 3d
       -0.025431914 -0.023469528 -0.0045435373 0.06570791
000210 ce e0 e7 3c 2e 65 48 3d bd 0c 4d bd 30 3b 3b bd
       0.028305437 0.048924617 -0.050060976 -0.045710742
000220 95 0e 37 bc e8 32 05 3d 61 18 52 3b 80 6e 03 3e
       -0.01117291 0.03251925 0.0032057988 0.12835121
000230 fa 90 a4 3c 8c 93 a9 3c 1b 03 77 bd b2 61 27 3d
       0.020088661 0.020700239 -0.060305696 0.040864654
000240 9e 63 3b 3a c8 62 2f 3c 32 61 00 bd 63 b9 3a 3d
       0.0007148328 0.010704704 -0.031342693 0.045586955
000250 74 81 35 bd a0 e0 19 bc ee 4c 65 bd bc 2a b7 3c
       -0.04431291 -0.009391934 -0.05598157 0.022359245
000260 2b e9 e1 bd b6 22 01 3d 44 b6 83 bd 0b d0 8f bc
       -0.110308014 0.031527244 -0.06431249 -0.017555257
000270 e8 39 a1 3c 2c 4b 15 3c 1b 8c b3 bc a0 bb 50 b8
       0.019680932 0.009112161 -0.021917393 -4.9765804e-05
000280 8c 2a 0e 3c 42 d9 78 bd 03 47 b7 3c 3a 4c e4 bc
       0.008677136 -0.06075407 0.022372728 -0.027868379
000290 42 4a cc bc f5 82 5b bd 89 02 b5 3d d4 7d cc 3d
       -0.024937753 -0.053591687 0.08838374 0.09984937
0002a0 5e 3e 36 3d 90 50 62 3d 09 f6 8d bd 3d 47 b9 3c
       0.04449307 0.05525261 -0.06931693 0.022616977
0002b0 9d df b2 3c 71 53 87 bc df 2a 15 bd ec 7f 8a 3c
       0.021835143 -0.01651928 -0.03641784 0.016906701
0002c0 a7 9c b1 3c 72 d9 23 bd 02 3d 8b 3c 4c 90 2e 3c
       0.021681143 -0.040002294 0.016996864 0.01065452
0002d0 ae f5 dc 3c 0d 73 60 bc c3 9e c6 3c b2 11 bd 3c
       0.026972618 -0.013699305 0.024245625 0.023079727
0002e0 f5 0e 8e bd 1c 7f 97 bd e8 55 f8 bd a7 9f 90 bc
       -0.069364466 -0.07397291 -0.1212576 -0.017654253
0002f0 10 31 39 3b d5 e4 3c bc 24 1f d5 bc 3b af c0 bd
       0.0028258003 -0.011529167 -0.026015826 -0.094084226
000300 d1 07 bb bc 0b 4c 92 3d 8c 15 20 3d 0f eb 4a 3d
       -0.022830876 0.0714341 0.03908305 0.049540576
000310 fa 06 b1 3d cf d0 42 3d 5c 95 0b 3e 32 ad f0 3d
       0.08643909 0.047562417 0.13631195 0.117517844
000320 34 9f 8e 3d 55 d0 ee 3d bb 30 bb 3d 7d d0 68 3e
       0.06963959 0.1166083 0.09140154 0.22735782
000330 35 42 f7 3d b2 be ba 3d 18 90 05 3e 4c 50 c8 3d
       0.12073175 0.091184035 0.13043249 0.097809404
000340 fe 5a 33 3c 59 76 9e bc 59 2d c4 3d a8 42 ad 3d
       0.010946987 -0.019343542 0.09578962 0.08459979
000350 77 84 14 3e 99 1b 8e 3d ce 9c b6 3d bd f1 06 3d
       0.14503656 0.069388576 0.08916627 0.032945383
000360 17 68 6b 3d e1 11 1b 3e 52 29 1c bd 8c 49 8d 3d
       0.057472315 0.15143539 -0.038125344 0.068987936
000370 33 20 f6 3d ab f9 0a bd 5d a6 c0 3d 9d 00 d9 3c
       0.1201786 -0.03392951 0.09406731 0.02648955
000380 3b 27 2c 3d 7e c2 09 3e 5d 5c 13 3e b9 7d 09 3e
       0.0420296 0.13453099 0.14390703 0.13426866
000390 96 26 27 3e 7d 64 10 3e 32 2a 35 3e 70 99 4c 3d
       0.16323313 0.14100833 0.17691877 0.049951017
0003a0 fc 07 ce 3c 38 51 3a 3d e9 ee d2 3d c6 6b f9 3d
       0.025150292 0.045487612 0.10299475 0.12178759
0003b0 18 45 21 3e 5f 41 dc 3c 95 eb 19 bb ac b1 44 3e
       0.15749013 0.02688664 -0.0023486365 0.19208401
0003c0 4e c7 2c bd ff 2c 81 3d 51 09 03 3b a8 49 2c 3e
       -0.04218226 0.063074104 0.0019994567 0.16824973
0003d0 46 35 d0 bc ee 74 47 3c e7 4b 75 3d a5 ae 35 3d
       -0.025416028 0.012173874 0.05988684 0.044356007
0003e0 5d aa 36 3c e5 af 33 3e e3 6a 01 3e bc 53 71 3c
       0.011149016 0.17547567 0.1263843 0.0147294365
0003f0 15 19 19 3e e6 e5 d3 3d 31 f1 d0 3c 3f a9 73 3d
       0.14950974 0.10346584 0.025505634 0.059487578

while/MatMul_11 f4 [256, 64]
000000 56 12 76 be d4 40 c0 bd e5 45 9d 3c 52 63 16 3d
       -0.24030432 -0.09387365 0.019198367 0.036715813
000010 b0 1a ea bd ae f9 e9 bd d5 65 d5 3d 86 cf 9e 3b
       -0.114308715 -0.11424576 0.104198135 0.004846516
000020 c4 46 da bd a8 56 70 bd be 1f 9d 3d eb d9 0d bd
       -0.10658029 -0.05867639 0.0767207 -0.03463165
000030 c8 f8 f6 3d f5 08 6f 3d c7 96 b0 3d a6 a2 1f 3e
       0.1205917 0.05835815 0.086225085 0.15589389
000040 89 01 cb 3d 8f 16 aa 3c ed 0a 33 bd 33 a4 b2 bc
       0.09912402 0.02076271 -0.04371159 -0.021806812
000050 6e 98 94 3e 88 73 8d bd 9b 87 72 3e 42 82 6b 3d
       0.29022545 -0.069068015 0.23684542 0.05749727
000060 43 79 8f 3d ac ac e9 bd 27 b5 98 3e 56 52 a0 ba
       0.07005551 -0.11409888 0.29825708 -0.0012231569
000070 39 b4 85 bd 28 18 11 3e 03 23 94 be 26 83 52 3d
       -0.06528515 0.14169371 -0.28932962 0.051394604
000080 4e 71 e0 bd fa eb ce 3d ce 77 11 3e a6 2c b6 3d
       -0.10959111 0.10103603 0.14205858 0.08895235
000090 68 80 83 bd 56 db be bc 47 8a 0b be 65 83 61 be
       -0.06420976 -0.023297947 -0.13626967 -0.2202278
0000a0 1f 49 1a 3e 3b f5 a8 3c 2e 96 c8 3d 34 44 3a be
       0.15066956 0.020624747 0.097942695 -0.1819008
0000b0 19 12 47 3e b6 b2 c8 bd 05 f7 40 bd c8 2d d5 bd
       0.19440497 -0.097997114 -0.047110576 -0.10409123
0000c0 9a 4b fb bd 86 d7 dd 3d fc 09 b7 3d d6 02 45 bd
       -0.12270279 0.108321235 0.08937451 -0.048098408
0000d0 e6 f4 ba b8 41 4e 7c bd 90 ef 8c bd ca fc 0b 3e
       -8.914787e-05 -0.061598066 -0.068816304 0.1367065
0000e0 34 65 28 3e 08 5e 3a be cc c9 c1 3e b0 ce 59 3c
       0.16444856 -0.18199933 0.3784927 0.013293907
0000f0 81 df 89 be a5 ed 60 3e 95 2e 90 bd 7f 7a 8e 3e
       -0.26928332 0.21965654 -0.07040135 0.27827832
000100 5e 77 4f be 65 76 a3 3d 7a 7d 7d 3d d4 11 3c be
       -0.20260379 0.07981566 0.061887242 -0.18366176
000110 35 b3 a6 3d 35 c3 a6 3d 93 f5 1a be a6 c8 4c be
       0.0813965 0.081427015 -0.15132742 -0.19998416
000120 78 46 ed bc 51 3d 9d 3d 13 87 99 be 8c da a5 3c
       -0.028964266 0.07677711 -0.29985866 0.020245813
000130 33 92 9a be 36 84 9e 3e 1e f7 b1 bd 4d 57 e0 bd
       -0.30189666 0.30960244 -0.08689712 -0.10954151
000140 c6 1c 0f bd 4d 1f 26 be fd 4b 2d be 6f 56 57 3e
       -0.03493955 -0.16222878 -0.16923518 0.21029066
000150 b9 26 d2 3c 2e e0 b8 bd cd 71 27 be 8d 91 9a 3b
       0.02565323 -0.09027134 -0.16352005 0.004717058
000160 91 38 20 3c 53 2e 07 bd c0 b2 1a be 23 fd 01 3c
       0.0097791115 -0.033003163 -0.1510725 0.007933888
000170 90 dc d0 3d 7c 3f 9a be 52 ee 73 3e 5c 3f 6c 3b
       0.10198319 -0.3012656 0.2382138 0.0036048507
000180 5a f4 f8 bd 09 c3 96 3d 40 31 a1 3d 5e 13 f4 bd
       -0.12155981 0.07361419 0.07870722 -0.119177565
000190 b3 4f cd 3e 1e 3d c9 bd 00 ae 49 bd a9 b5 37 bc
       0.40099868 -0.0982611 -0.049238205 -0.011212745
0001a0 ec 55 5b be ce a4 fb 3c 6a 01 03 be 87 96 a7 bd
       -0.21419495 0.030718233 -0.12793508 -0.08183008
0001b0 ac 2d ed 3d e1 09 14 be fb f7 42 3e c7 8e 4c bd
       0.11580977 -0.14456894 0.1903991 -0.04994085
0001c0 58 7e c1 bc 1c f1 84 bc a1 d7 84 3c ba 25 90 3d
       -0.023619816 -0.016228251 0.016216101 0.07038446
0001d0 aa ad 48 3e 09 4b f4 3d 81 37 ce 3c 42 b8 58 bc
       0.19597498 0.11928374 0.02517295 -0.013227524
0001e0 32 76 2d 3e b0 94 93 bd a8 69 09 bd 48 fa e6 3d
       0.16939619 -0.07206094 -0.033548027 0.11278206
0001f0 25 21 8c 3e ee b5 7b be be a9 58 3e 1d 72 94 bd
       0.27369037 -0.2458112 0.21158502 -0.07248328
000200 66 b3 de bd 5b 19 45 be 51 fc 20 bd e1 90 a6 bd
       -0.10874061 -0.19247954 -0.039303128 -0.08133102
000210 ca 36 e4 3b 89 d9 03 be c6 e1 94 bd e7 25 1e bc
       0.006964539 -0.12875952 -0.07269625 -0.009652591
000220 71 cd ab bc 08 17 fd bd 86 4f 1b bd c0 4c c9 bd
       -0.020971986 -0.123579085 -0.037917636 -0.09829092
000230 87 55 e1 3c 16 d0 1b 3c 9e 9d 11 3e 25 d4 00 be
       0.027506603 0.009510061 0.14220282 -0.12580927
000240 4d 45 07 bd 6d 45 c9 3d a2 df 00 3e 7d a1 eb bc
       -0.033025075 0.09827695 0.12585309 -0.028763527
000250 74 d2 d9 3d c1 66 32 3e ff 13 3e bd 28 14 6b be
       0.10635844 0.1742201 -0.04640579 -0.22956908
000260 68 eb 9b bd 8f be 80 be 17 3c d5 bd 2f d5 dd 3b
       -0.076132596 -0.25145385 -0.10411852 0.006769798
000270 fa 33 77 3d c5 98 05 3c a7 e0 83 3c d3 0f 0d 3e
       0.060352303 0.008154099 0.016098334 0.13775568
000280 03 f5 4a 3d 7e b5 24 bd 6b 88 34 3e a7 19 e0 3d
       0.049550068 -0.040212147 0.17630164 0.10942393
000290 b0 c1 c3 bd 74 82 0e 3e 40 41 ba 3c 25 96 89 bd
       -0.09558427 0.13916951 0.022736192 -0.06718091
0002a0 7a 1f 3a 3d a0 e6 7a bd 79 43 4d 3d f2 91 92 bd
       0.045440175 -0.061255097 0.050113175 -0.07156743
0002b0 28 79 af be 2b 2f e2 3d 36 3e 08 be d5 a9 d4 bd
       -0.34272122 0.11044153 -0.13304982 -0.103839554
0002c0 1b ab 92 3d 56 61 65 bc 63 6d 31 be af 4f 43 bb
       0.07161542 -0.0140002575 -0.17326884 -0.0029802134
0002d0 69 69 f7 3b 58 db 5e 3e 5d be bd bd 91 a9 df bd
       0.0075504077 0.2176336 -0.092648245 -0.10921014
0002e0 ef c4 b8 3b f7 fb f4 3d c2 e9 26 bd 2b fd 96 3c
       0.0056387107 0.11962121 -0.040750273 0.018431267
0002f0 a4 a4 18 be 75 9c 15 bc 4a a1 e7 bd 14 9c 9c bb
       -0.14906555 -0.009131541 -0.1131006 -0.004779348
000300 38 81 67 be 4a 5f 25 3e 8d 98 3a 3b ba 84 14 3e
       -0.22607887 0.16149631 0.0028472275 0.14503756
000310 23 22 63 3e 18 49 2e 3c b1 ec 60 be 36 7b 5b 3d
       0.22180991 0.010637544 -0.2196529 0.0535843
000320 58 a4 11 3e 2d 82 32 3e dd a8 38 3d a1 38 cc 3d
       0.14222848 0.1743247 0.045082916 0.099717386
000330 6f a3 97 bd 1f 3c 40 3d fe ce c2 bd 83 9d d5 3c
       -0.07404219 0.046932336 -0.09512137 0.026076084
000340 74 f4 c9 3d ce da 42 3c 9b b0 58 3e e6 86 05 3d
       0.09861079 0.011892987 0.2116112 0.032599352
000350 0f b6 72 3d 52 d8 3c 3e 50 99 2e 3d 2e fb 0b be
       0.059255656 0.18441895 0.04262668 -0.13670036
000360 4e c7 25 3d 78 eb 9b bd 72 5a ba bc 29 25 cc bd
       0.040473275 -0.076132715 -0.022748206 -0.09968025
000370 37 dc 61 be d9 3b 32 be 82 b3 e1 bd ad 84 1f 3d
       -0.22056662 -0.17405643 -0.110205665 0.03894489
000380 41 51 2f 3e 6c eb 77 3d 74 68 1e bc 38 44 40 be
       0.1712084 0.06052725 -0.009668458 -0.18776023
000390 d1 94 0e be 76 17 58 3d 89 44 aa 39 05 c8 58 bc
       -0.13923956 0.05275675 0.0003247599 -0.013231282
0003a0 27 50 90 bd 48 cf b1 3d 1f a1 2a 3d b9 03 80 bc
       -0.07046538 0.08682114 0.041657563 -0.015626775
0003b0 fb 21 89 3e 0f 62 99 bc 6b 24 7e 3d 79 2d 8d 3e
       0.26783738 -0.018723516 0.06204645 0.27573755
0003c0 d5 56 66 be 5c c6 79 bb 51 9b 8b 3d 30 bb 83 bc
       -0.22494061 -0.0038112616 0.06816734 -0.016080469
0003d0 f8 47 08 be c4 49 e4 bd b5 3f 62 bd af cd bc bd
       -0.13308704 -0.11146882 -0.055236537 -0.092189185
0003e0 f7 50 54 3e cc 79 f1 bd d2 90 84 3d 69 c1 36 be
       0.2073401 -0.11790809 0.06472935 -0.17847218
0003f0 9d 45 dc 3d 71 f7 41 3d 53 12 21 be ed 19 8f bd
       0.10755465 0.04735512 -0.15729646 -0.06987367

while/MatMul f4 [256, 6]
000000 29 e3 e6 be 6c d4 9b 3c 3d 3d 1e be 6f 86 38 3e
       -0.45095184 0.01902219 -0.15453048 0.18020032
000010 e8 aa 0e 3d 4c 96 9a bd 6f d7 bb bd 2d 2f c1 3d
       0.034830958 -0.07548198 -0.0917195 0.09432826
000020 40 04 83 3d 8c 3d 16 3b 9f 09 9a 3d 18 dc 8a be
       0.06397295 0.0022924868 0.07521366 -0.27121043
000030 97 42 af 3d b0 67 f4 3d 57 28 b8 be 74 f8 cd bd
       0.08557623 0.11933839 -0.35968277 -0.10057154
000040 26 b1 0b be 5f 60 92 3d 44 c1 8c be 79 17 d8 3d
       -0.13641796 0.071472876 -0.274912 0.10551352
000050 7d e9 9e 3e 74 5d 54 bc 62 8b b5 bd 39 7b 15 3e
       0.31037512 -0.012961734 -0.08864476 0.14597787
000060 a0 76 d6 3c 51 8e 2f bd 0c 44 37 3e 27 40 01 3e
       0.026179612 -0.042860333 0.17897052 0.12622128
000070 e6 ce e1 bd 0d a4 30 3d e9 7b 32 be 1b f5 18 3e
       -0.11025791 0.0431252 -0.1743008 0.1493725
000080 7f f4 ff bc 43 36 b2 3d 36 f2 28 be 3e 81 1c 3e
       -0.031244515 0.08701756 -0.16498646 0.15283677
000090 1f 0c 29 bd 1f 64 82 3e c9 6d a3 3e 93 35 2c 3e
       -0.041271325 0.2546701 0.31919697 0.16817312
0000a0 91 17 83 be cf d7 ff be a9 ed 08 bd c0 b2 a6 bd
       -0.25603917 -0.49969336 -0.033429775 -0.081395626
0000b0 fa 0d 31 3b 2e 80 b6 3c ec 50 a2 3e fc 3b 39 3d
       0.0027016387 0.022277918 0.31702363 0.04522322
0000c0 4c 43 2a 3d 47 0a f6 3d 4a aa 4a 3d d5 d8 03 bd
       0.041568086 0.12013679 0.049478807 -0.03218921
0000d0 4d ef b9 bc 9e 94 e3 3d 24 4f 96 3c 51 1a 41 bd
       -0.022697115 0.11112331 0.018348284 -0.047144238
0000e0 41 ed c4 bd 84 ec 77 bd 65 33 c8 bd 80 96 84 3e
       -0.09615565 -0.060528293 -0.09775428 0.25896072
0000f0 65 6b bc bd 02 11 e3 39 d7 99 09 3e 64 82 57 bd
       -0.092001714 0.00043309486 0.13437591 -0.052614585
000100 23 4b ba 3d 74 a1 76 be f6 c3 81 3e ab 75 e0 3d
       0.090963624 -0.24085027 0.2534482 0.109599434
000110 e4 98 b2 bd b1 59 42 3e b1 43 c2 be 12 0a df 3e
       -0.08720568 0.18979527 -0.3794227 0.4356237
000120 83 fa 82 3d cf 4a fe bd 8a ee ae 3e 70 cd 53 bd
       0.063954376 -0.12416612 0.34166366 -0.051709592
000130 98 50 dd bd 53 62 93 be c8 b4 ab be 3e 42 d7 3d
       -0.10806388 -0.28785953 -0.33536363 0.105106816
000140 c8 da 43 bb 14 75 08 3e 6a e8 cc 3d 1f f4 20 be
       -0.0029885042 0.13325912 0.10005267 -0.15718125
000150 1d c9 e0 3c 1b f8 85 3e 6f 9f 86 3e cd bc b0 3d
       0.027439648 0.26165852 0.26293513 0.08629761
000160 4e 22 bb bd ee 58 56 3e 57 58 a8 bd 01 f4 a1 bd
       -0.091374025 0.20932361 -0.082199745 -0.07907868
000170 42 27 05 3d 26 99 c2 3d 96 fa 34 be 9e 3f 63 be
       0.032508142 0.09501867 -0.17673716 -0.22192237
000180 74 55 cb 3d 4e ad 40 3e e6 c9 4e bc 75 c5 15 3e
       0.09928408 0.1881611 -0.0126213785 0.14626105
000190 37 75 cb 3d 1f 32 50 bc a3 68 8c 3d f7 8d 52 bd
       0.09934466 -0.012707262 0.06855895 -0.05140492
0001a0 33 42 4a be 25 73 d3 3d ae 9a 44 be bd 40 6a bd
       -0.19751815 0.103246965 -0.1919963 -0.057190645
0001b0 12 04 fd bd 40 50 df 3d 9e 0c 33 3e 4f 0b 56 3e
       -0.12354292 0.10903978 0.17485282 0.20902751
0001c0 e3 b7 43 be 88 e5 00 3d e7 8e 00 3e a7 b0 f7 bd
       -0.19113116 0.031468898 0.12554513 -0.12094241
0001d0 8d 03 96 3d 99 ba ea bc 1a e7 79 3d 5a 22 d0 3d
       0.07324896 -0.02865343 0.06101141 0.10162802
0001e0 53 c7 69 3d a5 2d 71 3d ed 33 29 bd 7c d3 2f 3e
       0.057074856 0.05888142 -0.041309286 0.17170519
0001f0 f5 aa 3f be cf 10 50 3e c9 4b 9c bc c1 ce 77 bc
       -0.18717559 0.20318912 -0.019079106 -0.015124978
000200 2d e5 ed ba 41 3a ba 3d a6 17 b6 3d 34 1e 1f 3e
       -0.0018149965 0.09093142 0.08891229 0.15538865
000210 b5 6a b1 3d c5 dc ef bc df fb 87 bc f5 25 0c be
       0.08662931 -0.029280076 -0.016599594 -0.13686354
000220 0d 1b 8b bd 41 b2 78 3e 26 4f 91 3e 35 c4 a2 bd
       -0.06792269 0.24286748 0.28380698 -0.0794758
000230 a2 c7 68 3e 8c 10 f2 3d 46 08 fa 3d 27 40 72 bd
       0.22732404 0.11819562 0.12208609 -0.05914321
000240 5e 68 80 3e f7 05 84 be 78 11 2b 3d e1 e2 3e bd
       0.25079626 -0.257858 0.041764706 -0.046603087
000250 5b af af 3d f1 0a a4 be 52 ea 45 3e 78 d1 cd bd
       0.08578368 -0.32039598 0.19327667 -0.100497186
000260 1d 8f 4d be 7e 3d 35 3d 32 50 67 bd 80 fb e7 3d
       -0.20074125 0.044248097 -0.056472965 0.11327267
000270 52 ec 2b 3d 11 b6 ba bd 5e ad 84 bd dc 9b 11 be
       0.04197342 -0.09116758 -0.0647838 -0.14219612
000280 5a 57 03 3e 21 8a 66 bd d0 97 ca be ee 1f 24 be
       0.1282629 -0.056284074 -0.3956895 -0.16027805
000290 78 69 ec bd 00 44 0a be f9 49 5d bc 24 77 44 be
       -0.11543554 -0.13502502 -0.013506406 -0.19186074
0002a0 14 79 ee 3e 5a 24 64 3c 96 e4 b9 bd 8d 1f d1 3d
       0.4657675 0.0139246825 -0.090768024 0.10211096
0002b0 12 c6 7e bc 45 ff 38 be 92 45 5c be 9b 4f c5 bd
       -0.015550153 -0.18066128 -0.21510914 -0.09634324
0002c0 90 46 3f be 13 90 b1 3d 4a a3 56 3e f8 45 8e bd
       -0.18679261 0.08670058 0.20960727 -0.06946939
0002d0 4c df 08 be 34 c0 16 be fb ba cb be 6a 5c 8b bd
       -0.13366431 -0.14721757 -0.39791092 -0.06804736
0002e0 bb 81 7d bd 5a a4 30 bd 23 62 98 3d c2 3d ac 3d
       -0.0618913 -0.043125488 0.07440593 0.08410217
0002f0 cb a2 44 3e cb d8 c8 3b ac bb 87 bd 27 dd c6 3e
       0.19202726 0.0061293594 -0.066275924 0.388406
000300 7b 8e e5 bd 13 b2 8b 3e 55 3b a0 bd 32 89 82 3e
       -0.112088166 0.27284297 -0.07823817 0.25495297
000310 e8 06 61 3e 8c 36 a4 3d 96 44 2f be 32 77 49 be
       0.21975291 0.080182165 -0.17116007 -0.19674376
000320 19 db c4 bd 29 1d 9c 3d b3 f4 85 be 31 3c 69 3e
       -0.09612102 0.07622749 -0.26163253 0.22776867
000330 6f 06 a4 bd f4 e4 8a bd d0 7b e0 bd 87 9f 23 be
       -0.080090396 -0.067819506 -0.10961115 -0.15978824
000340 fb e6 23 3c 98 47 df 3a 70 d0 51 be e0 2a f4 3d
       0.0100038005 0.0017034886 -0.20489669 0.1192224
000350 37 4c 1c be 43 95 7c bd 4e 0f 83 be 67 e7 79 be
       -0.15263449 -0.061665785 -0.25597614 -0.24404679
000360 70 80 be 3d be 5e 7e bd db 4b cf 3d 64 08 df bd
       0.09301841 -0.062102072 0.1012189 -0.10890272
000370 0c 1f 28 3c 36 6d a4 3e 06 35 20 3e 1d 5a 1b 3d
       0.010261308 0.3211457 0.15645227 0.037927736
000380 42 d3 2f be f3 88 ee 3d d6 ae b0 bd 8a a7 67 be
       -0.17170432 0.11647215 -0.08627097 -0.22622505
000390 f9 c6 1c be 8f 4d c2 3c 3f 7c a2 be fe 1a 4a 3d
       -0.15310277 0.023718623 -0.31735417 0.049342148
0003a0 7c 5e 69 be 28 bc 83 3d cd 92 36 be 7d 31 b8 3d
       -0.22789949 0.06432372 -0.17829438 0.08993814
0003b0 9b 7f 04 3e 0d f0 7e 3e 4e 7b 0e bd fb 98 e6 bc
       0.12939303 0.2489626 -0.03478556 -0.028149119
0003c0 eb a4 2c 3e 58 9d 88 bd 2d d7 19 3e 0d d9 31 be
       0.16859786 -0.06670636 0.1502349 -0.17367955
0003d0 85 90 81 3e ac f0 ba 3d d3 09 25 be 8d f3 55 3d
       0.25305572 0.09127936 -0.16117029 0.05223422
0003e0 cc 0a 3a 3d ed 09 27 bd 0f 3d 3a 3d 67 c6 a5 3e
       0.045420453 -0.04078095 0.045468386 0.3237793
0003f0 d9 dc 40 3e e3 3b 03 3d 6c 92 dc bd 86 b2 bb 3e
       0.18834247 0.032039534 -0.10770115 0.3665964

sequential/lstm_1/Read_2/ReadVariableOp1 f4 [256]
000000 aa 9d e5 3c 88 b9 64 bd 86 d0 7e 3c 0c 0e 68 3c
       0.028029282 -0.055841 0.015552646 0.014163505
000010 ab ee 2b bd af 8c 77 3d 83 b3 8d bc cc e8 1f 3e
       -0.04197566 0.0604369 -0.017297512 0.15616149
000020 64 4d 3d 3e 2c 1a e3 3c 08 72 94 bd 94 38 fd bd
       0.18486553 0.02772244 -0.07248312 -0.12364307
000030 1b 4b 90 3e 17 16 f2 3d e0 70 39 be 9b 76 c6 3d
       0.281823 0.118206196 -0.18109465 0.09690591
000040 89 4b 83 bc 2d 1c 06 3d ad 3d c6 3d 9d ac e5 3d
       -0.016027229 0.032741714 0.096797325 0.11214564
000050 e3 42 c4 3d 8e 8d a5 bd a1 85 04 3e 66 e2 8d bd
       0.0958307 -0.0808364 0.129416 -0.06927948
000060 34 b8 56 3e c8 2b 04 3e 63 ff 85 3d bf 9f 99 3a
       0.20968705 0.12907326 0.06542852 0.0011720582
000070 fe b3 6f bc d3 5b a9 3d aa e7 16 3e ae ef 6d 3d
       -0.014630316 0.08269467 0.1473681 0.058089904
000080 a0 ec 41 3e 45 e1 9d 3d 39 30 80 3d 09 6d d6 3d
       0.18937922 0.077089824 0.06259198 0.104700156
000090 3e 2d 28 bd 17 a6 d5 3d 49 0f c0 3d 1a 5b 86 3c
       -0.04105877 0.1043207 0.093779154 0.016400862
0000a0 80 ad 3f 3e 52 53 80 3d 36 f3 10 3e 98 d3 5d 3d
       0.18718529 0.06265892 0.14155278 0.05415687
0000b0 41 c1 ec bc f6 f1 02 3c 45 48 cb 3d a6 7f 54 3b
       -0.028900744 0.007992258 0.09925894 0.0032424717
0000c0 fa b5 41 3d 24 48 03 3d 05 6e 3a 3e 13 e7 50 bb
       0.047292687 0.03205122 0.18206032 -0.0031876012
0000d0 51 70 95 bc 57 6c 0b 3e 3f 59 6d 3d df 95 a5 3d
       -0.018242033 0.13615547 0.05794644 0.08085226
0000e0 1a 24 00 3d 31 c1 11 3e 2d 67 79 3d b8 02 ce bc
       0.03128443 0.14233853 0.06088941 -0.02514778
0000f0 a4 a6 19 bd 93 4a 61 3d 0f 6a d9 3c ae 8d 85 3c
       -0.037512437 0.05500276 0.02653983 0.01630291
000100 7a 27 9d 3f 2c a1 93 3f 40 e6 a1 3f ba fc 92 3f
       1.2277672 1.1533561 1.2648392 1.1483376
000110 40 1e 83 3f 32 db 9b 3f c1 a6 a5 3f 36 d5 b2 3f
       1.0243607 1.2176268 1.2941514 1.3971317
000120 7b 12 97 3f e2 c4 90 3f f1 44 a1 3f a5 51 9b 3f
       1.1802515 1.1310084 1.2599164 1.2134291
000130 ff 63 9d 3f 92 9b 93 3f 55 72 9f 3f 20 50 87 3f
       1.2296141 1.1531851 1.2456766 1.0571327
000140 99 e5 96 3f 6b e9 99 3f 5f 93 a7 3f 83 26 9d 3f
       1.1788818 1.2024359 1.3091849 1.2277378
000150 55 69 9c 3f e2 d9 a0 3f 81 66 8e 3f d3 6b 82 3f
       1.2219645 1.2566493 1.1125032 1.0189155
000160 b2 6e a3 3f 3f 08 a0 3f e4 4e 92 3f 11 88 8d 3f
       1.2768157 1.2502517 1.1430326 1.1057149
000170 e2 bf 9d 3f 98 9e 9c 3f 8e e1 9c 3f ef c4 92 3f
       1.2324183 1.2235899 1.2256334 1.1466349
000180 04 dc a8 3f 3b 2c 8a 3f 5f 30 a4 3f f8 8e ad 3f
       1.3192143 1.0794748 1.2827262 1.3559256
000190 62 cb 92 3f 83 fc 92 3f ba b5 9c 3f bc 32 8e 3f
       1.1468318 1.148331 1.2242959 1.1109233
0001a0 01 3a 9f 3f 5f 71 90 3f 1f 28 a0 3f 92 22 94 3f
       1.2439576 1.1284598 1.2512244 1.157305
0001b0 aa 67 9b 3f 80 6d 9c 3f 1f 1e a4 3f 69 b7 94 3f
       1.2141011 1.2220917 1.2821692 1.1618472
0001c0 d2 c5 93 3f ab 87 a9 3f c3 fb 93 3f 06 0a 8b 3f
       1.1544745 1.3244528 1.1561207 1.0862434
0001d0 a3 82 8c 3f e2 d0 ab 3f 48 8e 92 3f 30 36 a4 3f
       1.0977367 1.3423121 1.1449671 1.2829037
0001e0 40 7c 9d 3f 2f 84 98 3f 16 16 90 3f 55 1e 86 3f
       1.2303543 1.1915339 1.125674 1.0478007
0001f0 23 92 8c 3f 62 e1 a9 3f ba 5e 95 3f 86 42 a5 3f
       1.0982097 1.3271906 1.1669533 1.2910926
000200 47 5b fc bc 9d 36 1a bd 07 0e 91 bd ac 20 23 bd
       -0.030805243 -0.03764974 -0.07082754 -0.03982608
000210 5a 43 a9 bd 70 fe 75 3d 6a a4 10 bd 73 c4 a4 bd
       -0.082647994 0.060057104 -0.035313047 -0.08045282
000220 89 58 7f 3c cd 0c e3 ba 21 08 9c bc f6 a0 7f 3d
       0.015585073 -0.001732254 -0.019046845 0.062409364
000230 6a c6 67 3c 58 c3 78 bd 0a 79 49 bd 3f 0d 95 bd
       0.014146427 -0.06073317 -0.049187697 -0.07277917
000240 71 3c da bb 20 7e 81 3b e8 7f 71 bc 4d ac 21 bb
       -0.006660037 0.003951803 -0.014739968 -0.002466935
000250 5c 89 7b bd 26 44 82 3d df 14 86 bc a9 82 93 bc
       -0.061410293 0.063606545 -0.016367374 -0.01800664
000260 6d 24 1b bd 38 df 3a bd 0a c7 f9 bc ff 24 a4 3c
       -0.037876535 -0.045623034 -0.030490417 0.020037172
000270 5b 65 60 bb 82 c8 31 bd 0d 92 52 bd 61 ed e5 bc
       -0.00342401 -0.04340411 -0.051408816 -0.028067293
000280 a8 d9 e1 3c 5d 37 2c bd d6 e0 35 3c 7e 9d a3 3c
       0.027569607 -0.042044986 0.011100968 0.019972559
000290 b0 63 cd bc cf f0 a5 3b 7b 50 b6 3d 54 75 3e 3d
       -0.025071949 0.005064107 0.08902069 0.04649861
0002a0 a2 a9 fc 3c 4e 07 95 bd b5 20 0a bd b3 53 2e bd
       0.030842606 -0.07276784 -0.033722598 -0.04256029
0002b0 e3 f8 c1 3d 65 0f 3c bd 0e 42 ac 3c 6d 82 f4 3c
       0.094712995 -0.04591312 0.021027591 0.029847348
0002c0 0d c6 04 bc 68 f8 e6 bb fd d2 a0 3d c2 c6 5c bd
       -0.00810386 -0.0070486553 0.07852743 -0.053900488
0002d0 d0 32 73 3c 73 29 04 bc 35 2d 1b 3c 4d a7 ea bc
       0.014843658 -0.008066523 0.009471227 -0.028644228
0002e0 6b e9 37 bd 20 94 a3 3d c2 fb 9e 3d b9 38 84 3d
       -0.04490034 0.07987237 0.07762863 0.064561315
0002f0 ef ef a8 ba 5d 9a f7 bc 47 08 36 bd 57 96 19 ba
       -0.0012888889 -0.030224973 -0.044441488 -0.0005858889
000300 0a 6c bb 3e f5 18 fd 3d e4 77 e9 3e 4e 9d 8e 3e
       0.36605865 0.12358276 0.45599282 0.2785439
000310 ad 8a 31 3e dd 0b 3b 3e 8e 2d 4f 3e f6 9e b6 3e
       0.17338057 0.18266244 0.20232221 0.35668153
000320 52 18 7f 3e 0b 36 49 3e a3 c6 0c 3f ca 1b 06 3f
       0.24911621 0.19649522 0.54990596 0.5238615
000330 fd 7d 87 3e 94 06 85 3e cf 15 11 3e 44 2f 47 3e
       0.2646331 0.2598158 0.14168476 0.19451624
000340 96 9f 44 3e 93 0a af 3e a3 6f 73 3e 97 f4 77 3e
       0.19201502 0.34187755 0.23773055 0.24214397
000350 a1 fd 74 3e a3 97 82 3e f5 b7 23 3e f9 ab 06 3e
       0.23924877 0.25506315 0.15988143 0.1315154
000360 1a 3d a5 3e 8a 7a 03 3f 4a 77 48 3e bc fb 85 3e
       0.3227318 0.51358855 0.19576755 0.2616862
000370 7f f6 16 3e 0f fa cf 3d 93 19 88 3e ba cd c9 3e
       0.14742468 0.10155117 0.26582012 0.3941477
000380 7b f3 15 3e b7 45 9d 3e 10 26 91 3e 30 f8 b5 3e
       0.14643662 0.3071725 0.28349352 0.35540915
000390 5d 2c b3 3e d3 24 69 3e df e6 84 3e a5 b0 4a 3e
       0.34994784 0.22767954 0.2595739 0.19793947
0003a0 40 5a bd 3e a6 2e 67 3e ed 8c 51 3e 0f 84 d9 3e
       0.36982918 0.22576389 0.20463915 0.42483565
0003b0 1c 68 9c 3e be 33 97 3e e2 34 a3 3e d9 f5 22 3e
       0.3054818 0.29531664 0.31876284 0.15914096
0003c0 dd ef 3e 3e 74 19 de 3e aa a5 5a 3e 36 e6 22 3e
       0.18646188 0.43378794 0.21352258 0.15908131
0003d0 ee 55 1d 3e 5a 74 89 3e c1 09 10 3e 2d 82 a7 3e
       0.15364811 0.26846582 0.14066221 0.32716504
0003e0 05 df cd 3e 2f 6d e9 3e 42 06 04 3e cc db 6a 3e
       0.40209213 0.45591113 0.12893012 0.22935408
0003f0 bb 15 c8 3d 40 9f af 3e f9 10 53 3e d2 9f b9 3e
       0.0976977 0.34301186 0.20611943 0.36254746
